models/model_1726485528200/model.pth (torch, 227178 bytes, 14 tensors)

conv_layers.0.0.conv.weight f4 [16, 10, 3, 3]
0.3614295 0.36385337 0.36082476 0.34822932 0.37191617 0.35565594 0.3545714 0.35819423
0.35094312 0.22772723 0.2132018 0.22594345 0.23833796 0.23435143 0.23360904 0.23884349
0.23605408 0.23099165 0.17753494 0.18004604 0.17116447 0.18110234 0.17978469 0.17810863
0.17766903 0.18002667 0.17743614 0.1780822 0.17226839 0.16767363 0.18227217 0.17459205
0.17780355 0.18338363 0.17923012 0.17328317 0.20228802 0.20078553 0.19750951 0.20296718
0.19166917 0.19570193 0.19986588 0.20380598 0.17709167 0.37391144 0.37553003 0.3639813
0.3675409 0.37493348 0.36937556 0.36193874 0.3729434 0.3709299 -0.2521097 -0.2659634
-0.26911247 -0.27201793 -0.26789004 -0.26965392 -0.27081263 -0.27328944 -0.27062085 -0.27147868
-0.25271747 -0.26454625 -0.27030322 -0.26900762 -0.27102655 -0.2777216 -0.2759283 -0.2728467
0.17302331 0.16269608 0.16093355 0.18107492 0.18808584 0.17939739 0.19366139 0.194513
0.18141852 -0.012074107 0.005955128 -0.0041133347 -0.006212265 0.0023204205 -0.0057270173 0.0011211515
-0.00075856864 0.0016506707 0.3622603 0.35832903 0.35422683 0.35329834 0.35862666 0.36360788
0.36122403 0.3565466 0.35924104 0.19589733 0.19999442 0.19787744 0.20250504 0.20300972
0.20849554 0.20620537 0.19076349 0.21006228 0.1750877 0.17014137 0.17064637 0.17181143
0.17343876 0.16525282 0.170606 0.17153047 0.17097238 0.16310628 0.16769853 0.15979834
0.17094257 0.17035338 0.16762266 0.17747241 0.17553055 0.1708316 0.16795295 0.17316984
0.16886607 0.17341164 0.17417829 0.16633502 0.17201997 0.17361721 0.1662251 0.36167976
0.35981745 0.35679618 0.36076903 0.36489204 0.36204934 0.36381927 0.3658234 0.35649064
-0.21833272 -0.21770078 -0.20654051 -0.21647127 -0.21339741 -0.21637098 -0.2149458 -0.21747689
-0.2074129 -0.20877676 -0.21099836 -0.20823424 -0.20316747 -0.20922615 -0.19838162 -0.20264614
-0.20685905 -0.20440535 0.1048826 0.108235694 0.09987157 0.12677939 0.12871744 0.1235358
0.15591481 0.15094489 0.14337896 0.0065011582 0.014476271 0.015355844 0.014296241 0.022125227
0.013111246 0.005034276 0.014643706 0.01641997 0.3444358 0.35393128 0.3599351 0.35088527
0.35506698 0.3522925 0.35607752 0.3521492 0.34822068 0.1884093 0.21223703 0.21078311
0.2137981 0.19690254 0.212501 0.21882814 0.21426004 0.22623248 0.18629089 0.17885597
0.17251709 0.17904764 0.17994067 0.183095 0.17688723 0.17845926 0.17644358 0.18630348
0.1686507 0.15146023 0.1836073 0.1867339 0.18197092 0.19110529 0.1918178 0.18116292
0.20555817 0.19964041 0.20076805 0.20536174 0.20289333 0.19132726 0.1970451 0.19912091
0.2012561 0.36138883 0.36333832 0.33750662 0.35732105 0.35908592 0.348559 0.35364166
0.35577598 0.34524637 -0.26186025 -0.2562234 -0.25865665 -0.2579541 -0.25477183 -0.2579721
-0.26293853 -0.25711146 -0.2585783 -0.2612619 -0.25444797 -0.24033593 -0.23055433 -0.24894528
-0.24719055 -0.256242 -0.2592098 -0.25345364 0.11579259 0.111048356 0.11331516 0.13648017
00000000: 4a0d b93e fd4a ba3e 06be b83e 1d4b b23e
00000010: cc6b be3e 8918 b63e 628a b53e 3c65 b73e
00000020: d1ae b33e 5431 693e 9351 5a3e b85d 673e
00000030: de0e 743e d2f9 6f3e 3537 6f3e 6393 743e
00000040: 29b8 713e 1389 6c3e b8cb 353e fd5d 383e
00000050: bd45 2f3e e472 393e 7a19 383e 1c62 363e
00000060: dfee 353e e958 383e d2b1 353e 2e5b 363e
00000070: 2067 303e a3b2 2b3e 8ea5 3a3e 42c8 323e
00000080: 2212 363e ebc8 3b3e 1a88 373e 2571 313e
00000090: 9724 4f3e b99a 4d3e ef3f 4a3e a1d6 4f3e
000000a0: ec44 443e 1666 483e a4a9 4c3e 84b2 503e
000000b0: 8557 353e 5271 bf3e 7945 c03e c25b ba3e
000000c0: 522e bc3e 48f7 bf3e cb1e bd3e 0950 b93e
000000d0: 70f2 be3e 86ea bd3e 8614 81be 5b2c 88be
000000e0: 1cc9 89be ef45 8bbe e228 89be 1410 8abe
000000f0: f4a7 8abe 98ec 8bbe d18e 8abe 41ff 8abe
00000100: 2f64 81be 9b72 87be 2f65 8abe 5ebb 89be
00000110: fec3 8abe 8731 8ebe 7946 8dbe 90b2 8bbe
00000120: 062d 313e cd99 263e c4cb 243e b46b 393e
00000130: 9399 403e f3b3 373e 2c4f 463e 6a2e 473e
00000140: c7c5 393e 7ad2 45bc 3c23 c33b 27c9 86bb
00000150: 4290 cbbb 3212 183b b4a9 bbbb 9af3 923a
00000160: aeda 46ba 515b d83a 2f7a b93e e776 b73e
00000170: 385d b53e 85e3 b43e ea9d b73e d02a ba3e
00000180: 5bf2 b83e 478d b63e 71ee b73e 4f99 483e
00000190: 56cb 4c3e 62a0 4a3e 7b5d 4f3e c8e1 4f3e
000001a0: db7f 553e 8027 533e 8157 433e 911a 573e
000001b0: 314a 333e 8a39 2e3e ecbd 2e3e 56ef 2f3e
000001c0: ee99 313e 0938 293e 57b3 2e3e afa5 2f3e
000001d0: 6213 2f3e 5505 273e 2ab9 2b3e 2da2 233e
000001e0: 920b 2f3e 1e71 2e3e 46a5 2b3e 54bb 353e
000001f0: 48be 333e 7bee 2e3e dcfb 2b3e 6f53 313e
00000200: 3aeb 2c3e d292 313e cb5b 323e ba53 2a3e
00000210: 0126 303e b6c8 313e ea36 2a3e 172e b93e
00000220: fe39 b83e fdad b63e b8b6 b83e 21d3 ba3e
00000230: 885e b93e 8546 ba3e 344d bb3e f185 b63e
00000240: 9d92 5fbe f4ec 5ebe 5b7f 53be a5aa 5dbe
00000250: da84 5abe 5b90 5dbe c01a 5cbe 43b2 5ebe
00000260: 0c64 54be 93c9 55be f40f 58be 5b3b 55be
00000270: 220b 50be 613f 56be 8d24 4bbe 7882 4fbe
00000280: dcd2 53be a34f 51be b0cc d63d adaa dd3d
00000290: 7789 cc3d 75d2 013e 81ce 033e 5600 fd3d
000002a0: 22a8 1f3e 4c91 1a3e efd1 123e ab07 d53b
000002b0: e22d 6d3c 1497 7b3c c83a 6a3c f73f b53c
000002c0: 8dd0 563c 91f6 a43b 28ec 6f3c 2c83 863c
000002d0: e459 b03e 7b36 b53e 6a49 b83e 3ca7 b33e
000002e0: 57cb b53e af5f b43e cb4f b63e e64c b43e
000002f0: fb49 b23e 5eee 403e aa54 593e 87d7 573e
00000300: e4ed 5a3e d2a0 493e dd99 593e 7c14 603e
00000310: fc66 5b3e 7da9 673e 0ac3 3e3e 0526 373e
00000320: 52a8 303e 4458 373e 5e42 383e 417d 3b3e
00000330: ed21 353e 06be 363e a0ad 343e 57c6 3e3e
00000340: c5b2 2c3e 6418 1b3e 8d03 3c3e 2c37 3f3e
00000350: 9656 3a3e 1bb1 433e e36b 443e c682 393e
00000360: d77d 523e 896e 4c3e 2496 4d3e 594a 523e
00000370: 45c3 4f3e 4beb 433e 31c6 493e 5ae6 4b3e
00000380: 1416 4e3e f507 b93e 7b07 ba3e abcd ac3e
00000390: c9f2 b63e 1cda b73e 5376 b23e 8510 b53e
000003a0: 4528 b63e 22c4 b03e 8c12 86be b72f 83be
000003b0: a56e 84be 8f12 84be 7471 82be eb14 84be
000003c0: e19f 86be 1da4 83be 6064 84be 1fc4 85be
000003d0: 0147 82be 9f1a 76be 6f16 6cbe 83eb 7ebe
000003e0: 851f 7dbe 2732 83be 26b7 84be adc4 81be
000003f0: aa24 ed3d 526d e33d c711 e83d 75c1 0b3e

conv_layers.0.0.conv.bias f4 [16]
0.030647444 0.13960558 0.117459916 0.059533183 -0.062980555 0.058773115 -0.03395512 0.059586447
-0.0071035544 0.13879728 0.05588294 -0.009672649 0.0749422 0.089773655 0.13371189 -0.01416645
00000000: 5910 fb3c c4f4 0e3e d38e f03d 11d9 733d
00000010: f3fb 80bd 14bc 703d 8614 0bbd eb10 743d
00000020: efc4 e8bb e020 0e3e 82e5 643d 087a 1ebc
00000030: 4c7b 993d 40db b73d c5eb 083e 661a 68bc

conv_layers.2.0.conv.weight f4 [32, 16, 3, 3]
-0.2001218 -0.20175512 -0.20008695 -0.20016555 -0.20165053 -0.20264988 -0.20382428 -0.20827651
-0.20871308 -0.19003862 -0.19749378 -0.19387358 -0.1830764 -0.18989639 -0.20734428 -0.19651328
-0.18705076 -0.18938012 -0.18824336 -0.18762408 -0.19350703 -0.19032525 -0.18209861 -0.1932555
-0.18443353 -0.18186745 -0.191097 -0.19592267 -0.19657192 -0.19340785 -0.19761401 -0.19660982
-0.19664092 -0.19734485 -0.19372444 -0.19727948 0.15650155 0.15309286 0.15394987 0.16077869
0.15604983 0.15976188 0.16034111 0.15694065 0.15760113 -0.20619273 -0.20632756 -0.20066239
-0.20489621 -0.20434888 -0.20527482 -0.20751905 -0.2094796 -0.20715173 0.13650772 0.13367392
0.1351697 0.13992564 0.135729 0.13942266 0.13910654 0.13513924 0.13810506 -0.20638593
-0.20336945 -0.19875951 -0.20708868 -0.20398797 -0.2025646 -0.20974576 -0.20734344 -0.20596424
0.128988 0.11775734 0.09601315 0.13304915 0.12927231 0.11618246 0.10902291 0.110389166
0.12612517 -0.18652281 -0.1776545 -0.19677392 -0.21103 -0.20118956 -0.18678457 -0.19420771
-0.2033906 -0.1788322 -0.21098097 -0.20994872 -0.20990956 -0.20760998 -0.21148606 -0.21436498
-0.21175076 -0.21287477 -0.21572353 0.11577337 0.12887143 0.11852204 0.14343119 0.1292354
0.13541818 0.120569 0.11453199 0.11833362 -0.19807245 -0.19867694 -0.19895984 -0.19605544
-0.19937415 -0.20030344 -0.19905987 -0.20010531 -0.20008506 -0.20552196 -0.20573297 -0.20447412
-0.20428993 -0.20030975 -0.20159365 -0.20590252 -0.20416833 -0.20415758 -0.1945072 -0.19118598
-0.19731241 -0.18084656 -0.19503182 -0.19470051 -0.19226074 -0.18766576 -0.18523672 0.11987927
0.12183895 0.119445756 0.11858151 0.122884765 0.11773436 0.1258369 0.11934811 0.121363625
0.2022351 0.1957965 0.18992427 0.20431969 0.20277339 0.20090508 0.20285054 0.20422098
0.20110404 0.18741786 0.2064671 0.18922694 0.2034106 0.18711229 0.18230134 0.18561344
0.17751738 0.19813739 0.1982372 0.20003329 0.19734451 0.20649755 0.20981388 0.20352848
0.20054182 0.20102051 0.19901852 0.21289247 0.20732705 0.2062834 0.21750215 0.21078594
0.20981765 0.21450655 0.21590598 0.21307871 -0.20024033 -0.20893186 -0.20803218 -0.20513465
-0.21199122 -0.20997483 -0.1948609 -0.20144437 -0.20064633 0.2015875 0.20141342 0.19712862
0.20596437 0.20013241 0.20469652 0.20481847 0.20524143 0.2032224 -0.18514983 -0.18550141
-0.18950191 -0.18728228 -0.19127044 -0.1938887 -0.17878138 -0.18438554 -0.18326089 0.21140987
0.2121704 0.20389555 0.21301746 0.21319617 0.2083082 0.21065548 0.21274148 0.20864159
-0.15989903 -0.16648759 -0.14649315 -0.1371586 -0.13641767 -0.13926452 -0.1325549 -0.13041072
-0.14009862 0.21141903 0.18500246 0.18351023 0.21518205 0.19214799 0.20026276 0.18269368
0.20174146 0.1906136 0.20565124 0.2033316 0.19644323 0.20668215 0.20487614 0.19934247
0.20602289 0.20672163 0.2016534 -0.15941672 -0.14717932 -0.1482773 -0.1570492 -0.1592735
-0.17556988 -0.12669227 -0.14826524 -0.13240059 0.20652807 0.20389242 0.19620004 0.20516622
00000000: bbec 4cbe e598 4ebe 98e3 4cbe 33f8 4cbe
00000010: 7a7d 4ebe 7383 4fbe 50b7 50be 7046 55be
00000020: e2b8 55be 7c99 42be cf3b 4abe cc86 46be
00000030: 6178 3bbe 3374 42be 0f52 54be c73a 49be
00000040: 3c8a 3fbe ddec 41be dec2 40be 8720 40be
00000050: b526 46be 9fe4 42be 0f78 3abe c5e4 45be
00000060: 25dc 3cbe 763b 3abe efae 43be f49f 48be
00000070: 264a 49be b50c 46be 545b 4abe 1654 49be
00000080: 3d5c 49be c514 4abe b35f 46be a203 4abe
00000090: f141 203e 60c4 1c3e 09a5 1d3e 2ba3 243e
000000a0: 87cb 1f3e 9e98 233e 7630 243e 0db5 203e
000000b0: 3162 213e 3024 53be 8847 53be 717a 4dbe
000000c0: 50d0 51be d540 51be 9033 52be e07f 54be
000000d0: d281 56be 951f 54be aec8 0b3e d1e1 083e
000000e0: ed69 0a3e ab48 0f3e 8bfc 0a3e d0c4 0e3e
000000f0: f271 0e3e f161 0a3e 6a6b 0d3e d556 53be
00000100: 1540 50be 9d87 4bbe 0e0f 54be 39e2 50be
00000110: 186d 4fbe 98c7 56be d751 54be 4ae8 52be
00000120: 6e15 043e c32a f13d 8ba2 c43d 093e 083e
00000130: f65f 043e 12f1 ed3d 6747 df3d b713 e23d
00000140: f526 013e d6ff 3ebe 10eb 35be 1a7f 49be
00000150: 4018 58be a304 4ebe 7444 3fbe 63de 46be
00000160: a045 50be ca1f 37be 650b 58be ccfc 56be
00000170: 88f2 56be b697 54be cd8f 58be 7e82 5bbe
00000180: 31d5 58be d8fb 59be a1e6 5cbe 971a ed3d
00000190: dff6 033e afbb f23d a0df 123e 4956 043e
000001a0: 10ab 0a3e e1ec f63d bf8f ea3d e658 f23d
000001b0: 81d3 4abe f871 4bbe 21bc 4bbe c2c2 48be
000001c0: bd28 4cbe 581c 4dbe 5ad6 4bbe 68e8 4cbe
000001d0: 19e3 4cbe 5974 52be aaab 52be aa61 51be
000001e0: 6131 51be 001e 4dbe 916e 4ebe 1cd8 52be
000001f0: 8111 51be af0e 51be e52c 47be 42c6 43be
00000200: 440c 4abe d72f 39be 6cb6 47be 925f 47be
00000210: 00e0 44be 742b 40be b2ae 3dbe 4383 f53d
00000220: b386 f93d fa9f f43d ddda f23d 02ab fb3d
00000230: b61e f13d 63db 003e c86c f43d 7e8d f83d
00000240: b816 4f3e e17e 483e 827b 423e 2e39 513e
00000250: d4a3 4f3e 10ba 4d3e 0db8 4f3e 4e1f 513e
00000260: 38ee 4d3e 78ea 3f3e 1d6c 533e b5c4 413e
00000270: de4a 503e 5d9a 3f3e 34ad 3a3e 7311 3e3e
00000280: 1ec7 353e 87e4 4a3e b1fe 4a3e 87d5 4c3e
00000290: ae14 4a3e 1874 533e 73d9 563e c569 503e
000002a0: d65a 4d3e 52d8 4d3e 83cb 4b3e 7c00 5a3e
000002b0: 8b4d 543e f53b 533e e2b8 5e3e 45d8 573e
000002c0: 70da 563e 9ba7 5b3e 7516 5d3e 4e31 5a3e
000002d0: cd0b 4dbe 3cf2 55be 6306 55be d10e 52be
000002e0: 3a14 59be a403 57be 9e89 47be 6f47 4ebe
000002f0: 3b76 4dbe f46c 4e3e 523f 4e3e 16dc 493e
00000300: 53e8 523e 83ef 4c3e f79b 513e efbb 513e
00000310: cf2a 523e 8819 503e eb97 3dbe 15f4 3dbe
00000320: ca0c 42be edc6 3fbe 66dc 43be c28a 46be
00000330: 7712 37be 90cf 3cbe bea8 3bbe d47b 583e
00000340: 3343 593e ffc9 503e 4021 5a3e 1950 5a3e
00000350: bf4e 553e 12b6 573e e7d8 593e 24a6 553e
00000360: 92bc 23be b97b 2abe 4d02 16be 4e73 0cbe
00000370: 13b1 0bbe 5c9b 0ebe 79bc 07be 638a 05be
00000380: 0376 0fbe 3b7e 583e 4971 3d3e 1bea 3b3e
00000390: af58 5c3e 71c2 443e ae11 4d3e 0d14 3b3e
000003a0: 5095 4e3e 3630 433e 3d96 523e 2936 503e
000003b0: 6a28 493e 7ca4 533e 0dcb 513e 6f20 4c3e
000003c0: aaf7 523e d6ae 533e 3b7e 4e3e 233e 23be
000003d0: 2db6 16be 01d6 17be 81d1 20be 9818 23be
000003e0: 97c8 33be 9ebb 01be d8d2 17be 0594 07be
000003f0: 187c 533e 2dc9 503e aae8 483e 1817 523e

conv_layers.2.0.conv.bias f4 [32]
-0.048972655 0.13798521 0.14377752 0.118497826 0.14514036 0.10587563 -0.008367329 0.10338777
-0.08847055 0.12158905 0.13066347 -0.021058004 0.043652475 0.0545955 0.17749806 0.14234065
-0.032843508 -0.031199947 0.1765543 0.088483095 -0.019276775 0.018424861 0.044445764 -0.19332913
0.15596336 0.088744685 -0.025580334 0.1952776 0.10287217 0.09057264 0.14294526 0.16464233
00000000: 8d97 48bd ff4b 0d3e 6a3a 133e fdae f23d
00000010: ad9f 143e 53d5 d83d 1f17 09bc f8bc d33d
00000020: 0c30 b5bd ae03 f93d a5cc 053e d681 acbc
00000030: f0cc 323d 889f 5f3d 0dc2 353e bfc1 113e
00000040: ea86 06bd 0897 ffbc a7ca 343e a036 b53d
00000050: 54ea 9dbc bcef 963c c30c 363d 12f8 45be
00000060: dcb4 1f3e c6bf b53d d98d d1bc daf6 473e
00000070: a5ae d23d 267e b93d 3e60 123e 0098 283e

conv_layers.4.0.conv.weight f4 [32, 32, 3, 3]
0.18277903 0.17445296 0.14920403 0.13326356 0.14000583 0.18247041 0.15501504 0.17129467
0.18299222 -0.18534315 -0.17319377 -0.17571038 -0.15683022 -0.15661451 -0.17151223 -0.16831459
-0.17926338 -0.16828889 -0.23214422 -0.21628009 -0.17923588 -0.19776237 -0.22432342 -0.17948787
-0.19431734 -0.1832704 -0.17165463 -0.18173173 -0.20835671 -0.18170771 -0.2195728 -0.17987238
-0.17662607 -0.19589281 -0.22215082 -0.18957463 -0.1895043 -0.19517751 -0.17876676 -0.17971876
-0.19142243 -0.18874328 -0.17619233 -0.20911343 -0.20694022 -0.21231163 -0.17826802 -0.22251585
-0.18746959 -0.19160347 -0.19819587 -0.20707487 -0.20306028 -0.20656979 0.1415642 0.15362662
0.16502006 0.13897724 0.16538404 0.16173558 0.14383098 0.14312659 0.15464443 -0.19894104
-0.19166648 -0.21824817 -0.18894948 -0.1964637 -0.22459936 -0.20863643 -0.21325034 -0.22096518
0.13910481 0.14216496 0.120766245 0.16802819 0.17196323 0.10210317 0.16023509 0.123742566
0.1320356 -0.2122609 -0.18489908 -0.21309952 -0.18558145 -0.19982597 -0.20274748 -0.20680884
-0.2050665 -0.20566013 -0.2148906 -0.16784474 -0.22743109 -0.15230167 -0.15770207 -0.18444327
-0.16085134 -0.18567412 -0.18976441 0.13741109 0.18031538 0.15538251 0.15329672 0.1567597
0.20046717 0.18411706 0.14393441 0.17023732 0.20994797 0.14176671 0.18276064 0.16076028
0.1611885 0.20877579 0.14647233 0.20321593 0.18956251 0.19469856 0.18610626 0.12305128
0.17266594 0.20257723 0.20632753 0.16644442 0.12343225 0.13459139 -0.16989695 -0.20843644
-0.1730879 -0.20101301 -0.1635698 -0.20970523 -0.22229838 -0.21410388 -0.17478165 -0.21710838
-0.17940742 -0.18901837 -0.23974988 -0.20805915 -0.17708294 -0.18742642 -0.20271234 -0.23725289
0.15789224 0.16757622 0.175201 0.16296199 0.16924387 0.18186955 0.16892903 0.16553517
0.18049291 0.14086458 0.11499391 0.13766742 0.113005295 0.17434405 0.13511197 0.12929933
0.13847244 0.18206534 -0.19443765 -0.21488707 -0.17225534 -0.1823917 -0.1643623 -0.1730285
-0.16276614 -0.22446242 -0.16738532 -0.19147734 -0.1968906 -0.19501677 -0.17057697 -0.19075865
-0.19469766 -0.1886296 -0.21191156 -0.21150059 0.14046387 0.17854628 0.19629861 0.16580233
0.19022955 0.17594706 0.15240416 0.1790471 0.18172419 0.16067898 0.16363817 0.15871492
0.14741687 0.16260096 0.17929226 0.16049825 0.17487168 0.17818376 0.17442463 0.18184772
0.15760688 0.1722923 0.16962568 0.18964449 0.20319633 0.14231625 0.20826899 0.012256705
0.013361347 0.015620279 0.020288676 0.01324462 0.027341647 0.04438355 0.027210403 0.032455258
-0.21611619 -0.20367923 -0.2339138 -0.20712958 -0.23310676 -0.20340854 -0.24383776 -0.17313585
-0.19641773 -0.21114448 -0.18165043 -0.21128653 -0.20703669 -0.21064223 -0.22913134 -0.20659308
-0.1811727 -0.21224391 0.17681392 0.15210749 0.16129854 0.16208291 0.1554708 0.19656985
0.1847737 0.197538 0.19187133 -0.18588361 -0.1966476 -0.21036242 -0.1625492 -0.1639463
-0.13307619 -0.2201572 -0.15879269 -0.19237152 -0.1695557 -0.22572617 -0.19947784 -0.20835143
00000000: 6d2a 3b3e cca3 323e f1c8 183e 3e76 083e
00000010: b05d 0f3e 86d9 3a3e 43bc 1e3e df67 2f3e
00000020: 5062 3b3e 98ca 3dbe b559 31be 6ced 33be
00000030: 1a98 20be 8e5f 20be e7a0 2fbe a95a 2cbe
00000040: d290 37be ec53 2cbe 37b7 6dbe 8778 5dbe
00000050: 9c89 37be 3882 4abe 0ab5 65be abcb 37be
00000060: 20fb 46be 3cab 3bbe 3bc6 2fbe e217 3abe
00000070: 765b 55be 9611 3abe b1d7 60be 7730 38be
00000080: 77dd 34be 2098 48be 817b 63be da1f 42be
00000090: 6a0d 42be 9ddc 47be a20e 37be 3208 38be
000000a0: 3e04 44be eb45 41be c36b 34be d521 56be
000000b0: 23e8 53be 3868 59be e48b 36be 32db 63be
000000c0: 07f8 3fbe b333 44be dcf3 4abe 6f0b 54be
000000d0: 09ef 4fbe 0887 53be 35f6 103e 4c50 1d3e
000000e0: 05fb 283e 0d50 0e3e 6f5a 293e 039e 253e
000000f0: 6e48 133e c78f 123e 1c5b 1e3e 33b7 4bbe
00000100: 3844 44be 737c 5fbe f97b 41be c82d 49be
00000110: 60fd 65be caa4 55be 4c5e 5abe b244 62be
00000120: 7e71 0e3e b193 113e 4b54 f73d 950f 2c3e
00000130: 2117 303e 771b d13d ab14 243e be6c fd3d
00000140: 5734 073e ec5a 59be 2f56 3dbe c336 5abe
00000150: 1009 3ebe 2e9f 4cbe 099d 4fbe b2c5 53be
00000160: f4fc 51be 9298 52be 480c 5cbe 7edf 2bbe
00000170: b2e3 68be f8f4 1bbe a77c 21be b2de 3cbe
00000180: 37b6 24be 5b21 3ebe 9a51 42be 7eb5 0c3e
00000190: 98a4 383e 981c 1f3e d1f9 1c3e 9d85 203e
000001a0: 4447 4d3e 2f89 3c3e 8b63 133e b152 2e3e
000001b0: 9afc 563e 4b2b 113e 9b25 3b3e 589e 243e
000001c0: 990e 253e 52c9 553e d8fc 153e d617 503e
000001d0: ad1c 423e 0f5f 473e a492 3e3e 4f02 fc3d
000001e0: 57cf 303e 6870 4f3e 8647 533e 6870 2a3e
000001f0: 0cca fc3d 53d2 093e 77f9 2dbe 5d70 55be
00000200: f43d 31be 5bd6 4dbe d77e 27be f8bc 56be
00000210: 30a2 63be 0c3e 5bbe f6f9 32be a951 5ebe
00000220: 94b6 37be 088e 41be fe80 75be 750d 55be
00000230: 3b55 35be b6ec 3fbe d393 4fbe 6cf2 72be
00000240: 81ae 213e 1a99 2b3e e467 333e 82df 263e
00000250: 444e 2d3e 033c 3a3e bbfb 2c3e 0d82 293e
00000260: 22d3 383e ce3e 103e ed81 eb3d b0f8 0c3e
00000270: 526f e73d 3f87 323e cb5a 0a3e 0b67 043e
00000280: b8cb 0d3e 566f 3a3e aa1a 47be 5b0b 5cbe
00000290: b463 30be e4c4 3abe 974e 28be 622e 31be
000002a0: 2bac 26be 7ad9 65be 0f67 2bbe a312 44be
000002b0: b09d 49be 7ab2 47be bbab 2ebe 3c56 43be
000002c0: d35e 47be 1e28 41be 58ff 58be 9c93 58be
000002d0: c3d5 0f3e d6d4 363e 8102 493e 16c8 293e
000002e0: 89cb 423e 772b 343e d60f 1c3e 1f58 373e
000002f0: e815 3a3e 0889 243e c490 273e 2a86 223e
00000300: 73f4 163e de80 263e 6498 373e a759 243e
00000310: 9011 333e ce75 363e 5f9c 323e 4a36 3a3e
00000320: b363 213e 656d 303e 5bb2 2d3e 2a32 423e
00000330: b312 503e 5abb 113e 7744 553e 59d0 483c
00000340: 8de9 5a3c 33ec 7f3c 7034 a63c f6ff 583c
00000350: 97fb df3c 86cb 353d 5ae8 de3c ceef 043d
00000360: 904d 5dbe 4a91 50be 1987 6fbe c719 54be
00000370: 8ab3 6ebe 544a 50be 9bb0 79be 864a 31be
00000380: bb21 49be 4236 58be 9202 3abe 7f5b 58be
00000390: 6d01 54be 99b2 57be 68a1 6abe 238d 53be
000003a0: 5685 39be 7856 59be b50e 353e 11c2 1b3e
000003b0: 722b 253e 10f9 253e bd33 1f3e 9b49 493e
000003c0: 5135 3d3e 6747 4a3e eb79 443e 4658 3ebe
000003d0: fd5d 49be 3f69 57be 4c73 26be 8ae1 27be
000003e0: 2045 08be e470 61be 8d9a 22be 0afd 44be
000003f0: 02a0 2dbe c324 67be eb43 4cbe 145a 55be

conv_layers.4.0.conv.bias f4 [32]
0.08436845 0.14871773 0.09728229 0.0064963438 0.21458632 0.1115054 0.094582595 0.16246934
0.108844735 0.0878805 0.15238692 0.10294334 0.097532526 0.017889973 0.1147415 0.1758217
0.06653964 0.14089687 0.031139152 0.13421494 0.13816948 0.11787745 0.025001561 0.11057165
0.08865283 0.22616522 0.037620742 0.028584685 0.102231294 0.110225 0.092252664 0.17462036
00000000: 5ec9 ac3d 7649 183e f03b c73d 48df d43b
00000010: 84bc 5b3e f15c e43d 85b4 c13d 5d5e 263e
00000020: fde9 de3d b1fa b33d 510b 1c3e f5d3 d23d
00000030: 22bf c73d fe8d 923c 97fd ea3d 9b0a 343e
00000040: ef45 883d 4547 103e 8917 ff3c a46f 093e
00000050: 4d7c 0d3e bc69 f13d 13d0 cc3c 6473 e23d
00000060: 9d8f b53d db97 673e 3518 1a3d 6e2a ea3c
00000070: a45e d13d a5bd e13d f7ee bc3d aecf 323e

conv_layers.5.0.conv.weight f4 [32, 32, 3, 3]
-0.19745104 -0.22445804 -0.17582019 -0.21309666 -0.1930972 -0.20695652 -0.170074 -0.19651018
-0.20638742 0.22608419 0.18206505 0.19598617 0.19508602 0.22067799 0.20342153 0.21868607
0.20914687 0.1791193 0.24742341 0.22661114 0.22729647 0.21495028 0.23358846 0.21911938
0.20688704 0.20814082 0.20776123 -0.20547225 -0.20083895 -0.20572719 -0.20310548 -0.19823074
-0.21310958 -0.20660827 -0.20146495 -0.19382907 0.14900649 0.21922839 0.2078741 0.19468628
0.18703663 0.22038388 0.18802081 0.21835774 0.2097008 -0.20572653 -0.22188096 -0.20044163
-0.18830469 -0.20895794 -0.211666 -0.20047992 -0.21993588 -0.21541758 0.22690667 0.19184734
0.22376893 0.20808916 0.23559275 0.2146036 0.19040929 0.20926051 0.18770519 0.26182887
0.19481954 0.18399918 0.21698403 0.21963347 0.23321757 0.24100791 0.2543039 0.2492546
0.18427137 0.195488 0.19246663 0.1860732 0.1957762 0.19140704 0.16855352 0.17690435
0.2065186 -0.2239051 -0.22522189 -0.20624301 -0.20645173 -0.23031083 -0.21705328 -0.21215127
-0.20882136 -0.21508133 0.21952441 0.22149129 0.22825447 0.15292937 0.22036555 0.19253996
0.22194873 0.17804001 0.18012579 0.2588318 0.2202373 0.22054183 0.255499 0.24726407
0.22487092 0.21658844 0.24356483 0.20143636 -0.20884603 -0.20161796 -0.18769026 -0.21667367
-0.20774545 -0.18032186 -0.20204988 -0.21562524 -0.18100739 -0.22639437 -0.20455259 -0.221447
-0.21801487 -0.22404832 -0.20508423 -0.20246965 -0.20939246 -0.21004198 0.24250993 0.24200284
0.21236444 0.23630968 0.22222525 0.23808381 0.22617875 0.22286643 0.20633231 0.18602875
0.25049913 0.2030673 0.19660768 0.18952118 0.19046676 0.21080863 0.2241316 0.22795975
-0.23347577 -0.20732999 -0.18975131 -0.2221149 -0.20876947 -0.19060442 -0.21933371 -0.23990989
-0.21882223 0.19703703 0.20943345 0.20022261 0.23314202 0.22055387 0.19646543 0.18970592
0.21667174 0.23566775 -0.21886076 -0.22723503 -0.22252505 -0.23095082 -0.24066071 -0.21257956
-0.22531003 -0.2254198 -0.21293658 0.19955763 0.20237759 0.23964919 0.24566086 0.20337072
0.2556258 0.22719242 0.23035912 0.22412525 0.25044486 0.20285352 0.1881889 0.20819435
0.22819604 0.21997012 0.22927469 0.21167527 0.23040722 -0.18746568 -0.18958732 -0.19921724
-0.16171253 -0.20529437 -0.20099734 -0.21611351 -0.20615664 -0.1530888 -0.22848885 -0.22053522
-0.20676382 -0.20522705 -0.212979 -0.21856742 -0.21174954 -0.23288342 -0.20881811 0.20559521
0.21848969 0.21098396 0.22258316 0.21135622 0.20427486 0.21554793 0.19863081 0.18677476
-0.20525908 -0.20416726 -0.18829678 -0.20065822 -0.20253433 -0.19187787 -0.20020592 -0.19333723
-0.19014308 0.18358323 0.18958823 0.18220349 0.14674762 0.20366012 0.18847328 0.14813009
0.17310959 0.18254252 -0.21435703 -0.22165805 -0.22334532 -0.21094263 -0.22429278 -0.20653532
-0.2163316 -0.21972522 -0.21624017 -0.2356181 -0.23330778 -0.21647118 -0.23316833 -0.180352
-0.19127068 -0.19685999 -0.22025225 -0.18740843 -0.19164936 -0.18558143 -0.17437229 -0.16746783
00000000: 9b30 4abe 54d8 65be 350a 34be 0336 5abe
00000010: 46bb 45be 69ec 53be e127 2ebe f739 49be
00000020: 3957 53be 9d82 673e 436f 3a3e 99b0 483e
00000030: a1c4 473e 69f9 613e bc4d 503e 3eef 5f3e
00000040: 992a 563e 0d6b 373e 905c 7d3e c00c 683e
00000050: 68c0 683e ed1b 5c3e d031 6f3e d560 603e
00000060: 32da 533e de22 553e 5cbf 543e 5167 52be
00000070: baa8 4dbe 26aa 52be e2fa 4fbe 00fd 4abe
00000080: 6639 5abe 1e91 53be d44c 4ebe 217b 46be
00000090: 2895 183e 687d 603e f3dc 543e d75b 473e
000000a0: 8886 3f3e 50ac 613e 8788 403e 2c99 5f3e
000000b0: cebb 563e faa9 52be c334 63be 9240 4dbe
000000c0: f2d2 40be 12f9 55be f9be 58be 9c4a 4dbe
000000d0: df36 61be 6d96 5cbe 395a 683e a173 443e
000000e0: af23 653e 5315 553e 3a3f 713e 0cc1 5b3e
000000f0: a7fa 423e 6348 563e ca35 403e 6f0e 863e
00000100: c67e 473e 486a 3c3e 1031 5e3e 99e7 603e
00000110: 96d0 6e3e c7ca 763e 1f34 823e 993c 7f3e
00000120: a2b1 3c3e 022e 483e f915 453e f989 3e3e
00000130: 8e79 483e 3500 443e 4b99 2c3e 6a26 353e
00000140: 9d79 533e 6147 65be 91a0 66be 5e31 53be
00000150: 1568 53be 9ad6 6bbe 3743 5ebe 2f3e 59be
00000160: 44d5 55be 483e 5cbe 02cb 603e 9dce 623e
00000170: 8abb 693e 8499 1c3e 82a7 613e 3229 453e
00000180: 8746 633e 1f50 363e e572 383e 9a85 843e
00000190: e385 613e b8d5 613e c4d0 823e cb32 7d3e
000001a0: 9044 663e 5cc9 5d3e 0f69 793e 5545 4e3e
000001b0: bcdb 55be f074 4ebe e031 40be b4df 5dbe
000001c0: 39bb 54be 4ba6 38be 2ae6 4ebe ddcc 5cbe
000001d0: 005a 39be edd3 67be 3c76 51be 01c3 62be
000001e0: 4a3f 5fbe ec6c 65be 9a01 52be 3454 4fbe
000001f0: fa6a 56be 3f15 57be 8654 783e 98cf 773e
00000200: 1076 593e 2afb 713e 048f 633e 3ecc 733e
00000210: 679b 673e 1937 643e c748 533e 527e 3e3e
00000220: 6c41 803e e0f0 4f3e 8653 493e d711 423e
00000230: b809 433e 38de 573e c182 653e 486e 693e
00000240: 4614 6fbe 504e 54be 2b4e 42be 1772 63be
00000250: aac7 55be ce2d 43be 0499 60be f0aa 75be
00000260: ef12 60be 13c4 493e b975 563e 2807 4d3e
00000270: c8bc 6e3e e0d8 613e 3c2e 493e 4542 423e
00000280: 32df 5d3e e352 713e 091d 60be 4db0 68be
00000290: 9bdd 63be 5f7e 6cbe c36f 76be 75ae 59be
000002a0: acb7 66be 73d4 66be 0c0c 5abe d658 4c3e
000002b0: 123c 4f3e 9966 753e 858e 7b3e 6a40 503e
000002c0: 63e1 823e 21a5 683e 43e3 6b3e 1781 653e
000002d0: 4f3a 803e d5b8 4f3e 97b4 403e e630 553e
000002e0: 39ac 693e d93f 613e fcc6 6a3e 67c1 583e
000002f0: dfef 6b3e 01f7 3fbe 2e23 42be 9bff 4bbe
00000300: f897 25be b038 52be 3fd2 4dbe dc4c 5dbe
00000310: ba1a 53be 4fc3 1cbe fbf8 69be fcd3 61be
00000320: e5b9 53be 0a27 52be 2b17 5abe 23d0 5fbe
00000330: dfd4 58be fe78 6ebe 6ad4 55be 8d87 523e
00000340: c3bb 5f3e 2e0c 583e d7ec 633e c46d 583e
00000350: 6e2d 513e 99b8 5c3e e065 4b3e e241 3f3e
00000360: 702f 52be 3911 51be dfd0 40be 5979 4dbe
00000370: 2965 4fbe a27b 44be c802 4dbe 32fa 45be
00000380: deb4 42be 3efd 3b3e 6b23 423e 8d93 3a3e
00000390: 0245 163e 478c 503e 24ff 403e 6aaf 173e
000003a0: a443 313e 6dec 3a3e 6980 5bbe 54fa 62be
000003b0: a3b4 64be 5801 58be 02ad 65be ff7d 53be
000003c0: 0886 5dbe a6ff 60be 106e 5dbe df45 71be
000003d0: 3ce8 6ebe 9faa 5dbe aec3 6ebe 32ae 38be
000003e0: 76dc 43be aa95 49be ce89 61be ffe7 3fbe
000003f0: bb3f 44be 0f09 3ebe a68e 32be b07c 2bbe

conv_layers.5.0.conv.bias f4 [32]
0.19399174 0.10663852 0.18341403 0.15673722 0.20973627 0.11957716 0.16375619 0.16522993
0.16016057 0.09648445 0.14625265 -0.009125269 0.14394626 0.14506489 0.15669328 0.10508859
0.18662193 0.120635554 0.15116173 0.17644785 0.14974377 0.1391126 -0.1601835 0.15454662
0.13428803 0.07431168 0.14550711 0.168155 0.14742866 0.060189046 0.033690352 0.11227202
00000000: c5a5 463e 4c65 da3d e3d0 3b3e b97f 203e
00000010: 1bc5 563e dfe4 f43d b4af 273e 0932 293e
00000020: 2201 243e a499 c53d 41c3 153e 2782 15bc
00000030: a666 133e e48b 143e 3474 203e b038 d73d
00000040: d219 3f3e c60f f73d 24ca 1a3e bfae 343e
00000050: 6e56 193e 8973 0e3e 2507 24be 7841 1e3e
00000060: cd82 093e b930 983d d1ff 143e d330 2c3e
00000070: 8af7 163e ca88 763d e5fe 093d dfee e53d

conv_layers.7.0.conv.weight f4 [16, 32, 3, 3]
0.17135926 0.13831335 0.16422828 0.2410899 0.18721375 0.23567651 0.19083267 0.1619035
0.1836188 -0.19965734 -0.08543433 -0.18267773 -0.22574182 -0.16864215 -0.2200042 -0.20339385
-0.06003287 -0.16498303 0.19979492 0.13089108 0.17770065 0.21631244 0.20316711 0.21331765
0.1481418 0.15521845 0.17357944 0.16183704 0.13301058 0.16426319 0.2191382 0.1534312
0.22645807 0.18347184 0.15763906 0.1584952 0.20509738 0.19867367 0.21564612 0.18294258
0.21398456 0.18133965 0.1832832 0.10379502 0.113470316 -0.16708983 -0.061064694 -0.1630663
-0.21555305 -0.14478445 -0.21780764 -0.16961181 -0.07221962 -0.1537146 0.19821773 0.12928306
0.16197242 0.27382594 0.20071068 0.22953053 0.174011 0.15696777 0.19781007 0.19573987
0.1218775 0.16765638 0.22447465 0.15711363 0.20453991 0.18409187 0.17010556 0.16804649
0.17268069 0.17056525 0.2195661 0.21922792 0.2032208 0.22033915 0.12977518 0.115522176
0.18001999 -0.19349305 -0.06649649 -0.17125289 -0.22625786 -0.17792612 -0.22801763 -0.1683634
-0.07917995 -0.17835504 0.19812067 0.12557046 0.17729935 0.18866119 0.17086805 0.2549445
0.15242593 0.088953204 0.1986877 0.1690537 0.08995234 0.10295484 0.18846668 0.20030119
0.15203497 0.13420476 0.114275634 0.13321935 -0.12881812 -0.0349915 -0.16932572 -0.2068039
-0.14315037 -0.15039743 -0.19898269 -0.06271143 -0.11498199 -0.21792807 -0.10593587 -0.16341093
-0.25627327 -0.18518758 -0.18256035 -0.17204395 -0.038594518 -0.16081825 0.17937833 0.10051368
0.17927091 0.22645137 0.17503056 0.24389763 0.19039223 0.14377895 0.19774546 -0.16923678
-0.112526 -0.169315 -0.2610339 -0.16280356 -0.1912606 -0.1529365 -0.044315524 -0.1678826
0.165913 0.15876587 0.18255442 0.26336405 0.2129162 0.27209613 0.18136445 0.1309303
0.15637459 -0.18874638 -0.08426698 -0.17818561 -0.22676696 -0.19099994 -0.22936988 -0.17581429
-0.07100541 -0.15933628 -0.16846727 -0.0697491 -0.19138233 -0.24719927 -0.15793408 -0.23980734
-0.18549381 -0.041403882 -0.16256069 0.1612335 0.11516487 0.16146484 0.2450555 0.1930415
0.23711313 0.17865977 0.15018508 0.16448738 -0.21673827 -0.021639785 -0.10532398 -0.21289077
-0.16561669 -0.2359018 -0.10777203 -0.028993186 -0.19612016 -0.1483512 -0.07372247 -0.10480555
-0.21445468 -0.15677202 -0.24612308 -0.10349609 -0.045765564 -0.10730181 -0.14563303 -0.16333124
-0.1707044 -0.18917927 -0.22004509 -0.1768261 -0.14255933 -0.12486931 -0.16191849 -0.21082251
-0.060456876 -0.12734336 -0.27565253 -0.14258109 -0.26249525 -0.2053977 -0.040304497 -0.13336724
-0.18855178 -0.056233473 -0.14081489 -0.19702885 -0.17198575 -0.21663676 -0.17750016 -0.018126413
-0.17080794 -0.14753038 -0.14228654 -0.17725228 -0.23282348 -0.19357918 -0.2297073 -0.14355218
-0.024134506 -0.15214379 0.1653865 0.13007517 0.17425303 0.23317286 0.1973672 0.21757126
0.18813303 0.13939506 0.15886366 0.21281102 0.15718693 0.18904322 0.25124156 0.21035431
0.23157479 0.16658217 0.09728487 0.17739104 -0.16899113 -0.028813982 -0.18240559 -0.2802374
00000000: cd78 2f3e 04a2 0d3e 752b 283e 45e0 763e
00000010: f6b4 3f3e 2f55 713e a469 433e 08ca 253e
00000020: 9106 3c3e f972 4cbe 32f8 aebd df0f 3bbe
00000030: dd28 67be 87b0 2cbe c848 61be 7a46 50be
00000040: 07e5 75bd 50f1 28be 0a97 4c3e 5008 063e
00000050: 29f7 353e 0281 5d3e 0a0b 503e f16f 5a3e
00000060: 7cb2 173e 96f1 1e3e cfbe 313e 9cb8 253e
00000070: ed33 083e 9c34 283e c465 603e 121d 1d3e
00000080: a0e4 673e 0be0 3b3e 226c 213e 914c 223e
00000090: 0c05 523e 1c71 4b3e 56d2 5c3e 4d55 3b3e
000000a0: c51e 5b3e 1ab1 393e 97ae 3b3e 7c92 d43d
000000b0: 2063 e83d 9919 2bbe f91e 7abd dafa 26be
000000c0: f0b9 5cbe 6042 14be f708 5fbe b8ae 2dbe
000000d0: e1e7 93bd 5c67 1dbe 97f9 4a3e c762 043e
000000e0: 19dc 253e ea32 8c3e 1a87 4d3e 0d0a 6b3e
000000f0: f12f 323e 29bc 203e b98e 4a3e 0870 483e
00000100: e99a f93d 1dae 2b3e afdc 653e 65e2 203e
00000110: e972 513e 9482 3c3e 2730 2e3e 6114 2c3e
00000120: 35d3 303e a8a8 2e3e f0d5 603e 497d 603e
00000130: 1d19 503e 96a0 613e c9e3 043e e496 ec3d
00000140: 2957 383e 0b23 46be 502f 88bd eb5c 2fbe
00000150: 24b0 67be 4432 36be 747d 69be 7567 2cbe
00000160: 1929 a2bd b4a2 36be 25e0 4a3e 8b95 003e
00000170: f68d 353e 6630 413e 09f8 2e3e 1688 823e
00000180: 8b15 1c3e 192d b63d ca74 4b3e 6a1c 2d3e
00000190: ef38 b83d fdd9 d23d 69fd 403e c11b 4d3e
000001a0: 0eaf 1b3e f96c 093e 5809 ea3d a76a 083e
000001b0: e6e8 03be 3f53 0fbd b963 2dbe 67c4 53be
000001c0: 0396 12be c901 1abe 1ec2 4bbe da6e 80bd
000001d0: ad7b ebbd 8928 5fbe e8f4 d8bd 3255 27be
000001e0: 4036 83be d0a1 3dbe 1af1 3abe 4a2c 30be
000001f0: 4915 1ebd 8aad 24be f4ae 373e 1eda cd3d
00000200: cb92 373e dee2 673e 363b 333e 4dc0 793e
00000210: 2ef6 423e ca3a 133e c97d 4a3e 684c 2dbe
00000220: 0874 e6bd e960 2dbe 3ca6 85be fab5 26be
00000230: d2d9 43be 639b 1cbe 3284 35bd 6be9 2bbe
00000240: 19e5 293e 8593 223e 8cef 3a3e a7d7 863e
00000250: b406 5a3e 2f50 8b3e 9ab7 393e 9812 063e
00000260: a920 203e bb46 41be 2b94 acbd 4a76 36be
00000270: 9935 68be 7d95 43be f0df 6abe a908 34be
00000280: 496b 91bd 0d29 23be af82 2cbe 9ed8 8ebd
00000290: bbf9 43be ce21 7dbe 79b9 21be 0e90 75be
000002a0: 17f2 3dbe 1e97 29bd 4f76 26be 651a 253e
000002b0: 8fdb eb3d 0a57 253e d4ef 7a3e acac 453e
000002c0: c9cd 723e 96f2 363e 1eca 193e 616f 283e
000002d0: a3f0 5dbe eb45 b1bc 19b4 d7bd 0a00 5abe
000002e0: 6c97 29be 3e90 71be 95b7 dcbd 1e83 edbc
000002f0: b9d3 48be 61e9 17be cefb 96bd 4ba4 d6bd
00000300: 029a 5bbe d888 20be b007 7cbe c2f5 d3bd
00000310: ac74 3bbd 0dc1 dbbd d320 15be 4e40 27be
00000320: 22cd 2ebe 36b8 41be 8053 61be e711 35be
00000330: 13fb 11be 7bbb ffbd f6cd 25be dbe1 57be
00000340: a1a1 77bd 4c66 02be 5422 8dbe c700 12be
00000350: c765 86be c653 52be 5416 25bd 6c91 08be
00000360: b813 41be 1255 66bd c731 10be eec1 49be
00000370: 081d 30be 07d6 5dbe 9ac2 35be d87d 94bc
00000380: 47e8 2ebe 3412 17be 90b3 11be 9f81 35be
00000390: 4769 6ebe 9f39 46be 6438 6bbe 58ff 12be
000003a0: bab5 c5bc 95cb 1bbe 145b 293e 6d32 053e
000003b0: 636f 323e dec4 6e3e a11a 4a3e 00cb 5e3e
000003c0: f2a5 403e 94bd 0e3e 28ad 223e 22eb 593e
000003d0: 9cf5 203e 8c94 413e bca2 803e 1f67 573e
000003e0: f121 6d3e 8494 2a3e 4a3d c73d ffa5 353e
000003f0: 030c 2dbe 4d0b ecbc 88c8 3abe 477b 8fbe

conv_layers.7.0.conv.bias f4 [16]
0.14095823 0.14792807 0.13755989 0.09259733 0.11512749 0.13888754 0.16955772 0.12314914
0.17731108 0.16036087 0.16806187 0.09921711 0.15026674 0.1130886 0.18394709 0.17309265
00000000: 5b57 103e 757a 173e 80dc 0c3e aba3 bd3d
00000010: f6c7 eb3d 8938 0e3e 8aa0 2d3e 9e35 fc3d
00000020: 0991 353e a435 243e 6918 2c3e 5732 cb3d
00000030: 86df 193e ff9a e73d a05c 3c3e 333f 313e

linear_layers.0.weight f4 [64, 400]
0.07922186 0.17657967 0.13698061 0.120467626 0.13668774 0.048118934 0.13899541 0.08382102
0.05328332 0.09726157 -0.054265007 0.07199338 -0.009865873 -0.025417952 0.075377375 -0.13713665
-0.03045396 -0.0809011 -0.11667542 -0.023068942 -0.13175486 -0.08345876 -0.10165259 -0.14176702
-0.08299052 0.14831237 0.15717566 0.13845018 0.11228852 0.21246262 0.00724362 0.083675
0.081565306 -0.0060314536 0.09960957 -0.1575969 -0.13953935 -0.076959915 -0.110642835 0.030792503
-0.08584367 -0.09365274 -0.08473543 -0.14898224 0.057271387 -0.024821134 -0.06935122 -0.036272425
-0.13074468 -0.06469034 0.0968602 0.165588 0.10857999 0.074427664 0.1437734 0.01337405
0.102299854 0.085713424 0.017912446 0.13152164 -0.119331785 0.013080629 -0.043914545 -0.112520814
0.07881925 -0.14411294 -0.027644712 -0.099896275 -0.14365123 0.013081645 -0.16924961 -0.06576368
-0.086727045 -0.11599566 -0.030664302 0.053599827 0.20414215 0.1327237 0.10655457 0.17588049
0.10821309 0.14846776 0.08171976 0.14125733 0.15100695 0.030460482 0.08415454 0.066382244
0.09398791 0.06016406 -0.064186305 0.04199444 -0.09289995 -0.05759424 -0.039563935 -0.11093162
-0.07631875 -0.10828128 -0.063643105 -0.04618822 -0.16495071 -0.16021699 -0.13634028 -0.13766034
-0.14312814 -0.049147572 -0.06149457 -0.05618866 -0.006620355 -0.021486608 0.07976719 0.11924403
0.15285088 0.16510622 0.134044 0.10850658 0.102322794 0.11145127 0.13814123 0.14419077
0.16514434 0.19389378 0.10518665 0.14515229 0.19150308 0.1204365 0.16004908 0.17151837
0.11796231 0.17899854 -0.007514168 0.08423159 0.052561197 0.06404044 0.05835164 -0.0931383
-0.005589779 -0.13404928 -0.13387646 -0.038815368 -0.17303789 -0.09046089 -0.0877289 -0.08013354
-0.058886066 -0.1902246 -0.07705889 -0.0315613 -0.09492514 -0.063243866 0.20794645 0.13700172
0.18778528 0.09380399 0.187849 0.16977079 0.13684258 0.14447345 0.08658834 0.16893657
0.07379671 0.07123797 0.06693987 0.0037810009 0.09481895 -0.03264227 -0.06890866 -0.077359855
-0.13901454 -0.019319095 -0.0773863 -0.06138116 -0.10699132 -0.118283786 -0.07591662 0.14734286
0.16327189 0.16355233 0.13013539 0.17929105 0.13123131 0.18230422 0.13438722 0.09415985
0.15839422 0.05525233 0.093936145 0.08874782 0.01726 0.09982386 -0.07801786 -0.043366507
-0.08130395 -0.09173517 -0.0014045297 -0.115881585 -0.064849705 -0.07917983 -0.11689548 -0.049981378
0.18410598 0.16203423 0.14643 0.1631311 0.19082986 0.068100154 0.116518416 0.08152303
0.06095948 0.10878537 -0.04861382 0.065916464 -0.039167695 -0.086921126 0.073088616 -0.117362395
-0.0046762 -0.10190347 -0.11678481 -0.050982542 -0.13367301 -0.035743564 -0.09271274 -0.059141345
-0.07343135 0.1217495 0.17840683 0.15011895 0.10836302 0.19287278 0.1036561 0.12300648
0.14605281 0.05354603 0.14795785 -0.04935777 0.09023631 0.06613542 -0.05443132 0.10273837
-0.08702078 -0.015173515 -0.07467318 -0.1458951 0.016925678 -0.12506533 -0.05172669 -0.06439674
-0.17222388 -0.024795456 -0.09176292 -0.08061856 -0.08919778 -0.11774774 -0.10588267 -0.11782296
00000000: 123f a23d 4dd1 343e a544 0c3e bbb7 f63d
00000010: dff7 0b3e 5c18 453d d054 0e3e 5baa ab3d
00000020: 9c3f 5a3d 1331 c73d fc44 5ebd 4471 933d
00000030: 78a4 21bc 4f39 d0bc 745f 9a3d 8d6d 0cbe
00000040: 957a f9bc 7aaf a5bd 86f3 eebd 14fb bcbc
00000050: bfea 06be 6dec aabd 3c2f d0bd 602b 11be
00000060: eff6 a9bd 33df 173e a8f2 203e e2c5 0d3e
00000070: 86f7 e53d cd8f 593e e45b ed3b cc5d ab3d
00000080: b60b a73d 80a3 c5bb 1a00 cc3d 1561 21be
00000090: 67e3 0ebe 299d 9dbd b698 e2bd 8f40 fc3c
000000a0: cece afbd 02cd bfbd c589 adbd cd8e 18be
000000b0: 6795 6a3d b155 cbbc 0308 8ebd 6592 14bd
000000c0: efe1 05be 5e7c 84bd a45e c63d e78f 293e
000000d0: 305f de3d 886d 983d 5639 133e d51e 5b3c
000000e0: 9682 d13d 858a af3d 1fbd 923c 9cad 063e
000000f0: 3964 f4bd 2250 563c bddf 33bd 5071 e6bd
00000100: fd6b a13d 5892 13be 2a77 e2bc 6b96 ccbd
00000110: 4f19 13be 6554 563c c54f 2dbe 1caf 86bd
00000120: f39d b1bd 228f edbd b433 fbbc 7e8b 5b3d
00000130: a40a 513e b9e8 073e 4839 da3d 041a 343e
00000140: d39e dd3d ef07 183e b15c a73d c3a5 103e
00000150: 91a1 1a3e 4388 f93c 3759 ac3d 6af3 873d
00000160: bc7c c03d 976e 763d 1c74 83bd 5d02 2c3d
00000170: 5442 bebd f0e7 6bbd cb0d 22bd 1e30 e3bd
00000180: 014d 9cbd 93c2 ddbd 5157 82bd dc2f 3dbd
00000190: d7e8 28be ec0f 24be c99c 0bbe d5f6 0cbe
000001a0: 2f90 12be f74e 49bd bbe1 7bbd 1526 66bd
000001b0: 90ef d8bb af04 b0bc fb5c a33d 3736 f43d
000001c0: f184 1c3e 9b11 293e d542 093e b338 de3d
000001d0: 9d8e d13d 9040 e43d e574 0d3e bfa6 133e
000001e0: 991b 293e 178c 463e 196c d73d cda2 143e
000001f0: 6219 443e 69a7 f63d e8e3 233e 83a2 2f3e
00000200: 3996 f13d 654b 373e 6939 f6bb 9d81 ac3d
00000210: 694a 573d a227 833d 2102 6f3d 4bbf bebd
00000220: 772a b7bb 3744 09be e916 09be ddfc 1ebd
00000230: d830 31be 8f43 b9bd 36ab b3bd 0e1d a4bd
00000240: 8432 71bd 3dca 42be 0dd1 9dbd 6c46 01bd
00000250: 1d68 c2bd 0086 81bd eaef 543e 2e4a 0c3e
00000260: c94a 403e 4e1c c03d 7d5b 403e 65d8 2d3e
00000270: 7620 0c3e d9f0 133e 3a55 b13d b5fd 2c3e
00000280: bb22 973d 36e5 913d c517 893d abca 773b
00000290: 7030 c23d e7b3 05bd fc1f 8dbd d86e 9ebd
000002a0: d459 0ebe 1443 9ebc b57c 9ebd d06a 7bbd
000002b0: 441e dbbd c53e f2bd 2c7a 9bbd 0ce1 163e
000002c0: bf30 273e 437a 273e 3642 053e 1398 373e
000002d0: 8061 063e f5ad 3a3e ce9c 093e e1d6 c03d
000002e0: 1832 223e 4450 623d 9861 c03d 6bc1 b53d
000002f0: d864 8d3c 7470 cc3d d4c7 9fbd 14a1 31bd
00000300: af82 a6bd a6df bbbd 3218 b8ba 5353 edbd
00000310: eccf 84bd 0929 a2bd e666 efbd 46b9 4cbd
00000320: 4786 3c3e 4dec 253e bff1 153e d70b 273e
00000330: e768 433e 1878 8b3d 35a1 ee3d 8cf5 a63d
00000340: a6b0 793d ddca de3d 491f 47bd 36ff 863d
00000350: 4e6e 20bd b403 b2bd 7caf 953d b25b f0bd
00000360: cf3a 99bb c4b2 d0bd e02c efbd 12d3 50bd
00000370: 94e1 08be d867 12bd 2de0 bdbd 323e 72bd
00000380: 2d63 96bd cd57 f93d 48b0 363e c8b8 193e
00000390: 6eed dd3d 7180 453e a649 d43d d2ea fb3d
000003a0: de8e 153e 1553 5b3d 4382 173e 5f2b 4abd
000003b0: d1cd b83d 0272 873d 60f3 5ebd 7f68 d23d
000003c0: f337 b2bd 569a 78bc 41ee 98bd 8665 15be
000003d0: b8a7 8a3c 2011 00be 5edf 53bd 70e2 83bd
000003e0: 755b 30be d71f cbbc 33ee bbbd 581b a5bd
000003f0: 53ad b6bd ba25 f1bd 03d9 d8bd 2a4d f1bd

linear_layers.0.bias f4 [64]
0.04602123 0.08023085 0.112683445 0.11345233 0.115282685 0.13677464 0.07670458 0.10771818
0.0613433 0.075633526 0.116305776 0.056754332 0.074560665 0.094427384 0.11902216 0.12915607
0.099123046 0.027007094 0.10970092 0.050131254 0.0864159 0.08772817 0.056190673 0.09280241
0.13278621 0.086267516 0.12531845 0.11250217 0.10009087 0.071848385 0.1034275 0.070841774
0.11698381 0.10866905 0.111294106 0.11196288 0.13809814 0.07244117 0.014054425 0.10953685
0.13123883 0.08513593 0.06293436 0.11630471 0.09186982 0.09335548 0.14693844 0.07551878
0.080220506 0.089849465 0.09238877 0.1452701 0.12169947 0.06546054 0.07602678 0.12437514
0.07034519 0.118587375 0.14670342 0.12830928 0.09898378 0.1520442 0.0880127 0.09171913
00000000: c280 3c3d 1250 a43d 94c6 e63d b259 e83d
00000010: 5419 ec3d a70e 0c3e 4a17 9d3d 599b dc3d
00000020: 1d43 7b3d c0e5 9a3d b931 ee3d 3b77 683d
00000030: 43b3 983d 2563 c13d e4c1 f33d 7d41 043e
00000040: 0601 cb3d fb3d dd3c e0aa e03d 6e56 4d3d
00000050: d2fa b03d d4aa b33d 3128 663d 310f be3d
00000060: 1cf9 073e 06ad b03d 7b53 003e 8a67 e63d
00000070: 71fc cc3d 3f25 933d ccd1 d33d 7e15 913d
00000080: 3595 ef3d e18d de3d 2aee e33d cb4c e53d
00000090: 9969 0d3e 095c 943d 8844 663c db54 e03d
000000a0: 7963 063e bf5b ae3d bbe3 803d 2a31 ee3d
000000b0: 3f26 bc3d 2831 bf3d 0877 163e 97a9 9a3d
000000c0: a64a a43d ff02 b83d 5336 bd3d afc1 143e
000000d0: 923d f93d 2d10 863d eeb3 9b3d 65b8 fe3d
000000e0: 2411 903d f0dd f23d 6c39 163e 8263 033e
000000f0: 02b8 ca3d 7ab1 1b3e 0140 b43d 3dd7 bb3d

linear_layers.3.weight f4 [4, 64]
-0.21280159 -0.27976978 -0.26150477 0.2134168 -0.24563786 0.20661917 -0.18866707 0.120158754
0.26392558 0.23032844 -0.27407196 -0.28763694 -0.00013172207 0.2756515 -0.23932259 -0.34580135
0.26338685 -0.19013302 -0.2422908 0.20929864 -0.25433454 -0.20607142 0.19438812 -0.27852958
0.31182003 -0.21001448 0.2656025 -0.2751801 0.2112979 -0.30109093 0.2680579 -0.30727965
-0.276372 0.0995717 -0.22257201 -0.209817 0.26274908 -0.25744647 -0.048265677 0.27198383
-0.2834248 -0.2659501 0.22130913 -0.30554178 -0.29476303 0.29620478 0.27808446 -0.17681934
0.17694135 0.29997206 -0.12571855 0.28130254 -0.29654378 -0.21096098 -0.21317925 -0.27184558
0.24346657 0.22637476 0.27834934 0.2695985 -0.24979922 -0.1866314 -0.28781474 0.2461921
-0.11554475 -0.12936313 -0.028077353 -0.04692386 0.055648763 -0.12648724 0.075579524 -0.20790635
-0.09793926 0.07757832 0.055298116 -0.07737568 -0.084140055 0.117453896 -0.04977382 -0.08609231
-0.12354088 -0.22057246 -0.06132189 0.07182767 -0.071910016 -0.14316 0.23405088 -0.014899868
0.065625004 -0.04103111 -0.13665207 0.1232662 0.014360128 -0.04600672 -0.18210652 0.09702002
0.05599933 -0.17940916 -0.12636817 -0.14662467 -0.15654944 0.06312906 -0.03045794 0.029311905
-0.118427195 -0.077749446 0.20471671 -0.098929346 0.037033577 -0.15075679 0.064082325 -0.11704502
0.1639791 0.13759041 0.06374538 -0.14839329 -0.03286724 -0.1317428 0.06988185 0.0644051
-0.1635459 0.13889423 -0.084905 -0.09735905 -0.18473469 -0.033658415 -0.1446923 0.14420295
-0.20666763 -0.19905327 -0.29314816 0.2044889 -0.25388455 0.33639708 -0.3351015 0.231649
0.19024567 0.21796057 -0.28143257 -0.2525702 -0.03143779 0.25704738 -0.28207782 -0.22471862
0.2766227 -0.1810164 -0.17211318 0.18921632 -0.29877692 -0.20992212 0.05735483 -0.15966082
0.21197028 -0.16129822 0.13778494 -0.23619664 0.21488559 -0.1189268 0.24057077 -0.25778553
-0.17088081 0.25778073 -0.2878397 -0.3024876 0.28467196 -0.27673987 -0.30593538 0.25021166
-0.2940151 -0.24694203 0.10316937 -0.30673498 -0.17828058 0.24156022 0.28074372 -0.24849072
0.2638842 0.12877455 -0.2708707 0.20761248 -0.17429487 -0.15624888 -0.20953593 -0.17056938
0.20234795 0.3212515 0.2432604 0.1671324 -0.21410939 -0.3017638 -0.19767326 0.1460321
-0.110011205 0.009532456 0.076986484 0.032680627 -0.06063207 0.07323046 -0.06005172 -0.19430721
-0.20174299 0.02496998 0.046339177 -0.15530802 -0.20251259 0.1170305 0.059753973 -0.09955143
-0.002768354 -0.1720568 -0.0993527 0.16230862 -0.07434128 -0.099721804 0.18188998 -0.11974974
0.03427296 -0.034866598 -0.16220479 0.073954776 -0.1349863 -0.14744486 -0.1417191 -0.07472829
0.17552516 -0.17544666 -0.02446651 -0.12379047 -0.052174713 -0.18396033 0.1364309 -0.0024186464
-0.047829613 -0.12701161 0.2284967 0.06965101 -0.11500638 -0.14904264 0.026608035 -0.18120569
0.12385125 -0.012847534 0.14449506 -0.11010502 0.046594772 -0.15174317 -0.017405361 -0.08824053
-0.1783976 0.17755212 -0.093287945 -0.16327988 -0.067684144 -0.07300671 -0.1317546 0.046074424
00000000: a9e8 59be fc3d 8fbe f4e3 85be ef89 5a3e
00000010: 7e88 7bbe fa93 533e f131 41be cb15 f63d
00000020: 4121 873e 38db 6b3e 2953 8cbe 2645 93be
00000030: e01e 0ab9 3222 8d3e fb10 75be e00c b1be
00000040: a4da 863e 3bb2 42be 141b 78be 6252 563e
00000050: 2338 82be 6304 53be ae0d 473e 6e9b 8ebe
00000060: e0a6 9f3e 090e 57be 0dfd 873e 68e4 8cbe
00000070: 7a5e 583e 9728 9abe e33e 893e c253 9dbe
00000080: a180 8dbe 3fec cb3d ebe9 63be 45da 56be
00000090: 0c87 863e 06d0 83be 3bb2 45bd 7741 8b3e
000000a0: 0e1d 91be 9d2a 88be dc9e 623e f96f 9cbe
000000b0: 2eeb 96be 27a8 973e 1661 8e3e 2110 35be
000000c0: 1d30 353e f095 993e 5dbc 00be e306 903e
000000d0: 96d4 97be 2806 58be a94b 5abe 582f 8bbe
000000e0: 4d4f 793e c9ce 673e ce83 8e3e d108 8a3e
000000f0: 5ecb 7fbe 4d1c 3fbe 745c 93be c819 7c3e
00000100: baa2 ecbd c577 04be 7a02 e6bc 3c33 40bd
00000110: f5ef 633d df85 01be 70c9 9a3d 67e5 54be
00000120: 6194 c8bd 62e1 9e3d 4780 623d 2477 9ebd
00000130: 9f51 acbd ab8b f03d a2df 4bbd 2a51 b0bd
00000140: 0003 fdbd bfdd 61be aa2c 7bbd 631a 933d
00000150: 8f45 93bd 8998 12be 09ab 6f3e 931e 74bc
00000160: 6766 863d 3d10 28bd 85ee 0bbe fd72 fc3d
00000170: be46 6b3c 8b71 3cbd 227a 3abe 6fb2 c63d
00000180: 8e5f 653d 09b7 37be a866 01be c724 16be
00000190: 7f4e 20be cf49 813d ee82 f9bc 851f f03c
000001a0: f589 f2bd 1a3b 9fbd 42a1 513e 789b cabd
000001b0: 85b0 173d fd5f 1abe 983d 833d 4db5 efbd
000001c0: 23ea 273e 80e4 0c3e f08c 823d 69f4 17be
000001d0: cd9f 06bd 96e7 06be 371e 8f3d d2e6 833d
000001e0: 9478 27be 4a3a 0e3e ace2 adbd 2e64 c7bd
000001f0: 172b 3dbe 68dd 09bd 382a 14be f0a9 133e
00000200: aea0 53be 9fd4 4bbe 8417 96be 8a65 513e
00000210: 28fd 81be 3d3c ac3e 6c92 abbe 6535 6d3e
00000220: c3cf 423e 0e31 5f3e ee17 90be e250 81be
00000230: e9c4 00bd b79b 833e 816c 90be a31c 66be
00000240: 7ea1 8d3e 5d5c 39be 703e 30be ecc1 413e
00000250: 4af9 98be d3f5 56be e6ec 6a3d 207e 23be
00000260: bd0e 593e 5c2b 25be 7f17 0d3e 88dd 71be
00000270: f80a 5c3e e58f f3bd 2f58 763e 77fc 83be
00000280: 61fb 2ebe d6fb 833e ba5f 93be a8df 9abe
00000290: 86c0 913e d9b0 8dbe 90a3 9cbe be1b 803e
000002a0: 2689 96be 5fde 7cbe 764a d33d 5e0c 9dbe
000002b0: 2f8f 36be 905b 773e a4bd 8f3e 5a74 7ebe
000002c0: d41b 873e 7add 033e 90af 8abe 5e98 543e
000002d0: 5b7a 32be b5ff 1fbe 9690 56be bda9 2ebe
000002e0: 4d34 4f3e 147b a43e 4119 793e c224 2b3e
000002f0: 7e3f 5bbe c980 9abe dc6a 4abe 7089 153e
00000300: 8e4d e1bd 052e 1c3c 17ab 9d3d 1fdc 053d
00000310: 5559 78bd daf9 953d cbf8 75bd 78f8 46be
00000320: b795 4ebe d88d cc3c 26ce 3d3d 1109 1fbe
00000330: 765f 4fbe b0ad ef3d 95c0 743d 9fe1 cbbd
00000340: 466d 35bb a82f 30be 6e79 cbbd 3b34 263e
00000350: 3e40 98bd f23a ccbd 5e41 3a3e 5a3f f5bd
00000360: ce61 0c3d 47d0 0ebd 0319 26be 9a75 973d
00000370: d939 0abe c9fb 16be d01e 11be 250b 99bd
00000380: debc 333e 4aa8 33be fe6d c8bc dc85 fdbd
00000390: 27b5 55bd 1960 3cbe 8bb4 0b3e 2782 1ebb
000003a0: fce8 43bd 550f 02be 0afb 693e 30a5 8e3d
000003b0: 7788 ebbd a29e 18be 18f9 d93c fc8d 39be
000003c0: b9a5 fd3d 777e 52bc 83f6 133e be7e e1bd
000003d0: 29da 3e3d 9062 1bbe b095 8ebc 73b7 b4bd
000003e0: dcad 36be 39d0 353e c00d bfbd d732 27be
000003f0: fc9d 8abd 8b84 95bd aeea 06be 89b8 3c3d

linear_layers.3.bias f4 [4]
0.015198716 0.0142980255 -0.062086318 -0.045452118
00000000: 0904 793c 4442 6a3c 394e 7ebd 002c 3abd
