models/model_1727103718932/model.pth (torch, 227178 bytes, 14 tensors)

conv_layers.0.0.conv.weight f4 [16, 10, 3, 3]
000000 67 c7 cb 3e 13 e6 da 3e 79 d6 d9 3e e9 c9 d4 3e
       0.3980057 0.42753658 0.42546442 0.41560295
000010 cb a3 d6 3e ab cf d6 3e 58 04 cf 3e ad 87 d9 3e
       0.4192184 0.41955313 0.40433002 0.42486325
000020 c7 95 d6 3e a2 60 ae 3e 12 6c a7 3e b4 21 a7 3e
       0.41911146 0.340581 0.3269964 0.326429
000030 29 80 b9 3e b8 23 b3 3e 5e 8b b7 3e ca 4f b4 3e
       0.3623059 0.3498819 0.35848516 0.35217124
000040 49 e5 b9 3e b2 69 b1 3e 5b 2d b3 3e 47 e1 b6 3e
       0.36307743 0.34650952 0.3499554 0.35718748
000050 46 b1 b2 3e 52 75 ad 3e 1c 5f a9 3e 88 84 a8 3e
       0.34900874 0.3387857 0.33080375 0.32913613
000060 e2 22 ab 3e 95 b1 b4 3e c5 65 a8 3e 1b d0 b7 3e
       0.3342505 0.35291734 0.32890144 0.3590096
000070 c7 85 bd 3e f3 12 b5 3e 66 a8 b5 3e ba ae b5 3e
       0.37016127 0.3536602 0.3548004 0.35484868
000080 9b 9a bd 3e e7 b1 b4 3e 0e de b0 3e 04 86 b6 3e
       0.37032017 0.3529198 0.34544414 0.3564912
000090 ce 0d bd 3e 63 5e b1 3e a5 95 ba 3e 98 c6 bb 3e
       0.36924595 0.34642324 0.36442295 0.36674953
0000a0 7a a3 bd 3e 98 c4 bc 3e 4b 40 c9 3e 5d 23 ba 3e
       0.37038785 0.3686874 0.39306864 0.36355105
0000b0 ec 8e bc 3e 73 82 d7 3e b5 e5 d9 3e d8 60 d9 3e
       0.3682779 0.42091712 0.42558065 0.42456698
0000c0 31 26 d1 3e 99 43 dd 3e e7 1b dd 3e ff c9 d5 3e
       0.4084945 0.43215635 0.4318535 0.41755673
0000d0 10 b3 d5 3e 85 94 dd 3e 20 16 cf be 4b e6 d8 be
       0.41738176 0.43277374 -0.40446568 -0.423632
0000e0 42 7b cf be 84 3f c9 be 9d f3 ca be ed b1 cd be
       -0.40523726 -0.3930627 -0.39638987 -0.4017481
0000f0 46 24 ca be 8e 17 d3 be c0 50 dc be d1 90 d2 be
       -0.394808 -0.41228908 -0.43030357 -0.4112611
000100 dc 13 d7 be c1 46 d3 be 84 b9 d0 be 13 d7 c5 be
       -0.4200734 -0.41264918 -0.40766537 -0.3864065
000110 f2 54 d4 be 98 f1 e0 be 2a 62 d9 be 13 93 d8 be
       -0.41471058 -0.4393432 -0.42457706 -0.4229971
000120 cb 0f a3 3e 3d 66 a4 3e 6c eb a5 3e c8 df a6 3e
       0.31847987 0.32109252 0.32406175 0.32592607
000130 3d d0 a4 3e 8e 71 a5 3e fe c9 a3 3e 7c 3f a3 3e
       0.32190123 0.32313198 0.31990045 0.31884372
000140 19 73 a4 3e de b2 5b be d8 6f 0f be eb bf 31 3e
       0.32119063 -0.21454951 -0.14007509 0.17358367
000150 e1 d7 50 be e9 34 41 be fa 74 49 be 40 74 d9 3d
       -0.20394851 -0.1886784 -0.1967353 0.10617876
000160 52 36 3a be 8a 0a 57 be b9 d7 fc 3e c7 5d fd 3e
       -0.18184784 -0.21000114 0.49383333 0.4948561
000170 6c 3d f7 3e 5c a5 fd 3e 83 54 fe 3e 7d 28 00 3f
       0.4828905 0.49540222 0.49673852 0.5006178
000180 ea a5 fb 3e 81 83 fd 3e 6f a3 ff 3e 80 97 ce 3e
       0.4915002 0.49514392 0.49929377 0.4034996
000190 a1 fa d3 3e d8 fd cc 3e b7 91 d4 3e 6a b2 c3 3e
       0.41402152 0.40037417 0.41517422 0.38222057
0001a0 d3 d6 d8 3e 88 3b c8 3e af 9b d3 3e 79 d6 d0 3e
       0.42351398 0.3910792 0.41329715 0.4078863
0001b0 03 00 ab 3e f1 90 b1 3e 33 e6 ab 3e 03 59 b0 3e
       0.33398446 0.34680894 0.33574066 0.3444291
0001c0 59 83 ab 3e 27 04 ad 3e 33 8b a2 3e 62 cd ac 3e
       0.33498648 0.3379223 0.31746826 0.33750445
0001d0 31 e7 af 3e 72 90 b3 3e 76 25 b2 3e 1c fd b3 3e
       0.34356073 0.3507114 0.34794205 0.35154045
0001e0 6a c9 a9 3e 6e d6 b9 3e 3f 9b b5 3e 03 99 bd 3e
       0.3316148 0.3629641 0.35470006 0.370308
0001f0 96 6b b5 3e 0f 24 b4 3e 7b 01 bc 3e 16 c2 a9 3e
       0.35433644 0.3518376 0.3671988 0.33155888
000200 3e 25 b6 3e 1a b2 b7 3e 22 52 b8 3e c8 b8 b7 3e
       0.3557529 0.35878068 0.36000162 0.35883164
000210 49 65 b9 3e 02 5c b5 3e 92 8a b6 3e 5e 3c f5 3e
       0.36210087 0.3542176 0.35652596 0.4789762
000220 cc 16 02 3f 93 98 ff 3e 36 cb f5 3e 81 1c 00 3f
       0.50816035 0.49921092 0.480066 0.50043494
000230 90 bb 00 3f 7a bb ff 3e 0e f7 f0 3e 5b 5b ff 3e
       0.502862 0.4994772 0.47063488 0.49874386
000240 27 f5 d8 be eb 60 c7 be 0f fd d3 be 0b 01 d4 be
       -0.42374536 -0.3894113 -0.41404006 -0.41407046
000250 be 24 d5 be ad 8e c5 be 69 10 db be f9 e3 d7 be
       -0.41629595 -0.38585415 -0.42785957 -0.42166117
000260 0b 08 d5 be 1c bb dc be d0 0e dc be b0 a8 d9 be
       -0.416077 -0.43111503 -0.4298005 -0.4251151
000270 98 64 d8 be 99 dc d8 be 97 3a d6 be 5b d5 da be
       -0.42264247 -0.42355803 -0.41841576 -0.42740902
000280 57 0f db be 46 50 d7 be 8c 9c ad 3e 38 eb b2 3e
       -0.4278514 -0.4205343 0.33908498 0.34945083
000290 57 e7 a7 3e 47 ad a6 3e 59 7d aa 3e 7d 4b aa 3e
       0.32793686 0.32554075 0.33298758 0.33260718
0002a0 f1 1f a8 3e d8 78 a8 3e ef a1 a3 3e 82 72 1f 3e
       0.3283687 0.32904696 0.31959483 0.15571025
0002b0 9b 4a 30 3e ae ec e1 3d 11 cc 73 be 51 e9 25 3e
       0.1721596 0.11031471 -0.23808314 0.16202284
0002c0 17 73 29 3e 61 18 0c 3e 3e ef 30 be 49 fb 56 be
       0.1654781 0.13681175 -0.17278764 -0.20994295
0002d0 80 40 e2 be 96 9a df be ba 8e e2 be 78 f3 df be
       -0.44189835 -0.43672627 -0.44249517 -0.4374044
0002e0 5f 57 db be 4c ff e4 be 9b e1 e4 be c5 6d e5 be
       -0.42840096 -0.44726026 -0.44703373 -0.4481031
0002f0 bc 03 e2 be 97 e9 47 3d 88 19 28 3d 22 9d 18 3d
       -0.44143474 0.048806753 0.041039973 0.03725923
000300 39 a6 cd 3c f8 90 20 3d 1a bc 13 3d 34 58 a5 3b
       0.025103675 0.039200753 0.03606806 0.005045915
000310 89 64 9c 3c 8d de 49 3c 50 40 71 bb 25 35 47 bc
       0.019090908 0.012321127 -0.0036812015 -0.012158667
000320 47 6b 0c bc 3d 7c 93 bb 35 7c 74 bc 15 83 69 3b
       -0.008570499 -0.0045008943 -0.014922191 0.003563111
000330 d8 b5 d3 bc a0 de 28 bc cd 28 21 bc 84 fa 42 bd
       -0.025843546 -0.010306984 -0.009836388 -0.04760219
000340 6b 8f 7c bd ef cf 6c bd b8 90 98 bd 43 5a 5f bd
       -0.06166021 -0.05781549 -0.07449478 -0.05452944
000350 92 37 a7 bd 2a ac 4f bd 09 74 73 bd 7a c7 da bc
       -0.08164896 -0.050701298 -0.05943683 -0.026706446
000360 47 a3 24 bd 61 d6 2f bd 24 24 30 bd 05 bc 18 bd
       -0.040194776 -0.042929057 -0.043003216 -0.037288684
000370 64 f9 f3 bc 34 86 98 bb 75 06 e1 bc ae e5 0b bd
       -0.029782005 -0.00465467 -0.0274689 -0.034154586
000380 f4 71 38 bd fd 4f e5 be 99 73 e5 be ee c3 ea be
       -0.04503055 -0.4478759 -0.44814757 -0.45852607
000390 9a f3 dc be 3f 30 e5 be 31 32 ea be c2 d7 e6 be
       -0.43154603 -0.4476337 -0.45741418 -0.45086485
0003a0 9c 6d dc be d2 3c eb be 96 00 34 3d fe 26 b1 3c
       -0.43052375 -0.4594484 0.04394587 0.021625038
0003b0 cc 67 e2 3c 73 27 45 3d 8f 25 05 3d 6f d3 dd 3c
       0.027637385 0.048133325 0.03250652 0.027078358
0003c0 ba 22 a5 3c bf 55 bd 3c 93 3d 14 3d de 07 72 3c
       0.02015816 0.023112176 0.036191534 0.0147723835
0003d0 0c a9 0f 3d f6 94 f2 3c f6 98 a7 3b 63 e6 9f 3c
       0.035073325 0.029612046 0.00511467 0.019519037
0003e0 91 29 94 3c 76 53 f6 3c 26 23 d4 3c 2b 30 40 3c
       0.018086227 0.030069094 0.025895666 0.011730234
0003f0 57 e6 9a 3b e6 2e b5 bb e6 88 0e bb e3 04 53 3c
       0.0047271657 -0.0055292724 -0.0021749078 0.012879583

conv_layers.0.0.conv.bias f4 [16]
000000 18 0e 88 3e 1c d5 33 3e 13 52 4c be 1d e1 45 3e
       0.26573253 0.17561764 -0.19953184 0.19324155
000010 35 94 30 3e 18 96 8b 3e 8a 52 32 3e 66 b0 a9 3e
       0.17244036 0.2726295 0.17414299 0.33142394
000020 69 4b 62 3e b2 af 6a 3e eb b5 72 3e c1 ea 91 3e
       0.22099079 0.22918585 0.23702209 0.28499416
000030 1c ad 54 3e cc 87 5f 3e b6 1d 5c 3e 7b f7 93 3e
       0.20769161 0.21829146 0.21495709 0.2889975

conv_layers.2.0.conv.weight f4 [32, 16, 3, 3]
000000 80 58 ad be aa 5d bc be 99 55 b4 be ce 15 ac be
       -0.33856583 -0.3679021 -0.35221556 -0.33610386
000010 9d b4 b5 be 71 78 b4 be c8 92 ba be 81 05 aa be
       -0.3548936 -0.3524814 -0.3644011 -0.33207324
000020 b7 e4 b7 be 38 3b c2 be f5 f6 c0 be 24 47 c0 be
       -0.35916683 -0.37935805 -0.37688413 -0.37554276
000030 b1 64 c0 be 14 12 c1 be 81 c4 c0 be 15 c1 c2 be
       -0.3757682 -0.37709105 -0.3764992 -0.38037935
000040 dd 51 c4 be 4d 51 c1 be 52 33 ce 3d f8 1a c9 3d
       -0.38343707 -0.3775734 0.10068382 0.09819597
000050 73 3e d3 3d 9e 81 dc 3d c0 dc c5 3d 2d 13 d3 3d
       0.103146456 0.1076691 0.09661245 0.10306392
000060 68 51 e3 3d b4 0f dd 3d 99 58 d8 3d cd ff c2 be
       0.110995114 0.10794011 0.10563774 -0.38085786
000070 b3 2f c0 be 9b a1 c1 be 38 4e c1 be cb 43 bf be
       -0.37536392 -0.37818608 -0.3775499 -0.3735641
000080 00 d1 bf be bb 00 c1 be de eb c3 be b3 64 bd be
       -0.37464142 -0.3769587 -0.3826589 -0.3699089
000090 b5 42 bb be 8c 76 be be f1 71 bd be cc 12 c1 be
       -0.3657433 -0.3719982 -0.37000993 -0.37709653
0000a0 34 eb be be 2e b7 bd be 7d 76 be be 10 e0 be be
       -0.3728882 -0.37053818 -0.37199774 -0.3728032
0000b0 a3 71 be be 0d af bd be be 4c be be 35 dc c2 be
       -0.37196073 -0.37047616 -0.37167925 -0.3805863
0000c0 c3 d5 c1 be 16 b3 ba be 25 c6 c0 be ad a7 c6 be
       -0.378584 -0.36464757 -0.37651172 -0.387998
0000d0 63 24 c6 be 73 46 c3 be 60 23 c2 be c0 b4 c5 be
       -0.38699636 -0.38139686 -0.37917614 -0.38614464
0000e0 ca 15 c2 be e4 ba c2 be 7b 39 c2 be 2d 7b bb be
       -0.3790725 -0.3803321 -0.3793448 -0.36617413
0000f0 6b 3c c2 be 8e 92 bb be 52 7f c2 be d4 f6 9c be
       -0.3793672 -0.3663525 -0.37987763 -0.30657065
000100 c7 e2 a6 be 27 ca a9 be 8e c6 a1 be bf 0d b7 be
       -0.32594892 -0.33162042 -0.31596798 -0.35752675
000110 14 a9 af be fa 26 af be 78 0a aa be 8c b9 a9 be
       -0.34308684 -0.34209424 -0.33211112 -0.33149374
000120 96 ca bd be 6c 40 bd be 6f f7 bc be 1c 2d bd be
       -0.37068623 -0.36963212 -0.36907527 -0.36948478
000130 a9 27 bd be 09 46 bd be 72 89 bd be 5b 2a be be
       -0.3694432 -0.36967495 -0.37018925 -0.3714169
000140 81 3f be be bb 77 c0 be 4e 88 c0 be 8c f4 bf be
       -0.37157825 -0.37591347 -0.37603992 -0.37491262
000150 b0 c5 c0 be c6 cd c0 be ce dd bf be 03 80 c0 be
       -0.37650824 -0.37656993 -0.3747391 -0.37597665
000160 1d d6 c0 be 52 81 c0 be cc 81 b7 be 96 02 be be
       -0.37663355 -0.37598664 -0.35841215 -0.37111348
000170 dc 8c bd be 96 c6 bd be 36 b1 b7 be 60 9d bc be
       -0.3702153 -0.37065572 -0.3587739 -0.36838818
000180 90 37 bd be c2 65 b7 be ca 10 be be 92 74 c3 be
       -0.36956453 -0.35819823 -0.37122184 -0.38174874
000190 aa 58 bd be 85 0c ba be ce 78 bb be b0 5f c1 be
       -0.36981708 -0.36337677 -0.36615604 -0.37768316
0001a0 8c 6d c4 be 33 5e c4 be 24 e0 be be 01 69 be be
       -0.38364828 -0.38353118 -0.3728038 -0.37189487
0001b0 22 80 c0 be cc 69 be be 18 9d bd be bb bd b9 be
       -0.37597758 -0.37190092 -0.37033916 -0.36277565
0001c0 de 04 bf be b3 ad be be d3 38 bd be 99 a7 b7 be
       -0.373084 -0.37241897 -0.36957416 -0.35870054
0001d0 57 ae bd be da d5 c0 be 30 ba bd be 5b 09 bf be
       -0.37047073 -0.37663156 -0.37056112 -0.37311825
0001e0 1b 18 c1 be 5a 15 c0 be de 6c c2 be 5c 8a c0 be
       -0.37713704 -0.3751629 -0.37973684 -0.3760556
0001f0 9b af bf be 76 37 bf be 9d 1d bc be d8 c4 bd be
       -0.37438664 -0.37347 -0.36741343 -0.37064242
000200 a9 6c b9 be 10 18 be be 9f e6 bd be 3d b0 bc be
       -0.36215714 -0.37127733 -0.37090012 -0.3685321
000210 7a 86 ba be c9 92 bf be b2 f9 bd be c4 39 bf be
       -0.36430722 -0.37416676 -0.37104565 -0.3734876
000220 74 aa af be 99 16 b8 be 70 4a b1 be 2c b3 ac be
       -0.34309733 -0.3595474 -0.34627104 -0.33730447
000230 71 8e bc be 59 23 b6 be 00 65 b5 be 2d 06 bf be
       -0.36827424 -0.35573843 -0.3542862 -0.373094
000240 c0 d9 a5 be 6a 2f c8 be eb 27 b9 be dc d8 ae be
       -0.32392693 -0.39098674 -0.36163267 -0.34149826
000250 c6 1f a9 be a5 9a be be 37 e0 a7 be 72 97 c1 be
       -0.33032054 -0.3722736 -0.3278825 -0.37810856
000260 ad b7 b5 be 20 dd c6 be dd 27 c7 be 75 be c9 be
       -0.35491696 -0.3884058 -0.388976 -0.3940312
000270 85 48 c6 be 04 8c ca be 03 03 ca be 09 18 cb be
       -0.38727203 -0.39559948 -0.39455423 -0.39666775
000280 6d 87 c7 be 10 c3 c8 be c3 25 a4 3d c2 97 ac 3d
       -0.3897051 -0.3921132 0.08015015 0.08427383
000290 23 f0 b5 3d ef fd b9 3d 2f 35 9e 3d 35 06 ae 3d
       0.08883693 0.09081637 0.07724988 0.08497278
0002a0 ea e9 c0 3d 6e 15 b6 3d 4d 2f b9 3d 86 be cf be
       0.094196156 0.08890806 0.09042225 -0.40575045
0002b0 ed 2e cd be c0 04 ce be 2a d8 cd be 3a e4 cf be
       -0.40074864 -0.40238 -0.40203983 -0.4060381
0002c0 d0 2e cc be 9c a9 ce be 79 04 d0 be c2 0e c7 be
       -0.39879465 -0.40363777 -0.40628412 -0.38878447
0002d0 4a bf c5 be 28 66 c6 be 44 7f c6 be 4a d1 c5 be
       -0.38622504 -0.38749814 -0.3876897 -0.38636237
0002e0 04 bb c1 be 5b 72 c5 be b9 ba c5 be 9d 43 c6 be
       -0.37837994 -0.3856381 -0.3861902 -0.3872346
0002f0 8f e2 be be bb 6e ca be fb 60 c9 be ff 5d cb be
       -0.37282225 -0.39537606 -0.39331803 -0.3972015
000300 dd 16 be be 12 f5 c8 be 99 2e ca be 60 ba c8 be
       -0.37126818 -0.39249474 -0.39488676 -0.39204693
000310 e5 b7 cb be 75 a7 ca be 02 6a cb be 26 b0 c7 be
       -0.39788738 -0.39580885 -0.39729315 -0.39001578
000320 df fe cb be fe 5d cb be b4 b9 cb be 42 ae ca be
       -0.3984289 -0.39720148 -0.39790118 -0.39586073
000330 c7 83 cb be 41 79 cb be 2a bc c0 be 78 07 ac be
       -0.39748976 -0.39740947 -0.37643558 -0.33599448
000340 02 2c a5 be 77 f5 b3 be 37 85 b6 be ff e5 b5 be
       -0.32260138 -0.35148212 -0.3564851 -0.35527036
000350 30 8e b0 be c9 fe b1 be b2 b1 b4 be 35 56 a3 be
       -0.3448348 -0.34764698 -0.3529182 -0.31901708
000360 ea a3 c6 be 39 58 c7 be c5 e7 c5 be 03 d6 c3 be
       -0.38796932 -0.38934496 -0.3865339 -0.38249215
000370 0b 87 c6 be 62 bb c5 be 9e 36 c5 be 2a 6a c6 be
       -0.38774905 -0.38619524 -0.38518232 -0.38752872
000380 33 96 c8 be 7f 7a c0 be 1f 3d c5 be 09 11 be be
       -0.39177093 -0.37593457 -0.38523194 -0.37122372
000390 c6 ec c0 be 36 3f ca be 06 62 c0 be 17 e4 c4 be
       -0.37680644 -0.3950135 -0.37574786 -0.3845527
0003a0 8e 4e bc be 95 be c4 be fd f8 c8 be 80 e8 cb be
       -0.36778682 -0.38426653 -0.39252463 -0.3982582
0003b0 d1 d4 ca be b5 ad c9 be 06 07 c7 be 39 44 ca be
       -0.3961549 -0.3939034 -0.38872546 -0.39505175
0003c0 9e ca c0 be c4 31 c7 be 1c ec c9 be 57 87 c2 be
       -0.37654585 -0.38905156 -0.3943795 -0.3799388
0003d0 b8 96 c9 be c9 7b b9 be 00 42 c0 be 77 24 c6 be
       -0.39372802 -0.36227253 -0.37550354 -0.38699695
0003e0 18 ce c0 be cf 50 c1 be d4 6d b9 be 71 ca ba be
       -0.37657237 -0.37756965 -0.36216605 -0.36482576
0003f0 c0 95 c9 be db eb c4 be 22 b4 c7 be cb 7a c8 be
       -0.39372063 -0.38461193 -0.39004618 -0.39156184

conv_layers.2.0.conv.bias f4 [32]
000000 53 85 41 be bd b1 41 be 89 3c 32 be 0b bc 86 3e
       -0.18898515 -0.18915458 -0.17405905 0.2631534
000010 67 41 37 be ec a7 06 be 8a 85 23 be 45 ef 60 3e
       -0.17896043 -0.13149995 -0.1596891 0.21966274
000020 bb b9 57 3e a2 00 97 3e 04 8a 48 be 50 79 98 3e
       0.21066944 0.2949267 -0.19583899 0.29780054
000030 10 ba 53 3e 2f 66 66 3e ea 51 70 3e 68 1f 6b 3e
       0.20676446 0.22499917 0.23468748 0.229612
000040 92 aa 88 3e e7 3f 6b 3e e4 b9 5d be 3c 9a 06 be
       0.26692635 0.22973596 -0.21652943 -0.13144773
000050 68 ec cf bd f3 94 54 3e b7 42 08 be 69 20 47 be
       -0.10152513 0.20759945 -0.133067 -0.19445957
000060 ad 2e a2 3e cd 32 78 3e 07 6c 3a 3e ea f6 8a 3e
       0.31676236 0.24238129 0.18205272 0.27141505
000070 55 1f 91 3e 4f 2e 7c 3e 9d ea 5c 3e 49 82 9d 3e
       0.28344217 0.2462704 0.21573873 0.30763462

conv_layers.4.0.conv.weight f4 [32, 32, 3, 3]
000000 a1 9c b3 3e 2c 19 ba 3e 11 28 b5 3e 40 e3 b5 3e
       0.35080436 0.3634733 0.3538213 0.3552494
000010 4f cd b5 3e 37 33 b5 3e b3 77 b7 3e 06 9e b6 3e
       0.355082 0.35390636 0.3583351 0.35667437
000020 ea d2 b4 3e ba 0d b9 3e 2f 97 bd 3e 37 d6 c0 3e
       0.35317165 0.36143285 0.37029406 0.37663433
000030 38 4f b8 3e 82 af bc 3e ae a9 bf 3e 65 8a b7 3e
       0.3599794 0.36852652 0.37434143 0.35847774
000040 dc 80 b6 3e 15 70 be 3e ba 16 b0 3e 68 72 d0 3e
       0.35645187 0.37194887 0.3439234 0.40712285
000050 1a 5c c5 3e cd 1c b9 3e b8 c8 bd 3e 8c 51 c4 3e
       0.3854683 0.36154786 0.370672 0.38343465
000060 d8 a2 d0 3e bd bd b5 3e a2 28 cb 3e d0 33 cb be
       0.4074924 0.3549632 0.39679438 -0.39687967
000070 bc 8e cd be 5c ea c6 be 1c 41 c4 be 7e c1 c7 be
       -0.4014796 -0.38850677 -0.38330925 -0.3901481
000080 43 5d c3 be bc 55 cd be 22 05 bd be 07 b3 c9 be
       -0.3815709 -0.40104473 -0.3691798 -0.393944
000090 7c be ba 3e 1e b0 c5 3e bc 65 c5 3e 2f 05 b8 3e
       0.36473453 0.3861093 0.3855418 0.35941455
0000a0 4e 94 bc 3e d0 8f c8 3e 88 05 bd 3e 0a 8d b8 3e
       0.36831897 0.3917222 0.36918283 0.36045104
0000b0 1d 34 b3 3e 5e d4 bb 3e ea 93 b2 3e 79 4b c1 3e
       0.35000697 0.3668546 0.34878474 0.37752894
0000c0 30 13 ba 3e b0 2b b3 3e ab 78 b9 3e c3 d5 be 3e
       0.36342764 0.34994268 0.36224875 0.37272462
0000d0 8f 3c b8 3e 3e 90 b4 3e 03 5c bd 3e 50 8b bd 3e
       0.35983703 0.35266298 0.36984262 0.3702035
0000e0 58 4e bc 3e 5d 24 be 3e d6 af ba 3e 28 30 bb 3e
       0.36778522 0.37137118 0.36462277 0.36560178
0000f0 c0 ed bf 3e f4 ec b9 3e 9e bc bc 3e f4 b8 b4 be
       0.37486076 0.36313593 0.36862653 -0.35297358
000100 06 19 c2 be 53 93 c1 be 07 ea b7 be 14 9d b4 be
       -0.37909716 -0.37807712 -0.35920736 -0.3527609
000110 88 bc b5 be 3c 36 bd be 50 10 bd be 23 e8 c1 be
       -0.354954 -0.3695544 -0.36926508 -0.3787242
000120 9f 31 cb be ab a4 c4 be 66 da c8 be 2f 29 c5 be
       -0.39686295 -0.38406882 -0.39229125 -0.38507983
000130 1b b6 c4 be 8f a6 bf be a8 41 c4 be f6 41 c5 be
       -0.38420185 -0.37431762 -0.38331342 -0.38526887
000140 a5 64 c2 be 0b 8a ce be 20 d7 c2 be 90 1e b9 be
       -0.3796741 -0.40339693 -0.38054752 -0.3615613
000150 39 57 b4 be ff c2 c3 be e0 ec b6 be e8 16 c2 be
       -0.35222796 -0.38234708 -0.35727596 -0.379081
000160 da 3b b7 be 3e b5 c9 be 00 28 ba 3e 5e 6d ba 3e
       -0.3578785 -0.3939609 0.36358643 0.36411566
000170 18 98 ba 3e 12 63 b7 3e f3 15 b8 3e 17 39 b8 3e
       0.36444163 0.35817772 0.35954246 0.35981056
000180 41 69 b5 3e 52 67 b7 3e 0a 39 b8 3e de 73 c8 be
       0.35431865 0.35821015 0.35981017 -0.391509
000190 62 b8 cc be 21 35 b4 be 57 4f b9 be 95 77 cb be
       -0.39984423 -0.35196784 -0.36193344 -0.3973967
0001a0 28 9f c0 be 57 13 bd be ca da b1 be 14 f1 cd be
       -0.37621427 -0.36928818 -0.34737235 -0.4022299
0001b0 af ae c6 be 21 de c9 be b7 df c5 be cf 9a c5 be
       -0.38805148 -0.39427283 -0.38647243 -0.38594672
0001c0 18 bc d2 be c7 6e d0 be dd a4 cd be a7 95 ce be
       -0.4115913 -0.40709516 -0.40164843 -0.4034855
0001d0 b8 a9 c5 be 0c c5 cf be d9 73 cc be 92 28 c9 be
       -0.38606048 -0.40580022 -0.39932135 -0.39288765
0001e0 94 1a cf be 37 0e cc be 17 51 c8 be 95 31 ca be
       -0.40449965 -0.39854595 -0.39124367 -0.39490953
0001f0 0c 13 ca be be 5d c9 be 51 16 ba be 3a 88 c0 be
       -0.39467657 -0.39329332 -0.3634515 -0.37603933
000200 ea ed bb be f0 a1 bd be 8a fd bd be 91 46 bb be
       -0.36704952 -0.3703761 -0.37107497 -0.36577275
000210 bf 87 bd be eb da c1 be 3e 43 b9 be 5d 77 cf be
       -0.3701763 -0.37862334 -0.36184114 -0.40520754
000220 a9 72 ce be d7 52 cf be 8f 60 d0 be 1b 2b d1 be
       -0.40321854 -0.4049289 -0.40698668 -0.408532
000230 9f 32 cc be fe 0f d0 be bb ed d1 be b3 09 d2 be
       -0.3988237 -0.406372 -0.41001686 -0.41023025
000240 bd 39 ce be 58 6e ca be 7b 0b c3 be ec ad cb be
       -0.40278426 -0.3953731 -0.38094696 -0.3978113
000250 39 1b c7 be 7c 41 c3 be 4f 19 cc be 9b eb c8 be
       -0.38887957 -0.38135898 -0.3986306 -0.39242253
000260 e4 c2 c5 be c9 82 d3 be 3d f4 cd be 24 10 cd be
       -0.38625252 -0.4131072 -0.40225402 -0.40051377
000270 93 b0 cf be fb 44 d1 be 1e 67 ce be d6 61 d3 be
       -0.40564403 -0.4087294 -0.40313047 -0.4128558
000280 de 61 d2 be 3d c3 ce be cf 5b be 3e d7 b6 b4 3e
       -0.41090292 -0.4038333 0.3717942 0.35295746
000290 ed 01 c4 3e 03 8e c0 3e 9b 66 bc 3e 64 c1 be 3e
       0.3828272 0.37608346 0.36797032 0.3725692
0002a0 62 78 b3 3e 29 ac b7 3e 47 cb c0 3e 13 fe c4 3e
       0.35052782 0.35873535 0.37655088 0.38475093
0002b0 a5 62 c5 3e 2f 83 c5 3e c3 0e c6 3e e5 7a c6 3e
       0.38551822 0.38576648 0.38683137 0.38765636
0002c0 76 8a c4 3e cc 5b c5 3e ef 39 c7 3e c2 bf c7 3e
       0.38386887 0.38546598 0.38911387 0.39013487
0002d0 23 05 d2 3e 6a a9 bf 3e f0 60 ca 3e 9e c2 bd 3e
       0.41019544 0.3743394 0.39527082 0.37062544
0002e0 e9 0c bc 3e 1f e4 bd 3e 8d 7f da 3e 92 6a b9 3e
       0.367286 0.37088105 0.4267544 0.3621412
0002f0 49 d5 d1 3e f7 fd c3 be 09 8f c4 be 45 6c ca be
       0.40983036 -0.38279697 -0.38390377 -0.39535728
000300 ea 56 cf be db 6f bf be d4 a2 d1 be 2a 7d c5 be
       -0.40495998 -0.37390026 -0.4094454 -0.38572055
000310 13 3a d4 be 0f cb c7 be 5f a8 c0 3e 2e 95 be 3e
       -0.41450557 -0.3902211 0.37628457 0.3722319
000320 4d 13 c4 3e e6 85 c0 3e d0 1e bf 3e ca 01 c5 3e
       0.38295975 0.37602156 0.37328196 0.38477927
000330 82 29 c5 3e 40 99 c8 3e 1b e6 c4 3e 33 90 b3 3e
       0.3850823 0.3917942 0.38456807 0.35070953
000340 6c b6 b7 3e c3 8d c0 3e f6 a1 b9 3e 17 2a b0 3e
       0.35881364 0.37608156 0.3625638 0.34407112
000350 9f e6 bd 3e 77 97 b9 3e 4c a9 bd 3e f0 29 b9 3e
       0.37090012 0.3624837 0.37043226 0.36164808
000360 dc 85 be be a6 c4 ca be b5 61 cd be 56 57 d5 be
       -0.37211502 -0.39603156 -0.40113607 -0.41668195
000370 80 7d b6 be 37 5b c9 be 9f c7 d3 be 7e 04 ca be
       -0.35642624 -0.39327404 -0.41363236 -0.39456552
000380 fd c9 ae be 27 ae c8 be 8e b9 c5 be 8e a9 c3 be
       -0.3413848 -0.39195368 -0.3861813 -0.38215297
000390 69 59 c8 be ba 0f c7 be a5 8b c3 be 2a d3 c2 be
       -0.39130715 -0.38879186 -0.38192478 -0.3805173
0003a0 d7 76 c5 be ea 1c c4 be 15 d8 d1 be 92 32 d2 be
       -0.3856723 -0.3830331 -0.4098517 -0.41054207
0003b0 e0 37 cd be ac 8a d5 be 49 97 ca be f7 32 c9 be
       -0.40081692 -0.4170736 -0.39568546 -0.39296696
0003c0 f6 ae d3 be bd 81 d2 be 78 c3 cf be 4f f1 c8 be
       -0.41344422 -0.41114607 -0.40578818 -0.39246604
0003d0 67 6c b5 be 57 a7 b2 be c2 8c b1 be 76 0f bf be
       -0.35434267 -0.34893295 -0.34677702 -0.37316483
0003e0 6a ea cb be 88 8a c3 be 22 65 c1 be 74 6e ab be
       -0.3982728 -0.38191628 -0.3777247 -0.33482707
0003f0 de 95 b0 be ea 8d b7 be 89 ba b1 be 69 2d bd be
       -0.3448934 -0.3585046 -0.34712628 -0.36948708

conv_layers.4.0.conv.bias f4 [32]
000000 fc 51 0c be 6a c4 91 3e 5f 6b c4 bd b8 8e 89 3e
       -0.1370315 0.28470165 -0.09590792 0.26866698
000010 19 ab 8f 3e d5 92 91 3e d1 63 0a be 83 ee 69 3e
       0.28060225 0.28432336 -0.1351464 0.22844891
000020 42 9b 04 be ec aa 88 3e 4d 87 14 be 9d cd 26 be
       -0.12949851 0.26692903 -0.14504738 -0.16289373
000030 55 71 a5 3e f0 ab a0 3e e5 43 93 3e 58 a3 8d 3e
       0.32313028 0.31381178 0.28762737 0.27663684
000040 53 dd 97 3e 27 03 88 3e bf 7f 96 3e 84 35 c9 bd
       0.29661044 0.26564905 0.29394338 -0.098246604
000050 02 ad c8 bd af 52 eb bd 67 3e 1f be 29 0f 99 3e
       -0.097986236 -0.1149038 -0.15551148 0.2989438
000060 37 73 97 3e ff da e7 bd 76 b1 93 3e f0 99 ef bd
       0.2958009 -0.11321067 0.2884633 -0.11699283
000070 b3 d1 2e be 3b 8a d8 bd 10 cc 07 be b6 db e2 bd
       -0.17072181 -0.1057324 -0.13261437 -0.11077063

conv_layers.5.0.conv.weight f4 [32, 32, 3, 3]
000000 cd 3a c9 be 4c db c8 be 3f ef b0 be 54 21 c0 be
       -0.39302674 -0.3922981 -0.3455753 -0.37525427
000010 3f 19 c3 be 50 e9 c2 be 60 3c c4 be 1a 9a c3 be
       -0.381052 -0.38068628 -0.38327312 -0.38203508
000020 aa 5e bf be c3 2b db 3e dd fd be 3e 28 ab da 3e
       -0.3737691 0.42806825 0.37303057 0.42708707
000030 b8 8d d6 3e a7 07 c6 3e a6 7c d5 3e 1f 76 d7 3e
       0.41904998 0.38677713 0.41696662 0.42082307
000040 8d 8e d1 3e 44 79 d6 3e 75 6a ec be 39 5d e2 be
       0.4092907 0.41889393 -0.4617497 -0.44211748
000050 16 2b c6 be 9d ed c9 be d9 fb cd be 0f e5 da be
       -0.38704747 -0.39439097 -0.40231207 -0.42752883
000060 30 44 d7 be 43 52 e7 be cd 7c b8 be 50 9b e5 3e
       -0.4204421 -0.45179948 -0.36032715 0.44845057
000070 f6 e2 e1 3e a0 3a bb 3e 62 b1 c8 3e 58 13 d0 3e
       0.4411847 0.36568165 0.39197832 0.40639758
000080 ea 93 cc 3e 51 fb bd 3e f4 7f c6 3e d5 5c c1 3e
       0.399566 0.37105802 0.38769495 0.37766138
000090 23 03 d4 3e 12 f8 db 3e 52 48 b9 3e 2c 8e da 3e
       0.41408643 0.429627 0.3618799 0.42686594
0000a0 f5 92 c9 3e 46 51 c7 3e ad 36 b8 3e 59 97 ca 3e
       0.39369932 0.38929194 0.35979214 0.39568594
0000b0 d0 21 ca 3e fc 07 df 3e ee f9 d0 3e b8 4e c4 3e
       0.39478922 0.4356078 0.4081568 0.38341308
0000c0 d4 58 e0 3e b4 a3 cc 3e 86 1f c6 3e b3 51 d4 3e
       0.4381777 0.39968646 0.38695925 0.41468582
0000d0 77 51 d4 3e 73 2f c5 3e ca 1b cc be a5 e8 cd be
       0.41468403 0.38512763 -0.3986495 -0.40216556
0000e0 87 9a b7 be e4 0b c4 be e6 c9 bf be d6 b3 bc be
       -0.35860083 -0.38290322 -0.37458724 -0.36855954
0000f0 50 e1 c4 be 92 51 c4 be b8 c4 ae be d8 ed b7 3e
       -0.3845315 -0.38343483 -0.3413446 0.35923648
000100 51 ee bd 3e d9 1c c7 3e c7 36 cf 3e 7c 96 a7 3e
       0.37095883 0.38889197 0.4047148 0.32731998
000110 34 db bd 3e ac 68 be 3e 39 99 a8 3e 61 86 aa 3e
       0.370813 0.37189233 0.329294 0.33305648
000120 45 53 e4 be c2 fe c0 be c6 4f b9 be 19 3e d9 be
       -0.4459478 -0.37694365 -0.36193675 -0.4243019
000130 10 18 cd be 60 cd bc be 5e 20 de be 1d 11 d8 be
       -0.4005742 -0.3687544 -0.4338407 -0.42200556
000140 0f 40 c0 be 0a fb e5 3e 6e a0 dc 3e dd f4 d7 3e
       -0.37548873 0.4491809 0.43091148 0.42179003
000150 8c 46 df 3e 1b 13 e1 3e 44 77 c2 3e db f7 cb 3e
       0.4360851 0.4395989 0.37981617 0.39837536
000160 5f c1 c7 3e 0f 6f c5 3e 51 0c bb be 15 53 c4 be
       0.39014718 0.38561293 -0.36532834 -0.38344637
000170 a6 20 b6 be 03 c7 bd be 5f 93 ba be bf 27 b7 be
       -0.35571784 -0.37065896 -0.3644056 -0.3577251
000180 4a 80 c8 be 10 5e cf be 7b 1c c8 be 77 d0 d2 be
       -0.39160377 -0.40501451 -0.3908423 -0.4117467
000190 08 dc ca be 43 26 d1 be 89 29 df be 71 00 d1 be
       -0.39620996 -0.40849504 -0.43586376 -0.4082065
0001a0 27 f6 cb be 10 cd ca be a3 2f c9 be 34 9a cc be
       -0.39836237 -0.39609575 -0.39294156 -0.39961398
0001b0 ea cc ca 3e ce e5 be 3e 32 64 b8 3e 84 1a ce 3e
       0.39609462 0.37284702 0.36013943 0.40254605
0001c0 b4 a4 c1 3e b5 04 cf 3e 52 0a c9 3e b7 86 cd 3e
       0.3782097 0.4043328 0.39265686 0.40141842
0001d0 e9 9a cb 3e 08 83 c3 3e b2 26 c3 3e dc dc cd 3e
       0.39766625 0.38185906 0.3811546 0.40207565
0001e0 e0 0f c9 3e 8b dc ca 3e a4 b8 ce 3e 05 4b c9 3e
       0.39269924 0.39621386 0.40375245 0.39315048
0001f0 eb a9 d2 3e 57 4a b2 3e f9 91 c8 3e 43 df d6 3e
       0.41145262 0.34822342 0.39173868 0.4196721
000200 80 f0 bc 3e d4 46 de 3e 79 ab c8 3e 1f 80 be 3e
       0.36902237 0.43413413 0.39193323 0.37207124
000210 ce c2 c4 3e 97 ec cc 3e 2c 68 c1 3e eb 5a d0 3e
       0.38429874 0.40024254 0.3777479 0.40694365
000220 5e cb db 3e 2d 4d c7 3e 56 f3 d8 3e 9b df db 3e
       0.42928594 0.38926068 0.4237315 0.42944035
000230 d9 a8 b5 3e 80 be c0 3e 74 85 d9 3e a1 48 b3 3e
       0.35480383 0.3764534 0.4248463 0.3501635
000240 2d f3 be 3e 65 fb cb 3e 01 6e b4 3e fc 8e c8 3e
       0.37294903 0.39840236 0.35240176 0.39171588
000250 e5 29 bb 3e 6e 7a d8 3e 66 c3 df 3e e9 6e d3 3e
       0.365554 0.42280906 0.43703765 0.41295555
000260 a8 eb b5 3e 80 41 bf 3e 4b 14 ca 3e ee 59 b3 3e
       0.35531354 0.3735466 0.39468607 0.35029548
000270 f3 9e bf 3e 37 1b c5 3e 9a 20 b8 3e 28 97 be 3e
       0.37425956 0.38497326 0.35962373 0.37224698
000280 d6 d8 c8 3e d5 6d c5 3e 47 42 b2 3e 49 54 d3 3e
       0.39227933 0.38560358 0.3481619 0.41275242
000290 2d c6 cd 3e c5 6f bf 3e 4a d3 c7 3e a6 9f af 3e
       0.4019026 0.3738996 0.39028388 0.3430149
0002a0 5c 25 a5 3e 7d 0d b7 3e 08 ba af 3e c1 70 c9 be
       0.32255065 0.35752478 0.34321618 -0.39343837
0002b0 63 de c9 be 08 1b c2 be c4 b5 c4 be 88 97 d2 be
       -0.3942748 -0.37911248 -0.38419926 -0.41131234
0002c0 99 c5 d8 be ae 58 dd be b2 d7 c7 be 41 cd bd be
       -0.42338255 -0.4323172 -0.3903175 -0.3707066
0002d0 75 8a ce be 64 06 c6 be e0 f6 d6 be ab c2 ba be
       -0.4034001 -0.3867675 -0.41985226 -0.36476645
0002e0 47 45 c0 be ee ab c4 be e8 fd c3 be 31 56 be be
       -0.37552854 -0.38412422 -0.38279653 -0.37175134
0002f0 e4 52 c8 be 19 2b d2 be 85 66 df be c5 2a be be
       -0.3912574 -0.41048506 -0.43632904 -0.37142006
000300 c6 9d b5 be df 19 d4 be ba 48 cd be 96 cb d8 be
       -0.35471934 -0.41425988 -0.40094548 -0.42342824
000310 96 d6 bb be d4 d3 c2 be ad 2d bb be 7f 61 ca be
       -0.36687154 -0.38052237 -0.36558285 -0.3952751
000320 91 53 c8 be ee ef c6 be 25 0e c5 be 2d f6 b7 be
       -0.39126256 -0.38854927 -0.38487354 -0.35930005
000330 5c a6 cf be 34 79 d3 be ed 3b d1 be 13 75 d2 3e
       -0.4055661 -0.41303408 -0.40866032 0.41104946
000340 2e 0f bc 3e 6c b0 bd 3e 95 32 ca 3e 4f 75 d4 3e
       0.3673033 0.37048662 0.39491716 0.4149575
000350 50 62 b7 3e fd 34 ba 3e db de d7 3e ee ee c7 3e
       0.35817194 0.36368552 0.42162213 0.39049476
000360 e1 b3 ca 3e 7e 8f cc 3e 6f 1a c3 3e e8 79 dd 3e
       0.39590362 0.39953226 0.38106105 0.4325707
000370 40 f2 dc 3e 91 9f ce 3e 47 3a d4 3e a6 da c3 3e
       0.43153572 0.40356115 0.41450712 0.38252753
000380 1b c8 c4 3e 74 ee cc be 00 ba cb be 38 fd c4 be
       0.38433918 -0.40025675 -0.39790344 -0.3847444
000390 11 2b c6 be e3 55 c3 be 78 7c c6 be 81 d0 ca be
       -0.38704732 -0.38151464 -0.38766837 -0.396122
0003a0 76 0d c2 be 76 45 bc be d6 38 d0 3e af 22 db 3e
       -0.37900895 -0.36771744 0.40668362 0.427999
0003b0 0f 1a c3 3e 00 a7 de 3e a0 ce d6 3e 91 56 ce 3e
       0.3810582 0.43486786 0.41954517 0.4030042
0003c0 1d 2e cb 3e 47 64 c1 3e 3e 93 c8 3e 2d 6f bf be
       0.3968362 0.37771818 0.39174837 -0.37389508
0003d0 11 40 be be fe 80 c3 be 92 63 ba be bd fb bc be
       -0.37158254 -0.3818435 -0.3640409 -0.3691081
0003e0 7e 97 b7 be 6e 50 d1 be 2b f1 b6 be 3c dd cd be
       -0.35857767 -0.40881675 -0.35730872 -0.4020785
0003f0 f4 4d b7 be eb 04 c9 be f6 53 c8 be 3f 4b b5 be
       -0.3580166 -0.39261565 -0.39126557 -0.3540897

conv_layers.5.0.conv.bias f4 [32]
000000 f0 82 bd 3e 8f ba b6 bc a8 5c 94 3e 9c c6 4f bd
       0.3701396 -0.022305755 0.2897694 -0.050726518
000010 04 b3 c1 3e 99 6f b8 3e 30 6c 81 3e 4c 32 a2 3e
       0.3783189 0.36022642 0.25277853 0.31678998
000020 f2 1a 70 3e 8a b1 3f bd 34 2d b4 3e f7 2b b5 3e
       0.23447779 -0.046800174 0.35190737 0.35385105
000030 2d e1 88 3e b1 cf 5d bd 96 7a 93 bd 0f 9c bb 3e
       0.26734295 -0.054153148 -0.07201116 0.366425
000040 7e ec cc bd 0d 59 ab bd 51 9d 9d bd 95 09 9d bd
       -0.10006045 -0.083665945 -0.07696021 -0.07667843
000050 fb 52 ad 3e 88 e6 8d 3e b7 62 ac 3e cc 8e 64 bc
       0.33852372 0.27714944 0.33669063 -0.013950061
000060 7f 08 9e 3e ae a3 d7 3e 06 b3 b2 3e 65 97 a9 bc
       0.30865857 0.42117065 0.3490221 -0.020702073
000070 a7 16 a9 bd d5 c5 b1 3e 36 11 57 bd 84 0d da bc
       -0.08256274 0.34721246 -0.052506648 -0.026617773

conv_layers.7.0.conv.weight f4 [16, 32, 3, 3]
000000 91 f5 b2 3e cc 92 c8 3e 93 30 d2 3e 73 8f da 3e
       0.34952977 0.39174497 0.41052684 0.42687568
000010 fe 47 b4 3e 50 69 a9 3e af 2e 5e 3d 3d ad 89 bd
       0.35211176 0.3308816 0.05424374 -0.06722496
000020 d7 14 2a bd b1 cc c9 be 9b 2d c4 be a9 4e aa be
       -0.04152378 -0.3941398 -0.38316044 -0.33263138
000030 eb e6 9c be 69 ea 84 be d4 88 a5 be 10 c2 27 3d
       -0.30644926 -0.2596009 -0.32330954 0.040956557
000040 df 77 6d 3d e7 e2 07 3e db c9 c4 3e 8c de ce 3e
       0.057975646 0.1327015 0.38435254 0.40404165
000050 16 64 bd 3e 23 cd aa 3e ff bc 9c 3e f2 e4 ac 3e
       0.36990422 0.33359632 0.30612943 0.3376842
000060 be 7b cc 3c 64 a1 db bd a9 c9 a1 bd e7 74 d2 be
       0.024961349 -0.10724142 -0.07899792 -0.41104814
000070 5c ed ae be ed 87 c6 be 75 3d bb be 74 ec 9e be
       -0.34165466 -0.38775578 -0.36570325 -0.31039774
000080 6a d8 bb be 12 cd 9b 3d 80 20 a6 3d 3e db b4 3d
       -0.36688548 0.076074734 0.08111668 0.0883088
000090 82 97 ad 3e c2 f1 a9 3e 4d d0 df 3e 68 27 de 3e
       0.33904654 0.3319226 0.43713608 0.4338944
0000a0 26 63 c6 3e 47 af b8 3e 91 25 cf 3c e1 35 94 bd
       0.3874752 0.36071226 0.025286468 -0.07236839
0000b0 4a 4a 17 bc 3a a3 ca 3e 7f bf c7 3e e8 ff d3 3e
       -0.0092340205 0.39577657 0.39013287 0.41406178
0000c0 79 59 d2 3e 6b 61 a9 3e bb d0 ac 3e 62 13 51 bc
       0.41083887 0.33082137 0.33753 -0.012760969
0000d0 1e d1 cb bd 9e e5 23 bc 33 f2 bf 3e 6a fd ae 3e
       -0.09951995 -0.0100034755 0.3748947 0.34177715
0000e0 32 54 cb 3e e4 05 b4 3e 05 30 a5 3e 75 67 c7 3e
       0.39712673 0.35160744 0.32263198 0.3894612
0000f0 64 55 c8 3c 59 0d ad bd 0c 48 16 bd a2 c9 bd 3e
       0.02445478 -0.084498115 -0.036689803 0.37067896
000100 59 55 b2 3e ae 9a bf 3e db 72 c0 3e d5 39 ad 3e
       0.3483074 0.374227 0.37587628 0.33833185
000110 1a 90 c4 3e 16 65 48 3c fd 58 d1 bd 8f 89 d9 bc
       0.3839119 0.012231132 -0.10222051 -0.02655485
000120 36 6e a3 3e 94 20 b8 3e 50 71 b2 3e 2f a2 b4 3e
       0.31920022 0.35962355 0.34852076 0.35279986
000130 c3 a9 b7 3e 23 51 b5 3e 97 be be 3c 94 b2 cf bd
       0.35871705 0.35413465 0.02328424 -0.10141483
000140 44 80 8f bc 2d a2 be be 62 29 b2 be 00 22 d5 be
       -0.017517217 -0.37233105 -0.34797198 -0.41627502
000150 99 55 c5 be 8e 93 b0 be 65 cf b1 be 05 9b 03 3d
       -0.38541868 -0.34487575 -0.34728542 0.03213026
000160 43 68 e5 3d ef 52 51 3d 8b a0 c8 3e d9 47 c4 3e
       0.11201527 0.051104482 0.39184985 0.38336065
000170 cf c5 c7 3e 82 1e a9 3e 3e 1e cd 3e b3 37 b7 3e
       0.39018103 0.33031088 0.40062135 0.35784683
000180 ec 2b 34 3c 10 58 18 bd b8 5e 44 3c a8 c6 b4 3e
       0.0109968 -0.037193358 0.011985473 0.35307813
000190 cf 7c bb 3e 9d 42 e0 3e 3c 2e d4 3e 01 02 ba 3e
       0.3661866 0.43800822 0.41441524 0.36329654
0001a0 88 d8 bf 3e 90 4b 42 bc 61 9b be bd 66 a3 86 bd
       0.37469888 -0.011858836 -0.0930698 -0.065741345
0001b0 03 f1 ac 3e 03 bf ad 3e e1 5d bd 3e f2 fd a9 3e
       0.33777627 0.33934793 0.36985686 0.33201557
0001c0 f1 e6 94 3e d6 99 9e 3e 4c 12 b3 bd e4 16 08 bd
       0.29082444 0.30976743 -0.08743724 -0.033224955
0001d0 2f 2f a8 bc 69 ac cd be d1 90 d4 be de c2 bb be
       -0.020530311 -0.401706 -0.41516736 -0.3667211
0001e0 c2 f5 af be b2 b0 a3 be 0d 62 b2 be f5 b2 0f 3d
       -0.34367186 -0.31970745 -0.34840432 0.035082776
0001f0 a5 35 f0 3d f8 fb e7 3d 38 30 d6 be de 31 b6 be
       0.11728982 0.11327356 -0.41833663 -0.3558492
000200 4b 07 d0 be e0 7f c6 be 2e 72 a7 be 80 ee c0 be
       -0.40630564 -0.38769436 -0.327043 -0.3768196
000210 1c ff 7c 3d d0 f6 e3 3d a9 21 3a 3d 3a 91 bc 3e
       0.06176673 0.1113106 0.045442257 0.3682955
000220 aa 3a d8 3e 8b dd d2 3e a5 7a bc 3e 77 2d cb 3e
       0.42232257 0.4118465 0.3681232 0.39683124
000230 38 a4 b4 3e bc 89 35 bc b6 9f 02 be 00 e3 21 bd
       0.3528154 -0.011080202 -0.12756237 -0.039523125
000240 79 be d5 be 62 ee b9 be 8e 0f cc be 12 0b c3 be
       -0.41746882 -0.36314684 -0.39855617 -0.38094383
000250 62 20 9d be 33 db a6 be bb c0 8d 3d a8 01 cd 3d
       -0.3068877 -0.3258911 0.06921526 0.100100815
000260 f2 38 e0 3d b0 82 cf be 9b 84 c2 be a5 f9 d9 be
       0.109483615 -0.40529394 -0.37991795 -0.42573276
000270 80 62 cd be 71 e4 8a be f4 44 ba be ef c7 40 3d
       -0.40114212 -0.27127412 -0.36380732 0.04706567
000280 ba c6 5d 3d fa b9 48 3d 68 75 bc be fb 34 b7 be
       0.0541446 0.049005486 -0.36808324 -0.35782608
000290 71 f4 cc be 29 ae be be 81 7a a0 be 77 a3 c2 be
       -0.40030244 -0.3724225 -0.31343463 -0.3801534
0002a0 e2 55 c3 3d f9 d1 19 3e 7b a1 e5 3d 42 eb a9 be
       0.09537865 0.15021504 0.112124406 -0.331873
0002b0 db 4f ac be ae fe c7 be 94 7d a6 be 5f 10 ab be
       -0.33654675 -0.39061493 -0.32517684 -0.33410928
0002c0 f1 82 c0 be 2c bb 79 3d 97 7a d2 3d 08 70 5b 3d
       -0.375999 0.060969517 0.102772884 0.05357364
0002d0 37 23 b1 3e a4 86 b4 3e 9a 73 cc 3e a7 71 b5 3e
       0.3459718 0.35258973 0.39931947 0.35438272
0002e0 45 03 a4 3e 5d ed c8 3e d3 ef de bc 59 41 c9 bd
       0.32033744 0.39243594 -0.027213966 -0.09826917
0002f0 da 2f 0b bd 24 1a cd 3e c6 06 bf 3e 6a 65 d8 3e
       -0.03398118 0.40059006 0.37309855 0.42264873
000300 ba 38 b9 3e 1d 61 b0 3e 4a 01 ca 3e ae 39 00 bd
       0.3617609 0.34449092 0.39454108 -0.031305008
000310 1e e1 d2 bd d0 a7 e7 bb a7 a2 cb 3e c0 8b ce 3e
       -0.10296844 -0.0070695654 0.3977253 0.40340996
000320 01 46 bf 3e a9 77 d6 3e 55 64 a3 3e 68 b5 c2 3e
       0.37358096 0.41888168 0.31912485 0.38029027
000330 8a 53 e3 ba ac 9b 73 bd 72 65 1d bd 2b 23 ba be
       -0.0017343622 -0.059474632 -0.038426824 -0.36354956
000340 c9 6b b2 be 4a 39 e2 be 3f c8 b9 be c3 fc a8 be
       -0.3484786 -0.44184333 -0.36285588 -0.33005342
000350 1c 76 9b be 71 31 3d 3d 43 db c0 3d 89 a2 da 3c
       -0.30363548 0.04618973 0.09416821 0.02668883
000360 c6 85 b0 3e d6 4f ca 3e b7 9e c7 3e e6 03 c2 3e
       0.3447706 0.39514035 0.38988277 0.378936
000370 95 5a a5 3e 2e bb a4 3e 81 4f 74 bc 33 97 c6 bd
       0.3229567 0.32174057 -0.014911533 -0.09696808
000380 f2 c4 69 bd ae 68 dd 3e 3d ed bd 3e 70 fa d0 3e
       -0.057072587 0.43243927 0.3709506 0.4081607
000390 88 03 bf 3e 0c e5 c6 3e 39 61 b6 3e 5c 82 d4 bc
       0.37307382 0.38846624 0.3562105 -0.025941066
0003a0 72 0f 3b bd 11 c1 9b bd fc 99 ca 3e 1b 1e c6 3e
       -0.045669027 -0.07605184 0.39570606 0.38694844
0003b0 f2 de c3 3e ac 65 bc 3e 6a 15 a3 3e d2 1e c0 3e
       0.3825603 0.3679632 0.31852275 0.37523514
0003c0 72 93 20 bd bb b8 f3 bd 49 d8 26 bd d7 01 b3 be
       -0.039203115 -0.11900469 -0.04073361 -0.3496234
0003d0 e1 e9 ce be 97 2c c0 be 5f 46 b4 be 43 6f af be
       -0.4041281 -0.3753402 -0.3520994 -0.34264573
0003e0 30 3c bc be 28 f7 28 3d 35 d0 b1 3d 78 89 5c 3d
       -0.3676467 0.04125133 0.086822905 0.053842038
0003f0 7d 19 ba be e1 e7 bf be 20 91 c5 be c0 b8 ac be
       -0.3634757 -0.37481597 -0.38587284 -0.33734703

conv_layers.7.0.conv.bias f4 [16]
000000 32 5a 24 3e 10 50 98 3e 37 f9 a6 3e 37 84 93 3e
       0.16050032 0.29748583 0.3261201 0.2881181
000010 34 ab aa 3e 10 d4 a9 bc dd 1a 45 be d8 95 b6 3e
       0.33333743 -0.020731002 -0.19248529 0.35661197
000020 ba 26 ea bd b4 c1 57 3b 2e 46 9d 3e b7 ae ba 3e
       -0.11433168 0.0032921853 0.30717605 0.36461422
000030 c2 0b ab 3e b8 be be 3e 72 54 bb bc 06 2e 3c bb
       0.33407408 0.37254882 -0.022867415 -0.0028713956

linear_layers.0.weight f4 [64, 400]
000000 1c 9f 59 3d 50 59 3f 3e bc 0c 1f 3e 72 ea 03 3e
       0.053130254 0.18686414 0.15532202 0.12882403
000010 0a e9 4f 3e 0a 42 ae 3d 1b 27 5c 3e 79 7a 21 3e
       0.20303741 0.0850869 0.21499293 0.15769376
000020 2d c1 22 3e c7 ad 34 3e b2 05 5b 3d 4f 98 47 3e
       0.15894003 0.17644416 0.05347223 0.19491695
000030 bf e6 c0 3d 9a 6e 7c 3d 20 0f 0b 3e 22 02 c7 bc
       0.09419011 0.061628915 0.13579988 -0.02429301
000040 9e 4f 3b 3e fc 71 15 3d f1 6e bf bb ac d5 a6 3d
       0.1829209 0.036485657 -0.0058420827 0.081462234
000050 2e ba 46 3c 6e ae 1f 3e bd 5c 2e 3d bf 21 d0 3c
       0.01212935 0.15593883 0.04256891 0.025406716
000060 b3 e2 f4 3d 99 e0 e0 bc bc 8f 2b 3e 8e 1d 14 3e
       0.11957302 -0.027450847 0.16754049 0.14464399
000070 ed 38 40 3d b1 f4 7a 3e 42 87 27 bd 32 12 3a 3e
       0.04692929 0.24507405 -0.040900476 0.18171003
000080 de 6c db 3d 21 01 4b 3d 45 03 5f 3e 20 c7 df bd
       0.10714124 0.049561623 0.21778591 -0.10926652
000090 86 70 59 3e 67 97 13 3d 41 31 ba 3c 3c 7c 56 3e
       0.2123433 0.03603306 0.022728564 0.20945829
0000a0 18 59 c1 bd 8d b8 29 3e a3 20 ef bc 96 fe 1b 3c
       -0.094408214 0.16574307 -0.029190367 0.009521147
0000b0 52 6c 0e 3e 86 a0 c0 bd ec 23 4f 3e 8a dd ac bb
       0.13908508 -0.094056174 0.20228547 -0.005275433
0000c0 0d ec bf 3a db 3c 20 3e 81 b3 10 3e df e3 00 3e
       0.0014642492 0.15648215 0.14130975 0.12586926
0000d0 82 22 d9 3d 12 04 af 3d ae dc 0e 3d 68 ca fd 3d
       0.10602285 0.08545698 0.034878425 0.123921216
0000e0 ab f2 cb 3d e4 d8 f4 3d 47 57 66 3d 44 5e 88 3d
       0.099583946 0.11955431 0.056235578 0.06658605
0000f0 e9 4a ca 3d b1 2e 3b 3d f1 49 ea 3d 7f 33 5d bd
       0.09877569 0.045698825 0.114398845 -0.05400419
000100 1a 6e 32 3d 91 0f e2 3d 40 eb 97 3d 91 cc a5 3c
       0.043562032 0.11038125 0.07417917 0.020239146
000110 c8 3c 80 3a c5 1e e2 3c 36 7d b6 3d 4b 22 cd 3d
       0.0009783739 0.027602563 0.08910601 0.100163065
000120 55 04 d1 ba a3 1b 98 bd dd 33 81 3d 36 28 18 3e
       -0.0015946726 -0.07427146 0.0630872 0.1485909
000130 f7 d6 5b 3e 34 a8 ce 3d c5 a6 db 3d eb d9 ea 3d
       0.21468721 0.10090676 0.10725168 0.11467346
000140 c0 07 db 3d 7b 2a cb 3d 44 c9 7f 3d db af dc 3d
       0.106948376 0.09920212 0.0624478 0.10775729
000150 3e 79 a2 3d 29 35 64 3d cb ab e0 3d 36 28 98 3d
       0.07933281 0.05571476 0.10970267 0.07429545
000160 dc 19 9a bc ac e2 0f 3d 0b 63 43 3d f8 18 89 3d
       -0.018811159 0.03512828 0.047701877 0.066942155
000170 7a 96 81 3d 60 4a 12 bb 98 bb ac 3b a3 ab e6 3c
       0.06327529 -0.0022322163 0.0052713864 0.028158015
000180 df 57 ae 3d 52 6e cb 3c 1c 9f 9f 3c a7 eb 12 3c
       0.08512854 0.024832878 0.019485049 0.008967317
000190 f7 c6 f9 3d 1b 05 4a 3e 09 e9 19 3e 6d b5 22 3d
       0.12196153 0.1972851 0.15030302 0.039723802
0001a0 ca df e4 3d 90 58 45 3d d9 0b 03 3e 4e 80 f5 3d
       0.11175497 0.048180163 0.12797488 0.11987363
0001b0 b6 78 1a 3d 74 51 d9 3d be 31 10 3c 53 b2 fb 3d
       0.037712775 0.10611239 0.008800922 0.12289872
0001c0 2a b2 a2 3c 14 56 04 3d 86 b5 b9 3d 32 6f 95 bc
       0.019860346 0.032308653 0.09067826 -0.018241499
0001d0 3b e9 d3 3d 7b 78 5a 3d a5 33 5d 3c 77 a1 3c 3b
       0.103472196 0.053337555 0.013501083 0.0028782764
0001e0 83 7b 2b bc 6a 16 e6 3d f4 39 71 bb 72 c9 ea b9
       -0.010466459 0.11234744 -0.0036808224 -0.00044782046
0001f0 64 3d 9a 3d d1 f7 a6 bd 2e 33 ed bd 99 83 76 bd
       0.075312406 -0.08152736 -0.115820274 -0.060184095
000200 2b b8 a5 bd 82 00 06 be 7e eb 41 3d 32 7c a8 3d
       -0.08091768 -0.13086131 0.047343723 0.082268134
000210 80 49 f4 3d 54 6c 99 3b 52 82 03 3e db 08 4e 3d
       0.119280815 0.004682103 0.12842682 0.050301414
000220 5f 62 b0 3d 81 a5 e7 3d e8 6a 85 3d 60 df dd 3d
       0.08612513 0.11310864 0.065145314 0.10833621
000230 1e 45 d6 bd 62 34 ab 3d d8 66 e0 bc 6f 19 89 bd
       -0.10462402 0.083596006 -0.02739279 -0.06694304
000240 9e d1 ba 3d 56 c2 8e 3d 84 1a 1f 3e 4f 01 5b 3d
       0.091220126 0.069706604 0.15537459 0.053468045
000250 53 49 0a bd b9 a6 d5 3d b2 c8 a6 bd ce e1 de bd
       -0.033761334 0.104321904 -0.08143748 -0.108829126
000260 f5 11 f3 bd 83 78 a5 bd 87 5b c8 bd a8 14 0f bd
       -0.118686594 -0.080796264 -0.097830825 -0.03493181
000270 85 91 14 be 88 0a 86 bd 0c b7 8f bd 41 f3 00 be
       -0.14508636 -0.065449774 -0.07017335 -0.12592794
000280 10 93 43 bd e9 b2 13 be 9f 32 5a bd 07 74 2b bd
       -0.04774767 -0.14423718 -0.053270932 -0.0418587
000290 14 42 5b ba d7 dc 98 bb ee 14 ac bd 62 4d 9b 3c
       -0.00083640334 -0.004664998 -0.084024295 0.018957797
0002a0 41 dd f2 3b 3a e0 e0 3c 58 b5 61 bb e4 60 bb bd
       0.0074116294 0.02745067 -0.0034440365 -0.0914934
0002b0 e9 60 3f bc de 1f 9c bb 00 2a f2 3c 31 98 42 3d
       -0.01168082 -0.004764541 0.029561043 0.047508422
0002c0 a3 c1 0b 3e ed e8 0b 3e ca 86 33 bc e2 26 0f 3e
       0.13648085 0.13663073 -0.010957429 0.13979676
0002d0 84 6d 41 3d 62 f3 2c 3e b9 75 96 3d 8a e4 e0 bb
       0.047223583 0.16889718 0.073466726 -0.0068631815
0002e0 a2 10 11 3e 9e c0 35 bd b4 48 49 3e 54 62 47 3d
       0.14166501 -0.044373147 0.1965664 0.048677757
0002f0 64 9f 6a bb ce 64 18 3e fb 7a f0 bc b4 9a f9 3d
       -0.003580057 0.14882204 -0.029355517 0.121877104
000300 01 46 f9 3c 61 0c a5 bd 75 0e fe 3d 97 9d 5b bc
       0.030428888 -0.08059002 0.12405101 -0.013404272
000310 f2 dd c6 3d a1 d5 4f 3d 30 13 77 bd 73 a9 b2 3d
       0.097103015 0.05074084 -0.060321033 0.08723726
000320 07 ac 42 bd 88 f1 36 be 6e f2 08 be df db 5c bd
       -0.04752734 -0.17865574 -0.1337373 -0.053920623
000330 cc d3 26 be 50 f5 42 bc b0 69 c2 bd b7 7f 05 bd
       -0.16291732 -0.011899307 -0.094928145 -0.0325925
000340 a6 d8 4b 3d 4b 54 1a be 0f 5e 9c 3d e5 c0 e1 bd
       0.04976716 -0.15071218 0.07635128 -0.1102312
000350 b9 50 90 bc a3 77 39 3d 72 58 bc bd 68 bf 9c 3d
       -0.017616617 0.04528011 -0.09196557 0.07653695
000360 bd ef ec bd 06 f2 ba ba b3 dc c1 3d c9 c4 1e be
       -0.11569164 -0.0014262802 0.09465923 -0.15504755
000370 36 64 c8 3d 29 c4 09 3c 90 0c d5 3b 74 52 2e 3d
       0.09784739 0.008408585 0.0065017417 0.042559102
000380 27 d4 15 be bb 6f f6 bd 9c c9 9a bd e9 36 a5 bd
       -0.14631711 -0.1203303 -0.07557985 -0.08067114
000390 48 f1 a2 bd fd ad 10 be 9b ad 97 bd 28 92 16 be
       -0.07956177 -0.14128871 -0.074061595 -0.14704192
0003a0 ce 6b 39 bd 4c 7f 52 bd af 29 d3 bd f5 5b 01 bd
       -0.045268826 -0.05139093 -0.10310685 -0.031581838
0003b0 63 78 ec bd 94 77 da 3b fa 48 07 3d 28 8d d3 bd
       -0.115463994 0.006667087 0.03302858 -0.10329658
0003c0 fa 44 0c 3d c6 f1 0c be f7 b2 94 bb b2 96 ec 3c
       0.03424547 -0.13764104 -0.004537936 0.02888045
0003d0 90 65 b7 bc cb 48 20 3d ae 34 8f bd 57 38 2f 3c
       -0.022387296 0.03913192 -0.0699247 0.010694585
0003e0 e8 51 f2 3c 0c 8f 50 bd ff 74 23 3e 18 8b 04 3e
       0.029580072 -0.05091767 0.15962599 0.12943685
0003f0 a5 00 16 3e a5 b3 eb 3d 28 df 66 3d f4 4a 05 3e
       0.14648683 0.11508874 0.056365162 0.13016874

linear_layers.0.bias f4 [64]
000000 d7 b6 ce 3c 29 8d 94 3e f2 05 0d bd 12 d6 88 3e
       0.02523367 0.29013947 -0.034429498 0.26725823
000010 9c 78 84 3e e5 84 cd bd 92 b6 36 3e 83 51 75 bd
       0.25873268 -0.10035113 0.17843083 -0.05989219
000020 dc 59 38 bc 37 81 ae bd b2 54 a3 3e 65 08 85 3e
       -0.011251893 -0.085207395 0.31900555 0.25982967
000030 06 87 c6 bb 5d d4 41 3e 28 d8 47 3e 00 43 86 3e
       -0.0060585765 0.18928666 0.19516051 0.26222992
000040 67 b5 a5 bd f3 6b 8e 3e 73 9f 3c bd 94 99 52 3e
       -0.080912404 0.27816734 -0.0460505 0.20566398
000050 98 bb 8c 3e 66 c1 cf bc e8 85 4d bd cd d6 7f 3e
       0.27486873 -0.025360774 -0.05017653 0.24984284
000060 8e 47 8a 3e 7d 1d 7b 3e cd fb ea bc fc 9a f0 bd
       0.27007717 0.24522968 -0.028684521 -0.11748311
000070 18 69 89 3e 21 9d 25 bc 97 d8 14 bd 50 0a b2 bd
       0.26837993 -0.010108263 -0.03633937 -0.08693373
000080 63 e5 9a 3e a3 ff 50 bd bc 5a 7e 3e 43 73 7a 3e
       0.30253133 -0.051025044 0.248393 0.24458031
000090 1c 4c df bc ab 53 9d 3e be cf 94 bd 62 43 99 3e
       -0.027257971 0.30727896 -0.07266186 0.29934222
0000a0 3b 53 9e 3e ac 71 3c 3e e2 79 58 bd 30 85 90 bd
       0.30922875 0.18402737 -0.05285061 -0.070566535
0000b0 94 bf 7c 3e dd c3 35 3e b1 e1 71 3e 08 5a 8b bd
       0.24682456 0.17750497 0.2362125 -0.068042815
0000c0 a1 4e 78 3e 31 b8 9e 3e 3b 46 81 bd 64 4a a8 3e
       0.24248745 0.30999902 -0.063122235 0.32869256
0000d0 89 49 83 3e 93 bf b5 bc 6a 5e 46 bd cb cc 9a 3e
       0.2564204 -0.022186076 -0.048429884 0.3023437
0000e0 33 95 87 3e 35 2f 88 3e 2d 5f 6e 3e c2 8b 8d 3e
       0.26481017 0.26598516 0.23278494 0.2764569
0000f0 df 9e 8f bd 27 9c 30 bc 3f 50 8d 3e bf ac 4e bd
       -0.07012724 -0.010779417 0.27600285 -0.050457712
