models/model_1726068861285/model.pth (torch, 227178 bytes, 14 tensors)

conv_layers.0.0.conv.weight f4 [16, 10, 3, 3]
00000000: 213b 2cb3 58db 8730 8482 d7b4 20e5 b8b4
00000010: eebd 9830 4f01 29b5 0b38 7838 d7a0 c735
00000020: 0cf7 ee32 c4e5 d231 f3e0 62b8 9551 fdb1
00000030: 4ee3 f8b3 d714 c5b8 24b3 47b2 8cb3 22b5
00000040: 76f5 adb2 21ce 1238 f015 f038 d1b3 beb2
00000050: 8466 1233 4a29 6032 9033 8e30 aa30 fe38
00000060: 7e23 28b3 534b 8cb3 f9d2 c6b4 1920 29b6
00000070: c418 2933 9c1b e7af f94f 1bb6 9fac a732
00000080: 35ad bd32 8c80 8733 b10c 4332 ff6b dab0
00000090: 2a38 4fb3 79c2 a9b3 12f2 4c30 c6a9 a4b8
000000a0: 716d 1533 0c63 0e32 dafd 29b2 f2a6 1a32
000000b0: f862 a0b4 bd0b 1f33 3e67 1733 acfa c9b1
000000c0: f62d 6731 8f51 0a33 7344 9035 92af be32
000000d0: 6a74 6732 b4fe 1230 684f 05b2 c59b 6232
000000e0: 9203 4634 48fb 9435 99a6 e6b4 46b2 b037
000000f0: 8717 d232 1e51 1832 ad1a ee35 3004 fab2
00000100: 2687 63b2 7af6 d834 ecd4 8fb3 d636 f832
00000110: 38b5 d234 46b8 1f32 34ac 6333 07b5 f032
00000120: c0e9 be34 e8cd cb32 a0bf 6db3 6f1b 8433
00000130: 9d7d aab2 0730 8eb3 1bef 08b2 a73f 17b2
00000140: 8632 a0b2 ba67 23b6 284d fd31 f745 e2b2
00000150: 0c41 bdb7 6af4 d0b1 9ae8 fe35 80be 87b0
00000160: 908a bd32 a494 5032 9368 0633 429e 6634
00000170: 16a6 9bb7 bc5b e2af 5e05 5e30 c4e0 3db2
00000180: 938c 1334 7466 e62d 557c fa34 0733 5fb3
00000190: 6f1e 27b6 042d f833 bbad b431 89a7 1134
000001a0: d003 1cb6 e2ed a1b1 b39c c6b4 a60c 3033
000001b0: d660 34b0 203d 1d36 c15a 28b5 1a81 a7b2
000001c0: 9a62 91b2 9019 bbb1 d679 1fb2 f852 5330
000001d0: c847 36b1 d6a0 f031 b413 f1b2 8b25 f5b7
000001e0: 30f4 2130 b303 69b2 8238 9d31 18d4 f138
000001f0: 8262 e7b7 3efc d338 73ce b8b4 6d8d 162f
00000200: 9c53 f930 b668 11b4 18f9 2736 2f7b 3f38
00000210: 0884 29b2 622c 1538 b248 1cb2 733e 2131
00000220: 6f9d 4732 24c1 15b2 904f 2d2e eb9b 12b4
00000230: f95a 2a31 316b 4e30 ca29 ff32 0d67 1532
00000240: 41b9 bd38 3b91 0031 96a9 0b30 a46d 2533
00000250: 76f3 2738 be9f f532 502f c4af e717 1836
00000260: 8cab bdb3 18fc c9b5 86c3 39b2 0220 aa31
00000270: c8a6 1338 1072 0632 9e3a c9b0 3dee 1eaf
00000280: 58a4 5f31 36a3 bdb2 c861 4b31 3ec7 e234
00000290: b7ad ee32 4b34 96b2 b0e4 9434 fc5e a635
000002a0: 8c3d 12b4 368b 7d32 07e4 deb1 108e 8db4
000002b0: 2341 bb32 c2b2 c134 78b3 cab4 d897 0639
000002c0: fa26 03b4 3367 5bb2 db85 0c34 0266 4e33
000002d0: a844 392f 505e dcb7 37a7 7834 29e8 e1b2
000002e0: 29ff 96b1 c717 92b0 10ce b9b2 459a 7cb2
000002f0: 0c17 e535 1ee9 e0b1 e294 4a32 9c90 c8b4
00000300: 685d 8eb3 7381 0e33 1888 da34 bb14 58b1
00000310: 5edf 82b3 1a10 9bb3 18ac 20b6 08a5 44b4
00000320: 246a 24b4 ab66 c5b1 9df1 b6b8 29b9 2236
00000330: 1e1c 2433 60f0 daae 916c 0636 7cc0 1f35
00000340: 8d5c 16b3 dc65 9138 49f0 37b2 2eeb 25b6
00000350: fef8 e2b0 1219 02b4 4be0 2e33 6ae5 14b2
00000360: 303e d233 9cf4 1fb2 115e cbb7 0c5b 1034
00000370: d69f 5f32 cbab 26b8 e67f db32 609e 4931
00000380: 9fef 65b2 9e67 8330 5b9b 7435 2779 7db2
00000390: 7eb9 b9b0 e1de 2e32 7914 c9b4 853b 97b2
000003a0: 1144 0c31 2fd7 7bb2 4cb7 afb3 2c15 0830
000003b0: 457a 1538 0e12 0cb4 0bc4 b82e 9003 ffaf
000003c0: 703e 00b1 5233 a1b2 803d 2b30 e692 5131
000003d0: 69d5 a3b8 3156 8833 c107 d532 b336 1633
000003e0: e179 8fb3 29c8 ca34 5bd0 bcb5 5d29 46b3
000003f0: 57a7 a6b5 4997 ee31 7065 8935 0ca7 8734
-4.0100648e-08 9.884884e-10 -4.0141833e-07 -3.443938e-07 1.1113437e-09 -6.295931e-07 5.918e-05 1.4873466e-06
2.781919e-08 6.1379257e-09 -5.40921e-05 -7.372544e-09 -1.15897464e-07 -9.397574e-05 -1.1624056e-08 -6.061098e-07
-2.0251473e-08 3.5001085e-05 0.00011448178 -2.2200682e-08 3.408651e-08 1.3047904e-08 1.0346515e-09 0.00012120728
-3.9147828e-08 -6.5329594e-08 -3.7033877e-07 -2.5201646e-06 3.9370903e-08 -4.2038273e-10 -2.314335e-06 1.9519858e-08
2.2081261e-08 6.30981e-08 1.135338e-08 -1.5892282e-09 -4.8247024e-08 -7.90505e-08 7.455877e-10 -7.851752e-05
3.4791302e-08 8.2880085e-09 -9.894814e-09 9.001939e-09 -2.9874332e-07 3.703075e-08 3.5251325e-08 -5.878368e-09
3.364105e-09 3.2204806e-08 1.0748757e-06 2.2198751e-08 1.3472439e-08 5.3476445e-10 -7.759674e-09 1.3190349e-08
1.8441486e-07 1.1099992e-06 -4.2962054e-07 2.106385e-05 2.4457917e-08 8.866008e-09 1.7740145e-06 -2.9105735e-08
-1.3243868e-08 4.041247e-07 -6.697687e-08 2.8895936e-08 3.9247402e-07 9.296917e-09 5.3009174e-08 2.8021999e-08
3.5560333e-07 2.3725946e-08 -5.5355144e-08 6.151719e-08 -1.9847727e-08 -6.6211264e-08 -7.970608e-09 -8.80383e-09
-1.8649427e-08 -2.434927e-06 7.3720408e-09 -2.6341679e-08 -2.2560846e-05 -6.0813834e-09 1.8992171e-06 -9.876686e-10
2.2065507e-08 1.214099e-08 3.1294416e-08 2.1477993e-07 -1.855478e-05 -4.1174342e-10 8.0770757e-10 -1.1052354e-08
1.3741582e-07 2.6193471e-11 4.6656592e-07 -5.1967643e-08 -2.4902654e-06 1.1556588e-07 5.2584403e-09 1.3565126e-07
-2.324803e-06 -4.712761e-09 -3.6994388e-07 4.0989697e-08 -6.562123e-10 2.3430403e-06 -6.271694e-07 -1.9500067e-08
-1.692506e-08 -5.4453224e-09 -9.28272e-09 7.687926e-10 -2.6525289e-09 7.0032042e-09 -2.8065053e-08 -2.9223758e-05
5.891847e-10 -1.3563226e-08 4.5757256e-09 0.00011531281 -2.7583217e-05 0.00010108248 -3.4422882e-07 1.3692665e-10
1.8140898e-09 -1.3542271e-07 2.502993e-06 4.5652672e-05 -9.867115e-09 3.5565703e-05 -9.096924e-09 2.3464082e-09
1.1619121e-08 -8.716857e-09 3.940631e-11 -1.3654032e-07 2.4789968e-09 7.509469e-10 2.970491e-08 8.6963725e-09
9.0467285e-05 1.8709005e-09 5.08089e-10 3.8516774e-08 4.0042643e-05 2.8594396e-08 -3.568581e-10 2.2663678e-06
-8.8322025e-08 -1.5049036e-06 -1.0812874e-08 4.95129e-09 3.520286e-05 7.825761e-09 -1.4641335e-09 -1.4454656e-10
3.254419e-09 -2.2076716e-08 2.959597e-09 4.2240748e-07 2.7785843e-08 -1.7486078e-08 2.773354e-07 1.2395608e-06
-1.36197e-07 1.4758191e-08 -6.486974e-09 -2.636666e-07 2.1799286e-08 3.6079115e-07 -3.7756013e-07 0.00012835802
-1.2214505e-07 -1.27709425e-08 1.3087212e-07 4.8055888e-08 1.6850044e-10 -2.6269961e-05 2.3157632e-07 -2.6299022e-08
-4.394583e-09 -1.0629656e-09 -2.1630541e-08 -1.4703407e-08 1.7068537e-06 -6.5457604e-09 1.17917995e-08 -3.735812e-07
-6.629381e-08 3.3179685e-08 4.0704685e-07 -3.144392e-09 -6.094227e-08 -7.220679e-08 -2.394203e-06 -1.831396e-07
-1.5312304e-07 -5.7451266e-09 -8.72344e-05 2.4247659e-06 3.8209798e-08 -9.9561914e-11 2.003075e-06 5.951222e-07
-3.500877e-08 6.9331116e-05 -1.07066365e-08 -2.4723809e-06 -1.6514432e-09 -1.2116314e-07 4.0716525e-08 -8.6668965e-09
9.790199e-08 -9.310636e-09 -2.4243289e-05 1.3444168e-07 1.3016651e-08 -3.973748e-05 2.5553117e-08 2.9339375e-09
-1.3384038e-08 9.560954e-10 9.1123155e-07 -1.4754085e-08 -1.3513242e-09 1.017881e-08 -3.7454063e-07 -1.760578e-08
2.0411373e-09 -1.465905e-08 -8.182414e-08 4.95066e-10 3.563824e-05 -1.3045084e-07 8.4021755e-11 -4.638676e-10
-1.8661943e-09 -1.8766205e-08 6.2296834e-10 3.0497005e-09 -7.8121964e-05 6.3486716e-08 2.479999e-08 3.4974345e-08
-6.681126e-08 3.7771068e-07 -1.4067731e-06 -4.6138087e-08 -1.2416666e-06 6.943911e-09 1.0236818e-06 2.5267252e-07

conv_layers.0.0.conv.bias f4 [16]
00000000: 883b cc30 6bdd 2832 b5a9 2336 921d 3e33
00000010: a459 b234 fa1f aeb2 ec8c 30b7 6308 00b3
00000020: ba28 0ab6 8037 29ae b400 8232 3c11 40b7
00000030: 7882 bd32 5e25 a131 f6f0 a8b1 c0d7 be2f
1.4859873e-09 9.829232e-09 2.4387675e-06 4.4264716e-08 3.3220306e-07 -2.0270807e-08 -1.0523228e-05 -2.980995e-08
-2.0587308e-06 -3.8475445e-11 1.5134312e-08 -1.14481045e-05 2.2061826e-08 4.689965e-09 -4.9168376e-09 3.4714098e-10

conv_layers.2.0.conv.weight f4 [32, 16, 3, 3]
00000000: 3210 bd30 9062 9a30 9cbe 2431 9975 a632
00000010: ec6a 7830 6004 1a32 b2f1 9832 82ab 8cb4
00000020: 2dc6 e3b3 abde a534 2ba2 12b4 4f83 e7b5
00000030: fa50 c330 a914 35b2 2a4b 7132 2e0b f231
00000040: 7c99 32b0 970c a831 2c9f bcb1 291d db34
00000050: 511b c334 c011 1234 6673 cf33 3ab9 7730
00000060: c274 69b0 3748 c1b5 95f6 a634 0361 0e31
00000070: 2337 6bb2 1e00 21b3 b243 feb3 7024 d732
00000080: fa20 9d33 6c34 2eb1 a2a7 8f33 a6a7 b332
00000090: 974d 45b2 7cc3 97b2 8143 9b31 bcbc 8032
000000a0: 52b2 1733 ec03 dfb1 915c 30b3 edf0 cfb1
000000b0: 8fba 6f33 8f9c 37b3 f80b 3533 d8d1 0634
000000c0: a1b5 83b0 e415 87b1 9531 b431 3480 e031
000000d0: 7e7e 7d32 d8d8 14ae 9bea 8eb3 b4f6 3330
000000e0: 1fc1 9532 5f34 3bb5 f30d 08b2 8f02 90b3
000000f0: bfad 8db0 dc8e f9b2 291d dc34 fd03 3834
00000100: 5f1c c1b4 f6af cab2 850b da34 c1dd 9e34
00000110: 1060 302d 5abe bf33 2f36 d3b1 2034 c734
00000120: 9ee2 15b3 5d83 0234 95f8 7e33 badd 2eb1
00000130: 405e 942d c0a1 41b2 74cb c5b4 c84d 7332
00000140: 2cc8 f2af 1a9b a5b1 9b63 9132 c934 3fb4
00000150: d32e 9a30 3147 bb32 81c8 0eb4 8abf 0c34
00000160: 37a1 8b32 e6a4 aa31 a6d6 26b0 95e5 0b36
00000170: 8cf5 ddb4 8b80 ebb5 690e b6b4 3502 d032
00000180: 0413 f6b3 6b01 05b3 3a07 09b6 f45c 1d31
00000190: 5d9b 41b3 becf a6b4 faf9 7930 80a2 9430
000001a0: 2c7c 5b33 e3e1 7b32 aef7 cab5 74ef 96b4
000001b0: b3e7 20b2 e413 f034 7798 c5b4 6e7a 77b3
000001c0: bf62 96b2 c973 0e36 5b78 44b2 65ac 67b3
000001d0: 00aa ccab f7e6 47b1 b89a 1133 c811 4c31
000001e0: 8b90 7db2 56b4 9d32 e9e5 c9b1 fc72 8f33
000001f0: dba8 f830 0b11 5233 808f d22d 6009 0233
00000200: dcbd fd31 cd03 5032 adbb 67b3 9546 0536
00000210: 64cb b6b2 c914 8fb2 51d7 a731 c49f aab5
00000220: 2d01 c7b2 f7a3 84b4 4e89 3fb1 5e1b edb0
00000230: 6821 0632 fdff 5fb2 2805 b535 f428 fa32
00000240: 674d 0433 1dc7 b932 0bba 0bb6 21c5 1034
00000250: f622 cc34 6bc8 77b3 9605 b332 185f c234
00000260: a0af 0f2d 68b2 7daf 64a2 1132 c6db 2c33
00000270: a3a9 a131 e2d4 4a32 bc02 1fb3 cdf5 5cb1
00000280: 4093 6cb2 2397 13b4 5483 3432 f633 c235
00000290: 2a3c e233 89d0 8f32 a557 8a32 b793 40b4
000002a0: 2815 b9b5 d647 4133 8e71 dcb4 eb65 7232
000002b0: 4deb 44b2 52ac a832 46e4 00b2 2c40 c1b3
000002c0: ea27 cfb2 fbc6 ccb1 82c4 d4b1 8566 71b2
000002d0: 5ef8 54b1 e951 a1b4 01e7 1032 c9cc aa32
000002e0: fe13 9b34 fead 8132 0c4e 27b4 164c a4b1
000002f0: 32e1 cd33 44c2 c5b1 d44a 31b2 28d7 81b4
00000300: 28ce f432 f587 8934 cb7f abb2 213c 9330
00000310: ee15 8b33 5c0e 5431 0e16 a0b1 d788 95b0
00000320: ba6b 2731 18b2 07b3 8c07 c3af 1087 1533
00000330: 842a 01b3 6269 8fb3 ca0a 6230 7685 b1b2
00000340: a797 80b3 c01f fb31 f7a4 ad31 3da2 1234
00000350: c056 56b2 8236 d8b4 1b76 46b2 7f07 ba35
00000360: 4510 2cb3 33ff f932 2608 97b2 fe89 38b2
00000370: 974e 30b3 f340 b6b3 22e2 22b0 40fa 8230
00000380: e77c f733 5152 93b1 d5d4 5d2f e263 0834
00000390: f048 b430 abd4 0eb2 cbb8 17b2 5cb7 38b1
000003a0: b3a8 98b2 509f 37af 8ffb ddb4 7b00 9730
000003b0: d06d 2f2e 34ba 81b0 5155 a7b1 c4b7 9032
000003c0: 2a9c 2532 4cd7 4832 9e6b 59b3 48c9 1baf
000003d0: 5ea9 10b2 c1b2 e833 71e3 bc30 b893 38b3
000003e0: 2c3c 4832 c5fe 9732 ff45 11b3 6166 f732
000003f0: db56 17b3 8adf 31b3 cb78 1bb3 21ad 43b4
1.3756163e-09 1.1232988e-09 2.397349e-09 1.937842e-08 9.037382e-10 8.9649745e-09 1.780504e-08 -2.620182e-07
-1.0606559e-07 3.0895657e-07 -1.3656306e-07 -1.7249057e-06 1.4211132e-09 -1.0540284e-08 1.4045137e-08 7.044398e-09
-6.4974137e-10 4.890875e-09 -5.489616e-09 4.0813146e-07 3.6341456e-07 1.3603767e-07 9.6601795e-08 9.01213e-10
-8.493083e-10 -1.4400638e-06 3.1099322e-07 2.0718864e-09 -1.3691337e-08 -3.748584e-08 -1.18401104e-07 2.5045864e-08
7.3168806e-08 -2.535013e-09 6.6894486e-08 2.091458e-08 -1.1484551e-08 -1.766761e-08 4.518768e-09 1.4986988e-08
3.531961e-08 -6.4906e-09 -4.1062382e-08 -6.051883e-09 5.5816198e-08 -4.2750397e-08 4.2153232e-08 1.2556063e-07
-9.583127e-10 -3.931506e-09 5.2443263e-09 6.533833e-09 1.4755299e-08 -3.38439e-11 -6.655065e-08 6.5470407e-10
1.7433704e-08 -6.973914e-07 -7.919414e-09 -6.705988e-08 -1.0308482e-09 -2.905238e-08 4.099941e-07 1.7137786e-07
-3.5969694e-07 -2.3595913e-08 4.0614046e-07 2.959114e-07 1.0025772e-11 8.928755e-08 -6.147068e-09 3.7104564e-07
-3.4897873e-08 1.2154983e-07 5.9365068e-08 -2.544637e-09 1.6867507e-11 -1.1270856e-08 -3.684214e-07 1.4162147e-08
-4.4161774e-10 -4.819765e-09 1.6925517e-08 -1.7807464e-07 1.1218283e-09 2.180204e-08 -1.3297723e-07 1.3108198e-07
1.6255042e-08 4.966398e-09 -6.069548e-10 2.0846248e-06 -4.1343117e-07 -1.7546275e-06 -3.3910626e-07 2.421539e-08
-1.14587266e-07 -3.0967765e-08 -2.0418797e-06 2.2899345e-09 -4.5077616e-08 -3.1071062e-07 9.094091e-10 1.0814603e-09
5.1102845e-08 1.4661484e-08 -1.5122257e-06 -2.8113902e-07 -9.365908e-09 4.4717956e-07 -3.6805042e-07 -5.7620518e-08
-1.7507203e-08 2.1227045e-06 -1.1436067e-08 -5.394067e-08 -1.4542256e-12 -2.90896e-09 3.390116e-08 2.9696015e-09
-1.47594035e-08 1.8359213e-08 -5.8760077e-09 6.679872e-08 1.8092366e-09 4.8909936e-08 2.3937963e-11 3.027651e-08
7.3848536e-09 1.2108058e-08 -5.395457e-08 1.9859629e-06 -2.128008e-08 -1.6656843e-08 4.8848183e-09 -1.2712485e-06
-2.3167184e-08 -2.4706216e-07 -2.7872207e-09 -1.7251798e-09 7.807422e-09 -1.3038513e-08 1.3487052e-06 2.9122454e-08
3.0804042e-08 2.162738e-08 -2.0820905e-06 1.348276e-07 3.8023398e-07 -5.7691448e-08 2.0840883e-08 3.6204506e-07
8.1676055e-12 -2.3073599e-10 8.477034e-09 4.0246753e-08 4.705002e-09 1.18063515e-08 -3.702256e-08 -3.2153935e-09
-1.3770489e-08 -1.3745425e-07 1.05072395e-08 1.4469249e-06 1.0534889e-07 1.6742222e-08 1.610517e-08 -1.7935132e-07
-1.3789731e-06 4.500165e-08 -4.1060815e-07 1.4109427e-08 -1.1462203e-08 1.9636136e-08 -7.502484e-09 -8.9989356e-08
-2.4116122e-08 -5.959803e-09 -6.1923524e-09 -1.40513565e-08 -3.099124e-09 -3.0048184e-07 8.434427e-09 1.988373e-08
2.8885546e-07 1.5096699e-08 -1.558148e-07 -4.781678e-09 9.587019e-08 -5.75554e-09 -1.031977e-08 -2.418467e-07
2.8499088e-08 2.561716e-07 -1.9965134e-08 1.0712747e-09 6.476681e-08 3.0858223e-09 -4.65912e-09 -1.0880069e-09
2.4362934e-09 -3.1594112e-08 -3.5475656e-10 3.4814605e-08 -3.007382e-08 -6.6781254e-08 8.2233653e-10 -2.0666203e-08
-5.98805e-08 7.308671e-09 5.053717e-09 1.3656332e-07 -1.2476164e-08 -4.0272795e-07 -1.1551971e-08 1.3860262e-06
-4.0061668e-08 2.9103466e-08 -1.7582419e-08 -1.0741585e-08 -4.104967e-08 -8.4868496e-08 -5.925661e-10 9.52987e-10
1.15245534e-07 -4.2876214e-09 2.0175446e-10 1.2702324e-07 1.3117454e-09 -8.313843e-09 -8.831374e-09 -2.6879752e-09
-1.7771844e-08 -1.6700352e-10 -4.134749e-07 1.0986833e-09 3.9887926e-11 -9.438907e-10 -4.870039e-09 1.6847373e-08
9.639772e-09 1.1690485e-08 -5.0622127e-08 -1.4168677e-10 -8.420413e-09 1.0835857e-07 1.3743443e-09 -4.2975188e-08
1.1655214e-08 1.769457e-08 -3.3824104e-08 2.8801141e-08 -3.5236422e-08 -4.141433e-08 -3.619861e-08 -1.8223774e-07

conv_layers.2.0.conv.bias f4 [32]
00000000: a205 d3b4 0f73 8431 602c 9432 52d0 32b3
00000010: 86e2 9131 0d79 2b33 4bd6 b4b2 1661 bdb2
00000020: 6e14 7032 9839 c5b1 61d7 5ab2 a66b 86b1
00000030: 3453 ab30 a611 45b1 a0f0 55b2 483a e7af
00000040: 4217 c4b2 d1cf 1234 e553 f135 7236 25b2
00000050: 6a82 c4b4 0c75 4c32 c3a6 7631 325b 9632
00000060: 2863 5332 f02a 0c33 cfa6 2e31 e076 bf33
00000070: 2767 dd31 626d 9fb2 5578 e331 ed71 dfb0
-3.930591e-07 3.8547863e-09 1.7249647e-08 -4.163332e-08 4.245808e-09 3.9924135e-08 -2.1052207e-08 -2.2046645e-08
1.3974484e-08 -5.7400023e-09 -1.2738242e-08 -3.9121515e-09 1.2465535e-09 -2.8677305e-09 -1.2452944e-08 -4.2060067e-10
-2.282798e-08 1.3672913e-07 1.7980316e-06 -9.6166435e-09 -3.6602734e-07 1.1900976e-08 3.5892505e-09 1.7503769e-08
1.2304362e-08 3.263534e-08 2.5415152e-09 8.915754e-08 6.4436736e-09 -1.8559778e-08 6.6202497e-09 -1.6257765e-09

conv_layers.4.0.conv.weight f4 [32, 32, 3, 3]
00000000: a61a 2533 0bf3 43b1 735a 1c31 7710 d9b2
00000010: 7f88 4833 2e88 4730 82d2 c132 7d11 1631
00000020: 6c3b 1a32 cf64 1932 b894 8fb2 f3cf 1fb3
00000030: 8f6c 8533 7a7b a8af 3824 34b3 10b2 8db1
00000040: 86ab 7032 89c9 8e33 96a0 9fb2 1d31 1d32
00000050: c828 7831 553e 4eb2 f4a2 77b2 7b41 c0b1
00000060: 48eb 8db0 f0cf 01b3 4eab 0831 2ba9 8731
00000070: 7b8a 16b0 214c 8bb2 d1d0 19b3 3bf2 53b2
00000080: 0bfb 4430 3881 22b2 bdd7 f432 9f99 8bb3
00000090: 686d 842c 049f 102f 3c8c e431 afac 9132
000000a0: e066 2f32 f398 92b2 f410 822f ea04 1a32
000000b0: 963a d530 4e7b 8231 5306 a030 ed5f 82b2
000000c0: 3987 b832 fdea bbb1 7e2d b031 84d6 0fb2
000000d0: c114 5c32 f7f0 0eb3 0b43 f8b2 9248 0132
000000e0: b900 dcb2 3046 09b2 808c f332 b2f7 3832
000000f0: c40e 57b2 035a 90b3 2974 c6b2 5495 bfb2
00000100: bc5a 1fb2 fc83 97b0 21d0 2c33 1bd6 1232
00000110: d620 89b1 a02a f8af 4eb2 3b31 e60f 2cb3
00000120: 614e a4b2 d241 96b2 a7cc 49b3 bb14 3833
00000130: 2bd3 d231 80a7 9e2d 95ca 5432 a481 4430
00000140: 397f a230 6405 a2b2 9868 44b1 9abe 8c2f
00000150: 049e 5230 4f05 7533 faeb 1db1 ac02 fe31
00000160: 2663 cdb1 575d c3b1 39dc 3230 71f7 7c32
00000170: d698 7031 d3a3 f530 0428 1531 0848 8931
00000180: e63b 79b2 f808 8c32 4c88 9132 2035 5ab2
00000190: 2837 afb1 04a0 76b2 80ca d731 8693 fa32
000001a0: e115 de32 504a a92e 5b45 02b2 34f4 3033
000001b0: db0d 1032 2e1c 2bb3 905d 2431 f126 8ab2
000001c0: 1ac5 b532 30e9 e130 7619 8d31 3bd3 98b2
000001d0: dbc3 ed32 92b5 d032 a226 e032 e44d 82b0
000001e0: 08cf 4c33 0acf 9e31 3e21 da31 72ce 8b32
000001f0: b0bb 7632 fcd9 bcaf 1e92 65b2 9340 9032
00000200: 4873 1833 7c27 5930 e260 74b1 4225 8533
00000210: a8a4 83b3 24ca bf31 af63 4db2 f162 05b1
00000220: f552 3133 07f7 4831 8eca 9a30 72c6 9d32
00000230: 7482 7cb1 68f7 7ab3 d8cc c6af 47c1 9cb2
00000240: 120c 9432 e22f 72b2 4897 08b0 b770 61b2
00000250: dde9 1433 a72b 3eb2 d566 21b2 3691 5eb2
00000260: acc8 e1b0 fe75 7db2 e783 e231 6b3f 2fb3
00000270: f2b9 44b2 a7bd a731 74f6 54b3 0226 3bb2
00000280: b50a 1132 4b32 d330 100e 012e 0e2b aab1
00000290: c247 9932 26dc 8b31 6bd1 f2b1 d920 2cb1
000002a0: aa85 e3b1 e6ea a1b1 b234 12b2 50c3 14b2
000002b0: 8e96 1831 a0d0 c62e 92ad 26b3 c6f6 0a33
000002c0: 031b ef31 d510 afb2 b2b1 2b2f 0bc5 1732
000002d0: a680 ffb2 76a7 0633 d854 8fb3 2f63 6f33
000002e0: 0a9d 2db2 d62d fa30 6643 30b0 c561 69b1
000002f0: fb8a 63b1 b3c4 72b2 3862 ce32 0953 7eb2
00000300: 70a5 8b33 9923 8eb1 eec0 d1b1 1718 e4b1
00000310: 747c eaae a891 6030 ac10 f931 8690 a42f
00000320: 5aec ad31 293d 3d32 bcd4 9e2f 474f 8932
00000330: 74fe ea30 6911 3431 bd61 9432 6de4 90b3
00000340: 04a6 8ab3 50b6 b332 82ee e031 3cfc 42b0
00000350: ddcf 8233 b341 4db1 9059 2833 3847 8c33
00000360: e663 e2b1 687d 5632 0c23 f432 4a48 482f
00000370: 92a1 2f32 e86e a532 862c bb32 bc19 90b3
00000380: e4ce 9d32 9029 3033 b616 9631 ee2f 04b2
00000390: 02ec 25b0 602b 50b2 c702 df31 f8a0 c132
000003a0: 11ae 33b2 b897 31b3 4276 5b31 cc2a 3d31
000003b0: be58 0d33 24f3 83b3 6f77 af31 9d06 6bb1
000003c0: f305 8c33 8eab 1bb3 8552 d830 fb62 96b2
000003d0: 48a8 2eb3 66ff 01b2 504b 71b1 4aad 2b30
000003e0: 6915 7db2 6293 ddb0 d458 e52f 587a 9ab1
000003f0: 97e9 47b1 10c7 6230 02c2 5632 6497 8cb0
3.8441293e-08 -2.8514389e-09 2.2752402e-09 -2.5269612e-08 4.669027e-08 7.25893e-10 2.2563885e-08 2.1837814e-09
8.977491e-09 8.928693e-09 -1.671502e-08 -3.72092e-08 6.213042e-08 -3.0646757e-10 -4.1942457e-08 -4.1238835e-09
1.40088385e-08 6.649049e-08 -1.8583062e-08 9.14977e-09 3.6111931e-09 -1.2004951e-08 -1.44143435e-08 -5.5953797e-09
-1.0325971e-09 -3.022427e-08 1.988798e-09 3.9482493e-09 -5.4766475e-10 -1.621635e-08 -3.5813006e-08 -1.2336893e-08
7.166114e-10 -9.459022e-09 2.8503445e-08 -6.5006354e-08 3.763812e-12 1.3153217e-10 6.651616e-09 1.6958749e-08
1.0209732e-08 -1.706619e-08 2.3658908e-10 8.965097e-09 1.5514441e-09 3.797516e-09 1.164333e-09 -1.5177614e-08
2.1481911e-08 -5.4691314e-09 5.127446e-09 -8.372471e-09 1.2810404e-08 -3.3281108e-08 -2.8901487e-08 7.525289e-09
-2.56117e-08 -7.990408e-09 2.8352815e-08 1.0766529e-08 -1.2518004e-08 -6.7218956e-08 -2.3103057e-08 -2.2303233e-08
-9.275649e-09 -1.1024208e-09 4.0236163e-08 8.547e-09 -3.990958e-09 -4.5141224e-10 2.7313436e-09 -4.006133e-08
-1.9127755e-08 -1.749223e-08 -4.698509e-08 4.2859693e-08 6.1358114e-09 1.8036905e-11 1.2386086e-08 7.1488615e-10
1.182321e-09 -1.8861734e-08 -2.8581209e-09 2.5601282e-10 7.662211e-10 5.7048336e-08 -2.2980644e-09 7.3926767e-09
-5.977557e-09 -5.6858585e-09 6.506898e-10 1.4724592e-08 3.5011474e-09 1.7872658e-09 2.17051e-09 3.9954138e-09
-1.4507327e-08 1.6302224e-08 1.6942202e-08 -1.2701349e-08 -5.099441e-09 -1.4355468e-08 6.280345e-09 2.9170916e-08
2.585415e-08 7.698431e-11 -7.5827655e-09 4.1200295e-08 8.3850535e-09 -3.983967e-08 2.3918325e-09 -1.6083023e-08
2.1160805e-08 1.643718e-09 4.1065347e-09 -1.7791185e-08 2.7679496e-08 2.4296956e-08 2.60946e-08 -9.480883e-10
4.7685745e-08 4.621943e-09 6.3484142e-09 1.627561e-08 1.436176e-08 -3.4351888e-10 -1.33627776e-08 1.6793171e-08
3.5495106e-08 7.900025e-10 -3.5561745e-09 6.200072e-08 -6.130114e-08 5.5818123e-09 -1.1955236e-08 -1.941029e-09
4.1286473e-08 2.924425e-09 1.1262544e-09 1.8367448e-08 -3.674498e-09 -5.8432676e-08 -3.616154e-10 -1.8248683e-08
1.7234957e-08 -1.4097141e-08 -4.9691495e-10 -1.3122352e-08 3.4671633e-08 -1.1069381e-08 -9.394815e-09 -1.2955118e-08
-1.6427939e-09 -1.47533665e-08 6.5924612e-09 -4.080304e-08 -1.1450981e-08 4.8819007e-09 -4.9584244e-08 -1.0893475e-08
8.442545e-09 1.5366565e-09 2.9343694e-11 -4.952546e-09 1.7844176e-08 4.0704604e-09 -7.066935e-09 -2.5047966e-09
-6.6217654e-09 -4.7124216e-09 -8.5103e-09 -8.659143e-09 2.2204492e-09 9.041057e-11 -3.8807748e-08 3.2355068e-08
6.9588864e-09 -2.0380336e-08 1.561549e-10 8.834159e-09 -2.974441e-08 3.135161e-08 -6.6743894e-08 5.573673e-08
-1.0105632e-08 1.8202921e-09 -6.4124206e-10 -3.3961538e-09 -3.3111849e-09 -1.4130978e-08 2.4026221e-08 -1.4803626e-08
6.502785e-08 -4.136791e-09 -6.104634e-09 -6.638412e-09 -1.0663195e-10 8.1697715e-10 7.248749e-09 2.9934116e-10
5.0618327e-09 1.1015154e-08 2.889119e-10 1.598495e-08 1.7098061e-09 2.6203344e-09 1.7273914e-08 -6.747073e-08
-6.456324e-08 2.0921249e-08 6.546373e-09 -7.0935235e-10 6.091407e-08 -2.9868772e-09 3.9197005e-08 6.5322126e-08
-6.588823e-09 1.24849535e-08 2.8421276e-08 1.8215576e-10 1.02230775e-08 1.9258962e-08 2.1789912e-08 -6.7102036e-08
1.8371288e-08 4.1015994e-08 4.3681565e-09 -7.694309e-09 -6.036204e-10 -1.2117056e-08 6.49047e-09 2.2541357e-08
-1.0458749e-08 -4.134901e-08 3.1935916e-09 2.7527447e-09 3.290983e-08 -6.14439e-08 5.1067484e-09 -3.420076e-09
6.52034e-08 -3.6244778e-08 1.5739522e-09 -1.750731e-08 -4.0665583e-08 -7.566859e-09 -3.5112926e-09 6.2455696e-10
-1.4731406e-08 -1.6121755e-09 4.1717974e-10 -4.4958988e-09 -2.9091092e-09 8.2501206e-10 1.2500552e-08 -1.0229368e-09

conv_layers.4.0.conv.bias f4 [32]
00000000: 56d8 41b2 2074 4331 408a 2d2f fac3 b3b2
00000010: 3523 1cb2 0381 36b3 af97 8b31 a0bd f932
00000020: da92 bd31 b820 a5b2 e0f9 e732 78d0 5632
00000030: b6fa ee32 f4a8 97b2 2d91 8bb2 c00c 50b0
00000040: d214 ae31 319f b8b1 d20a 3732 2d73 36b1
00000050: 3679 12b1 6b4b 1fb2 4c9d 0bb3 9f17 b4b2
00000060: a32a 8f33 c6bf e2af 5b07 45b2 fc48 cab1
00000070: 023a 5933 c796 bc32 c65a 2fb2 c02a 9caf
-1.1283268e-08 2.8442244e-09 1.5783375e-10 -2.0927462e-08 -9.0884e-09 -4.2492513e-08 4.062677e-09 2.9073647e-08
5.517319e-09 -1.9223407e-08 2.700557e-08 1.250384e-08 2.7820857e-08 -1.7655545e-08 -1.6247748e-08 -7.568808e-10
5.0664335e-09 -5.3732028e-09 1.0654462e-08 -2.6549956e-09 -2.1314697e-09 -9.272166e-09 -3.250652e-08 -2.09655e-08
6.666712e-08 -4.1245424e-10 -1.1468582e-08 -5.887271e-09 5.0577007e-08 2.1954646e-08 -1.020698e-08 -2.840661e-10

conv_layers.5.0.conv.weight f4 [32, 32, 3, 3]
00000000: 6016 9db1 a7b4 f631 7098 a432 0d86 9cb2
00000010: 9a16 12b1 b225 3b31 f440 d831 3fe8 98b2
00000020: 5617 b032 283a 1a2f 9842 64b1 ecb2 4a32
00000030: 31c8 7f32 2000 b230 b78b 15b3 b00c 6d32
00000040: 3dce 6631 7ec5 3cb2 6a78 fa31 3cd2 2eb2
00000050: 7f02 49b1 cf9f e7b2 96cd dab1 e09d 31b2
00000060: 8448 87b1 4731 ee32 1268 92b1 b818 b731
00000070: 32cc 2fb2 68d0 3e32 df82 2033 2269 8233
00000080: bff9 a731 1817 89b1 f76a 7bb2 2164 d132
00000090: 710a 90b2 00b6 16b1 b219 5db1 a409 1fb2
000000a0: dc66 9cb2 d86f 0432 c17b 5032 094c 53b1
000000b0: 06c1 e231 b0be c731 18a6 35af 5d3b 72b1
000000c0: bcf5 8db1 c4bd 9baf 06ff 1632 8f6c 1ab2
000000d0: 9245 2c32 81e5 45b2 538c cf32 6283 a6b2
000000e0: d22b a2b0 bd7d 7db2 b008 ec32 fbec 9030
000000f0: 54d8 7c30 88bd 2133 7d44 2833 66a6 a031
00000100: 5302 26b2 896e 9033 1609 cab0 22b1 9d31
00000110: 9d9d 1b32 14ea 8a32 555c 1bb1 20fb deb1
00000120: 5249 8bb0 d9b8 90b2 b0e6 8131 e850 10b3
00000130: f107 2db1 0b04 cbb2 85df a731 e536 98b2
00000140: 62e7 6eb3 7672 57b1 115a 9033 f73b f230
00000150: 56b3 be32 0439 08b1 0adf 2bb1 d29c ab31
00000160: 33dd c3b2 3c43 1a33 1aa4 7bb0 420d 6d31
00000170: 2747 a2b1 1353 f9b2 152e 7cb2 b0c6 dcb2
00000180: 0c06 3130 00fe 2b2e e33e cb32 7499 a232
00000190: 180e e6b2 b498 1332 007d 00b1 f172 19b3
000001a0: 2a9a d532 e6c7 ceb1 ca07 db31 4432 58b1
000001b0: 3dbd 6ab1 7ef6 cab2 4f43 7cb3 f662 d2b2
000001c0: 6f42 88b2 d0b6 41b2 e3df 26b3 d8d3 e431
000001d0: 9d45 2f33 8474 fcb1 6136 e5af 33f1 21b2
000001e0: 3532 f4b1 a4d8 8031 27c5 c9b2 eb54 cfb1
000001f0: 2bb8 9832 9e2b 962f 5344 0bb1 9c21 3432
00000200: 981f 8d31 4694 0fb2 cf00 7d31 3833 5ab2
00000210: 8a2a 0b32 1929 f6b2 cb9d 0eb2 6f1a 2bb3
00000220: 25e7 8e32 4880 fe32 dec5 3432 4703 4c31
00000230: 6e07 9631 31aa 3133 1d59 01b3 914b 8333
00000240: c750 de30 ebcb 0333 5468 fe30 a04a 20ae
00000250: 3989 be31 0121 ad32 4350 f932 a6f6 f4b1
00000260: 11f7 b3b1 068a d131 deb4 15b2 e4ee 9eb1
00000270: 94c4 1a30 4020 1cae 8112 3d32 ba34 01b1
00000280: 36d1 5732 56fe da32 7f08 25b3 64e7 b431
00000290: 9c13 9432 fe24 c0b1 8b98 5ab0 0e6f 50b1
000002a0: 6280 92b2 6f61 3230 a260 5eb3 46a8 3f32
000002b0: b039 0cb3 0383 3032 e53a de32 4c7c 8baf
000002c0: 5411 90b3 f5d9 5731 2c64 df30 6f97 6d32
000002d0: 30f8 3633 56be 8c32 0e49 3ab1 6e1d 4131
000002e0: eb5a b531 e7bf 8e33 c487 aa31 a3d6 c9b2
000002f0: 3bd9 c6b1 7059 5eb1 3447 2330 23f9 aa30
00000300: 8d4f 8eb2 90b2 5eb2 42f0 1730 e34c 86b3
00000310: 6334 4932 d813 d131 5dcc 3831 3106 7db2
00000320: 2a92 e631 c59d 38b2 775a 9f31 56f0 57b2
00000330: b0cf 8230 07bb 8bb0 929a 2032 2475 06af
00000340: 28cf c8b1 65f9 dcb0 8475 1331 8c67 3b31
00000350: 925d 4733 6d27 2d31 2ab2 02b1 4ff7 e2b1
00000360: 2add 1633 96a7 8faf dc7e 1932 1817 1733
00000370: 4580 e2b1 9a4a f6b1 0622 8831 1506 ee30
00000380: 936c 5bb2 31f9 1233 4306 9bb2 6f4b 6e31
00000390: e1d9 9930 ce3c 92b2 e0c5 ab2d 05b6 4d32
000003a0: dc31 7432 a5d6 10b1 9ee3 bb32 59fc 8bb3
000003b0: fbf0 8f32 8281 d3b1 3694 64b2 de5e 822e
000003c0: bcaa 31b3 87b0 b832 e080 2cb0 b68a 9130
000003d0: 84aa c430 b06e ec32 94e3 8cb1 2d81 3932
000003e0: d7db b732 9c9c ab31 3e29 b231 a662 28b3
000003f0: b68f 51b0 f985 5e31 02b2 eab1 277c 90b3
-4.571845e-09 7.18008e-09 1.9161433e-08 -1.822175e-08 -2.1258644e-09 2.7233509e-09 6.2938117e-09 -1.7800742e-08
2.0499709e-08 1.402688e-10 -3.321622e-09 1.179863e-08 1.4888472e-08 1.295124e-09 -3.4818836e-08 1.37981e-08
3.3586638e-09 -1.0987945e-08 7.289647e-09 -1.0175935e-08 -2.9250768e-09 -2.6964612e-08 -6.3680075e-09 -1.0338653e-08
-3.937261e-09 2.7729255e-08 -4.2609907e-09 5.328811e-09 -1.0232769e-08 1.1106842e-08 3.737193e-08 6.07272e-08
4.8887325e-09 -3.9898502e-09 -1.4634444e-08 2.4376336e-08 -1.6768555e-08 -2.1931328e-09 -3.2174339e-09 -9.25721e-09
-1.8207565e-08 7.708842e-09 1.2135332e-08 -3.0747762e-09 6.59941e-09 5.813341e-09 -1.6520862e-10 -3.524938e-09
-4.131577e-09 -2.8329172e-10 8.789135e-09 -8.988663e-09 1.0027536e-08 -1.1519092e-08 2.4161784e-08 -1.938469e-08
-1.1799506e-09 -1.4755128e-08 2.7477967e-08 1.0544733e-09 9.1984487e-10 3.765811e-08 3.9177838e-08 4.67553e-09
-9.663e-09 6.725629e-08 -1.4700017e-09 4.589439e-09 9.0580246e-09 1.617176e-08 -2.2607953e-09 -6.4896e-09
-1.013442e-09 -1.6847865e-08 3.7806203e-09 -3.3601196e-08 -2.5179328e-09 -2.3634149e-08 4.885751e-09 -1.7720092e-08
-5.5624135e-08 -3.1351681e-09 6.7219055e-08 1.762486e-09 2.2200464e-08 -1.9823014e-09 -2.5010558e-09 4.9945834e-09
-2.2801578e-08 3.591707e-08 -9.154647e-10 3.4495575e-09 -4.7229096e-09 -2.9025193e-08 -1.4678808e-08 -2.5701723e-08
6.440082e-10 3.9106496e-11 2.3660908e-08 1.8929065e-08 -2.6781933e-08 8.591247e-09 -1.8697506e-09 -3.5727627e-08
2.486657e-08 -6.018115e-09 6.3746244e-09 -3.146071e-09 -3.4159051e-09 -2.3627987e-08 -5.873454e-08 -2.449222e-08
-1.5862694e-08 -1.1275645e-08 -3.885351e-08 6.659757e-09 4.0808676e-08 -7.3474116e-09 -4.1693496e-10 -9.426276e-09
-7.1070425e-09 3.7499195e-09 -2.3489134e-08 -6.034147e-09 1.7778879e-08 2.7315833e-10 -2.0266e-09 1.0485021e-08
4.107232e-09 -8.357409e-09 3.6816805e-09 -1.2700916e-08 8.100537e-09 -2.8656858e-08 -8.301366e-09 -3.983808e-08
1.6636088e-08 2.9627827e-08 1.0522369e-08 2.968777e-09 4.3664192e-09 4.1365812e-08 -3.01162e-08 6.113908e-08
1.6175584e-09 3.0686277e-08 1.8510584e-09 -3.644607e-11 5.545328e-09 2.015486e-08 2.9023914e-08 -7.1293753e-09
-5.237674e-09 6.098392e-09 -8.714066e-09 -4.625564e-09 5.630423e-10 -3.5498937e-11 1.1005455e-08 -1.8801942e-09
1.2562216e-08 2.5494199e-08 -3.8424783e-08 5.2649956e-09 1.7238385e-08 -5.592141e-09 -7.9524715e-10 -3.033111e-09
-1.7055019e-08 6.4894484e-10 -5.177629e-08 1.1155924e-08 -3.2648757e-08 1.0274337e-08 2.5870984e-08 -2.537227e-10
-6.7086745e-08 3.1410512e-09 1.6253856e-09 1.3829648e-08 4.2600902e-08 1.63847e-08 -2.710809e-09 2.8101925e-09
5.2781295e-09 6.647297e-08 4.963086e-09 -2.3497085e-08 -5.7872547e-09 -3.2356091e-09 5.940024e-10 1.2439937e-09
-1.6567151e-08 -1.2962701e-08 5.5274907e-10 -6.253847e-08 1.1711651e-08 6.0849565e-09 2.689169e-09 -1.4727946e-08
6.710498e-09 -1.0746082e-08 4.6377937e-09 -1.2569293e-08 9.517773e-10 -1.0166737e-09 9.348371e-09 -1.2228846e-10
-5.844317e-09 -1.6077989e-09 2.1458115e-09 2.727094e-09 4.64184e-08 2.5197224e-09 -1.9018764e-09 -6.6055814e-09
3.5125744e-08 -2.6130625e-10 8.934617e-09 3.517843e-08 -6.5920482e-09 -7.1680235e-09 3.961989e-09 1.7318508e-09
-1.2772165e-08 3.4219912e-08 -1.8047222e-08 3.4676437e-09 1.119414e-09 -1.7024288e-08 1.9528323e-11 1.1973957e-08
1.4214006e-08 -2.107677e-09 2.1873173e-08 -6.518594e-08 1.6756976e-08 -6.1556316e-09 -1.3305046e-08 5.9285674e-11
-4.1366306e-08 2.1500695e-08 -6.275638e-10 1.0589563e-09 1.430934e-09 2.752435e-08 -4.100409e-09 1.0797788e-08
2.1403975e-08 4.9945594e-09 5.1851705e-09 -3.920527e-08 -7.623798e-10 3.2381406e-09 -6.8305335e-09 -6.728106e-08

conv_layers.5.0.conv.bias f4 [32]
00000000: 7c76 a131 7651 1932 b0a3 d8b2 48fe 8432
00000010: b3ac 5cb3 babb bab0 a83e 01b3 93ce c831
00000020: 88cb 002e 9628 9cb0 b31c 2532 1a9d 74b2
00000030: 8ab0 e0b2 c4db 89b2 2e20 0832 f6a3 f5b2
00000040: efac 3633 27fd 4532 1a7a 1f32 f165 82b2
00000050: 930a 8f31 b649 31af 1cc7 19b2 8e3e 5fb1
00000060: 5cf8 5332 aca4 6d30 a6fd 6f32 c677 53b2
00000070: 2a4b 5432 9668 8131 6c10 03b2 3fea 67b3
4.699187e-09 8.924294e-09 -2.5220146e-08 1.5482456e-08 -5.137981e-08 -1.3586636e-09 -3.009214e-08 5.844251e-09
2.9284603e-11 -1.1362029e-09 9.6107895e-09 -1.423839e-08 -2.6157313e-08 -1.6048837e-08 7.923559e-09 -2.8596315e-08
4.253246e-08 1.1524469e-08 9.282781e-09 -1.518035e-08 4.16305e-09 -1.6124244e-10 -8.951044e-09 -3.248633e-09
1.2338287e-08 8.645411e-10 1.3969304e-08 -1.230905e-08 1.2357114e-08 3.766284e-09 -7.6289375e-09 -5.3996924e-08

conv_layers.7.0.conv.weight f4 [16, 32, 3, 3]
00000000: 6f81 0bb2 da2f 8fb1 5798 62b1 9048 7db2
00000010: 0f66 8331 7574 56b2 96df 0831 9645 a930
00000020: d605 1031 2494 ac2f 0889 8c31 6ed1 1832
00000030: 1086 8eb1 a856 14b1 c4f6 4db3 c683 d431
00000040: c755 01b3 1954 922f e47d 48b2 322a 67b1
00000050: 87b5 b6b1 0a64 8d33 144d 8631 52b5 d231
00000060: baed 4132 6af0 5eb0 e407 79b2 29be d2b2
00000070: 40fe 1430 7baf 2332 184e 5e33 d43a 7fb2
00000080: f663 3231 551d ea32 467f 67b2 97bb 94b2
00000090: 0df9 3631 8644 9ab1 0dfa 7b32 55d2 1933
000000a0: 7925 7532 0322 84b2 eea7 99b0 66f9 1632
000000b0: fbf6 7cb2 80fe 30b3 e26f c7b1 1621 cf31
000000c0: 9489 5732 1665 ddb1 1896 13b2 bc45 71b2
000000d0: 6483 8732 0c10 35b2 f26a 3cb1 002a 972c
000000e0: 60a3 c7ae 8edf e2b0 24c4 07b3 0961 8bb3
000000f0: d85d cfb1 c0b4 59b0 0411 b2b0 fa8d fc31
00000100: 0b2e a431 7daa 3133 f333 07b3 aa19 06b2
00000110: 1022 2bb1 a918 3bb2 147c 8ab3 00d5 74b2
00000120: 064f 4633 b0ed 71b1 4366 ed30 2243 ddb2
00000130: b396 482f c45d 6931 6b13 d4b1 6a84 18b0
00000140: 1653 af2e 3bcb 3b33 6b8e 48b2 4a9c c0b2
00000150: e773 9c31 6888 6330 0df0 b8b2 9297 68b3
00000160: 3e3d 9c31 6f76 a6b1 de94 6f31 14b0 e9b2
00000170: 3d42 8232 90ca 9031 73bd b432 021b 9eb1
00000180: 6c7d 842f e4ba 0e32 482f 19b2 d6f6 72b3
00000190: c26a 7233 33c2 f131 d8a1 f5b2 7e5b 07b1
000001a0: 9efb e8b1 0080 682e d033 40b0 1d6e 7db2
000001b0: a0f1 d52f 74de 98b2 8a9f e42f f3fa 4231
000001c0: 5315 8fb3 8e97 3233 0483 8c2f a812 54b2
000001d0: 8033 8c2e 6e07 3f31 9e74 82b0 689c fdb2
000001e0: 1cd0 97b2 fe0c 3033 d2bf f9b2 572d a0b1
000001f0: c5b3 c231 38f1 d1b2 ac27 0cb2 28aa 7cb2
00000200: 2492 2f33 8de8 0c32 58bd 7fb1 69f4 86b3
00000210: 3ff6 b5b0 3a90 0031 88c8 3e31 4b43 8b32
00000220: 17c9 f1b2 b088 f530 309d ccb1 88be 6e2e
00000230: e1a9 8031 b173 9eb2 08d1 76af b11e 5431
00000240: fc99 c4b1 c8d8 d6b1 2e27 1932 ec8e ec2f
00000250: c4fa 38b2 deb8 bdb2 73bc 2d33 4652 8130
00000260: d483 98b2 8add a5b1 2e24 92b0 53f9 81b3
00000270: ddc2 e0b1 7fa4 f732 58c4 49b1 66d7 4632
00000280: d7ee 2d33 1ab0 8db2 6e93 aa30 e6a4 2633
00000290: 92c2 e031 2ce8 aab2 2ffa 1ab0 f5b5 98b2
000002a0: 3673 4c30 5ed2 a431 f39f 8bb2 d10e 1cb2
000002b0: 26bb de32 2c7b a6af dc86 fbb0 a44a eb32
000002c0: c1db 84b2 89c7 7d31 0b32 c5b2 de92 24b3
000002d0: 5077 e832 b6af 07b2 4db7 b231 dadd 2230
000002e0: 1e0d f532 6891 7db2 04f5 48b1 87ed a5b0
000002f0: 70ec 8f2e 54aa af31 5c50 4932 53cb a231
00000300: 581a c330 3ef7 08b3 be8d 7831 c44a 3e31
00000310: fe59 8731 0855 b631 a5d1 3c32 153f d8b2
00000320: 6e3a a832 0c7f 65b3 cfee 8d31 5e1e 4f31
00000330: 827a 8bb0 523a 8c33 3844 89b2 38f5 9c32
00000340: 12cb ac30 1dc6 c4b1 0c68 b932 0f13 35b2
00000350: e4db 8933 5c4e 1432 45c8 b232 9b28 ed32
00000360: 3bd4 08b2 9c96 86b0 4c40 8f33 61a3 49b2
00000370: 4498 7e33 48ec 8631 a073 3d33 af8f 3eb2
00000380: b197 9bb1 8801 0031 b7c7 8db3 9ba8 50b2
00000390: 6b5c 0bb2 00fb 98ad 1153 8d33 c82c 91af
000003a0: 8768 87b1 4c02 b0b2 bec3 5632 180d 8333
000003b0: 9c8d 41b2 5af9 0532 6ee3 10b1 375a b8b1
000003c0: c8bf f3af caa1 a7b1 50c6 a3b2 ab74 8332
000003d0: 48f7 4f32 ef21 de30 0cbc 3331 474c cb31
000003e0: 6d8c 22b3 93a3 dfb0 7af8 4eb1 ae98 6731
000003f0: ae7c d432 f980 e5b2 f05c 73af a8c3 e932
-8.120295e-09 -4.167288e-09 -3.2973924e-09 -1.4743037e-08 3.8242045e-09 -1.2482919e-08 1.9917699e-09 1.2316146e-09
2.0958075e-09 3.1391878e-10 4.090115e-09 8.895183e-09 -4.147985e-09 -2.1586093e-09 -4.7954714e-08 6.184993e-09
-3.0113167e-08 2.6617e-10 -1.1670156e-08 -3.363891e-09 -5.3175344e-09 6.584021e-08 3.908676e-09 6.132418e-09
1.1288131e-08 -8.110478e-10 -1.4495502e-08 -2.4533692e-08 5.42034e-10 9.527748e-09 5.175943e-08 -1.48563295e-08
2.595923e-09 2.7254524e-08 -1.3474908e-08 -1.7314774e-08 2.6626055e-09 -4.48978e-09 1.4666978e-08 3.5814384e-08
1.4269397e-08 -1.538229e-08 -1.1179944e-09 8.787856e-09 -1.4724487e-08 -4.120966e-08 -5.804382e-09 6.0282543e-09
1.2545929e-08 -6.4434387e-09 -8.5906535e-09 -1.4043902e-08 1.5775818e-08 -1.0539235e-08 -2.7418392e-09 4.296341e-12
-9.0784935e-11 -1.6507202e-09 -3.1610526e-08 -6.4903425e-08 -6.0351617e-09 -7.9201e-10 -1.2956041e-09 7.350306e-09
4.7782627e-09 4.1366082e-08 -3.1479384e-08 -7.805662e-09 -2.4903137e-09 -1.089044e-08 -6.4486954e-08 -1.42511e-08
4.617234e-08 -3.5205225e-09 1.7273084e-09 -2.5758315e-08 1.8243433e-10 3.3959262e-09 -6.1722196e-09 -5.548545e-10
7.972838e-11 4.3724167e-08 -1.1673914e-08 -2.2422814e-08 4.553374e-09 8.2775964e-10 -2.1529582e-08 -5.415456e-08
4.54716e-09 -4.8447e-09 3.4863699e-09 -2.7204841e-08 1.5164114e-08 4.2139803e-09 2.104091e-08 -4.6014756e-09
2.4099778e-10 8.307982e-09 -8.916523e-09 -5.656951e-08 5.644211e-08 7.036101e-09 -2.8595352e-08 -1.9697093e-09
-6.7806942e-09 5.286438e-11 -6.9922823e-10 -1.4751575e-08 3.891616e-10 -1.7796289e-08 4.1586318e-10 2.8373364e-09
-6.662835e-08 4.1581693e-08 2.5558944e-10 -1.2344266e-08 6.375611e-11 2.7798381e-09 -9.49189e-10 -2.9524202e-08
-1.767335e-08 4.099001e-08 -2.9074645e-08 -4.6617674e-09 5.6665805e-09 -2.4440496e-08 -8.158093e-09 -1.470702e-08
4.0878277e-08 8.2019485e-09 -3.7215013e-09 -6.284319e-08 -1.3239471e-09 1.8708435e-09 2.7762628e-09 1.6212331e-08
-2.8147538e-08 1.7864945e-09 -5.9550516e-09 5.428416e-11 3.7446033e-09 -1.8446231e-08 -2.2447832e-10 3.0867506e-09
-5.7218568e-09 -6.252865e-09 8.9146805e-09 4.3029702e-10 -1.0767227e-08 -2.2086564e-08 4.0451095e-08 9.409369e-10
-1.7755077e-08 -4.827318e-09 -1.0633181e-09 -6.0523824e-08 -6.5414114e-09 2.8829389e-08 -2.9360958e-09 1.1574093e-08
4.0496925e-08 -1.6494642e-08 1.241103e-09 3.879986e-08 6.541378e-09 -1.9896184e-08 -5.6380406e-10 -1.7777873e-08
7.437849e-10 4.796944e-09 -1.6254466e-08 -9.083764e-09 2.5929307e-08 -3.0282743e-10 -1.8300983e-09 2.7391543e-08
-1.5466755e-08 3.6929768e-09 -2.2956575e-08 -3.83178e-08 2.7062612e-08 -7.897986e-09 5.2013207e-09 5.9250527e-10
2.8527719e-08 -1.47596e-08 -2.9243106e-09 -1.2072839e-09 6.544887e-11 5.1125344e-09 1.17180115e-08 4.737936e-09
1.4195605e-09 -3.1889833e-08 3.616932e-09 2.7691138e-09 3.939248e-09 5.306564e-09 1.0990708e-08 -2.5174396e-08
1.9584345e-08 -5.3433766e-08 4.1307895e-09 3.0139726e-09 -1.01484e-09 6.5298664e-08 -1.5979921e-08 1.8272303e-08
1.2572363e-09 -5.7268736e-09 2.158415e-08 -1.053992e-08 6.4195575e-08 8.632551e-09 2.0813e-08 2.7608897e-08
-7.9644975e-09 -9.792589e-10 6.670652e-08 -1.1736888e-08 5.927747e-08 3.9267753e-09 4.4110152e-08 -1.1092125e-08
-4.528339e-09 1.8627322e-09 -6.602152e-08 -1.214553e-08 -8.111878e-09 -1.7391866e-11 6.580934e-08 -2.6407165e-10
-3.9409005e-09 -2.0490141e-08 1.2500946e-08 6.1025446e-08 -1.1266277e-08 7.798315e-09 -2.1084037e-09 -5.365361e-09
-4.433771e-10 -4.878733e-09 -1.906588e-08 1.5303462e-08 1.2105211e-08 1.616227e-09 2.615482e-09 5.9167493e-09
-3.784628e-08 -1.6271876e-09 -3.0118188e-09 3.3701713e-09 2.4736746e-08 -2.6717759e-08 -2.2133739e-10 2.7213744e-08

conv_layers.7.0.conv.bias f4 [16]
00000000: 2b5b 6933 ef0e c0b2 367f 4130 a7c5 57b1
00000010: 9308 4733 078d e731 34a7 dd2e d047 a4af
00000020: 185b 21b2 a98e 0431 f0bd 2d31 b7c8 ee32
00000030: 6030 b7b2 18f4 db31 bd38 0c32 717f 6bb3
5.4332457e-08 -2.2358533e-08 7.039377e-10 -3.139897e-09 4.6341096e-08 6.739018e-09 1.0079618e-10 -2.9882452e-10
-9.392146e-09 1.928962e-09 2.528278e-09 2.7798121e-08 -2.1326002e-08 6.401489e-09 8.161973e-09 -5.483111e-08

linear_layers.0.weight f4 [64, 400]
00000000: 0c55 beb2 aa8c ecb0 1efb 322f d17f f8b2
00000010: 4aac 3f31 27c4 c230 6413 eaad afeb eb31
00000020: 2e49 efb2 8687 8832 b064 0bb2 0c37 1430
00000030: acba 48b1 133a 26b3 1412 4c31 dbc4 6f31
00000040: de61 0a33 c025 a0b1 338d 3d32 bc43 91b0
00000050: cfa6 bd32 4d8a 3632 1144 85b2 3b9a 4ab2
00000060: 8b03 2fb0 e9ef b3b0 aa1e efb1 e938 8cb2
00000070: 2c1b b031 095c 0133 c8ee 512f 8549 4ab2
00000080: 04fc b331 1940 e3b1 93c4 7a31 4413 e130
00000090: 78e1 9db0 27e9 0032 aef8 f2b2 1ee8 6eb2
000000a0: e641 0033 0e15 e8b2 3f31 35b1 8f02 b332
000000b0: 6a7a 31b3 b8b9 b1b2 89fe ce31 41e9 95b2
000000c0: 6a37 0bb1 e81a cfb1 ef33 0432 c4c4 2430
000000d0: c3e4 8232 f76d f2b1 b3e4 3ab1 2772 39b2
000000e0: 90ee 04b3 d83a 8e32 4c64 9032 5553 3f31
000000f0: 74ba 4332 d3e1 e232 9c24 15af 90e1 1c30
00000100: 828f ad32 d08d 0bae 42ec 3532 f0d0 3630
00000110: 3ea2 cb32 3e5c 54b2 0f31 1333 a08e 5f32
00000120: dafa 3db2 002b 46b1 26d3 9b30 0bd3 5fb1
00000130: e50a 93b0 debb 26b0 d81f f32f 12b6 67b2
00000140: 5058 b4b1 6890 0d33 c079 09b2 e661 20b1
00000150: 1da6 04b1 05f2 c031 4742 f1b1 c6ec 0b32
00000160: b0c5 0531 ce2c f7b1 5630 2fb2 e7d0 7f31
00000170: a0f1 352f 5ebd 8db1 537e 2fb2 c21b 84b1
00000180: a178 dab0 9dcf 56b2 2157 2bb2 a01e 77b2
00000190: 2c72 bcb2 a667 d032 242d 4232 3e08 ebb1
000001a0: 2e2e 0833 322a 38b1 95cb 75b1 99d6 1eb1
000001b0: 1b88 f4b1 6f66 1d33 0ac7 4fb1 1434 d332
000001c0: de99 f432 9625 3932 8f48 f9b2 79b9 a431
000001d0: a261 7231 ec73 75b2 78e9 40b2 c453 53b0
000001e0: c517 2bb2 09d3 c1b0 7ed4 3232 6098 bdaf
000001f0: bf6d f4af 6b3e 9632 c9c6 79b0 3ba0 2f32
00000200: 2981 39b2 cf39 3033 707e 4d2d 53fa 35b2
00000210: b02d 7ab0 5858 df31 91fa 3e31 8c33 742f
00000220: e475 e430 44b1 b0af 1d3e 3bb0 24f6 982f
00000230: 5631 38b2 0676 18b1 debf b332 c8f3 5fb0
00000240: 0c3e 2db3 fea6 e331 e108 a5b2 b4ad dc30
00000250: d377 00b2 27b3 8d32 d41f 2b31 d7d8 98b2
00000260: 22ff 2332 9583 da32 ad8b 3ab2 2e83 0532
00000270: c301 1bb0 c011 b4b1 a9c1 c830 88db 0eb2
00000280: 24e3 9fb0 43ae 0332 5510 79b2 4656 f5b0
00000290: e54a f932 3e35 eeb1 385c 41b0 ac07 c2b1
000002a0: 18ef 4132 0a66 2a30 a4c8 3631 484c c931
000002b0: 26a6 5ab1 dea1 ca31 4ed8 4eb2 0128 ceb2
000002c0: 3d39 33b2 b333 d932 1384 1b31 b73c 40b1
000002d0: 826f 38b2 0ebb 9cb0 ac8f 48b1 831e 7bb2
000002e0: 4eba cb31 ddbc 6fb1 a8c4 56b2 bde8 cfb0
000002f0: 38d1 7032 4f63 6b30 decb e032 dad2 1833
00000300: 864e 1f31 d80e 12b2 007b 57b1 fe00 68b2
00000310: 76a8 d3b0 c078 2db3 aece bc31 dd3c 7fb2
00000320: 884b 8232 c40c 63b1 016a cbb1 bdf8 e6b2
00000330: 0826 c832 984e e1b0 8008 ef31 e9c1 b9b0
00000340: 9ba7 7cb2 b49a 2c31 90fd a231 706b 1d31
00000350: 90ba 9e2f 26e8 eb32 4d68 e931 7b3d f9b2
00000360: 0265 34b0 0f60 6fb1 e194 d1b0 4612 0932
00000370: 8471 1232 5ecd 22b1 41c7 1631 4f0d 8131
00000380: 7cb0 5cb1 e3e8 4fb2 48ce 16b0 30c7 7d32
00000390: f818 5b30 e201 6f31 5c8d d531 3d07 9f31
000003a0: afd3 f831 bd78 2f33 e814 1132 15f0 5332
000003b0: ec4a 6e31 6231 7830 eea2 a331 dcf2 cf31
000003c0: f62e 78b1 87b8 beb2 0510 00b2 3f58 782f
000003d0: eb9f d631 7a60 812e d9f1 1a32 70ea a231
000003e0: 4ff3 61b0 98da 7231 a162 3932 c7d2 a3b1
000003f0: 2ddb 5331 21a2 23b2 051d eeb2 11df 1bb2
-2.2157586e-08 -1.7211239e-09 1.627822e-10 -2.8929124e-08 2.7892093e-09 1.4171108e-09 -2.6611331e-11 6.8661943e-09
-2.785654e-08 1.5894113e-08 -8.1137586e-09 5.392031e-10 -2.9209941e-09 -3.8702705e-08 2.9696183e-09 3.4890977e-09
3.221964e-08 -4.6609046e-09 1.1033353e-08 -1.056939e-09 2.2078352e-08 1.062524e-08 -1.551419e-08 -1.17930155e-08
-6.3669664e-10 -1.3092151e-09 -6.9593016e-09 -1.6324025e-08 5.1253632e-09 3.011886e-08 1.9093271e-10 -1.1774664e-08
5.2382365e-09 -6.6138566e-09 3.6491528e-09 1.637638e-09 -1.1487336e-09 7.503593e-09 -2.8285594e-08 -1.3906201e-08
2.9862257e-08 -2.701793e-08 -2.636696e-09 2.0839506e-08 -4.132236e-08 -2.0689967e-08 6.0243264e-09 -1.7451955e-08
-2.0258661e-09 -6.027552e-09 7.69522e-09 5.9942473e-10 1.523802e-08 -7.0556285e-09 -2.7196563e-09 -1.07943725e-08
-3.0950616e-08 1.6557735e-08 1.6809416e-08 2.7841527e-09 1.1392888e-08 2.6412556e-08 -1.3564477e-10 5.7073013e-10
2.020511e-08 -3.1730896e-11 1.0589305e-08 6.650813e-10 2.370609e-08 -1.2360998e-08 3.4270723e-08 1.30127376e-08
-1.1058285e-08 -2.8837235e-09 1.1337746e-09 -3.2570735e-09 -1.0698754e-09 -6.0657424e-10 4.422407e-10 -1.3487368e-08
-5.2487295e-09 3.2960457e-08 -8.002132e-09 -2.3338713e-09 -1.9302953e-09 5.61545e-09 -7.021558e-09 8.144701e-09
1.946642e-09 -7.19374e-09 -1.0197331e-08 3.722613e-09 1.6547697e-10 -4.1251687e-09 -1.02150635e-08 -3.8448613e-09
-1.5895872e-09 -1.2503645e-08 -9.973321e-09 -1.4384256e-08 -2.1938e-08 2.426152e-08 1.130255e-08 -6.840337e-09
3.1706968e-08 -2.679951e-09 -3.5767915e-09 -2.311401e-09 -7.116808e-09 3.6647574e-08 -3.0235605e-09 2.4587315e-08
2.847531e-08 1.0776963e-08 -2.9020411e-08 4.794114e-09 3.5271133e-09 -1.42872345e-08 -1.12289555e-08 -7.688039e-10
-9.958915e-09 -1.4102578e-09 1.0409279e-08 -3.448717e-10 -4.446132e-10 1.7490683e-08 -9.0868163e-10 1.0222773e-08
-1.0797785e-08 4.103077e-08 1.1680976e-11 -1.0592504e-08 -9.1014396e-10 6.5001977e-09 2.779107e-09 2.2209984e-10
1.662269e-09 -3.2140168e-10 -6.811847e-10 2.7823532e-10 -1.0721427e-08 -2.2186e-09 2.0925594e-08 -8.147336e-10
-4.0336133e-08 6.6255543e-09 -1.9212566e-08 1.6056476e-09 -7.4778255e-09 1.649603e-08 2.4901867e-09 -1.7793736e-08
9.545859e-09 2.5438377e-08 -1.08583835e-08 7.771446e-09 -5.6391175e-10 -5.2407074e-09 1.4606957e-09 -8.3154035e-09
-1.163333e-09 7.664826e-09 -1.4497421e-08 -1.7850617e-09 2.9021473e-08 -6.9327646e-09 -7.034404e-10 -5.6470153e-09
1.1288442e-08 6.1990646e-10 2.6598537e-09 5.858542e-09 -3.181762e-09 5.897376e-09 -1.203996e-08 -2.3999748e-08
-1.0432186e-08 2.5285635e-08 2.2630544e-09 -2.797419e-09 -1.07355635e-08 -1.1403658e-09 -2.9185498e-09 -1.46170605e-08
5.929258e-09 -3.4886434e-09 -1.2501154e-08 -1.512738e-09 1.40174095e-08 8.563363e-10 2.616974e-08 3.5582026e-08
2.318218e-09 -8.501694e-09 -3.1356535e-09 -1.3504403e-08 -1.540015e-09 -4.0389523e-08 5.495017e-09 -1.4856792e-08
1.516834e-08 -3.3040104e-09 -5.920129e-09 -2.6888637e-08 2.3300359e-08 -1.6393242e-09 6.956782e-09 -1.3515634e-09
-1.470644e-08 2.5117233e-09 4.7436473e-09 2.2907578e-09 2.8872593e-10 2.746317e-08 6.79305e-09 -2.9015373e-08
-6.562716e-10 -3.483368e-09 -1.5249065e-09 7.978604e-09 8.524129e-09 -2.369084e-09 2.1941136e-09 3.755907e-09
-3.2114533e-09 -1.2101938e-08 -5.4862825e-10 1.4771828e-08 7.970722e-10 3.4780148e-09 6.2151866e-09 4.628332e-09
7.2418156e-09 4.0855173e-08 8.444864e-09 1.2336405e-08 3.4676146e-09 9.029205e-10 4.7624473e-09 6.052103e-09
-3.6115444e-09 -2.2202824e-08 -7.454223e-09 2.258682e-10 6.2464003e-09 5.8833785e-11 9.01897e-09 4.741473e-09
-8.2200285e-10 3.533989e-09 1.0790843e-08 -4.767887e-09 3.0829128e-09 -9.524713e-09 -2.7720043e-08 -9.072907e-09

linear_layers.0.bias f4 [64]
00000000: 0e68 83b1 f894 bdb2 5a3d a431 cad2 1fb3
00000010: 0e28 9632 8d2d 3ab2 f5c9 be2f cce9 bab1
00000020: 54b2 beb2 1e3e a731 97d7 4db2 762d be31
00000030: d0de 98b0 4da0 b1b2 66da 1b32 486a 0baf
00000040: 0cff f932 30ad 4a32 d660 feb1 2b5e a0b0
00000050: 8c7f 9732 a22c 14b3 8a50 01b1 c65f fdb1
00000060: 9ccb 94b1 f35d 57b1 b165 bc32 ffb0 bbb1
00000070: b876 4832 2744 e8b2 32e2 3330 d66e 4fb1
00000080: 339b a832 7d0c aa32 e6e8 8430 68f3 0533
00000090: 58b9 23b3 0daf 9fb0 8994 5232 365d c4b2
000000a0: 8819 1fb2 02e7 4baf 7357 3131 aafd 0bb2
000000b0: b461 fd30 c8e4 b4b0 8e6d 7db1 aa11 30b3
000000c0: 408f b02f b817 59b2 cb00 e732 705e 3e32
000000d0: ceed fd31 6220 7131 f97b 98b2 0c26 f2b1
000000e0: 8b8f 83b1 8076 6faf 5f0b 69b1 10f9 25b3
000000f0: 62d7 5732 8cb9 2fb3 fe0e edb1 caf2 9231
-3.8244314e-09 -2.2070239e-08 4.780003e-09 -3.7211784e-08 1.7480513e-08 -1.0836982e-08 3.4704298e-10 -5.439892e-09
-2.2200005e-08 4.8674016e-09 -1.198159e-08 5.534896e-09 -1.1122783e-09 -2.0678408e-08 9.0718455e-09 -1.2679735e-10
2.9103397e-08 1.1797326e-08 -7.403382e-09 -1.1668296e-09 1.7636715e-08 -3.449953e-08 -1.8817752e-09 -7.3741573e-09
-4.3305146e-09 -3.1340022e-09 2.1932324e-08 -5.4625384e-09 1.1668526e-08 -2.7039347e-08 6.5441264e-10 -3.0185467e-09
1.962835e-08 1.9796284e-08 9.670458e-10 3.1187852e-08 -3.8119964e-08 -1.1618525e-09 1.2257382e-08 -2.285979e-08
-9.260823e-09 -1.8544813e-10 2.58066e-09 -8.148541e-09 1.8435942e-09 -1.3161747e-09 -3.687862e-09 -4.099426e-08
3.2116e-10 -1.2636455e-08 2.68923e-08 1.1080928e-08 7.3903044e-09 3.5088523e-09 -1.7751505e-08 -7.0474524e-09
-3.8289207e-09 -2.1779023e-10 -3.3912426e-09 -3.8643577e-08 1.25636195e-08 -4.0914117e-08 -6.8993122e-09 4.276761e-09
