models/model_1726052475349/model.pth (torch, 227178 bytes, 14 tensors)

conv_layers.0.0.conv.weight f4 [16, 10, 3, 3]
00000000: 5819 43be 851d 37be d52a 32be daad 3ebe
00000010: 991c 51be 330d 4cbe 0066 3bbe e851 2bbe
00000020: c9e8 28be 18dd 57bc c657 85bc 1186 9cbc
00000030: 192b 52bc 8b3b 70bc e35b 8abc ff59 96bc
00000040: 59d6 6abc afde 4bbc b5b4 f13c 4d12 8e3c
00000050: 489e 073b 3edc 033d 9df2 fc3c 9377 883c
00000060: 0033 d63c 65f7 6e3c ff5b 613c 32a5 203d
00000070: d4c2 023d 9fca 0e3d e554 353d 7d37 253d
00000080: 0861 303d 23fd 113d fa5d f93c a853 123d
00000090: 1411 653d 32d3 6b3d 9f3d 293d 0469 353d
000000a0: 426f 713d d2b6 693d 5c2c 563d 2472 643d
000000b0: 234a 293d 9d14 4abe 484e 4ebe 5e4d 33be
000000c0: f726 51be 9d37 64be ca82 4bbe 2793 4abe
000000d0: bf44 58be 36d0 2fbe b0ce 3cbc 84d5 b9bc
000000e0: f7b1 7bbc a8ce d6bb a8fd d5bc e8b5 b4bc
000000f0: 45e6 44bc 2ef8 11bd 7ca1 d2bc 8828 b4bc
00000100: af3e ddbc 5949 8ebc 2168 e4bc 6ef1 59bc
00000110: d7a6 43bc 4029 a5bb 952c 0c3c 97d7 103c
00000120: 4cca b23d 4ef5 5d3d 5fe9 a73d 82eb 963d
00000130: 2192 8b3d d297 a33d 5a4e 8b3d 8e18 913d
00000140: 5b64 9c3d dba1 7dbc 80c8 1ebc d0df 22bb
00000150: cbb1 16bc d495 90ba be31 deba cb8e 093c
00000160: e069 fbba c60c 03bc 17be 6a3e e0a0 633e
00000170: 0f49 6a3e 6303 633e 4dae 693e f647 653e
00000180: 318a 603e 3b02 6d3e 5486 633e 26f3 74bc
00000190: e05d 403c 9b67 a9bc afc8 b13a d73b e23c
000001a0: ae62 573c 5247 4f3a 7e02 82bc 5d03 a1bc
000001b0: b153 083c c65d 4c3c 4d86 be3b 6ec0 d53b
000001c0: 7453 b23c 25ba d93b bf63 773b 7458 7f3c
000001d0: 4894 873c cac8 f03b f02d 2c3c 2ddc 69bb
000001e0: 95d7 76bb ab95 ad3c 0c61 833a f5a9 833b
000001f0: 3886 b33c 27d4 bf3c b4a3 cf3b 764f ae3b
00000200: 4bf4 0f3b 0a13 ec3b 3694 cf3c 37f2 fe3a
00000210: 6eab 973a 8dee 803c 8070 063c 6364 703e
00000220: ab9d 753e 6b85 703e d121 713e 17ef 723e
00000230: 04fa 6d3e 0ea9 743e 4044 733e 6d46 6f3e
00000240: ceb0 a7bc 241a d4bc 4bea 85bc c1a3 a4bc
00000250: 1406 c0bc 417d dabc 7945 9bbc 4b12 cdbc
00000260: 83e5 bebc f03e 56bc 4be5 89bc 2137 98bc
00000270: dbb1 1dbc be24 d8bb 9910 49bc c6cc 52bc
00000280: d82b 56bc fa17 8fbc f5d8 093d 2e29 d43c
00000290: 6f3e ca3c 0a33 003d 4dfd 003d 2b3e d83c
000002a0: 083a 023d 7be7 073d c646 cd3c f3d0 12bd
000002b0: 9ea9 1cbd c257 04bd c28e 24bd 879b 15bd
000002c0: b650 f4bc fdee 7cbc a310 9abc bf50 32bd
000002d0: fe8c 5d3e 69a5 5f3e 904d 593e 125c 613e
000002e0: 5caa 613e b56b 573e f9ad 583e 9d19 5e3e
000002f0: a4d9 5e3e d932 b13b 1a79 ae3c 178c 033d
00000300: b7f8 f93c cbaa 033d 9295 1c3d ed7f 933c
00000310: b9d5 ec3c 9bfa 173d 6c23 363c eb65 d43c
00000320: 1378 573c 4ca1 5a3c 8cc4 bd3c f958 b73c
00000330: 9044 a93c 4e14 ae3c 028b 643c 622b fc3c
00000340: 6d7e d33c 0e57 c83c aa13 cd3c 76cf 083d
00000350: c6e3 923c 1a92 c33c e2b0 943c 1e7a bc3c
00000360: 2288 513c f12f f83c c613 983c 1d71 d83c
00000370: 0134 d93c 5ede 953c 13f5 d53c 432a b53c
00000380: 65b3 b23c 068d 603e df29 6b3e 6b87 673e
00000390: f3e3 5c3e 5f39 6e3e cb7e 643e ab68 5e3e
000003a0: 593a 6b3e 7e7c 683e df92 ddbc 648c edbc
000003b0: d10d c3bc a366 d7bc ebbf bdbc d7a9 dcbc
000003c0: 925b f5bc be8c 01bd e108 d6bc 597c 10bd
000003d0: 8c75 05bd 2cc2 d7bc 9801 12bd 017f 03bd
000003e0: 1814 03bd 079a 21bd 8d3e 12bd 5f1f 06bd
000003f0: e4c3 2b3c f84b 773c 0e65 3a3c 5b27 953c
-0.19052637 -0.17882355 -0.17399152 -0.18621007 -0.20421065 -0.1992691 -0.18300629 -0.16730464
-0.1649505 -0.013175271 -0.016277205 -0.019106897 -0.012827658 -0.014662634 -0.016889518 -0.01835346
-0.014333331 -0.012443229 0.029505113 0.01734271 0.0020693708 0.03219246 0.030877406 0.01665858
0.026147366 0.014585351 0.013754844 0.039220043 0.031924084 0.034861203 0.044270415 0.04033612
0.043061286 0.0356418 0.03044032 0.035724312 0.05592449 0.05757446 0.041318532 0.044289604
0.058943994 0.057059117 0.0522884 0.055772915 0.041330468 -0.19734426 -0.2014705 -0.17509982
-0.2042502 -0.2228684 -0.19874111 -0.19782697 -0.21119975 -0.1716927 -0.0115238875 -0.02268482
-0.015362254 -0.006555397 -0.02612193 -0.022059396 -0.012017791 -0.035637073 -0.025711767 -0.021991983
-0.027007429 -0.01736896 -0.027881684 -0.01330219 -0.011941633 -0.005040318 0.008555551 0.008840463
0.08729991 0.05418902 0.08198809 0.07369138 0.06814981 0.07987942 0.06802054 0.070847616
0.07636329 -0.015480484 -0.009691358 -0.002485264 -0.009197663 -0.001103098 -0.001695208 0.008395861
-0.0019181333 -0.007998651 0.22924076 0.22229338 0.22879432 0.2216926 0.22820397 0.22390732
0.21927716 0.23145382 0.22219211 -0.014950549 0.011741132 -0.020679286 0.0013563837 0.027616424
0.013146086 0.0007907051 -0.015870329 -0.019654924 0.008320735 0.012473529 0.0058143497 0.0065231835
0.02176831 0.0066445046 0.0037748662 0.015585054 0.016550198 0.0073481547 0.010508999 -0.0035684214
-0.0037665118 0.021189531 0.0010023429 0.004018063 0.021914586 0.023416592 0.0063366536 0.005319531
0.0021965678 0.007204418 0.025339227 0.0019450848 0.0011571476 0.01573875 0.008205533 0.23475794
0.23985927 0.23488395 0.23548056 0.23724018 0.23239905 0.23892614 0.23756504 0.23366709
-0.02047005 -0.025891371 -0.016347071 -0.020097615 -0.023440398 -0.026671054 -0.018954026 -0.025033137
-0.0233028 -0.013076529 -0.016832968 -0.018580975 -0.009624924 -0.006596177 -0.012272024 -0.012866205
-0.013071977 -0.017467488 0.033654172 0.025898542 0.024687974 0.031298675 0.031491566 0.026396831
0.031793624 0.03317974 0.025058161 -0.0358438 -0.038247697 -0.032310255 -0.040175207 -0.036525276
-0.029823642 -0.015437839 -0.018806761 -0.043534037 0.21635816 0.21840443 0.21220994 0.22007778
0.22037643 0.2103718 0.21160115 0.21689458 0.21762711 0.005407673 0.02129798 0.032116022
0.030514104 0.032145303 0.03822858 0.018005336 0.028910505 0.03710423 0.011116844 0.025927505
0.0131511865 0.01334412 0.02316501 0.022381293 0.020662576 0.021249916 0.013949158 0.030782405
0.02581712 0.024455573 0.02503379 0.033400975 0.017930876 0.023873378 0.01815075 0.023007449
0.012788804 0.030296298 0.018564116 0.026421124 0.026514055 0.01829451 0.026117837 0.022114879
0.021814058 0.21928796 0.22965191 0.22610252 0.2157133 0.23264073 0.22313993 0.21719615
0.22971477 0.2270374 -0.027047573 -0.028997608 -0.0238103 -0.026294058 -0.023162803 -0.026936455
-0.02995089 -0.031628363 -0.02612728 -0.035274837 -0.032582805 -0.026337706 -0.03564605 -0.032103542
-0.032001585 -0.039453533 -0.035704184 -0.03274476 0.010483716 0.015093796 0.011376632 0.018207243

conv_layers.0.0.conv.bias f4 [16]
00000000: bb18 51bd 7b39 973c 3ab1 213c 40eb 17bd
00000010: ce96 07bd d367 b03c 6eae 84bc ffe7 e7bb
00000020: 3ae4 36bd 39ed bf3c c181 c5bb d226 9abc
00000030: 1e73 4dbd 0e2a 30bd ae6e 23bd 02cf 6dbd
-0.051048975 0.018460026 0.009868914 -0.037089586 -0.033102803 0.021533882 -0.016196456 -0.0070772166
-0.044651248 0.023428546 -0.0060274308 -0.01881734 -0.050158612 -0.043008856 -0.039900474 -0.058058746

conv_layers.2.0.conv.weight f4 [32, 16, 3, 3]
00000000: a7fa 16bd 434c 1fbd 21bc 0cbd 5fd9 14bd
00000010: 3970 19bd 20a0 2dbd 727e 04bd 100a 0ebd
00000020: 4244 09bd 967d ed3c b518 2c3d 98f8 d73c
00000030: 01ce c23c 7a2d 023d 211d d93c 2c11 d43c
00000040: d687 c53c fe5d 063d 3f19 29bb 9885 623c
00000050: 0662 c33c 92f5 1f3c 96ac a83c 8f01 573c
00000060: 2525 313c aac4 f53b 5b02 6b3c f3c1 d43c
00000070: 8b07 0e3d a1c9 013d eb75 e93c 8856 023d
00000080: 12d2 023d c290 e33c a587 f13c eb64 e53c
00000090: c870 1bbd cce4 83bd 588a 6abd dc87 30bd
000000a0: 4def 65bd d4f8 50bd 9b7e 06bd c2d2 0bbd
000000b0: 9c33 2abd ac4c 423c 7004 d43b b931 d03c
000000c0: fd1b 4ebc ab38 c4bc 1628 d83c df56 913c
000000d0: 9b0c f0bb 0380 aabc 0f1a 84bd 87c9 8cbd
000000e0: a841 65bd 08b3 77bd 51b9 87bd d50f 7bbd
000000f0: 8455 50bd bac5 80bd 28b6 65bd 4985 bbbc
00000100: 693a b2bb 3f39 30bc 16eb 0dbc d1b6 00bd
00000110: 88ac 18bc c71b febc e2a8 dfbc 58f2 d8bc
00000120: fd01 00bd 321f 26bd 4723 33bd c855 02bd
00000130: 7f5e 1fbd 6210 45bd d706 f9bc 19d1 12bd
00000140: 9870 2abd 5faf 473c e8b9 993c 46b3 7d3c
00000150: 6007 b63c 0d9a c13c 924a 073d 3b0d a83c
00000160: 5ce5 ca3c 302a 853b bf59 d9bc 02a1 12bd
00000170: 9c5b d2bc 9d7c 1cbd 9687 73bc 6a53 47bc
00000180: 5abc 77bb 8cc4 22bc ddb5 d9bc c453 0b3c
00000190: c3f9 d43c 4912 e53c 93de 243c 50dc ea3c
000001a0: 0d63 a03c 06aa 103c 1070 793c e628 cc3c
000001b0: 3b51 5a3c 14a2 b83c 8ae3 813c 1e3f 733c
000001c0: a863 a73c c788 9a3c 47b1 533c 245c 913c
000001d0: 023a 5d3c ca20 f4bb 669a 91bb ab45 b5bb
000001e0: 0fad 04bc ac48 90bb ed3c 99bb 95b4 00bc
000001f0: b5b8 63bc 558f 8fbb eb25 db3c 908a 2a3d
00000200: 213b 233d 5c34 003d cbf2 2b3d 8a49 283d
00000210: a865 e03c 67e5 183d 39ba fc3c 5a96 333c
00000220: 7bff eb3c 3183 c63c a954 c43c 4632 c93c
00000230: 7647 d33c f204 4c3c 35e0 df3c 13e3 8c3c
00000240: d3ac 12bd 2b65 02bd 5657 fbbc abcc edbc
00000250: 6808 10bd 6240 00bd fed8 07bd c3e0 17bd
00000260: db70 f8bc 2b0f 053c 94db c53c 0329 023d
00000270: ffaa 283d 844d f23c 4070 123d 1413 f53c
00000280: 961a 1a3d f968 373d b191 823c a804 18bb
00000290: 5b7b c93c a0ef 80bb c8f3 71ba ce93 f7bb
000002a0: dd8a 2abc 4559 113d e46d 853c 5e9d 1e3d
000002b0: 5873 1e3d acbd 3b3d b6d8 373d 762e 2f3d
000002c0: fb2e 313d 8347 453d ca25 4c3d 0530 363d
000002d0: 2f6d 5dbd ad50 b4bd 8448 02bd 9826 4dbd
000002e0: 01ce c5bd 7e86 9dbd 4c0d 97bd 1e88 4dbd
000002f0: cda9 3dbd c9b2 e4bc 0c78 d03b feb7 18bc
00000300: 06f8 963c 138b c53c 2d66 fbbc 5277 303d
00000310: d9c8 92bc ba4e 0bbd 472b a2bd 5497 a4bd
00000320: 9d36 9ebd 9cd7 9dbd 5bcb 9dbd 1691 a9bd
00000330: 0ec5 9abd a6fb 99bd b8d2 9abd a552 783b
00000340: bd90 4abd 8bb2 14bd db8f b5bb 3be2 59bd
00000350: 978f b5bc d0ef 43bd fd28 7ebc 1ed4 02bd
00000360: dd63 1ebd e73d 30bd 08e7 22bd 98cf 31bd
00000370: b934 36bd 9964 3abd d23b 34bd d8c8 3ebd
00000380: 40c0 42bd db83 653c 6607 5fbb 45a7 c23c
00000390: aead d93c f4b5 7a3b 9e89 6b3b cf89 843c
000003a0: f2e4 b9bc b05b 0e3d c5b2 1bbd 76ad 45bd
000003b0: 1248 6abd debe 0abd 6a82 17bd 93d9 42bc
000003c0: a770 08bd f947 3ebd 77d8 cebc 69ee 4f3b
000003d0: f7a2 443c 8cab 1d3d a8d9 e73c fe3f f23c
000003e0: e7c2 8a3c dabb ef3b 5e97 e03c f062 853c
000003f0: 58f2 e73c b839 003d ec0f 133d b0db 193d
-0.036860134 -0.03889109 -0.0343591 -0.036340114 -0.03746054 -0.042389035 -0.03234715 -0.034677565
-0.03351236 0.028990548 0.04201575 0.026363656 0.023779871 0.03178165 0.026503148 0.025887094
0.024112623 0.03280448 -0.0025802401 0.013825797 0.023850452 0.009763138 0.020590108 0.01312293
0.010812079 0.007500251 0.014343823 0.025971388 0.034675162 0.03168643 0.02849861 0.031820804
0.03193862 0.027778987 0.029483626 0.028002223 -0.037949353 -0.06440124 -0.05726084 -0.043098316
-0.056136418 -0.05101855 -0.032835584 -0.03413654 -0.041553125 0.0118591 0.0064702556 0.025414335
-0.012579915 -0.023952803 0.026386302 0.017741619 -0.0073257214 -0.020812994 -0.06450283 -0.06874376
-0.055970818 -0.060473472 -0.06627143 -0.061294395 -0.050862804 -0.06287713 -0.05608192 -0.022890704
-0.005439092 -0.010755836 -0.008662006 -0.031424347 -0.009318478 -0.031019105 -0.02730221 -0.026482746
-0.031251896 -0.040557094 -0.043734815 -0.03182009 -0.038908478 -0.048111327 -0.03039877 -0.035843942
-0.041611284 0.012187808 0.018765405 0.015484637 0.022220314 0.023633027 0.0330301 0.020514121
0.02476757 0.004063867 -0.026532052 -0.03579808 -0.025678448 -0.038204778 -0.014863869 -0.012165884
-0.0037801475 -0.009934556 -0.026575977 0.008503858 0.025998002 0.02796282 0.010062831 0.028669506
0.019578481 0.008829599 0.015224472 0.024921846 0.013325031 0.022538222 0.01585557 0.014846591
0.020433262 0.018864049 0.012920684 0.017744131 0.0135026 -0.007450198 -0.0044434546 -0.0055319867
-0.008097901 -0.0044031944 -0.0046764524 -0.007855554 -0.013899018 -0.0043811 0.02675148 0.04163605
0.03985131 0.031299934 0.041979592 0.041085757 0.027392223 0.03732815 0.030850517 0.01096114
0.028808346 0.024232479 0.02396615 0.024560105 0.025790911 0.012452351 0.02732859 0.017198121
-0.03580935 -0.031834763 -0.030681293 -0.029028257 -0.035164267 -0.0313114 -0.033165924 -0.037079584
-0.030327251 0.008121292 0.024152555 0.031777393 0.0411787 0.029577978 0.03575158 0.029916324
0.03762301 0.044777844 0.015938612 -0.0023196135 0.024594953 -0.0039348155 -0.00092297466 -0.0075554615
-0.010409084 0.035485525 0.016287751 0.038724296 0.03868422 0.045835182 0.044884406 0.042768918
0.043257695 0.048163902 0.049840726 0.04447939 -0.054059204 -0.0880445 -0.031807438 -0.050085634
-0.09658433 -0.07691668 -0.07375583 -0.05017864 -0.046304513 -0.027917283 0.006361967 -0.009321211
0.018428814 0.024114167 -0.03068837 0.043082543 -0.017918037 -0.034010626 -0.07918411 -0.08036676
-0.077252604 -0.0770714 -0.077048026 -0.08279626 -0.075571164 -0.07518701 -0.07559723 0.0037891057
-0.04945444 -0.036303084 -0.0055408305 -0.053194266 -0.022163196 -0.047836125 -0.015512702 -0.031940572
-0.038669456 -0.043027785 -0.03977111 -0.043410867 -0.044483874 -0.045506094 -0.04400236 -0.04657826
-0.047546625 0.014008488 -0.003403151 0.023761401 0.026572075 0.0038255425 0.003594018 0.016178994
-0.022692177 0.03475541 -0.038012285 -0.04826113 -0.057197638 -0.03387343 -0.036989607 -0.011892694
-0.03331056 -0.046455357 -0.025249703 0.0031727797 0.0120017445 0.038493678 0.028302029 0.02957153
0.01693864 0.007316095 0.027415927 0.016282529 0.0283138 0.031305045 0.035903856 0.037563026

conv_layers.2.0.conv.bias f4 [32]
00000000: d556 99bc bb4f e4bb 3488 9c3c 746a a23c
00000010: e610 cfbc b85b 823d 1e4f 833a d17d 45bc
00000020: 83be fd3c 252d 53bc d681 29bd 5384 233c
00000030: 5b0d 18bc b8c9 16b9 fb3e 91bc eca2 debc
00000040: 4cf5 a5bb 6ace 5ebd 6d50 a9bc 5cbf aabb
00000050: 2001 463d a202 8dbd 3ac7 39bc 95d7 1fbc
00000060: 8941 6abd 3573 ebbc e634 e1bc d56c 45bc
00000070: 8f77 43bc 9104 abbd 913a 02bd 36d1 8bbc
-0.018718163 -0.0069675124 0.019107915 0.019826151 -0.025276612 0.0636515 0.0010018086 -0.012053923
0.030974632 -0.012889181 -0.041383587 0.009980279 -0.009280528 -0.00014380261 -0.017730227 -0.027177297
-0.005064642 -0.05439607 -0.020668233 -0.0052108 0.048340917 -0.06885268 -0.011339003 -0.009755989
-0.057191405 -0.028741458 -0.027491044 -0.012049873 -0.01193036 -0.0835048 -0.031794135 -0.017067533

conv_layers.4.0.conv.weight f4 [32, 32, 3, 3]
00000000: d6b3 853c d1fa 133d d290 123c 854a 19bc
00000010: d58b 8b3a fe21 02ba b289 f9bc ac9e 80bc
00000020: bd27 56bb 0714 0c3d 8ed1 0bbc c94e 2e3d
00000030: f12c 34bc 6a09 323d 9063 edbb 310d 943c
00000040: 378a bf3b 898a c93a ebf2 88bc dd93 13bd
00000050: 644a 10ba 1cc5 68bc 67ea 3fbd 06b7 d73b
00000060: 2566 31ba 47d0 1bbc d3c1 cabc d574 a4bc
00000070: 217c f13c a0e3 3bbd 84ad 8e3c cb14 87bc
00000080: 29e6 10bc 97a9 bdbc 6bce d5bc 30b4 0ebd
00000090: f23a c6bb 8188 313c c223 5f3c 700b 9639
000000a0: 5f14 3c3d 7b68 dd3c e76d 2d3c dd41 1c3c
000000b0: cae4 c53c 264c 923b 3f8c d33c ac0e cb3c
000000c0: 7413 473d f0e5 e1bc 0b92 efbc b84c b73c
000000d0: a60e cbbc 5db7 2bbc 3fa9 4f3c 4ddd 3a3d
000000e0: f334 a5bb 2408 56bc cef1 853d d2a5 fd3c
000000f0: e83b 1c3d 7e5a a8bc e92d 933d 07f4 bdbc
00000100: bd89 04bc fcb0 903c 11c0 bfbc 8cfe 563d
00000110: 5618 343c e99b 0d3a 43d5 4b3d 5d5e a93c
00000120: 735d 0cbd 386d 43bb b7f2 bfbc f565 27bd
00000130: aec7 193d e4de a8bb 1af3 33bd 4676 593d
00000140: ddc8 553d 9577 0f3d ee63 573d ad1a f13c
00000150: c425 843c 20b4 303b 1dfe de3c db19 bb3c
00000160: 4c6b 2b3d 0ba6 1f3c 6e77 683b a242 783d
00000170: c17b 4a3d 509d 0a3c 3b93 363d b9b5 1b3d
00000180: f574 88ba f0aa 743d a12b 2c3b 1b71 8b3d
00000190: d644 323d 9453 273d 63e9 8ebc de98 093b
000001a0: 6ade e23c e81a 833d 296b 4d3c b31d f3bc
000001b0: 4b0a e3bb b797 5e3d 46f9 e13c 08aa 273d
000001c0: 2b8b a83c 6950 e83b 0b64 823d ac95 f83c
000001d0: 0905 143d a571 013a aaeb d03b bc67 663d
000001e0: 1831 f33c 71ca 463d d1df 363d 5d65 2c3c
000001f0: fb0a 503d 4639 273d 85f2 113d 15d4 153d
00000200: 08a3 803d 4e07 0b3d 1d03 8b3c 863e 803d
00000210: f747 bf3c fa8c 953d da40 923c adc5 443d
00000220: e3bf 1a3d dbf4 683b deb4 8ebc a18f 593d
00000230: 46e6 413d 2bae 103d 6d15 12bc bc45 103d
00000240: 65f0 613c 5f1c 163c b31b 4b3d 24b9 cebb
00000250: f4dd 773c 6abf 8d3c d5c8 99bb 3284 ce3b
00000260: 0198 be3b 0f8c 17bc 98c3 cdbc c173 cd3c
00000270: 8ef3 47bd 30db 38bd cf04 ae3b 950b 25bd
00000280: 0149 ea3b a54a f7bc 143f 1b3d 4a19 173d
00000290: 5f3a e23b 2f6d 053d 0cbe 633c 65e5 2a3c
000002a0: 4899 043d 85b5 b63c 0ed4 2b3c 0c04 78bd
000002b0: a193 debc 390a 4cbd f987 5abd 9fb8 0fbd
000002c0: fbf3 16bd 07b5 45bc d8ae 24bd b08f af3b
000002d0: 0e15 193a ba5c ae3c ac5a 06bc a662 e53c
000002e0: 1894 573c 9cdc f9bc a27c 103c 8389 153d
000002f0: 55e9 593b 5561 5abd d1e8 18bd 26e3 e3bc
00000300: e870 08bb 6274 e4bb 752c 8d3c 999d d3bc
00000310: e7cd 8b3b 812d 3ebd 9c29 fb3c dc2d b73b
00000320: ff32 703b 16f4 b1bb 357a 263c d445 91bc
00000330: 1cb0 5a3b 1bc9 9e3c 35c0 fe3c 1d61 473d
00000340: 11a6 723d 3bb5 7b3d 6a8f e53c 7b5c 083d
00000350: 98f7 553d a600 053c af24 853d 489e 453d
00000360: b005 2cbd d04b 85bb c787 abbc ab32 22bd
00000370: b581 3cbd d351 3bbd e20d 7ebd 126e 55bd
00000380: 7395 c9bc 4b9d d1bb 2e18 06bc 33da 5c3d
00000390: 8082 9ebc eaf1 503a 281f dd3b e884 bdbc
000003a0: 521e c13c b612 333d 5ef8 4f3d f7aa d53c
000003b0: da22 2f3d a444 a43c 3def b0bc 958c b8bc
000003c0: 7c95 323d a635 343d 5215 d7bc 4bbb 17bc
000003d0: 2720 96bc 1ce6 263c 67da a6bc 36a0 9abc
000003e0: eb5b 323a 1005 c9bc 797a 84bc 2121 bb3b
000003f0: 2f2d 1a3d cc35 093d ef78 ff3c 5b7e d23c
0.016321104 0.03612787 0.008945661 -0.009356146 0.0010646532 -0.00049641717 -0.030461166 -0.01570066
-0.0032677494 0.034198787 -0.008533848 0.042555604 -0.010997043 0.04346601 -0.007244535 0.018072696
0.005845334 0.001537637 -0.016717395 -0.036029685 -0.0005504249 -0.014207151 -0.046854403 0.0065830974
-0.0006767235 -0.009510106 -0.024750626 -0.020075241 0.029478135 -0.045871377 0.017416723 -0.016489407
-0.008843937 -0.023152156 -0.026099404 -0.03483981 -0.0060495073 0.010835768 0.013619365 0.0002861875
0.045917865 0.02702736 0.010585285 0.009537187 0.024156947 0.004464644 0.02582371 0.02478727
0.048602536 -0.027575463 -0.029244443 0.02237545 -0.024787258 -0.010480729 0.012674629 0.045621205
-0.0050417124 -0.013063464 0.06540261 0.030962858 0.03814307 -0.020550963 0.07186491 -0.02318765
-0.00808948 0.017662518 -0.023407014 0.05248885 0.01099213 0.00054019556 0.04976393 0.020674879
-0.034268808 -0.0029819738 -0.023431165 -0.04086872 0.037543945 -0.0051535238 -0.04393301 0.05309131
0.05219351 0.03502615 0.052585535 0.029431665 0.01613129 0.0026962832 0.02722078 0.022839477
0.041850373 0.009744178 0.0035471576 0.06061042 0.049434427 0.008460358 0.044574004 0.0380151
-0.0010410832 0.05973333 0.0026271122 0.068086825 0.04352268 0.04085119 -0.017445272 0.0020995657
0.027693946 0.06401616 0.012537756 -0.029677248 -0.0069287173 0.054343905 0.027584683 0.04093364
0.020574173 0.0070896638 0.06366738 0.030344807 0.036137614 0.0004937894 0.0063757496 0.056251273
0.029686496 0.048532907 0.04464704 0.010522214 0.05079172 0.040826105 0.035631675 0.03657921
0.06281096 0.033942513 0.016969258 0.062619254 0.023349745 0.0730228 0.01785319 0.04804008
0.037780654 0.0035546336 -0.017420229 0.05311549 0.047338746 0.03532235 -0.008916241 0.035222754
0.013790225 0.009162038 0.049586963 -0.0063086916 0.015128601 0.017303187 -0.0046931305 0.00630238
0.00581646 -0.009249701 -0.02511768 0.02507961 -0.048816256 -0.04513091 0.005310632 -0.04029425
0.007149816 -0.03018696 0.037901953 0.036889352 0.006903931 0.03257483 0.013900291 0.0104306685
0.032372743 0.022303352 0.0104875695 -0.060550734 -0.027170004 -0.049814437 -0.05335233 -0.035088178
-0.03685377 -0.012067086 -0.040205806 0.005357705 0.0005839624 0.02128445 -0.008200329 0.02800114
0.013157867 -0.030500703 0.008818777 0.036508095 0.003325065 -0.05331548 -0.037331406 -0.027818274
-0.002081925 -0.0069718817 0.017233113 -0.025831984 0.004266489 -0.046430115 0.03065949 0.0055901837
0.003665149 -0.0054307086 0.010160972 -0.017733492 0.003336913 0.019383004 0.03109751 0.0486766
0.059240405 0.06145213 0.028022487 0.03329132 0.052238077 0.00811783 0.065011375 0.048246652
-0.04199761 -0.0040678754 -0.020938767 -0.039599102 -0.046022136 -0.04573233 -0.06202496 -0.052106924
-0.024607396 -0.0063969246 -0.008184476 0.05391903 -0.019349337 0.00079706183 0.006748099 -0.023134664
0.023574028 0.043719016 0.05077397 0.026082499 0.042757846 0.020052262 -0.021598453 -0.022527972
0.04359959 0.043996476 -0.026255284 -0.009260963 -0.018325878 0.010186698 -0.020367814 -0.018875223
0.0006803858 -0.024538547 -0.01617168 0.0057107364 0.037640747 0.03349857 0.031185595 0.025695017

conv_layers.4.0.conv.bias f4 [32]
00000000: 06d5 6e3d 7e8e 243a a170 273c 290d 9fbd
00000010: 0e6d 1b3d 2c90 f4bb 93bc e0bd 1468 afbc
00000020: aee1 95bb 570d 323d 2254 ad3b 6dc9 6a3d
00000030: 7e0b 2ebd e014 2e3a 4b7a 88bc f363 e93c
00000040: abec b9bd a58f 743d e673 bb39 143f 6f3d
00000050: fc4e a1bc 8d38 3a3d 4738 a43c 37ba 30bd
00000060: c6fe 053d 0426 bc3c ee38 283c bdf7 563d
00000070: becd 88bc 3643 223d a0fd 8a3c 1bf7 a3bc
0.058308624 0.00062773365 0.010219724 -0.07766182 0.0379458 -0.0074634757 -0.10973468 -0.021411933
-0.0045740223 0.043469753 0.0052895704 0.057321 -0.04249143 0.0006640684 -0.016659876 0.028490042
-0.09078344 0.059707303 0.0003575377 0.058409765 -0.019690983 0.045464087 0.020046366 -0.04314634
0.032713674 0.022967346 0.010267479 0.052482355 -0.016699668 0.03961488 0.016966641 -0.02001529

conv_layers.5.0.conv.weight f4 [32, 32, 3, 3]
00000000: f8a8 12bd 95bd 483c a39d 133d 5b3d a73c
00000010: d7f9 d8bc f962 163d 759b 3f3d a618 0d3d
00000020: 943c 0f3d fc83 033a 397b c83c 4538 db3c
00000030: 16a0 813c 4f2c d8b9 81cb cb3a ce15 993b
00000040: f639 a13b ca5a b63b 6f11 0dbd 789b 6bbd
00000050: afd9 73bd ca24 093c 8a61 09bd b4e3 05bd
00000060: 728c f7bc a3af b13c b994 42b9 b45d 823b
00000070: 3e35 953b 0c95 5abc a9e8 b7bc 3e3b 16bd
00000080: 5048 d9bc b848 09bc 5fbb adbc 0674 033c
00000090: b3be b4bc 0ce8 0abd e3eb 29bd 823f 05bd
000000a0: 8e6c 81bc ce3d e7bc 26c2 dabc b4cd 90bc
000000b0: fa2c f1bc 1113 7cbc ae09 84bc 6632 c03a
000000c0: 99ba b3bc ab41 b63c 63e7 ac3c 3d74 aabb
000000d0: 63ce 923c 56fc 72bc a0d0 2ebd b2b1 d4bb
000000e0: f6ca 9c3c d75d 463c 9a58 bf3b bc11 353b
000000f0: c737 aabc 5de4 efba b32e b5bc 1aa0 f2bc
00000100: e732 d8bc f244 ba3b c160 143c 76e1 85bc
00000110: 82bb fe3b 2bc1 893b 1fe9 43bb c684 ac3c
00000120: 9fa9 283d befb c33c 5432 8e3b c184 9b3c
00000130: ca19 823a 798c 043d 5785 3f3d e20f 09bc
00000140: 7628 353c 9326 fabc 204d 9fbc 66b7 4f3c
00000150: c201 59bd a9a7 53ba ebd8 52bd b98b 84bd
00000160: a41b 97bb f300 2dbd 1d81 5b3c 5c2b a13b
00000170: 2da3 d73b 3798 003d b433 2d3c 8926 813c
00000180: 36bf 6e3c 4954 ea3c 5268 463c edc0 bc3b
00000190: 2604 22bd bb2c 08bd b517 a1b9 4ca4 0ebd
000001a0: c795 59bc 3e94 4f3c ca85 2a3c ba30 b3bc
000001b0: 8356 40bd e414 863c ce83 2abd 7e9f e8bc
000001c0: 0eef 26bd e506 593c a627 3b3c 6687 3ebd
000001d0: fc8f 1b3c e882 323d 4f89 4d3d 4b75 073d
000001e0: 29a3 e83c 05e4 d33c 6c86 073c 1abb d03c
000001f0: 0804 313d 4edd ac3c bd65 d9bb b6a8 b8bc
00000200: 5b7d 0d3d 185f 65bc e295 26bc 5aa2 b13c
00000210: a4fa 00bd 26c0 4d3a c4d4 90bc f9c3 6a3d
00000220: c488 003d 60df 0f3d ba11 293d 992e 7d3d
00000230: 9434 a03c c98a 5e3d 1620 423a a1c5 e4bb
00000240: 4812 1cbd 23fd 4abd 47b0 0cbb ce1d 2f3b
00000250: eba3 623b 4a33 e4bc 4772 40bd 87be 8bbc
00000260: 74ae 1cbd 0132 a53c 9ef9 b8bc acc4 da3c
00000270: 3d96 b03c 9de5 dcbc 615b bbbc 303c f3ba
00000280: 7d31 af3c 1b2d bdbb a3be 2e3c 7962 b73c
00000290: be9a bb3c 56d1 123d 6ca2 0e3d 24e4 6bbb
000002a0: e443 2e3d 5e2a 453d 1674 1dba 98ad 7c3b
000002b0: fef6 e03c 9874 793d f8c3 bf3b 2e18 743d
000002c0: 2d02 253c 6ed2 423c f2bb 3f3d c0f7 653c
000002d0: 3cc9 333d 73e4 863b 4302 923c edab 4d3d
000002e0: abe9 203d e3aa ce3b 2378 6c3d cf53 693d
000002f0: 2ad0 27bc 1ff1 ccbc 4c74 9abc 8fde d23c
00000300: b3f9 563d 0c3c 59bc cadb 643c 8415 303d
00000310: b293 d03c 62cd 053c 301e 70bb cc7d 2ebd
00000320: 5269 bf3b 3b73 91bc b44e 8bbc 300c 013c
00000330: 61ff 56bd 7e4e 00bd f24c 6b3b 4356 94bc
00000340: 638f b0bc 0420 92bc d3e2 e9bb a1e3 1fbb
00000350: 89bc 54bc 1091 b33a c17c 49bb 189f a6bc
00000360: d8fa 0cbb 98f7 e93c f0ad 583d 1eae 03bd
00000370: 0064 b63c 46ae 1b3d ead7 59bb b975 953c
00000380: b6f6 e3bc f82f f53b 55de 75b9 1f7e 64bd
00000390: 8754 f8bc 11a0 dcbc 83c8 393c bb40 94bd
000003a0: 89bf a9bc d6a5 d53c 4812 443c 8a50 e0b9
000003b0: 81a4 1f3b b3ae 793c bb66 d23a 1cc0 fa3c
000003c0: 2b98 1c3d d842 853c 0750 693d da0b 7cbc
000003d0: ad00 0b3d d71e 1c3c 2260 6a3d f01f a2bc
000003e0: 9afe a4bc 69c2 f13c 4d39 883c 373e 9b3c
000003f0: ae30 533d 1972 0b3d 81e1 853c 3f24 173d
-0.035805672 0.012252231 0.036039006 0.020414999 -0.02648632 0.03671548 0.046779115 0.034447335
0.03496988 0.00050169206 0.02447282 0.02676023 0.015823405 -0.00041231743 0.001554832 0.004671789
0.0049202396 0.005565022 -0.034440454 -0.057521313 -0.05953377 0.008370588 -0.033540286 -0.032687858
-0.030218337 0.021690195 -0.00018556685 0.0039784554 0.004553466 -0.0133412 -0.022449808 -0.03667759
-0.02652374 -0.008379154 -0.02120751 0.008023268 -0.022063589 -0.033912703 -0.041484725 -0.03253127
-0.015798833 -0.028227713 -0.026703905 -0.017676212 -0.029440392 -0.015385405 -0.016117897 0.0014663457
-0.021939563 0.02224811 0.021106428 -0.005201845 0.017920678 -0.014830669 -0.04267943 -0.0064909095
0.019139748 0.012107334 0.0058394196 0.0027628979 -0.02077855 -0.001830231 -0.022116994 -0.029617358
-0.02639146 0.0056844885 0.009056271 -0.01634286 0.0077738175 0.0042039356 -0.002989359 0.021059405
0.04117739 0.023923751 0.0043394957 0.0189842 0.0009925899 0.032360528 0.046758022 -0.008365603
0.01105701 -0.030535972 -0.019445956 0.012678003 -0.052980192 -0.00080739945 -0.0514764 -0.064719625
-0.0046114493 -0.042237233 0.013397482 0.004918499 0.0065807314 0.031395163 0.010571409 0.015765445
0.014571955 0.028604643 0.012109833 0.005760303 -0.039554738 -0.033245783 -0.00030725976 -0.034824654
-0.013280339 0.012669621 0.010407874 -0.02187382 -0.046957504 0.016367383 -0.041629605 -0.028396364
-0.040755324 0.013246273 0.011423027 -0.046515845 0.009494778 0.043581873 0.050179776 0.033070844
0.028398113 0.025865564 0.008271795 0.025479842 0.043216735 0.02110162 -0.0066344426 -0.022541385
0.034543376 -0.013999723 -0.010167571 0.02168386 -0.03148903 0.0007848762 -0.01767958 0.0573158
0.03138043 0.035125136 0.04127667 0.061812017 0.019556321 0.054331575 0.0007405294 -0.006981567
-0.03810337 -0.049557816 -0.0021467374 0.0026720646 0.0034582566 -0.027856488 -0.046983983 -0.017058624
-0.03825231 0.020165445 -0.022579964 0.026705109 0.021556014 -0.026964957 -0.022870721 -0.0018557366
0.021385903 -0.0057731993 0.0106655685 0.022385823 0.022900935 0.03584417 0.034822866 -0.0035994137
0.042545214 0.048136108 -0.0006006373 0.0038555618 0.027461525 0.060902208 0.0058522187 0.059593372
0.0100713195 0.011890991 0.046810098 0.014036119 0.043893084 0.0041165887 0.017823344 0.05021279
0.039285343 0.0063069924 0.05773176 0.05696469 -0.010242501 -0.02501732 -0.018854283 0.02574089
0.052484225 -0.013258945 0.013968417 0.04298927 0.025461052 0.008166643 -0.0036639087 -0.042600438
0.0058414126 -0.017755141 -0.017005302 0.007876441 -0.052489642 -0.031324856 0.0035904017 -0.018107539
-0.021552747 -0.017837532 -0.0071376353 -0.0024397152 -0.012984403 0.0013699848 -0.0030744525 -0.020339534
-0.002151182 0.028560445 0.052900255 -0.032148473 0.02226448 0.038007997 -0.0033240267 0.018244611
-0.027827602 0.007482525 -0.00023447846 -0.05578434 -0.030313743 -0.026931794 0.01133931 -0.07238909
-0.020721214 0.026080053 0.011967249 -0.00042784616 0.0024359527 0.015239405 0.0016052345 0.030609183
0.038231056 0.016267225 0.056961086 -0.015383685 0.03393619 0.009528837 0.057220586 -0.01979062
-0.020140935 0.029511647 0.016628886 0.018950565 0.051560096 0.03404436 0.01634288 0.0368998

conv_layers.5.0.conv.bias f4 [32]
00000000: c8e4 cd3c e1fd bc3d 44a8 d6bc 60a5 43bc
00000010: e538 303d 21d5 78bd 4eef 8cbb 4de8 e33b
00000020: a3b0 0f3d c8b0 b63c 9eb5 c2bb ca96 2f3c
00000030: 41c2 d1bb 832b 4c3d 7d53 053d ba1d 76bd
00000040: 4008 d73b d6cd 0abd 5b5a 203c f4d8 bb3c
00000050: f74f 373d 665f 793d 6868 0c3d 0657 b5bc
00000060: 5a10 3cbc fb08 37bc eb0d c33c 343d d2bc
00000070: 43c3 443d 3121 ecbc d652 b4bc b872 373d
0.025133505 0.09228111 -0.026203282 -0.011941284 0.04302301 -0.06075013 -0.0043009883 0.0069551826
0.035080563 0.022301093 -0.0059420606 0.010717103 -0.0064013307 0.049846184 0.032550324 -0.060086943
0.006562263 -0.033887707 0.009787167 0.0229306 0.044753995 0.060881995 0.034279257 -0.022136223
-0.011478508 -0.011171575 0.023810348 -0.02566395 0.04803778 -0.02882442 -0.022012156 0.04478714

conv_layers.7.0.conv.weight f4 [16, 32, 3, 3]
00000000: 2199 debb 7f5e 4e3d 2ac3 92bd 41e1 44bc
00000010: c701 0bbd 5587 bfbc 2d6e 9dbd a163 59bd
00000020: ac29 9abd e179 eabb 2ed7 4ebc 9b47 a83b
00000030: a099 803d fa3a cd3c 5088 2d3d c1b0 b33d
00000040: 625e b63d fb48 033e 9fe6 0bbd bd31 86bc
00000050: eeef cfbb c71a 813c 1179 1a3c 8570 9c3b
00000060: d21f 04bd de5b aa3b 9a6c 093d b93b 1f3d
00000070: 4b41 1a3a f581 6d3c 0db6 a5bd 0d9c 63bd
00000080: 31ff cdbd bc91 cebd c316 2bbd 72ee 91bc
00000090: 6e3f 43bd e4f3 cebc 5af2 24bd 9101 8b3c
000000a0: c2ca 27bb f34f 46bc 6599 203d 1793 cf3c
000000b0: 5ec5 13bd af50 1dbd f048 1dbd d94a 633c
000000c0: d3f2 1d3c f5ab c4bc e7f7 d83b 775a e8bc
000000d0: 3f83 a23b 23c5 203d 8f20 45bc 7814 4f3d
000000e0: 4ead aebc 27b6 33bd 98c1 84bd 17f9 05be
000000f0: 9ba2 81bd 011a 8ebd f20c 9dbd 8913 283c
00000100: 0ad9 693d 974c 12bd 64cd a3bd 69b5 c53c
00000110: a381 b0bd 4b76 97bd a613 99bd ef3c 66bd
00000120: 2a92 17bc 208f 5f3c bd36 85bd db7e 92bd
00000130: b847 17bd ff49 7dbd e684 a6bd a04b 40bb
00000140: 00f7 a6bd bbec 403c 7f43 76bb 0301 3f3b
00000150: 4663 0fbb c71d 843c ad23 ddbd 4dfb e1bd
00000160: c3f2 b7bd 12c6 a9bd 483b aa3b 446a 2e3d
00000170: a983 883c 6f45 26bd d843 3fbd 6a43 97bd
00000180: 276a a6bd 3c0e 52bd 294c 31bd 20e1 3c3d
00000190: 5129 5cbd 4ca8 cfbc 5006 3c3d 561e 463d
000001a0: 5885 b9bc 2780 38bb 3f88 463d bcc7 b1b9
000001b0: a204 29bc 74a9 63bd 77e3 58bc 1ac5 6e3d
000001c0: 4e71 d23b 6af0 253c 198e 51bb aa02 02bd
000001d0: c567 583d bdf2 0fbb 435d 3eba 5514 873c
000001e0: c1ac 823d 0cb1 243d a4ee 143d 816f 3a3d
000001f0: ab1f 213d f055 ba3d de6c f4bc 1b6d 94bc
00000200: 93d2 063d 5a53 1abc d034 2dbd 5b2e 35bd
00000210: b4a4 98bd 3a8c ba3b 02ae ef3c c93e d3bc
00000220: 570a b7bc ee08 3cbc 810e efbc 1183 4cbd
00000230: ad42 4dbc 2270 5dbd ab78 fdbc ae63 11bd
00000240: 0567 893c bbee 663c 6f34 bb3b 7e83 a3bc
00000250: 434a 61bd b0f9 47bd e458 01be 10a8 0bbd
00000260: 7f3a b5bd 0eb9 303c bfcf 84bc 45e8 893b
00000270: 0e39 443d 58bd 2bbd 4924 6f3c 1091 3fbc
00000280: c78f ccbc beb7 0dbd eea3 4f3c 8754 cbbc
00000290: 8681 a7bc 2e3e dcbc a919 18bc c82b ccbd
000002a0: 30e6 cebd 607e 4cbd b03d eabd f6b9 813b
000002b0: 699d 0a3d 6174 22bd a9ed a0bd 948f 1b3d
000002c0: c117 95bd 0f2b ddbd 9350 1dbd 4f13 10bd
000002d0: c88e ad3b 0695 953c 06b5 623c 25e4 bc3c
000002e0: a3e2 183c 35bc 323d c740 a03d 2c79 f53a
000002f0: b985 bb3d 6572 11bd 957d 49bd 4116 7b3c
00000300: a8d3 023d 3a80 c5bc fe23 7c3c a178 a23b
00000310: 4b56 173d 1dc8 733d ea0d 0ebd 7455 033d
00000320: 0f60 9a3c 31f3 b3bd 49c1 fb3c f5ae 9ebd
00000330: be02 58bd da22 8abd e0d7 a8bd e77b 303d
00000340: 309c 263d 098f 0f3d d353 d1bc eeca 233d
00000350: 548b f03c 2316 1fbd 06c0 02ba 21d2 f4bc
00000360: 02c0 2a3d eded ffbc d611 b5bc 19dc 50bd
00000370: ed17 093c 73ca 2f3d 9440 66bd 4c7f c83c
00000380: f5ba 20bd 3cf3 d9bc 81f6 84bc 4c30 763d
00000390: 55a1 cf3c f304 30bd a1a3 803d 2d94 a03d
000003a0: 2618 18bd 4006 2c3d b8ef 0c3d ba6b 033a
000003b0: fd83 b0bc a9d2 0abd 5ce9 0dbd 112f e5bc
000003c0: f8bd 8e3c 92ed 11bc 8fd9 89bd dd8b 763c
000003d0: accb 45bd 8b7b 26bd 77a9 27ba 7687 9cbc
000003e0: a875 b53b a1e6 d43c 0607 3bbd 5249 ed3c
000003f0: 9ff8 a9bc b903 883c e82c 37bd a13e 99bd
-0.0067931567 0.050383087 -0.07166131 -0.012016595 -0.033937242 -0.023379961 -0.0768703 -0.05307353
-0.075274795 -0.0071556424 -0.012624545 0.005135489 0.06279302 0.025052536 0.042366326 0.087739475
0.08904721 0.12820809 -0.034155484 -0.016381139 -0.0063457405 0.015759839 0.009428279 0.0047741556
-0.03225691 0.0051989397 0.033550836 0.038875315 0.0005884363 0.014496316 -0.08091364 -0.055568743
-0.100584395 -0.100863904 -0.041769754 -0.017813895 -0.047667913 -0.02526278 -0.040270187 0.01696852
-0.002560303 -0.012104022 0.03920879 0.025338693 -0.036076896 -0.038407024 -0.038399637 0.013872826
0.009640413 -0.024007777 0.006621349 -0.02836345 0.0049594934 0.039250504 -0.012031688 0.05055663
-0.021322872 -0.043874886 -0.064822376 -0.13083301 -0.06329843 -0.069385536 -0.07668485 0.010258564
0.05709175 -0.035717573 -0.079981595 0.024134355 -0.08618476 -0.073956095 -0.07474451 -0.056210455
-0.009251157 0.0136449635 -0.06504581 -0.07153102 -0.03693363 -0.061838146 -0.08130817 -0.002934195
-0.0815258 0.011775191 -0.0037576852 0.002914489 -0.002187924 0.01612748 -0.1079782 -0.1103426
-0.0898185 -0.08289732 0.005195055 0.04258181 0.016664343 -0.04059356 -0.04669556 -0.07385905
-0.08125716 -0.051283106 -0.043285523 0.046113133 -0.05375034 -0.025348805 0.045904458 0.048368774
-0.022646591 -0.0028152557 0.04846978 -0.00033908885 -0.010316046 -0.055581525 -0.013237826 0.05829344
0.0064221984 0.01012812 -0.0031975566 -0.031740822 0.052833337 -0.0021964752 -0.0007261822 0.016489187
0.063806064 0.040207908 0.036360398 0.045516495 0.03933684 0.090984225 -0.029837068 -0.018118432
0.032915663 -0.009419287 -0.042286694 -0.04423366 -0.0745329 0.005692986 0.029257778 -0.025786774
-0.022343798 -0.011476738 -0.02918172 -0.049929682 -0.012528104 -0.054062016 -0.030941328 -0.035495453
0.016772756 0.014095004 0.0057130377 -0.019960161 -0.055002462 -0.048822105 -0.12631565 -0.034095824
-0.08849048 0.010786308 -0.016212342 0.004208597 0.047905974 -0.04192862 0.014596053 -0.0116923
-0.024970902 -0.03459906 0.012673361 -0.02482058 -0.020447504 -0.026885118 -0.009283462 -0.09969288
-0.101024985 -0.049925208 -0.11437547 0.003958936 0.033841524 -0.03966177 -0.0785783 0.037978724
-0.07279921 -0.107992284 -0.03840692 -0.035174664 0.005296562 0.018259536 0.013837105 0.023058007
0.009331378 0.04363652 0.07824855 0.0018728129 0.09156365 -0.035509486 -0.04919203 0.01532513
0.031940132 -0.024108995 0.015389441 0.0049582277 0.03694753 0.059517015 -0.03468124 0.032063916
0.018844632 -0.087866195 0.030731814 -0.07748214 -0.05273699 -0.06744929 -0.082443 0.043086912
0.040676296 0.03504852 -0.025552666 0.03998845 0.029363312 -0.03883947 -0.000498772 -0.029885354
0.04168702 -0.031241382 -0.022103231 -0.05099115 0.008367521 0.04291768 -0.05621393 0.024474762
-0.039240796 -0.026605241 -0.016230823 0.060104653 0.025345484 -0.04297347 0.0628121 0.07840762
-0.037132405 0.041998148 0.0344083 0.0005013306 -0.021547312 -0.033892307 -0.034646377 -0.027976545
0.017424569 -0.008906739 -0.06730949 0.015047994 -0.04828994 -0.040645164 -0.00063957967 -0.019107562
0.0055377074 0.025988879 -0.045660995 0.028965626 -0.020748435 0.016603338 -0.04472056 -0.07482649

conv_layers.7.0.conv.bias f4 [16]
00000000: c424 933d c4ae babd c04e f437 4e97 8bbd
00000010: 0ce2 aebd ef46 223d 6a21 fd3c f6ea 9abc
00000020: d57d 213d 9147 ae3c 5dfd 9cbc 7a5c f43c
00000030: dccf f3ba e06d 2bbd caaa 37ba c490 bb3c
0.07184747 -0.09115365 2.9123737e-05 -0.068159685 -0.08539209 0.03961843 0.030899722 -0.018910866
0.039426643 0.02127436 -0.019163782 0.029829253 -0.0018601376 -0.04185283 -0.00070063455 0.022896178

linear_layers.0.weight f4 [64, 400]
00000000: 7aa5 893b 529c d13c be0a 9ebc a158 aebb
00000010: 2635 4b3c 531f b5bc 5865 6fbc 4f1d 0dbd
00000020: 9039 eebb 0d3b 0bbd 993f a0bb e488 a6bc
00000030: 147a f7bc 64e6 26bc fc61 fbbc aa6a 64bd
00000040: 0c95 15bd f320 8bbc b01b 19bc cc7e 02bd
00000050: 84d0 57bd c0d8 883b 17a8 ad3a 007f 1fbd
00000060: 0541 91bc 52b2 8e3a c94f 303c 85c2 123b
00000070: 18d3 463b c844 a8bb 00ba 26bc 1929 bbba
00000080: cb98 593b 02fc 54bb f73a d23c bb23 a9bc
00000090: 3eac 8e3b e9d9 e5bb 94f0 b8bb 414d 27bb
000000a0: 9b45 ab3c ba96 533c bd1d 6bbc 5110 103c
000000b0: 891c c03c c4c0 d8ba d84f 6fba eb9b 04bd
000000c0: affe 113c ff4a 2ebc aff1 643c ec40 e13c
000000d0: d43a 873c 023a d93b ee4a 503c 3b0f 8d3c
000000e0: cca0 3b3c 4391 943c f3d2 1cba 2204 61ba
000000f0: f0ad 973c 6186 a63c f860 a93b 9cc2 debc
00000100: 6fdc 8bbc 94d0 813c 0caf e93b b3cb 37bc
00000110: 5733 46bc 50b4 dab7 bd65 65bc 04c4 b7bb
00000120: fdac 2ebc 0327 cbba 26fc 3bbb f88f d53b
00000130: 1f8a 993c 4a62 bfbc 5190 893c 0bec 9d3c
00000140: 5be1 89bc eea0 993b 0bf7 353a b93a 073c
00000150: 92ca c33c fedc c3bc 5d25 06bd fda8 c3bc
00000160: 8a52 b8bc a75a 71bc 51e6 9b3c d41c 5c3b
00000170: d09f 5cbb c419 b3bc cc86 9ebb 617b 783c
00000180: 190c d63c b7cd e5bb c126 e6bc 34cd 91bc
00000190: 65f4 643c 2707 fcbb b70e c7bb e93d 8e3c
000001a0: a8f1 a1bb 458b d13a 3d9b 87bc d8ed 19bd
000001b0: 7d8f 3a3c 68d7 253b 86f3 65bc be94 54ba
000001c0: 8c03 e8bb 7fa6 11bb 72db 49bb ceb7 0a3c
000001d0: de9a 76bb 6836 253b 446d e03c ac34 cf3c
000001e0: a033 dcbc bbb1 49bc d6ab 71bc 9494 48bc
000001f0: c61d c1bb 6985 cabc 78d1 10bd 14e6 2bbd
00000200: 83ef 01bc 4e07 cebc 650f 0cbd 484f bfbc
00000210: 4748 d1bc b7bb b13c 0fab e3bc b562 003d
00000220: 659a abbc 61f5 0e3a 4732 d0bb 2ed8 8338
00000230: a6eb 503c a12f c7bc a180 373c d1d8 5ebb
00000240: 7384 11bc 616d 513c 6f55 81bc ecec 12bc
00000250: 6d30 ad3c a63a 5f3c 1077 9ebc 1ac7 babc
00000260: a425 cdbc f6c7 9cbc acaf 15bc 6911 3ebc
00000270: 7e26 9fbc 5312 b7bc c685 97bc 8472 20bb
00000280: 1a40 28bc 833d 7abc e6f4 8ebc 5ede dcbb
00000290: 291a 83bb f59d 19bb 1429 a0bc 2088 91bc
000002a0: 0b7e a0bb 6594 45b9 fe06 ac3b 5051 8ebc
000002b0: 8752 b7bc 52cd 31bc 9f45 0abb deb2 3cbb
000002c0: 9de5 e53c bb4b 3f3d 7afd 643c 95b3 293c
000002d0: c42c ccbc 7a32 6a3c 5e0e a8bc 571b 75bc
000002e0: 683d 83bb 5cac a23c 8463 4a3c 19ae 05bb
000002f0: cc0f 7fbc 73d6 2f3b e1a0 463b 2343 053c
00000300: 7fc7 1cbc 1425 e2b9 6c67 5b3c 2b1a 8ebb
00000310: 9a5d 18bb c819 cbbc f6aa 2a3c 78f5 7e3b
00000320: c01c 9ebc c4f2 b7bc d2a3 b6bc 55b1 98bc
00000330: fb7d 30bc 229d ef3a dcff 233a 0a1f a9bb
00000340: e259 c039 0468 70ba ee9a 88bc 7048 97bc
00000350: d82b 9bbc 14bf 9ebc 9289 013b f8aa d6bb
00000360: 4a53 a8bc 19ad b9bc 849c 64bc 2f41 423c
00000370: 92d5 e23c 5674 e4bb f490 a2bc 5207 d8bb
00000380: 445a a2bb 14f2 a4bc c622 dfbc 8013 97bc
00000390: cce5 9fbc 2df7 3ebc e8d9 12bc 10af 8fbc
000003a0: 42bd 0cbc 1cf0 3abc 9fde 56bb 27f0 1bbc
000003b0: 672d 8ebc 7d40 efbb 579f 3abb 2435 b3bb
000003c0: 288f dc3a 92cb 5cbc 5af4 21bc 3652 a2bb
000003d0: 462e c33a 14a1 0fbb 8bc1 ebbb 33a2 63bc
000003e0: e6c2 96ba eef0 0fba f47e 81bc 149c b23a
000003f0: f8bd 223d 3ac8 1c3c 58f0 9ebc c2fc 913c
0.0042006345 0.025587235 -0.019292232 -0.005320624 0.012402808 -0.022109663 -0.014611565 -0.03445178
-0.0072700456 -0.033991862 -0.004890394 -0.020328946 -0.030209579 -0.010186765 -0.030686371 -0.055765785
-0.036519095 -0.016983485 -0.00934498 -0.031859204 -0.05268909 0.0041762292 0.0013248947 -0.038939476
-0.017731199 0.0010886884 0.01076121 0.0022393775 0.0030338224 -0.0051351525 -0.010176182 -0.0014279216
0.0033202644 -0.0032498841 0.025662882 -0.02064692 0.004354029 -0.0070145023 -0.0056439135 -0.0025528225
0.020907214 0.012914354 -0.014350352 0.008792953 0.023451107 -0.0016536941 -0.0009129024 -0.032375257
0.008910819 -0.010637998 0.0139736375 0.027496777 0.016507544 0.0066292295 0.012713177 0.017219177
0.011451911 0.018135672 -0.00059823616 -0.00085836847 0.018515557 0.020327749 0.0051690303 -0.027192406
-0.017072884 0.015846528 0.007131463 -0.011217999 -0.012097201 -2.607159e-05 -0.014001307 -0.0056080837
-0.010661361 -0.0015499297 -0.0028684228 0.0065174066 0.01874262 -0.023362298 0.016792448 0.019277593
-0.01683109 0.0046883738 0.00069414143 0.008253747 0.023900304 -0.023909088 -0.032750476 -0.02388429
-0.022500295 -0.014731086 0.019030722 0.003358652 -0.0033664592 -0.021862872 -0.0048378464 0.015166135
0.026128815 -0.0070130485 -0.028094651 -0.017798044 0.013974284 -0.0076912823 -0.006074752 0.017363505
-0.0049421377 0.001598694 -0.016553516 -0.03758034 0.011386749 0.0025305394 -0.014035111 -0.00081093225
-0.007080501 -0.0022224484 -0.0030800966 0.008466674 -0.003762893 0.002520943 0.027395852 0.02529367
-0.026880085 -0.012310441 -0.014750442 -0.012242455 -0.005893442 -0.024721818 -0.035356015 -0.041967466
-0.007930639 -0.025149968 -0.03419437 -0.023353234 -0.02554716 0.021695955 -0.027791528 0.031344134
-0.020947644 0.00054534344 -0.00635365 6.2868334e-05 0.012751495 -0.024314703 0.011200101 -0.0034003744
-0.008881676 0.012782426 -0.015787808 -0.008967619 0.021141255 0.013624823 -0.019343883 -0.022800017
-0.025042363 -0.019138318 -0.009136122 -0.011600831 -0.019427534 -0.022347605 -0.018496405 -0.002448232
-0.010269189 -0.015273455 -0.017450761 -0.0067403754 -0.0040009213 -0.0023440097 -0.019550838 -0.017765105
-0.004897838 -0.00018842665 0.005249857 -0.017372757 -0.02237822 -0.010852175 -0.0021098626 -0.0028793137
0.02806359 0.04670308 0.013976449 0.010357757 -0.02492369 0.014294261 -0.020514663 -0.014960132
-0.004005123 0.019857578 0.012352828 -0.002039796 -0.015567731 0.0026830703 0.0030308294 0.008133682
-0.009569048 -0.00043133704 0.013391357 -0.0043366156 -0.002324915 -0.024792567 0.010416737 0.0038903635
-0.019300818 -0.022454627 -0.022294912 -0.018639246 -0.010772224 0.0018281082 0.00062560826 -0.005161171
0.00036688062 -0.0009170773 -0.016675439 -0.018467158 -0.018941805 -0.019378223 0.0019765836 -0.006551143
-0.020547528 -0.022665547 -0.013953332 0.011856361 0.027689729 -0.006971876 -0.01984451 -0.0065926695
-0.004954608 -0.020134963 -0.027238261 -0.018441916 -0.019518755 -0.011655611 -0.008963086 -0.017539531
-0.008590044 -0.011409786 -0.00327865 -0.009517706 -0.017355634 -0.007301389 -0.0028476322 -0.0054689813
0.0016827332 -0.013476269 -0.009884918 -0.004953648 0.001489111 -0.0021916078 -0.007194703 -0.013893652
-0.0011502176 -0.00054909184 -0.015807606 0.0013626837 0.03973195 0.009569222 -0.019401714 0.01782072

linear_layers.0.bias f4 [64]
00000000: 52ba f3bc 3a0b a93b 5240 fcbc 0f09 8dbb
00000010: 8009 913d d207 2bbc 1cc8 41ba 21dc 67bd
00000020: ec5e 3f3d 6d6e 163c e802 6c3d 5605 11bc
00000030: 578a 513d f016 6abb c9af 543d 7805 08bc
00000040: be73 c23c 88a9 1f3d 24c3 acbd 5e64 5fbd
00000050: 5da6 253c 7190 353d f00c 663d 1fb8 733d
00000060: f8c3 383d 477f 9c3d 5c57 f2bb 87b0 5bbc
00000070: 592c e5ba 4473 933d 8e17 c63c 9ba1 88bc
00000080: d872 5c3b bfeb 113d cd06 b6bc e9b2 3d3d
00000090: a3cf 753d 8218 1d3d c997 fd3b b827 68bd
000000a0: 73c5 403a 1e46 423d 2543 d4bb fea4 8e3d
000000b0: 597f 2e3d 231a cfbb 95ff 24bc c139 303c
000000c0: 6e00 393d b97e 6d3d 5970 1dbb 13d7 12b9
000000d0: fb76 933d 6e46 7a3d f1bd e13c 54d6 5f3c
000000e0: d042 8fbd 9a5e b2bc 7789 97ba b796 babb
000000f0: 0064 83bc 66bb 42bd 1839 523d bf94 993c
-0.02975193 0.005158809 -0.030792389 -0.0043040584 0.0708189 -0.010438876 -0.00073921843 -0.056606416
0.046721384 0.009181601 0.05761996 -0.00885137 0.05115732 -0.0035719238 0.051925454 -0.008302085
0.02373683 0.038980037 -0.084356576 -0.054539077 0.010110465 0.044327203 0.056164682 0.059501763
0.045108765 0.07641464 -0.007395668 -0.013408787 -0.001748453 0.071997195 0.024181154 -0.016678622
0.0033637788 0.035625216 -0.02222004 0.0463132 0.06001247 0.03835345 0.0077390415 -0.056678504
0.0007353641 0.04743015 -0.006477731 0.069650635 0.042601917 -0.0063202544 -0.010070701 0.010755957
0.045166425 0.05798218 -0.0024023263 -0.00014003766 0.07200428 0.061102323 0.027556391 0.01366194
-0.06995165 -0.021773625 -0.0011561353 -0.005694236 -0.016038895 -0.047542 0.05132398 0.018747685

linear_layers.3.weight f4 [4, 64]
00000000: f7dc afbc ad5f 96bd adf1 623d f682 b2bc
00000010: 04b2 08be a683 703c f0ad 04be 85b6 063c
00000020: da2d d23d 04de c0bd c6cc 06be 3935 86bd
00000030: 7205 713d 9308 283d 2b1b 3b3b b311 343d
00000040: ed79 253d d0e0 053e b473 0f3c 79ac 44bd
00000050: b543 4e3d 5c74 d03d 3e1f e0bc 8c1b 3c3d
00000060: 13ce ebbc 69d1 d2bc dc9e debd 408a b7bc
00000070: 3c5f 8f3d 755d fb3c f6ec c03d 5c75 df3d
00000080: ef91 633c cdbe b73d 01cf a63d 753f 2a3d
00000090: 5b4d b23d 8d05 063d cbfd d9bc 7db6 d73d
000000a0: bf7f 353d 9015 91bd 4fe5 99bc 43c7 1c3d
000000b0: 3cd0 19bd 388f 38bd bf62 db3d 19d5 85bd
000000c0: 93ab 8fbd 0565 e43d 050d fd3d 60de 9d3d
000000d0: a1c1 b23d 8b4b cc3c 9fe8 643d c250 acbd
000000e0: 1949 853d 7c58 6dbd 2e83 aebb 8764 db3d
000000f0: 3fc0 2bbc b77c 773d 54bb 88bd 0bd2 a53d
00000100: 02ba 00bd 1abb 62bd e4d2 37bd a4a5 afbc
00000110: 0d67 d0bd b024 74bc ed77 163d dc63 8abd
00000120: a9bf 233c c0c4 07be 4438 063c c206 583d
00000130: b15e 553d 8874 b3bd 545e b63d 9920 2ebd
00000140: 73bd de3d 4387 d33d 1023 ffbd 26a8 19bd
00000150: cf40 bbbd 0e30 99bd ed31 abbd e8ec 913d
00000160: 2608 bcbd a0dc 8e3b a146 2dbc 3947 203d
00000170: e91a 213d 013d d73d 3d79 5ebd 9cc7 3bbd
00000180: 34e5 503d 4471 9c3d 1fbd b4bd de7a f73d
00000190: 5c51 b4bd 7b87 44bd 9ebf 17bb ce5c c1bd
000001a0: c30d 05be 2f3b 6f3c a927 6c3b 99f2 7dbd
000001b0: a469 d63d 34d5 13bc 36db e3bc 1508 223d
000001c0: 50d4 e73d 08e7 babd d44e 353d 3f3e 22bc
000001d0: a965 993d e803 273a ff65 58bc 5a91 d4bc
000001e0: ff82 fbbd 62dc 20bb b759 9fbd 2d77 73bd
000001f0: 03a1 44bd 06a3 c4bd b508 f9bd 5bd9 8abd
00000200: 3d6d 3b3d adef f7bd 5f70 aebd 065a 793d
00000210: dba0 d8bd 0630 39bd 20d3 b0bd 9cc3 873d
00000220: 5a63 ef3d a4cb 013d d19b cbbd 519c 323d
00000230: 719c 8c3d e80a 8abd 248b d4bc c4c4 133d
00000240: d14d f9bd 4f0b e03d b5a3 adbd 60b9 d4bd
00000250: fc0a 6bbd a3a6 063d 3041 9bbd ee76 983d
00000260: 3d66 863c 65de c43d 6770 873c 9af3 863d
00000270: 3a24 403d f9f7 fd3d 502e c83d 3c15 043c
00000280: c240 01be c6cc 5ebc 1f57 c3bc 5f94 fe3c
00000290: e567 753d 3d2a 963d 6174 c8bd 7193 a8bd
000002a0: a95b a93d d85b dfbd 942d ac3d 5cae 16bd
000002b0: ac3c 35bd 6a95 d9bd 70c1 083d 4eb9 8ebd
000002c0: 622b 923d b4ff ef3d 7c6f 023d 5c67 59bc
000002d0: 0239 e13d dbca 053e 68ac 983d d9e3 d93c
000002e0: de88 0dbc 5cc5 15bd 9b9a 3b3d 2636 5dbd
000002f0: e536 b43d 0c81 843c 7708 413d 4cd5 c43b
00000300: 6ddd 893d 66fb 2dbd 56dc a13d afb2 563c
00000310: 397a 74bd ef02 b43d 98ff 833d 7a09 af3d
00000320: 6b10 35bd 851b bfbd 4853 723c 56ea 123e
00000330: c7a7 ba3d 0d94 923d 5d15 803c 2010 e93c
00000340: 8375 8abd 0b21 e53b e4c3 c63d 2ede 333d
00000350: ed01 273d b253 843c cf76 f1bd e554 4e3d
00000360: f05c acbd dea5 06be dd21 693d e724 9bba
00000370: a00f ca3d ebe2 a3bc 42f6 a3bc d932 0dbc
00000380: adf1 a7bc 7b58 5c3d 47f4 ce3d e8ff 523d
00000390: 1cef f639 dccf bbbc 13e4 6bbd 4e60 173d
000003a0: 4832 b0bd 51b7 8ebd 9be2 c03d f049 86bd
000003b0: 6299 8b3d 38db bb3d 2e47 333d 9a37 bf3d
000003c0: fd9f 8f3b 308d c9bd b11b 4b3d 8a27 00bd
000003d0: 4d5a 5d3c 607a 8dbc 4dcf b33d 1696 273d
000003e0: da4d 893d adc1 003e d970 833d 03ca 8ebd
000003f0: 9896 763d c585 453d 09f3 15be d209 a1bd
-0.021467669 -0.073424675 0.05540626 -0.021790963 -0.13349158 0.014679825 -0.12956977 0.008222227
0.10262652 -0.09417346 -0.13164052 -0.0655312 0.058843084 0.041023802 0.002855013 0.04396219
0.04039948 0.1307404 0.008755613 -0.048016045 0.05035754 0.10178444 -0.027358647 0.04592471
-0.028784787 -0.02573462 -0.10870144 -0.02240479 0.070005864 0.030684212 0.09420197 0.109110564
0.013889774 0.08971939 0.081449516 0.041564424 0.08706161 0.032720137 -0.026610276 0.10532854
0.04431128 -0.07084191 -0.0187861 0.03827597 -0.037552103 -0.04505846 0.10712194 -0.06534786
-0.07015147 0.111520804 0.12355999 0.0770843 0.08728338 0.024938365 0.055885907 -0.08413841
0.06508083 -0.057945713 -0.0053256964 0.107125334 -0.010482847 0.06042167 -0.06676355 0.08096703
-0.03142739 -0.055354215 -0.044878855 -0.021441288 -0.101759054 -0.014901325 0.036735464 -0.06757328
0.009994426 -0.13258648 0.008192126 0.05274082 0.052092258 -0.08762461 0.089047104 -0.042511556
0.10875978 0.103285335 -0.124578595 -0.037513874 -0.09143221 -0.07479869 -0.08359132 0.071252644
-0.09181242 0.0043597966 -0.010575921 0.039130423 0.039332304 0.105096824 -0.05431484 -0.04584466
0.050999835 0.07638791 -0.088251345 0.12083982 -0.088045806 -0.047980767 -0.0023154984 -0.09441529
-0.12993531 0.014601513 0.0036034381 -0.061998937 0.10469368 -0.009023 -0.027814489 0.03955849
0.11319792 -0.09126097 0.04426463 -0.009902536 0.07490093 0.00063711265 -0.0132079115 -0.025948215
-0.12280845 -0.002454542 -0.077807836 -0.059439827 -0.048005115 -0.09601407 -0.12159864 -0.067797385
0.045758475 -0.121062614 -0.08517527 0.06087687 -0.10577556 -0.045211814 -0.08634019 0.066291064
0.11688872 0.031688347 -0.09941829 0.043606106 0.06865776 -0.067403615 -0.025945254 0.036076322
-0.121730454 0.10939657 -0.0847849 -0.1038692 -0.057383522 0.03287376 -0.07580793 0.07444559
0.016406173 0.09612731 0.01653309 0.06589432 0.04690955 0.12400813 0.097744584 0.008061703
-0.1262236 -0.0135986265 -0.023845254 0.031076608 0.059913535 0.07332275 -0.097878225 -0.08231247
0.08269436 -0.1090619 0.08407131 -0.036787376 -0.044247314 -0.106242016 0.0333876 -0.06968938
0.07137181 0.117186934 0.0318446 -0.013269272 0.109972015 0.13065664 0.07454759 0.026597904
-0.008638589 -0.03656517 0.04580174 -0.054006718 0.08799533 0.016174816 0.047127213 0.0060068723
0.06731687 -0.04247608 0.07903354 0.013104125 -0.059686873 0.08789622 0.06445235 0.085467294
-0.04420511 -0.09331421 0.014790364 0.14347205 0.09114032 0.07157145 0.015635187 0.028450072
-0.06760695 0.0069924644 0.09705332 0.04391306 0.04077332 0.01615319 -0.11790239 0.05037393
-0.08416164 -0.13149211 0.05691706 -0.0011836559 0.098662615 -0.020005664 -0.020014886 -0.00861808
-0.020500982 0.05379532 0.10105186 0.051513582 0.00047098927 -0.022926264 -0.057590555 0.036957078
-0.086033404 -0.069685586 0.094182216 -0.06557071 0.06816365 0.09172672 0.043769054 0.09336777
0.0043830858 -0.098413825 0.049586955 -0.031287707 0.013510299 -0.017270267 0.08779774 0.040914617
0.06704302 0.12573881 0.06418008 -0.069721244 0.06020221 0.048223276 -0.14643492 -0.07863201

linear_layers.3.bias f4 [4]
00000000: 270a 853b d4c8 aabd f79f 9fbd 7390 743d
0.004060048 -0.08339086 -0.07794183 0.05970807
