models/model_1726662422538/model.pth (torch, 227178 bytes, 14 tensors)

conv_layers.0.0.conv.weight f4 [16, 10, 3, 3]
000000 12 2c 1a 3f 2a 5c 19 3f 9e 52 19 3f b2 0a 1a 3f
       0.60223496 0.59906256 0.5989169 0.6017257
000010 e5 ca 20 3f 08 c2 1b 3f 1b ca 18 3f f9 c7 19 3f
       0.6280959 0.60842943 0.5968339 0.6007076
000020 25 e4 19 3f 94 5a 0f 3f ce 87 02 3f 40 c1 07 3f
       0.60113746 0.55997586 0.5098847 0.5302925
000030 12 24 13 3f d2 4e 0d 3f f9 ce 0f 3f 8f b0 01 3f
       0.57476914 0.55198395 0.5617519 0.5066003
000040 f4 4b 21 3f c3 f9 17 3f 3b 8c 10 3f 87 a6 10 3f
       0.6300652 0.5936548 0.56463975 0.565041
000050 9b 1b 03 3f 20 c8 fc 3e 8c e9 0a 3f fb 34 0b 3f
       0.51214 0.49371433 0.54262614 0.54377717
000060 c1 a1 0a 3f c2 cb 0a 3f b0 ee 0b 3f 8f e1 fe 3e
       0.54153067 0.5421716 0.54661083 0.49781463
000070 27 83 13 3f e9 71 10 3f 04 f6 17 3f af 94 0d 3f
       0.57622 0.56423813 0.59359765 0.55305
000080 a3 a0 03 3f a2 f9 0f 3f 2a 0b 0d 3f 02 b5 1b 3f
       0.5141699 0.56240284 0.5509516 0.6082307
000090 59 a6 05 3f 5a 29 10 3f 8e 26 10 3f 35 f0 11 3f
       0.5220695 0.563131 0.5630883 0.5700715
0000a0 35 bf fd 3e 5a cf 14 3f 28 c2 08 3f d8 4d 11 3f
       0.49559942 0.58128893 0.5342126 0.56759405
0000b0 2f c3 14 3f 10 bd 0b 3f 01 92 1b 3f f0 5b 0d 3f
       0.58110327 0.5458536 0.6076966 0.5521841
0000c0 2c d0 20 3f 89 6c 13 3f e1 1c 0d 3f cd bd 1c 3f
       0.62817645 0.57587487 0.5512219 0.61227113
0000d0 e1 d6 10 3f 42 5d 1e 3f 4b e1 0f bf 41 8e 23 bf
       0.5657788 0.6186105 -0.56203145 -0.6388894
0000e0 50 e3 11 bf e0 1d 08 bf 8b 47 0c bf 1b d5 0c bf
       -0.56987476 -0.53170586 -0.54796666 -0.55012673
0000f0 62 55 25 bf 4f 88 18 bf 7f dd 1c bf dd d8 12 bf
       -0.6458341 -0.5958299 -0.61275476 -0.5736216
000100 0e bd 29 bf 88 8b 1d bf 81 5c 11 bf c4 ce 0c bf
       -0.663041 -0.6154103 -0.56781775 -0.55003
000110 be c0 19 bf b3 ff 1a bf 51 1d 23 bf 3d 1c 27 bf
       -0.60059726 -0.60546416 -0.6371661 -0.65277463
000120 3c 1f 10 3f 1a 52 13 3f a3 dc 06 3f ed 62 03 3f
       0.5629766 0.5754715 0.52680415 0.51322824
000130 8e 38 0c 3f dd ad 08 3f fe 41 f8 3e 6d 5d 10 3f
       0.54773796 0.53390294 0.48487848 0.56392556
000140 cd eb 06 3f 3b 05 ea be 7d a0 f5 be 66 d6 e7 be
       0.52703553 -0.45707116 -0.47974005 -0.4528076
000150 ee 58 01 bf b9 31 dc be 58 30 e8 be f8 6e d4 be
       -0.5052632 -0.43006685 -0.45349383 -0.41490912
000160 36 5c e2 be ce 43 e0 be 63 ad 1b 3f cc 49 10 3f
       -0.44210976 -0.4380173 0.6081144 0.56362605
000170 dc c8 19 3f 9d db 21 3f ff 1e 0e 3f 7a 9a 20 3f
       0.6007211 0.6322573 0.55516046 0.6273571
000180 07 46 19 3f 7a c9 16 3f ac 02 10 3f 6b 49 0a 3f
       0.5987248 0.5890118 0.56254077 0.54018277
000190 35 0e 17 3f c8 49 0d 3f a5 f1 18 3f e4 16 15 3f
       0.59006053 0.55190706 0.5974372 0.58238053
0001a0 65 78 04 3f 32 90 0e 3f 1b 94 21 3f d4 9b 1b 3f
       0.5174621 0.55688775 0.63116616 0.6078465
0001b0 78 d8 11 3f 89 27 04 3f 40 5b 02 3f 1e b1 08 3f
       0.5697093 0.51622826 0.50920486 0.5339526
0001c0 a8 bb 0e 3f 98 92 11 3f 15 9e 09 3f f5 1c 08 3f
       0.5575509 0.5686431 0.5375684 0.53169185
0001d0 ee 09 02 3f 91 c5 0c 3f 60 4a 00 3f 84 54 0a 3f
       0.507964 0.5498896 0.5011349 0.5403521
0001e0 f8 52 09 3f 00 4f f7 3e ae 7c fb 3e 56 2f 12 3f
       0.53642225 0.4830246 0.4911856 0.5710348
0001f0 4d 8c f5 3e cf 88 09 3f c9 2b 14 3f ae 1c 03 3f
       0.47958604 0.5372438 0.5787931 0.51215637
000200 da ac 0e 3f 08 4b 17 3f f7 67 fd 3e aa c0 0b 3f
       0.557325 0.59098864 0.4949338 0.5459086
000210 e1 81 16 3f 80 0f 16 3f 75 03 0f 3f 4f bc 0c 3f
       0.5879193 0.586174 0.5586465 0.54974836
000220 c7 f8 1b 3f 34 07 0b 3f e8 33 1b 3f 56 f6 0d 3f
       0.6092648 0.54307866 0.6062608 0.55454004
000230 7b 16 14 3f 3a bd 1b 3f d5 67 0f 3f b2 3b 17 3f
       0.578468 0.6083561 0.5601781 0.5907546
000240 70 29 26 bf 0e 7b 0c bf 9e a9 04 bf 5d 62 12 bf
       -0.6490698 -0.54875267 -0.51821315 -0.5718134
000250 89 5e 07 bf 58 6d 0a bf d4 a0 17 bf 47 f4 23 bf
       -0.52878624 -0.54073095 -0.5922978 -0.6404461
000260 ce cb 1c bf 68 b3 1f bf ce d4 1b bf 07 1f 1c bf
       -0.6124848 -0.6238313 -0.6087159 -0.60984844
000270 c5 ac 24 bf 50 0f 14 bf 8c 1a 0b bf 85 e7 0d bf
       -0.64326125 -0.57835865 -0.5433738 -0.55431396
000280 18 f3 1e bf 60 ee 26 bf 9f 60 03 3f db 1b 13 3f
       -0.6208968 -0.6520748 0.5131931 0.5746438
000290 18 17 ee 3e f1 74 0a 3f 54 5c 06 3f a4 26 08 3f
       0.46501994 0.5408469 0.5248463 0.5318396
0002a0 51 18 08 3f a3 1b f6 3e 74 01 12 3f c5 1d df be
       0.53162104 0.4806796 0.5703347 -0.435774
0002b0 a6 69 e1 be 04 40 d9 be 4c f9 9f 3e 6e 6d cf be
       -0.44025916 -0.42431653 0.31244886 -0.40513176
0002c0 1e 76 cc be 3b e3 c2 be 76 d0 d9 be 5b bd c1 be
       -0.39933866 -0.38063988 -0.42541856 -0.3783978
0002d0 17 88 1d 3f 3e 64 11 3f 92 3a 14 3f 2d 3e 0c 3f
       0.6153578 0.5679358 0.5790187 0.5478237
0002e0 d3 30 16 3f d1 5c 1c 3f ec c5 1a 3f 3d 53 24 3f
       0.5866825 0.61079127 0.60458255 0.6418951
0002f0 fe 11 11 3f 0d 60 0f 3f b1 e2 06 3f d0 14 0e 3f
       0.5666808 0.56005937 0.52689654 0.5550051
000300 b5 b8 06 3f a2 4b 1e 3f 90 9f 19 3f bb 90 07 3f
       0.5262559 0.61834157 0.600091 0.52955216
000310 51 7f 04 3f 49 67 04 3f c2 42 00 3f ed c9 0c 3f
       0.5175677 0.517201 0.50101864 0.54995614
000320 c7 b0 16 3f bb 0e 14 3f 6c 3a 0a 3f 8c 63 08 3f
       0.5886349 0.57834977 0.53995395 0.53276896
000330 64 1e f7 3e 5d 53 00 3f bf 1e 0a 3f 02 3b 19 3f
       0.48265374 0.501272 0.53953165 0.59855664
000340 4c f1 f6 3e 67 8d 1a 3f 45 93 1b 3f 68 e7 07 3f
       0.4823097 0.6037201 0.6077159 0.5308747
000350 7a 0d 0b 3f ec f9 0e 3f 8b c7 10 3f a1 1b fd 3e
       0.5431744 0.558501 0.5655448 0.49435142
000360 ae 4d 15 3f 9f 71 15 3f da 4d 0e 3f 67 b5 16 3f
       0.58321655 0.583765 0.5558754 0.5887055
000370 bc 02 1a 3f 6e b2 1a 3f 77 27 12 3f e5 7e 05 3f
       0.6016042 0.6042851 0.5709147 0.5214675
000380 3b 89 08 3f 7a 15 20 3f 63 27 15 3f a9 fe 1d 3f
       0.533344 0.6253277 0.58263224 0.61716706
000390 bf 28 27 3f 51 e7 26 3f 30 39 0a 3f fb 0d 24 3f
       0.6529655 0.6519671 0.5399351 0.6408383
0003a0 70 5f 1f 3f 97 ab 1e 3f b4 a7 27 bf 04 6b 2e bf
       0.62255 0.61980575 -0.6549027 -0.6813204
0003b0 9f 8a 1c bf 61 ff 1a bf 11 61 2d bf e2 42 25 bf
       -0.6114902 -0.6054593 -0.67726237 -0.6455518
0003c0 31 f1 20 bf 38 e8 23 bf 90 c4 2e bf 03 d5 20 bf
       -0.6286803 -0.6402621 -0.6826868 -0.6282503
0003d0 6f bd 2a bf 06 ff 2e bf 3c 84 2c bf a6 c0 14 bf
       -0.666953 -0.68357885 -0.67389274 -0.5810646
0003e0 45 69 26 bf fe 03 1b bf e5 83 32 bf b7 b1 1f bf
       -0.6500438 -0.60552967 -0.69732505 -0.62380546
0003f0 8b 7c 0d 3f f7 47 0a 3f 6f 12 05 3f 2c f5 10 3f
       0.5526816 0.5401606 0.5198125 0.566241

conv_layers.0.0.conv.bias f4 [16]
000000 44 26 eb 3e 24 a2 e3 3e 28 d5 c4 3e bf de fd 3e
       0.45927632 0.4445964 0.38443875 0.49584004
000010 8f ce da 3e 0f 7c d6 3e 7b fe db 3e c2 8b d5 3e
       0.42735717 0.41891524 0.4296759 0.4170819
000020 58 d0 00 3f c6 09 fd 3e 23 4b ca 3e 05 b7 28 be
       0.5031791 0.4942152 0.3951045 -0.16476066
000030 52 a9 bd bd e4 d8 ce 3e 8d 0b f8 3e ce 74 e9 3e
       -0.09260811 0.4039985 0.48446313 0.45596927

conv_layers.2.0.conv.weight f4 [32, 16, 3, 3]
000000 3c 43 11 3f 7d 91 18 3f 93 28 12 3f dd 62 0d 3f
       0.56743217 0.59597 0.5709316 0.5522898
000010 61 90 09 3f db 04 13 3f ff a1 1b 3f b6 b3 18 3f
       0.5373593 0.57429284 0.6079406 0.5964922
000020 ff 43 0c 3f b0 0f 0a 3f bf e2 17 3f ea 6f 14 3f
       0.54791254 0.5393019 0.5933036 0.5798327
000030 74 1a 1a 3f cb fd 03 3f 2c fa 14 3f d8 b6 17 3f
       0.60196614 0.5155913 0.5819423 0.5926337
000040 56 f6 0e 3f ed 4a 14 3f 96 3f 26 3f e3 f1 0b 3f
       0.5584463 0.5792683 0.64940774 0.54665965
000050 14 0a 24 3f 1d 09 20 3f 61 41 1d 3f af 25 28 3f
       0.6407788 0.62513906 0.61427885 0.656825
000060 e5 b1 13 3f 9a 41 1b 3f 1b 58 18 3f 78 7f 0f 3f
       0.5769332 0.60646975 0.5950944 0.56053877
000070 38 77 e9 3e ea 3c 06 3f 72 9d f8 3e 92 68 02 3f
       0.4559877 0.524367 0.4855762 0.5094081
000080 d3 80 db 3e 5d d6 e8 3e ac e3 0c 3f ca bb 0a 3f
       0.42871723 0.45476046 0.550349 0.54192793
000090 32 9e 16 3f 35 a0 09 3f 6d 76 0e 3f 31 d0 13 3f
       0.58835137 0.5376008 0.55649453 0.5773955
0000a0 75 43 19 3f e2 7c 0d 3f c2 e2 16 3f c1 c5 16 3f
       0.59868556 0.5526868 0.58939755 0.588955
0000b0 99 0c 14 3f 63 cf 1f 3f 3c 3c 19 3f bf 01 11 3f
       0.5783172 0.6242582 0.59857535 0.5664329
0000c0 15 da 23 3f 53 a6 1f 3f 95 e4 0f 3f 4d 4c 11 3f
       0.6400464 0.62363166 0.56208163 0.5675705
0000d0 6e 64 18 3f 5b 18 17 3f a7 80 14 3f de 26 0b 3f
       0.59528244 0.5902154 0.5800881 0.5435618
0000e0 5c f4 12 3f 41 a7 08 3f ab 86 18 3f b1 df 06 3f
       0.5740411 0.5338021 0.59580487 0.52685076
0000f0 e8 39 0f 3f bd 45 0f 3f 75 59 16 3f 09 7b 19 3f
       0.5594773 0.5596579 0.5873025 0.5995336
000100 0b 90 18 3f 63 4f 1b 3f af 3f 10 3f 58 f7 19 3f
       0.5959479 0.6066801 0.56347173 0.6014304
000110 33 37 14 3f d9 89 19 3f 7b 9f 1b 3f 51 da 15 3f
       0.5789673 0.59975964 0.6079022 0.5853625
000120 d4 79 e4 3e 0a 05 11 3f be 54 fb 3e 9b e7 fa 3e
       0.44624197 0.56648314 0.4908809 0.49004826
000130 7c 4d 0b 3f 81 64 04 3f 5e 2c 11 3f 43 5b 0f 3f
       0.54415107 0.51715857 0.56708324 0.5599863
000140 93 2c 02 3f 25 1e fa 3e 49 33 0d 3f 76 45 f4 3e
       0.50849265 0.48851123 0.5515638 0.47709244
000150 2b e1 f3 3e 4d 1f 06 3f 1f 1d 19 3f 60 1e 17 3f
       0.47632727 0.5239151 0.5981006 0.59030724
000160 b5 fc 0a 3f e3 e7 12 3f 4a 9a 0a 3f db 15 24 3f
       0.5429185 0.5738508 0.54141676 0.6409585
000170 81 96 21 3f 3b a8 24 3f 7b 32 23 3f 8b f3 21 3f
       0.63120276 0.643192 0.637489 0.6326224
000180 17 4b 12 3f 3e 15 19 3f fe 0a 12 3f ba 44 93 be
       0.5714583 0.5979804 0.5704802 -0.28763372
000190 39 7a 4f be bd 45 9f be 22 99 62 be dd 2f 86 be
       -0.20261468 -0.31107894 -0.22128728 -0.26208392
0001a0 62 ad 8e be 1c 8f 9b be c9 98 5a be 44 de 62 be
       -0.27866656 -0.3038262 -0.21347345 -0.221551
0001b0 92 22 9e bd 23 37 20 be 15 90 30 be 87 56 76 bd
       -0.077214375 -0.15646033 -0.17242463 -0.060141113
0001c0 4b 27 42 be 5f 70 f1 bd 7c e3 81 bd 10 8d 0d be
       -0.18960302 -0.11789011 -0.06342217 -0.13823342
0001d0 87 35 2a be a0 a7 0a 3f 44 0b 11 3f e0 b5 12 3f
       -0.16621982 0.54162025 0.56657815 0.5730877
0001e0 cc e9 1b 3f 04 0a 17 3f a6 06 23 3f c9 72 18 3f
       0.6090362 0.5899966 0.6368202 0.5955015
0001f0 b8 03 0e 3f 39 a4 0b 3f b8 5f f3 3e 1d 49 15 3f
       0.55474424 0.5454746 0.47533965 0.58314687
000200 d9 38 1c 3f 7d 0f 1a 3f 9d f9 09 3f 60 b1 f8 3e
       0.6102424 0.60179883 0.53896505 0.48572826
000210 63 c7 06 3f ed f0 f7 3e 3f 89 17 3f c4 f5 0b 3f
       0.5264799 0.48426 0.59193796 0.54671884
000220 1a 30 fe 3e 9c 45 04 3f 33 1b f7 3e 15 04 11 3f
       0.49646074 0.51668715 0.4826294 0.56646854
000230 e6 8e 02 3f 78 73 04 3f fa 53 03 3f e0 0b 04 3f
       0.50999296 0.5173869 0.51300013 0.5158062
000240 b1 0a 09 bf 21 fc 0d bf e5 1c 09 bf b8 64 08 bf
       -0.5353194 -0.55462843 -0.53559715 -0.53278685
000250 6f 09 0a bf eb ae 01 bf 92 47 09 bf bd ad 08 bf
       -0.53920645 -0.5065753 -0.5362483 -0.53390104
000260 cc 2d 0a bf 1f 00 0c bf 57 de 09 bf 39 32 09 bf
       -0.5397613 -0.54687685 -0.5385489 -0.5359226
000270 0d 55 0c bf a1 89 09 bf 47 ff 08 bf cf 93 05 bf
       -0.5481728 -0.5372563 -0.5351452 -0.52178663
000280 9f ea 0a bf 2f 8b 02 bf e9 b3 0b bf 6c ea 06 bf
       -0.54264253 -0.5099363 -0.54571396 -0.5270145
000290 c6 3f 07 bf b9 09 10 bf d1 83 0a bf 69 37 09 bf
       -0.52831686 -0.56264836 -0.54107386 -0.53600174
0002a0 86 df 0a bf 2d e3 03 bf 07 cd 0b bf 26 0e f6 be
       -0.5424732 -0.5151852 -0.5460972 -0.4805767
0002b0 d2 67 fd be b5 4c f8 be ad c1 f3 be 27 80 f4 be
       -0.4949327 -0.48496023 -0.476087 -0.47754022
0002c0 1a 5d 02 bf ec 56 ef be 68 1b f5 be df 95 f0 be
       -0.5092331 -0.46746004 -0.47872472 -0.46989343
0002d0 bc 7d 04 bf 38 5e 09 bf 63 e0 0c bf 87 60 0e bf
       -0.51754355 -0.5365939 -0.55029887 -0.5561604
0002e0 15 36 0a bf df 87 08 bf 79 d7 0a bf e3 4e 03 bf
       -0.5398877 -0.5333232 -0.54235035 -0.51292247
0002f0 66 31 06 bf 22 5d 04 bf e9 68 0b bf 82 e6 0a bf
       -0.52419126 -0.5170461 -0.54456955 -0.54257977
000300 b2 a7 0b bf 88 33 0b bf 22 b5 0a bf 67 f5 0b bf
       -0.5455276 -0.54375505 -0.54182637 -0.5467133
000310 ef e4 0b bf 8f 5e 0b bf ed 59 09 bf 1c 92 08 bf
       -0.546462 -0.5444116 -0.5365284 -0.53347945
000320 32 ff 09 bf 56 6b 05 bf 82 c0 03 bf 2b 91 07 bf
       -0.5390502 -0.52116907 -0.5146562 -0.52955884
000330 49 8a 09 bf 49 f6 08 bf 95 19 08 bf cd a9 0e bf
       -0.5372663 -0.535008 -0.53164035 -0.55727845
000340 d6 12 0b bf b3 4c 04 bf 93 8e 0a bf fc d7 0e bf
       -0.54325616 -0.51679534 -0.541238 -0.55798316
000350 0b b5 04 bf 0d fe 0a bf ab ea 0a bf a6 66 0c bf
       -0.5183875 -0.542939 -0.54264325 -0.5484413
000360 59 6f fb be 2b 7e 06 bf 08 0c 09 bf bb 32 e9 be
       -0.4910839 -0.5253627 -0.53533983 -0.45546517
000370 81 f2 0c bf 7e a8 0a bf d3 72 f1 be 4a 17 01 bf
       -0.5505753 -0.5416335 -0.47157916 -0.5042616
000380 6b 30 f7 be 69 95 0d bf 7e 1f fc be 3f b4 0b bf
       -0.48279127 -0.55306107 -0.49242777 -0.5457191
000390 9b e8 11 bf 0a a6 04 bf df 7f 10 bf a7 b3 08 bf
       -0.5699555 -0.51815856 -0.56445116 -0.5339913
0003a0 a4 67 0f bf a1 52 0d bf a6 7d 0a bf 7e cb 0a bf
       -0.5601752 -0.55204207 -0.54097974 -0.54216754
0003b0 25 81 0d bf 62 e8 0b bf 78 4f 04 bf b6 aa 08 bf
       -0.55275184 -0.54651463 -0.5168376 -0.53385484
0003c0 c0 0d 0b bf 2d bc 06 bf 69 dd 09 bf 91 4f 45 3e
       -0.54317856 -0.52630883 -0.5385347 0.19268633
0003d0 a7 d2 48 3e 3e 95 5f 3e 71 25 25 3e d4 ac 3a 3e
       0.19611607 0.21834275 0.16127564 0.18229991
0003e0 ca 57 37 3e 4c a3 41 3e df 17 40 3e d2 59 43 3e
       0.17904583 0.18909949 0.18759106 0.19077232
0003f0 00 87 f6 3d 68 64 d5 3d 79 2c 93 3d 33 17 0e 3d
       0.12037468 0.104195416 0.07186217 0.034690093

conv_layers.2.0.conv.bias f4 [32]
000000 1f b1 f8 3e 8e 4c f0 be 1a 54 fe 3e ff da e1 be
       0.48572633 -0.46933407 0.4967354 -0.44112393
000010 0c cb 07 3f 84 99 d7 3e 64 b7 b7 be 43 d7 da 3e
       0.530442 0.4210931 -0.35882103 0.42742357
000020 d1 a0 d1 3e 8a 3e ca be a1 cd d4 3e b2 d8 d7 3e
       0.40943006 -0.3950084 0.41563132 0.42157513
000030 00 d4 06 3f 1d a9 dd 3e ec 30 e9 3e c5 76 e5 3e
       0.52667236 0.43293086 0.45545137 0.44817176
000040 e9 99 e3 3e a9 a4 ec 3e 33 20 db 3e 72 a9 ef be
       0.44453362 0.46219376 0.42798004 -0.46808964
000050 c0 71 df 3e 1c 00 f4 3e 0f d0 d2 be cb 34 bd be
       0.43641472 0.47656333 -0.4117436 -0.3695434
000060 2d 37 f2 3e 14 e0 f5 3e 53 61 d7 3e ec dd f3 3e
       0.4730772 0.4802252 0.4206644 0.4763025
000070 78 3b b0 be 5e 72 02 3f c3 cc fd 3e 30 08 cb 3e
       -0.3442037 0.5095576 0.49570283 0.39654684

conv_layers.4.0.conv.weight f4 [32, 32, 3, 3]
000000 1e bb 0a bf bf 16 19 bf 56 ee 12 bf 93 d3 1a bf
       -0.5419177 -0.5980033 -0.5739492 -0.60479087
000010 e2 f6 19 bf ea 10 0c bf 12 96 19 bf 7f 12 0c bf
       -0.6014234 -0.5471331 -0.59994614 -0.5471572
000020 19 a9 19 bf f4 07 09 3f d5 a9 07 3f 3f 0c 0a 3f
       -0.6002365 0.5352776 0.5299352 0.53924936
000030 fe 66 07 3f ff 7f 09 3f 5e 06 0a 3f b9 99 06 3f
       0.5289153 0.5371093 0.53915966 0.5257831
000040 9a d1 08 3f b3 11 07 3f a4 24 11 bf 15 28 11 bf
       0.53444827 0.5276138 -0.56696534 -0.56701785
000050 97 94 0e bf 34 0a 0e bf 6a 09 0b bf b1 c6 07 bf
       -0.5569548 -0.5548432 -0.5431124 -0.53037554
000060 4d 58 10 bf ec f0 16 bf 3e 80 04 bf 72 2e 02 3f
       -0.56384736 -0.5896137 -0.5175818 0.5085212
000070 b3 6b 12 3f c0 a7 02 3f 27 9d 10 3f f8 e7 15 3f
       0.57195586 0.51037216 0.56489795 0.5855708
000080 38 7d 04 3f 3f 99 06 3f 7f c6 02 3f 83 2f 09 3f
       0.5175357 0.52577585 0.5108413 0.5358812
000090 cf 8e 1a bf d9 c6 13 bf 98 d6 18 bf 1a bf 13 bf
       -0.6037416 -0.5772529 -0.59702444 -0.5771347
0000a0 c8 c8 12 bf 5e 2b 15 bf 93 34 10 bf 13 2d 08 bf
       -0.5733762 -0.582693 -0.5633022 -0.5319378
0000b0 07 79 11 bf 29 e6 09 bf c5 a2 0c bf a7 03 0a bf
       -0.568253 -0.5386682 -0.54935867 -0.53911823
0000c0 5f 36 14 bf 1c b1 19 bf 05 c5 0c bf 03 f3 18 bf
       -0.57895464 -0.6003587 -0.5498813 -0.59745806
0000d0 ed 5e 0a bf e9 41 15 bf f0 e2 fc 3e ba 55 0d 3f
       -0.54051095 -0.58303696 0.4939189 0.55208933
0000e0 e4 35 0f 3f 06 51 01 3f d7 b8 15 3f 51 5d 16 3f
       0.55941606 0.50514257 0.5848517 0.5873614
0000f0 ea cb 02 3f 24 ff 07 3f 97 5a 07 3f d7 ac 13 bf
       0.510924 0.5312369 0.52872604 -0.5768561
000100 a5 4c 14 bf 38 4f 14 bf 6d 12 12 bf 2a 29 15 bf
       -0.5792945 -0.5793338 -0.57059366 -0.58265936
000110 0f 41 14 bf 55 73 13 bf 6e ee 14 bf ab 05 0c bf
       -0.5791177 -0.5759786 -0.58176315 -0.5469615
000120 24 35 15 bf 12 e8 16 bf b1 72 15 bf fd f2 0e bf
       -0.5828421 -0.5894786 -0.5837813 -0.5583952
000130 00 68 0c bf 1c 77 15 bf a0 3b 14 bf ed 50 0c bf
       -0.5484619 -0.5838487 -0.5790348 -0.5481098
000140 e7 3c 0c bf 83 03 10 3f cf c5 0d 3f 9e e3 0b 3f
       -0.5478043 0.5625536 0.55379957 0.5464419
000150 10 77 0e 3f c5 2b 12 3f 75 09 0f 3f 5f 82 0e 3f
       0.55650425 0.57098037 0.55873805 0.5566768
000160 27 f0 0d 3f 5e 09 0b 3f ff b9 14 bf ac 89 0f bf
       0.5544457 0.5431117 -0.5809631 -0.56069446
000170 88 54 16 bf e2 a5 13 bf 89 19 13 bf a1 a5 14 bf
       -0.58722734 -0.5767499 -0.5746084 -0.5806523
000180 34 cd 12 bf 23 f4 13 bf 65 cb 14 bf 45 9c 12 bf
       -0.57344365 -0.577944 -0.58122855 -0.572697
000190 62 1f 18 bf 2b 3a 18 bf 6a 41 16 bf 30 6b 14 bf
       -0.59422886 -0.5946376 -0.58693564 -0.57976055
0001a0 a7 c4 16 bf a2 91 15 bf f3 5d 10 bf f7 af 12 bf
       -0.5889382 -0.58425343 -0.56393355 -0.5729975
0001b0 35 ac f7 be 97 e9 05 bf 01 c5 01 bf 0b f7 12 bf
       -0.4837357 -0.52309555 -0.5069123 -0.5740821
0001c0 2b 1e fc be 71 e2 04 bf 43 c4 12 bf 89 ac 0f bf
       -0.49241766 -0.5190802 -0.5733072 -0.5612264
0001d0 74 71 ff be ab 40 13 bf ed 52 13 bf 46 27 13 bf
       -0.49891245 -0.5752055 -0.5754841 -0.574818
0001e0 30 45 12 bf b4 23 13 bf 6f 39 12 bf 53 6e 11 bf
       -0.5713682 -0.57476354 -0.57118887 -0.56808966
0001f0 94 a6 10 bf f5 73 11 bf 76 2f 07 bf a6 1c 0b bf
       -0.5650418 -0.5681756 -0.52806795 -0.5434059
000200 24 bb 0c bf 49 82 0b bf 36 96 0c bf 40 81 0a bf
       -0.54973054 -0.54495674 -0.54916704 -0.5410347
000210 a8 b0 0a bf 39 29 0b bf 88 6e 08 bf 25 8c 12 bf
       -0.54175806 -0.54359776 -0.5329366 -0.57245094
000220 47 a6 16 bf c4 aa 12 bf 39 79 12 bf af f6 12 bf
       -0.5884747 -0.5729182 -0.5721622 -0.5740766
000230 11 f0 15 bf 4b 40 0d bf 5b ad 13 bf 93 dd 12 bf
       -0.5856944 -0.5517623 -0.57686394 -0.57369345
000240 3f 22 14 bf d4 59 0c bf 9e 11 11 bf f8 8e 10 bf
       -0.57864755 -0.54824567 -0.56667507 -0.56468153
000250 98 03 14 bf ec 2c 10 bf be 4d 14 bf 2a 25 14 bf
       -0.57817984 -0.56318545 -0.57931125 -0.5786921
000260 d2 b3 07 bf 87 9e 15 bf dc c6 16 bf 25 b3 16 bf
       -0.5300876 -0.5844502 -0.58897185 -0.588671
000270 33 65 17 bf 69 c3 16 bf 14 59 14 bf 1f 70 13 bf
       -0.5913879 -0.5889192 -0.5794842 -0.5759296
000280 28 6b 14 bf 48 91 13 bf 54 79 0f bf 69 6d 0f bf
       -0.5797601 -0.57643557 -0.5604451 -0.5602632
000290 c4 77 0e bf 12 3c 08 bf ba 80 0f bf dd 0c 13 bf
       -0.556515 -0.5321666 -0.56055796 -0.574415
0002a0 66 d3 13 bf 06 5a 17 bf 5d 58 0e bf de a8 14 3f
       -0.57744443 -0.5912174 -0.5560358 0.5807017
0002b0 9e f4 0b 3f 31 06 15 3f 78 2e 12 3f a4 f5 0d 3f
       0.5467013 0.5821257 0.57102156 0.5545294
0002c0 42 7d 11 3f 0f fe 13 3f 50 00 11 3f 4a 3b 11 3f
       0.56831753 0.5780954 0.566411 0.5673109
0002d0 8c f7 0d bf 87 2c 0d bf 6e 77 10 bf f1 25 0a bf
       -0.5545585 -0.5514607 -0.56432235 -0.53964144
0002e0 a9 51 0d bf 73 f2 0d bf e4 2a 0e bf b9 92 0f bf
       -0.5520273 -0.55448073 -0.55534196 -0.56083256
0002f0 a7 8c 0c bf 0e 5a 0f bf c0 0a 0a bf bc 6a 11 bf
       -0.5490212 -0.5599679 -0.53922653 -0.5680349
000300 5d 3d 0d bf 75 8a 0f bf 2b d9 08 bf 1d dc 0e bf
       -0.5517176 -0.56070644 -0.5345637 -0.55804616
000310 56 08 0c bf ce a8 0d bf d5 5d 10 3f 22 e1 10 3f
       -0.5470022 -0.553357 0.56393176 0.56593525
000320 c0 25 12 3f a6 fb 0f 3f 24 0a 11 3f 3d 85 11 3f
       0.5708885 0.5624336 0.566561 0.5684393
000330 49 34 10 3f 86 9d 11 3f b9 5c 11 3f 45 fb 15 3f
       0.5632978 0.56880987 0.5678211 0.5858653
000340 04 2e 11 3f 34 6f 10 3f f9 bf 04 3f 3b ba 10 3f
       0.5671084 0.5641968 0.5185543 0.56534165
000350 64 44 10 3f 1f ca 0c 3f a6 fb 14 3f ad f1 13 3f
       0.56354356 0.5499591 0.58196485 0.5779064
000360 62 ac 11 bf 24 9c 0f bf 1d d2 0c bf ac 2e 0f bf
       -0.5690366 -0.56097627 -0.5500811 -0.5593059
000370 44 ef 0f bf 95 5d 10 bf de e1 0e bf 3d b8 0f bf
       -0.56224465 -0.56392795 -0.55813396 -0.561405
000380 60 4a 0d bf 24 83 07 bf ca cb 06 bf 36 cb 05 bf
       -0.5519161 -0.5293448 -0.5265471 -0.522632
000390 f5 48 15 bf 48 99 0f bf 75 2e 0f bf fc 7e 13 bf
       -0.5831445 -0.56093264 -0.5593026 -0.5761564
0003a0 21 34 09 bf f7 fe 14 bf 4e b8 13 bf b1 f6 16 bf
       -0.5359517 -0.58201545 -0.577031 -0.5897017
0003b0 c8 a4 0d bf 6b 38 14 bf dd f9 0e bf b4 c7 11 bf
       -0.5532956 -0.57898587 -0.5585001 -0.5694535
0003c0 89 6d 11 bf 84 de 15 bf 08 a8 10 bf 76 24 16 bf
       -0.5680776 -0.58542657 -0.56506395 -0.58649385
0003d0 c0 be 12 bf 41 f3 14 bf f7 93 15 bf 72 50 0d bf
       -0.5732231 -0.58183676 -0.584289 -0.55200875
0003e0 2e c2 15 bf c2 d0 13 bf c4 08 17 bf 5b 39 10 bf
       -0.5849942 -0.57740414 -0.5899775 -0.5633752
0003f0 55 6b 07 3f 38 5e 09 3f 91 63 0f 3f 3f ad 00 3f
       0.5289815 0.5365939 0.560113 0.5026435

conv_layers.4.0.conv.bias f4 [32]
000000 bc c0 e1 be 89 c8 f4 3e 73 65 d0 3e 81 5e f8 3e
       -0.44092357 0.47809246 0.407024 0.485096
000010 01 69 bf be 7b 45 d6 3e c0 7a e6 3e 4a fc e6 be
       -0.373848 0.41849884 0.45015526 -0.45114356
000020 84 85 ed 3e ab 68 e3 be 21 17 bf be 0e 43 cd be
       0.46390927 -0.44415793 -0.37322333 -0.4009022
000030 26 c7 d5 be 23 3a fe 3e 92 da da 3e 94 8c ea 3e
       -0.417535 0.4965373 0.4274488 0.45810378
000040 e6 3b df be 30 e7 e6 be 74 40 fc 3e 17 fe dd 3e
       -0.43600386 -0.45098257 0.49267924 0.43357918
000050 e4 e1 c3 be 4f 75 e8 be 4c 6a da 3e 43 f9 fd 3e
       -0.38258278 -0.45402 0.42659223 0.49604234
000060 f8 ca f8 3e c1 ca e9 3e e2 8d fc 3e 62 19 ff 3e
       0.48592353 0.456625 0.49326998 0.49824053
000070 e3 97 f6 3e 2f e7 cd be f2 2f ee 3e 29 42 ea be
       0.48162755 -0.40215442 0.46520954 -0.457536

conv_layers.5.0.conv.weight f4 [32, 32, 3, 3]
000000 ad c8 12 3f 94 99 1c 3f 6f e7 13 3f 0d f4 0f 3f
       0.57337457 0.6117184 0.57775015 0.56231767
000010 b2 92 10 3f ce a6 19 3f b6 3b 0a 3f b6 66 0e 3f
       0.5647384 0.6002015 0.5399736 0.55625474
000020 33 f8 18 3f fe 8e 1b bf a2 97 19 bf bf e9 0e bf
       0.5975372 -0.60765064 -0.59997 -0.5582542
000030 58 62 11 bf e0 51 14 bf 4a d4 07 bf 66 7b 1b bf
       -0.56790686 -0.5793743 -0.530583 -0.60735166
000040 c0 d1 08 bf df ef 13 bf 45 93 01 bf f5 59 11 bf
       -0.53445053 -0.5778789 -0.5061534 -0.5677789
000050 a2 9b 15 bf ce 0d 04 bf 14 56 0e bf 57 be 05 bf
       -0.584406 -0.51583564 -0.55600095 -0.5224356
000060 65 71 13 bf 9d 1e 17 bf 8b bf 08 bf db bf 03 bf
       -0.575949 -0.5903109 -0.5341727 -0.51464623
000070 25 3f 14 bf 45 78 1b bf b8 8f 0e bf 12 0e 14 bf
       -0.5790885 -0.6073039 -0.5568805 -0.5783397
000080 d6 47 14 bf 51 73 0c bf 4b 8b 07 bf 56 64 15 bf
       -0.5792211 -0.5486346 -0.5294692 -0.58356225
000090 ea 1a 0d 3f ca 6f 05 3f 91 13 0d 3f 69 e0 15 3f
       0.5511919 0.521237 0.5510798 0.5854555
0000a0 e7 a7 0f 3f 4c 77 02 3f 00 08 0c 3f e8 21 fe 3e
       0.56115574 0.5096328 0.5469971 0.49635243
0000b0 c6 e9 07 3f e9 2f 0e bf da 17 10 bf 2e 40 0d bf
       0.53091085 -0.55541855 -0.56286395 -0.55176055
0000c0 be 10 10 bf 94 79 1c bf 50 a2 0d bf 66 19 06 bf
       -0.56275547 -0.61123013 -0.55325794 -0.52382505
0000d0 ff 3e 05 bf 12 01 10 bf 59 2d 07 bf a2 ee 1b bf
       -0.5204925 -0.56251633 -0.5280357 -0.60911
0000e0 15 f5 0d bf 08 07 0b bf dd 47 18 bf f9 1f 08 bf
       -0.5545209 -0.54307604 -0.59484655 -0.53173786
0000f0 a8 23 07 bf 61 8d 10 bf a0 54 0e bf 0d 39 10 3f
       -0.5278878 -0.5646573 -0.5559788 0.5633705
000100 d3 0e 17 3f 9b ff 08 3f 3b c3 12 3f 70 2f 13 3f
       0.59006995 0.53515023 0.5732915 0.5749426
000110 a3 e8 12 3f 93 78 06 3f 1b 7b 1b 3f 92 31 12 3f
       0.57386225 0.5252773 0.6073472 0.5710689
000120 fe bc 09 bf 26 07 0a bf 59 e2 19 bf e2 ba 12 bf
       -0.53804004 -0.5391716 -0.60111004 -0.5731641
000130 4a bc 1a bf e8 29 13 bf 6a 3d 0f bf 50 7b 10 bf
       -0.60443556 -0.5748582 -0.55953085 -0.5643816
000140 51 0a 07 bf a1 5d 09 3f 0f 38 15 3f a2 92 08 3f
       -0.52750117 0.5365849 0.58288664 0.53348744
000150 ba 08 14 3f 27 9f 0d 3f 14 b3 0b 3f b4 b3 12 3f
       0.57825816 0.5532097 0.54570127 0.57305455
000160 0e 04 18 3f c5 d1 09 3f 4e 00 0f 3f 2a 2b 0c 3f
       0.59381187 0.5383571 0.5585984 0.54753363
000170 23 fc 0b 3f f1 c4 04 3f a4 75 14 3f 2e cb 09 3f
       0.54681605 0.5186301 0.57992005 0.5382565
000180 d3 51 0b 3f c1 f5 f6 3e d7 88 0d 3f 48 6f 00 3f
       0.5442173 0.4823437 0.55286926 0.501698
000190 6a 03 05 3f 66 23 05 3f fb 65 04 3f ec ed 0b 3f
       0.51958334 0.5200714 0.5171811 0.54659915
0001a0 ec 8d 10 3f 61 60 05 3f 1b 61 13 3f b8 84 0d 3f
       0.56466556 0.5210019 0.57570046 0.5528064
0001b0 03 e9 09 3f 77 ac 13 3f 25 f0 07 3f 08 bc 19 3f
       0.5387117 0.57685035 0.53100806 0.6005254
0001c0 4d 2f 1a 3f e5 65 08 3f ef 2f 14 3f 8b 99 15 3f
       0.60228425 0.5328048 0.5788564 0.5843741
0001d0 22 0a 06 3f 32 ca 1b bf 21 9a 0f bf cb 42 17 bf
       0.5235921 -0.608554 -0.5609456 -0.59086293
0001e0 70 53 09 bf 14 2b 13 bf 5a f9 10 bf 5c 6d 18 bf
       -0.5364294 -0.57487607 -0.5663048 -0.5954187
0001f0 7c d8 08 bf 05 56 0b bf e2 27 0f bf 57 0b 18 bf
       -0.5345533 -0.5442813 -0.5592023 -0.59392303
000200 09 12 15 bf bc c6 0c bf 34 09 0e bf 80 33 06 bf
       -0.58230644 -0.54990745 -0.5548279 -0.5242233
000210 71 b4 0d bf 90 51 0a bf a2 b3 15 bf 5b d8 09 bf
       -0.55353457 -0.54030704 -0.5847722 -0.5384576
000220 50 51 08 bf 33 72 17 bf 76 10 09 bf 23 e9 17 bf
       -0.53249073 -0.5915863 -0.5354074 -0.59340113
000230 87 8e 10 bf 56 aa 0d bf 58 ed 10 bf bc 96 08 bf
       -0.5646748 -0.55338037 -0.5661216 -0.53355
000240 91 8e 0c 3f 1d f9 08 3f a2 9e 10 3f 89 b6 fe 3e
       0.5490504 0.53505117 0.56492054 0.49748638
000250 12 16 12 3f a8 b0 0c 3f 2e fa 04 3f 94 94 02 3f
       0.57064927 0.54957056 0.51944244 0.5100796
000260 91 b6 0a 3f 60 b3 0a 3f 54 d9 03 3f 50 97 10 3f
       0.54184824 0.54179955 0.5150349 0.56480885
000270 f8 3f 07 3f e2 ce 17 3f 72 14 17 3f e0 06 19 3f
       0.52831984 0.59300053 0.5901557 0.59776115
000280 90 18 18 3f 40 25 13 3f 32 b5 07 bf f7 6c 16 bf
       0.5941248 0.57478714 -0.5301086 -0.5876002
000290 c4 e5 1b bf 52 f5 0c bf 38 42 0a bf f6 59 18 bf
       -0.6089747 -0.5506183 -0.5400729 -0.5951227
0002a0 2a 7b 19 bf 17 96 01 bf df 68 16 bf 32 b6 0b bf
       -0.5995356 -0.50619644 -0.5875377 -0.54574883
0002b0 a7 f4 05 bf af 1e 04 bf 9b 9a 0e bf 5f 53 0b bf
       -0.52326435 -0.5160932 -0.5570466 -0.5442409
0002c0 81 8f 01 bf 9d a6 03 bf fc 4e 04 bf 37 de 10 bf
       -0.50609595 -0.51426107 -0.5168302 -0.5658907
0002d0 92 2b 0e 3f dd 2b 11 3f 93 f2 08 3f aa 38 0a 3f
       0.55535233 0.56707555 0.5349514 0.5399271
0002e0 c2 33 08 3f fb f0 0c 3f e8 94 14 3f 1b fa 10 3f
       0.53203976 0.55055207 0.5803971 0.5663163
0002f0 a7 eb 0f 3f 83 a3 0b 3f 02 cc 15 3f 69 1b 08 3f
       0.5621895 0.54546374 0.58514416 0.53166825
000300 f6 42 09 3f 68 58 1b 3f be 7a 17 3f ae 49 12 3f
       0.536178 0.6068177 0.59171665 0.57143676
000310 ca 2e 12 3f f9 b9 0f 3f e4 2e 10 bf d0 fe 05 bf
       0.57102644 0.56143147 -0.5632155 -0.5234194
000320 b5 3d 07 bf 0c f3 08 bf be 76 09 bf 5d 98 08 bf
       -0.5282853 -0.5349586 -0.5369681 -0.5335749
000330 19 66 02 bf b2 3a 15 bf 83 8a 05 bf 4e df 02 bf
       -0.5093704 -0.58292687 -0.5216448 -0.51121986
000340 26 f2 17 bf 86 7c 1a bf 6d 24 0f bf 80 f7 0a bf
       -0.59353864 -0.6034626 -0.55914956 -0.54283905
000350 1c 94 05 bf 09 3a 1b bf 05 e0 13 bf 3f 49 17 bf
       -0.5217912 -0.6063543 -0.577637 -0.5909614
000360 ca 44 19 bf a1 bd 1a bf 49 e1 16 bf c2 5d 0f bf
       -0.5987059 -0.604456 -0.5893751 -0.5600244
000370 dc 95 1e bf 5c e9 0d bf 4c e5 0e bf 53 60 0a bf
       -0.6194742 -0.55434203 -0.5581863 -0.5405323
000380 cb 86 06 bf ea be 13 bf 75 ab 07 bf bb bc 0d bf
       -0.5254943 -0.57713187 -0.52996 -0.55366105
000390 9d ca 10 bf cb 81 05 bf f3 1d 01 bf b5 96 14 bf
       -0.56559163 -0.52151173 -0.50436324 -0.5804246
0003a0 0d b0 02 bf ca 5e 19 bf c7 db 13 bf fb 4a 14 bf
       -0.5104988 -0.5991026 -0.5775723 -0.5792691
0003b0 68 54 07 bf 9b ca 0b bf a4 56 05 bf 3e b5 0a bf
       -0.5286317 -0.54606026 -0.5208533 -0.54182804
0003c0 7a f2 1b bf 9a 43 10 bf 6c 84 08 bf e4 82 16 bf
       -0.60916865 -0.5635315 -0.5332706 -0.58793473
0003d0 36 19 11 bf 93 68 0c bf a3 bb 1b bf 95 85 13 bf
       -0.56679094 -0.5484707 -0.60833186 -0.57625705
0003e0 27 55 0c bf 26 5b 15 bf 22 b4 19 bf 18 6e 06 bf
       -0.5481743 -0.58342206 -0.60040486 -0.5251174
0003f0 16 39 09 bf 62 19 0b bf 30 29 08 bf e8 a5 0f bf
       -0.5360273 -0.54335606 -0.5318785 -0.5611253

conv_layers.5.0.conv.bias f4 [32]
000000 56 ab b5 be ec fe dc 3e 5f 03 a6 be a4 f7 fe 3e
       -0.3548228 0.4316324 -0.32424447 0.4979831
000010 d9 bf ca be 5d da cb be 2e de f0 3e 05 5f bd be
       -0.39599493 -0.39815035 0.4704451 -0.36986557
000020 d4 c0 ca 3e 92 78 c7 3e 8f 69 e4 3e 1e 8a af be
       0.3960024 0.38959175 0.44611785 -0.34285063
000030 70 39 d7 3e ca 1d 04 3f ee 12 c2 be bc dc d1 3e
       0.4203601 0.51607955 -0.37905067 0.4098872
000040 ee cc cf 3e 97 39 ae be b5 43 c0 3e 45 4d ed 3e
       0.40586036 -0.34028313 0.37551656 0.46348014
000050 4f 60 b6 be c4 78 c4 be 7e 1c d4 3e fe d0 de 3e
       -0.35620353 -0.38373387 0.41427988 0.43518823
000060 27 a8 bd be 46 78 e7 3e 9d 27 d6 be 76 8b af be
       -0.37042353 0.4520895 -0.41827098 -0.34286088
000070 0a bb e8 3e 8f 92 ee 3e 9e fe cf 3e b4 84 d7 3e
       0.454552 0.4659619 0.40623945 0.42093432

conv_layers.7.0.conv.weight f4 [16, 32, 3, 3]
000000 4c f4 f2 be 11 4b f7 be 9f d2 0e bf 47 68 12 bf
       -0.4745201 -0.4829946 -0.5579013 -0.57190365
000010 b5 e6 01 bf 9c 0d 03 bf e3 82 f8 be ad 09 e0 be
       -0.50742656 -0.5119264 -0.4853736 -0.43757382
000020 8d 9a d7 be 0d 1c 16 3f 06 f3 0d 3f 1e 6c 04 3f
       -0.421101 0.5863655 0.5544895 0.51727474
000030 8e b3 0f 3f 53 33 07 3f 55 79 06 3f 12 73 ea 3e
       0.56133354 0.5281269 0.5252889 0.45790917
000040 3f 02 ea 3e 6a 13 f0 3e 13 f8 0d bf 09 f1 0d bf
       0.4570484 0.46889812 -0.55456656 -0.55445915
000050 2a df 00 bf f0 78 12 bf 88 dd 11 bf 64 fd 0e bf
       -0.5034052 -0.57215786 -0.56978655 -0.55855393
000060 94 62 ea be 98 52 cb be 12 9e de be 41 a5 f1 3e
       -0.45778334 -0.39711452 -0.43479973 0.4719639
000070 44 ad 0e 3f d7 15 03 3f 3b 8a 0e 3f 5b fd 15 3f
       0.5573313 0.512052 0.5567967 0.58589715
000080 49 5c 11 3f 24 e4 e1 3e 48 31 fa 3e 84 80 dd 3e
       0.5678144 0.4411937 0.48865724 0.43262112
000090 7e 82 0a bf 76 ec 09 bf 1d 6f 05 bf 78 2f 00 bf
       -0.54105365 -0.53876436 -0.5212267 -0.5007243
0000a0 e4 e0 0f bf 08 ae 12 bf 16 24 e7 be e2 5d c8 be
       -0.5620253 -0.572968 -0.4514472 -0.39134127
0000b0 d1 a0 d0 be 7b 7b 01 bf b2 b6 f5 be f5 0e 09 bf
       -0.40747693 -0.5057904 -0.47990948 -0.5353845
0000c0 11 09 0f bf c2 c6 03 bf 51 04 03 bf 1e c7 d3 be
       -0.5587321 -0.51475155 -0.5117846 -0.41362852
0000d0 8f 4b e2 be 76 3c cb be b0 0f 09 3f 87 df f9 3e
       -0.44198272 -0.39694566 0.5353956 0.4880335
0000e0 e7 37 03 3f dd e6 0d 3f 16 1e 14 3f 81 9a 0c 3f
       0.51257175 0.55430394 0.5785841 0.54923254
0000f0 00 54 d0 3e 20 f6 d3 3e db 24 c9 3e f2 37 01 bf
       0.40689087 0.41398716 0.3928593 -0.5047599
000100 04 d4 09 bf 07 1e 04 bf 09 94 15 bf 3a 49 0d bf
       -0.53839135 -0.5160832 -0.5842901 -0.5518986
000110 80 8f 17 bf 74 4d d8 be e0 14 dd be 1e a4 f1 be
       -0.5920334 -0.42246592 -0.4317999 -0.47195524
000120 00 3c fa 3e 95 e5 11 3f ce 51 02 3f 2c 7e 08 3f
       0.488739 0.5699094 0.50906074 0.53317523
000130 57 ba 16 3f 19 19 15 3f cf b9 e5 3e 2d f6 dd 3e
       0.5887808 0.5824142 0.44868323 0.4335188
000140 98 0a e5 3e 17 d9 14 3f c7 31 10 3f d5 23 08 3f
       0.44734645 0.5814375 0.56325954 0.53179675
000150 a3 70 08 3f af bd 0d 3f 45 d4 06 3f bd 78 00 3f
       0.5329687 0.5536756 0.5266765 0.5018423
000160 24 0b ef 3e 22 06 de 3e 10 30 ed 3e e3 5a ff 3e
       0.46688187 0.43364054 0.4632573 0.4987403
000170 ff 6b fe 3e 04 9b 04 3f 2d 73 0c 3f 99 2a 09 3f
       0.4969177 0.51799035 0.54863244 0.53580624
000180 97 0b ed 3e 2a 0e d2 3e 62 f7 ee 3e f6 2c 11 bf
       0.46297905 0.4102643 0.46673113 -0.5670923
000190 10 ef 14 bf 67 32 0e bf 21 43 fc be 35 0c 06 bf
       -0.5817728 -0.5554566 -0.49269965 -0.52362376
0001a0 68 7a 11 bf cf c3 c3 be 3b 75 ee be 57 04 e0 be
       -0.568274 -0.38235328 -0.46573815 -0.4375331
0001b0 af 5e 12 3f c8 79 fe 3e 7d 4b 10 3f 41 a5 03 3f
       0.57175726 0.49702287 0.56365186 0.5142403
0001c0 5d ef 0e 3f 4e 73 1b 3f e0 27 ea 3e 82 ad d2 3e
       0.5583399 0.60722816 0.45733547 0.41148
0001d0 9b b2 f6 3e d0 51 fb 3e 1a cc f7 3e 34 a0 f1 3e
       0.4818314 0.49085855 0.48397905 0.47192538
0001e0 5d 7a ef 3e 3b aa f3 3e ad 44 09 3f 7e a6 b8 3e
       0.46773043 0.47590813 0.53620416 0.36064523
0001f0 c5 a0 bc 3e ae 42 ac 3e 2e 95 01 bf ea 37 05 bf
       0.36841407 0.33644623 -0.50618255 -0.52038443
000200 50 e5 0c bf b7 f6 0b bf 95 ce 11 bf 4b 44 16 bf
       -0.55037403 -0.5467333 -0.56955844 -0.58697957
000210 d0 a4 d6 be 7a f6 e8 be f5 5a d8 be 3b 7a 11 3f
       -0.41922617 -0.45500547 -0.42256895 0.56827134
000220 17 9a 09 3f 3b 85 09 3f 25 2e 11 3f 92 de 08 3f
       0.5375075 0.5371892 0.56711036 0.53464615
000230 9a 88 0d 3f 91 71 f0 3e 82 ef cf 3e 7c 25 f4 3e
       0.5528656 0.46961644 0.40612417 0.47684848
000240 f8 a3 13 3f 0a 27 09 3f 05 55 0b 3f 1c b2 0f 3f
       0.5767207 0.53575194 0.54426605 0.5613115
000250 5b 18 1e 3f 2f 80 14 3f 43 0e df 3e bb 77 e3 3e
       0.61755913 0.5800809 0.43565568 0.44427285
000260 4b ca e3 3e de d2 19 bf c4 db 12 bf 3b d6 11 bf
       0.44490275 -0.6008738 -0.57366586 -0.56967515
000270 ba 63 03 bf 97 73 1d bf 0c 68 09 bf 64 17 ed be
       -0.51324046 -0.615045 -0.5367439 -0.46306908
000280 fa b7 dc be c1 21 fe be 36 82 0c 3f aa 69 0e 3f
       -0.43109113 -0.49635127 0.54886186 0.5562998
000290 2c 8d 13 3f 18 91 0e 3f 66 27 0b 3f b2 25 fd 3e
       0.57637286 0.55690145 0.5435699 0.49442822
0002a0 10 0f f8 3e 93 46 e4 3e 5d b9 cf 3e 1d 8f 12 3f
       0.48448992 0.44585094 0.40571108 0.57249624
0002b0 68 1f 0f 3f da ac 11 3f e1 99 fb 3e a6 91 15 3f
       0.559073 0.56904376 0.49140838 0.58425367
0002c0 45 a5 13 3f 13 93 e5 3e 52 33 e1 3e c3 9c d9 3e
       0.57674056 0.4483877 0.43984467 0.42502412
0002d0 36 b2 17 bf 1b 14 0a bf 15 cb 15 bf 70 56 10 bf
       -0.59256303 -0.5393693 -0.58513004 -0.56381893
0002e0 ff 5d 1c bf e8 af 1e bf c2 d9 be be 90 4e c4 be
       -0.61080927 -0.6198716 -0.3727551 -0.38341188
0002f0 83 d0 ca be 56 21 fb be 85 ec 08 bf d5 bc 08 bf
       -0.39612207 -0.4904887 -0.534859 -0.53413135
000300 4b 10 16 bf e0 84 19 bf 1a d4 05 bf 30 af fa be
       -0.5861861 -0.59968376 -0.52276766 -0.48961782
000310 cd 7e d2 be 9a 0b e9 be be cd 06 3f b2 0d 0a 3f
       -0.41112366 -0.45516664 0.5265769 0.5392715
000320 13 81 11 3f a3 d0 0c 3f b3 84 14 3f 17 bc 07 3f
       0.56837577 0.55005854 0.5801498 0.5302138
000330 7f f9 dc 3e d0 82 ce 3e eb 28 e4 3e e1 d5 01 3f
       0.431591 0.40334177 0.44562468 0.5071698
000340 a1 fd 12 3f f7 73 05 3f 27 31 0b 3f 1a 69 06 3f
       0.57418257 0.52130073 0.54371876 0.5250412
000350 1a a2 13 3f ec a7 e2 3e 1e 0a fa 3e 23 62 00 3f
       0.5766922 0.4426874 0.48835844 0.50149745
000360 21 d2 f8 be df 6d 0b bf c5 25 fb be 5d da 07 bf
       -0.48597816 -0.54464525 -0.49052253 -0.5306757
000370 6b 95 01 bf 1f 9a 09 bf 92 5f dd be d4 ff d3 be
       -0.5061862 -0.53750795 -0.43236977 -0.4140612
000380 87 25 d5 be fa 50 06 3f 50 ba 09 3f b6 f1 f5 3e
       -0.41630194 0.5246731 0.53799915 0.48035973
000390 1e be 14 3f be d1 00 3f 53 64 11 3f d3 0f cb 3e
       0.58102596 0.5032004 0.5679371 0.3966051
0003a0 a3 6b f8 3e dc 0f d9 3e 9a 9b ff be 49 af 07 bf
       0.4851962 0.42394912 -0.49923402 -0.5300184
0003b0 d5 88 02 bf 01 4e 15 bf db 2a 05 bf 5d 72 13 bf
       -0.5099004 -0.5832215 -0.5201852 -0.5759638
0003c0 11 85 d2 be fd a4 d9 be 43 f0 d0 be 86 21 07 bf
       -0.41117147 -0.4250869 -0.40808305 -0.5278553
0003d0 b0 27 12 bf da 76 06 bf 38 0f 11 bf 27 14 05 bf
       -0.5709181 -0.52525103 -0.56663847 -0.51983875
0003e0 4b d9 13 bf 4b 09 fc be f1 d7 ea be da c0 ca be
       -0.5775344 -0.4922584 -0.45867875 -0.3960026
0003f0 a8 77 17 3f 9d 4b 01 3f 9b b8 00 3f 04 1e 00 3f
       0.59166956 0.50506 0.50281686 0.500458

conv_layers.7.0.conv.bias f4 [16]
000000 7a cc ac 3e 4c 4d e2 3e c4 38 c4 3e c9 5a cc 3e
       0.33749753 0.44199598 0.3832456 0.39913014
000010 52 af bc be d5 6e e1 3e 8c b0 a3 3e b7 82 85 3e
       -0.3685251 0.4402987 0.31970632 0.2607629
000020 dc f6 9c be 88 74 a9 be f3 6d ad be 6d 53 cb be
       -0.3065709 -0.3309672 -0.33872947 -0.39712086
000030 cb a4 7e 3e 89 35 d1 3e 1c da c7 3e 01 2e c7 3e
       0.24867551 0.40861157 0.39033592 0.38902286

linear_layers.0.weight f4 [64, 400]
000000 16 af 3e be aa e7 18 be 97 2a 31 be 3d f8 34 be
       -0.18621477 -0.14932123 -0.17301403 -0.1767282
000010 59 cf 56 be 4d c5 5d be 86 99 53 be e1 1b 60 be
       -0.20977534 -0.21657296 -0.20664033 -0.21885635
000020 c4 8c 68 be f0 af 5b be 40 9b b3 be c4 65 99 be
       -0.22709948 -0.21453834 -0.35079384 -0.29960454
000030 6e 9a 97 be 8f ae a4 be 39 ea b3 be 72 2b d2 be
       -0.29610008 -0.32164428 -0.35139635 -0.4104877
000040 84 7b e4 be 0f d4 ca be 59 2f d1 be f3 02 ea be
       -0.44625485 -0.39614913 -0.40856436 -0.45705375
000050 87 b7 f7 be 8b 8d e5 be 95 7a e0 be 27 b9 f4 be
       -0.48382208 -0.4483455 -0.43843523 -0.4779751
000060 ca e4 fa be e4 12 80 be 62 b0 8d be 29 73 56 be
       -0.49002677 -0.25014412 -0.27673632 -0.20942368
000070 5c ac 74 be 0d 4a 76 be de a1 7d be c0 3d 66 be
       -0.23893875 -0.24051686 -0.24768779 -0.22484493
000080 fa 24 7d be 39 6f 8c be 58 b0 8d be ae 38 c1 be
       -0.24721137 -0.27428606 -0.27673602 -0.37738556
000090 1b 97 b7 be 1e 08 96 be c4 83 ab be be fc a3 be
       -0.35857472 -0.29303068 -0.33498967 -0.32028764
0000a0 fc b9 e0 be d5 4b c6 be 1d 18 e2 be 20 0e f3 be
       -0.43891895 -0.3872973 -0.44159022 -0.47471714
0000b0 a6 e5 d2 be c3 f7 de be 10 06 e0 be 48 7b d9 be
       -0.41190833 -0.43548402 -0.43754625 -0.4247687
0000c0 2c 5e e2 be d6 a7 f7 be ff f1 5b be f2 cc 31 be
       -0.44212472 -0.48370236 -0.21479033 -0.17363337
0000d0 d4 ce 38 be 08 8b 6f be c3 56 6c be 40 31 66 be
       -0.18047649 -0.2339288 -0.23079972 -0.22479725
0000e0 b3 fe 49 be c9 15 87 be 4f b8 79 be 88 05 68 be
       -0.19726066 -0.26383808 -0.24386714 -0.2265836
0000f0 b1 bb b5 be 60 d7 9d be 0c e6 95 be 75 bb 9e be
       -0.3549476 -0.3082838 -0.29277074 -0.31002393
000100 7e 36 91 be 28 5a f5 be 4b a5 e1 be 67 ba d5 be
       -0.28361887 -0.47920346 -0.4407142 -0.41743776
000110 0b 05 fa be 70 f1 ec be 50 f8 ea be ba 17 f7 be
       -0.48831972 -0.46277952 -0.45892572 -0.4826029
000120 13 42 e9 be 36 65 e7 be 18 33 05 bf 39 f2 75 be
       -0.45558223 -0.45194405 -0.5203109 -0.24018182
000130 df 24 82 be 83 f2 8c be 57 c9 4d be 9f e5 8b be
       -0.25418755 -0.27528772 -0.20096336 -0.27323624
000140 00 5b 85 be 5e 1c 89 be 64 e5 90 be 9d 79 6c be
       -0.2604599 -0.26779455 -0.2830001 -0.23093267
000150 5f 99 7e be 82 ba 9b be 47 40 ad be b4 d1 9b be
       -0.24863194 -0.30415732 -0.33838102 -0.30433428
000160 6b 1f b3 be af 1b a6 be c4 37 fc be c8 c5 c9 be
       -0.34984908 -0.32442996 -0.49261296 -0.39408708
000170 28 8a d1 be f2 41 db be dc 8f de be f9 91 f0 be
       -0.40925717 -0.4282375 -0.4346913 -0.46986368
000180 1e f4 ee be ad 5a e6 be 10 f4 ff be 87 33 ec be
       -0.46670622 -0.44991055 -0.49990892 -0.46133062
000190 4f 9e 40 3e 51 9f 1f 3e 9d f3 5a 3e db aa 62 3e
       0.1881039 0.15588118 0.21381994 0.22135489
0001a0 70 75 2d 3e 99 ef 44 3e be 3d 63 3e d1 10 79 3e
       0.1693933 0.19232024 0.22191522 0.24322821
0001b0 24 e2 4f 3e 05 9e 7b 3e b1 fc a8 3e 94 5c b4 3e
       0.2030111 0.24571998 0.33005288 0.35226882
0001c0 76 26 ad 3e 65 4b c0 3e ad ab c5 3e 8c 49 f2 3e
       0.33818406 0.3755752 0.3860754 0.47321737
0001d0 f7 64 e6 3e ee 8a e2 3e 15 db f7 3e 88 18 de 3e
       0.44998905 0.4424662 0.48409334 0.4337809
0001e0 67 5e 02 3f ad 88 f7 3e 36 5e fe 3e 13 ce ef 3e
       0.50925297 0.48346463 0.49681252 0.4683691
0001f0 60 29 fd 3e f6 fb 39 be f5 25 46 be 70 8e 48 be
       0.4944563 -0.18162522 -0.19350417 -0.19585586
000200 4d 58 57 be 60 81 3d be 68 ba 4f be 4c 5b 51 be
       -0.21029778 -0.18506384 -0.20285952 -0.20444983
000210 28 e4 49 be 03 a5 53 be 0c 41 5b be 22 07 8f be
       -0.19715941 -0.20668416 -0.21411532 -0.2793513
000220 f0 bd 9c be 2a 11 99 be 96 da 9d be 08 22 a4 be
       -0.3061366 -0.29895908 -0.3083083 -0.32057214
000230 9c 66 d8 be dd c7 dc be 65 3e d0 be 07 91 dd be
       -0.42265785 -0.43121234 -0.40672603 -0.4327471
000240 cd 13 d5 be e6 10 e1 be 88 56 02 bf 1d 62 f0 be
       -0.4161667 -0.43958205 -0.50913286 -0.46949854
000250 72 00 eb be a1 bf f1 be 75 af f0 3b 64 e7 0c 3d
       -0.45898777 -0.47216514 0.007345135 0.03440036
000260 d8 f4 71 bc fe d0 fa bc da 70 7e 3c b0 8c 17 be
       -0.014767848 -0.030617233 0.015529836 -0.14799762
000270 ee d9 fa bd 1b 14 3e be 4c 60 3f be f0 ef 19 be
       -0.12248598 -0.18562357 -0.18689078 -0.15032935
000280 ec 8c 5d be f4 98 54 be f0 5d 53 be 96 a1 50 be
       -0.21635789 -0.20761472 -0.20641303 -0.2037414
000290 b9 a5 3e be 77 60 aa be 8f a4 c3 be a9 4d a2 be
       -0.18617906 -0.33276722 -0.38211486 -0.31699875
0002a0 a7 87 d0 be c5 3d ae be fc 16 f9 be 1f 7f 02 bf
       -0.40728495 -0.340315 -0.48650348 -0.5097522
0002b0 b9 be ef be 2f e5 f6 be 04 6e f5 be b6 dd 75 3e
       -0.46825197 -0.48221728 -0.47935498 0.24010357
0002c0 92 9d 5a 3e 94 e6 42 3e de c2 6a 3e de 0f 7e 3e
       0.21349171 0.19033271 0.22925898 0.2481074
0002d0 f0 6c db bc d3 3e 06 bb 92 84 d4 bc 1c f4 23 3c
       -0.026785344 -0.0020484223 -0.02594212 0.010006931
0002e0 ec 28 c2 bc 93 fe 88 bd e8 3b e5 bd 1c 1d 47 bd
       -0.023701154 -0.06689181 -0.11193067 -0.048611745
0002f0 ae e6 13 be 24 96 da bd 23 27 9e be 72 ac 8f be
       -0.14443466 -0.10673168 -0.30889234 -0.28061253
000300 ab dd b4 be c2 c9 a4 be 82 32 b6 be bf 34 e1 be
       -0.3532537 -0.3218518 -0.3558541 -0.43985555
000310 8d c1 f0 be 64 7e dd be e3 38 d8 be e0 c9 ee be
       -0.47022668 -0.4326049 -0.422309 -0.46638393
000320 da d9 81 3e bf 4f 4a 3e 21 bb 68 3e 17 43 84 3e
       0.2536152 0.19756983 0.22727634 0.25832435
000330 74 ea 85 3e e4 51 93 3e e9 25 4c 3e a5 ab 60 3e
       0.26155436 0.28773415 0.19936337 0.21940477
000340 07 cb 81 3e 35 3b 8e 3e 7d 1a 97 3e 65 15 b4 3e
       0.2535021 0.27779546 0.29512396 0.35172573
000350 d4 cc b6 3e b6 f6 a2 3e f3 52 b5 3e cf 6c 01 3f
       0.35703146 0.3182885 0.35414848 0.50556654
000360 e8 07 e5 3e 0d b2 f1 3e 40 c0 df 3e b7 01 dc 3e
       0.44732594 0.47206154 0.43701363 0.42970058
000370 79 c3 05 3f e8 3d f9 3e 16 90 fb 3e 71 10 07 3f
       0.5225139 0.48680043 0.49133366 0.5275946
000380 45 84 06 3f e9 0a 50 3e 14 aa 31 3e cb 72 32 3e
       0.5254558 0.20316662 0.17350036 0.17426603
000390 9d 2d 52 3e 5f 74 69 3e cb 28 82 3e 61 93 79 3e
       0.20525213 0.22798298 0.25421748 0.24372627
0003a0 93 4c 6c 3e 37 67 3c 3e d3 18 3e 3e bf 5d a1 3e
       0.23076086 0.18398748 0.18564157 0.31516835
0003b0 f5 87 8b 3e c8 61 97 3e 9d 5d 98 3e 40 bf 8b 3e
       0.27252164 0.2956679 0.2975892 0.2729435
0003c0 23 06 d9 3e 81 28 f1 3e c8 94 e5 3e a6 a6 e0 3e
       0.42387494 0.47101215 0.44840074 0.43877143
0003d0 5d c5 da 3e 84 eb 0b 3f fb fc 02 3f eb fb ea 3e
       0.427287 0.54656243 0.5116727 0.45895323
0003e0 d0 ac 06 3f 4f fb 06 3f 0c dd 56 3e 6c 5b 40 3e
       0.5260744 0.52727216 0.2098276 0.18784875
0003f0 b4 2d 1e 3e f0 f6 35 3e ed f1 4d 3e 0e 48 80 3e
       0.15447122 0.1776998 0.20111819 0.25054973

linear_layers.0.bias f4 [64]
000000 82 8e 6c be 43 85 a8 3e db b1 ae 3e 4c 35 ab 3e
       -0.23101237 0.3291417 0.34120068 0.334391
000010 59 2a 6a be ee 5c 89 be 12 7b 74 be f9 d4 9b be
       -0.22867717 -0.26828712 -0.23875073 -0.30435923
000020 ec d7 58 be b4 24 84 3e 7b c8 8e 3e b4 da a3 3e
       -0.21176118 0.25809252 0.2788733 0.32002795
000030 8a 67 a9 3e 1b 5f bf 3e 9c e6 8d be 00 63 92 3e
       0.33086807 0.37377247 -0.27715003 0.28591156
000040 e8 f5 9d 3e 4a a7 ab 3e be 0d 86 be e4 17 a9 3e
       0.30851674 0.3352607 -0.2618236 0.3302604
000050 63 da 77 3e 40 38 c0 3e 91 11 51 be 37 dc 35 be
       0.24204402 0.37542915 -0.20416857 -0.17759787
000060 19 35 8c 3e 28 51 9b 3e 2f 8d ad 3e 49 c8 b0 3e
       0.2738426 0.30335355 0.33896777 0.34527805
000070 c2 32 9f 3e 17 93 a3 3e 9b 05 5a be 90 00 89 be
       0.31093413 0.31948158 -0.21291201 -0.26758242
000080 38 9c a8 3e 49 03 85 be 68 2c 8a be 58 2d 71 be
       0.32931685 -0.2597907 -0.26987004 -0.23552454
000090 d9 be 7c 3e 61 c9 4f be e9 09 45 be 3b 78 88 be
       0.24682178 -0.20291664 -0.19242062 -0.2665423
0000a0 6b ac 45 be 7b 0b bc 3e cc 69 a6 3e b3 7e 6b be
       -0.19304053 0.3672751 0.32502592 -0.2299755
0000b0 e0 d9 97 3e 2e 64 89 be 98 ac b5 3e e4 24 55 be
       0.29658413 -0.26834244 0.3548324 -0.20814854
0000c0 a5 73 81 be 20 d8 4d be 7d 2f 93 be 24 28 54 be
       -0.25283542 -0.20101976 -0.28747168 -0.20718437
0000d0 b3 28 bf 3e 67 3b cc 3e 56 8a 6b be 15 02 85 be
       0.3733574 0.3988907 -0.2300199 -0.2597815
0000e0 a4 72 6a be 38 c8 92 3e e8 8a 8c be a0 1e ab 3e
       -0.22895294 0.2866838 -0.27449727 0.33421803
0000f0 23 a4 96 3e 43 b3 66 be 89 3f 47 be 56 67 96 3e
       0.294221 -0.2252932 -0.1945783 0.29375714
