models/model_1726398429667/model.pth (torch, 227178 bytes, 14 tensors)

conv_layers.0.0.conv.weight f4 [16, 10, 3, 3]
00000000: 95dd f63e 69e8 f63e 9a08 f23e 2b31 f53e
00000010: 3fbb f73e 94f9 f63e b8aa f53e bdae f53e
00000020: 82e1 f73e fdfb dc3e e332 df3e b0c4 d93e
00000030: d856 d73e 2102 e53e f75d e23e d7eb eb3e
00000040: 1754 cc3e d3bd f43e 3657 d23e f3bb c73e
00000050: 7396 ca3e 886f c53e 2e31 c83e ee63 d43e
00000060: 28df bd3e 943d c63e c698 c63e 4b3d d73e
00000070: ee6e db3e d0c8 cc3e cd91 cd3e 2f76 cc3e
00000080: eb44 d93e b852 d73e f35c cc3e 9501 d33e
00000090: 03e6 d03e 72ef d53e f66b d33e 11fd cf3e
000000a0: 3e81 d33e b242 d43e c067 e03e 4d64 d23e
000000b0: bff8 d43e 7f6a ed3e 42ea f83e d7cc f63e
000000c0: e191 f63e 2ed5 f93e e3b7 fa3e 2f7a f73e
000000d0: 9f1f fa3e f10b ff3e 31cd dabe 8919 e9be
000000e0: 37cd eabe d898 e2be bfc5 eabe 331d e9be
000000f0: e0b4 f0be 0a3e dfbe 0300 eabe 20d6 edbe
00000100: dc8e edbe 0113 f9be b86d e8be f5f1 f8be
00000110: b20e d6be ed37 f1be b404 f0be ad55 f1be
00000120: 6dd2 c43e 7a81 c63e 969e c63e 1892 d03e
00000130: 5675 ce3e d853 c83e 4db0 c33e c3a5 be3e
00000140: 15c3 d43e d55b 783e 82f1 853e b634 723e
00000150: 4465 8ebe 84e1 823e bb45 743e 4d43 6d3e
00000160: 2f26 743e 78bf 713e 3a19 3d3e 2bd5 3e3e
00000170: 0135 3d3e acce 2c3e 4c1c 3c3e 03cc 3b3e
00000180: f40e 403e 5a3d 323e f5eb 413e 0d77 62be
00000190: b397 61be 8932 7bbe f8a2 5bbe 8c5d 5cbe
000001a0: f495 82be 4b7e 883e 8dd2 4ebe 11aa 5ebe
000001b0: fac7 7c3e 6472 6f3e ff6f 773e 0bdb 753e
000001c0: 0a2b 683e e854 6d3e ad83 623e b3aa 613e
000001d0: 9c8e 693e 97f0 7c3e 9b4e 6d3e 9d63 643e
000001e0: 5982 7c3e 94d1 733e bacd 6d3e 1563 603e
000001f0: 54ca 783e 922c 613e 31c9 803e e737 753e
00000200: 1dcc 863e c974 833e 506f 6b3e 4492 6e3e
00000210: dfa9 673e 5861 723e a211 693e 6f32 423e
00000220: 08d1 373e dd3f 393e c3ed 3c3e cc7b 353e
00000230: 9dab 443e 342a 383e 8538 393e 1de4 383e
00000240: a276 6dbe 1cec 56be 8b59 60be 1c97 50be
00000250: 764f 63be 0955 50be 8684 4bbe 7f8b 54be
00000260: f527 61be 6c31 893e 449c 7d3e c465 8b3e
00000270: 70eb 713e a3cf 893e d57b 7d3e e3da 6ebe
00000280: eb12 643e d0a3 813e 6895 943e 749d a13e
00000290: ad2b 9d3e d94e 903e f9bc 933e 50ff 9a3e
000002a0: 0ef8 7e3e 083f 723e b716 863e dd6a 683e
000002b0: 2dd4 893e 6f4f 4d3e 49c2 7e3e 7492 833e
000002c0: 5b24 7a3e a71b 8b3e 926b 7f3e 6205 893e
000002d0: 3de3 ec3e db35 003f aa7d f63e 9508 003f
000002e0: 6c47 f83e 5aec ff3e e525 ff3e 42e1 fa3e
000002f0: f9d8 fc3e 7865 ea3e 3cf2 e73e 728c cc3e
00000300: 4b10 f03e af6f f63e 7858 ea3e 055c f43e
00000310: 6b3d f33e 999a ce3e 0b84 d23e 6539 d23e
00000320: 64da d03e 12c9 d23e 7961 d73e 38b1 d13e
00000330: e753 ce3e 7c19 c53e 0865 bf3e 33d6 d93e
00000340: 84af db3e bdc2 d53e d9fb d43e b476 d43e
00000350: ed59 d53e 0397 d73e ae79 c43e 2330 d63e
00000360: 675d e53e 7e8d d73e 200a e53e f8d5 d03e
00000370: 2873 db3e 3858 cf3e 6600 e03e 73f1 dd3e
00000380: d123 da3e 7b62 f73e 2b00 013f 90db f83e
00000390: 3f9b f93e 5004 013f d528 013f c0c9 f33e
000003a0: 1b49 f83e 0fd2 ff3e aed6 04bf c89f e5be
000003b0: faa7 05bf 7652 e6be 3271 05bf d7fa 00bf
000003c0: 82fa f1be caab fcbe 8e73 04bf d4b0 06bf
000003d0: b5c0 02bf ec86 00bf 213e 07bf 5c0a 05bf
000003e0: 2474 05bf 40dd e9be 65fb 01bf 8e15 05bf
000003f0: 9945 db3e 8d5a cb3e 3367 c53e 21af d43e
0.4821593 0.4822419 0.47272187 0.47889075 0.48385045 0.48237288 0.4798181 0.47984877
0.48414236 0.43161002 0.4359351 0.42532873 0.42058444 0.44728187 0.44212314 0.4607837
0.39907905 0.47801074 0.41082162 0.3901058 0.3956791 0.38561654 0.3910002 0.4148249
0.37084317 0.38718855 0.38788432 0.4203895 0.4285807 0.39996958 0.401503 0.39933917
0.42435393 0.42055297 0.39914665 0.41212144 0.40800485 0.41784245 0.41293305 0.40622762
0.4130954 0.41457134 0.43829155 0.41092148 0.41596028 0.46370313 0.48616225 0.48203155
0.48158172 0.48795456 0.4896842 0.48335406 0.4885225 0.49813798 -0.42734674 -0.45527294
-0.45859692 -0.44257236 -0.45853993 -0.4553009 -0.47012997 -0.4360202 -0.45703134 -0.46452427
-0.46398056 -0.4864731 -0.4539621 -0.486221 -0.41808087 -0.4711298 -0.46878588 -0.47135678
0.38441792 0.38770658 0.38792866 0.4073646 0.40323895 0.39126468 0.38220444 0.3723584
0.41555086 0.24253781 0.26160818 0.2365292 -0.27811635 0.2556268 0.23854725 0.23170204
0.23842691 0.23608196 0.18466654 0.18636005 0.1847725 0.16875714 0.1837017 0.18339543
0.18755704 0.17406216 0.18937667 -0.22115727 -0.22030525 -0.24530996 -0.21448886 -0.2152006
-0.2550503 0.26658854 -0.20197506 -0.21744563 0.2468566 0.2338348 0.24163817 0.2400934
0.22672668 0.2317692 0.22120543 0.22037773 0.22808307 0.24701153 0.23174517 0.22303624
0.24659099 0.23810416 0.2322301 0.21912797 0.24295932 0.21989658 0.25153497 0.23947106
0.263276 0.25675038 0.22991681 0.23297983 0.22623394 0.23669946 0.22760633 0.18964551
0.17950833 0.18090768 0.18450074 0.17723006 0.1920609 0.17984849 0.18087967 0.18055768
-0.23189786 -0.20988506 -0.21909158 -0.20370144 -0.2219828 -0.20344938 -0.19874772 -0.20756339
-0.21987899 0.26795518 0.24766642 0.2722608 0.23624969 0.26916227 0.2475427 -0.23325686
0.22272842 0.25320292 0.29020238 0.3156544 0.30697384 0.28185156 0.28855112 0.30272913
0.24899313 0.23656857 0.26189205 0.22697015 0.2691969 0.20049833 0.24878801 0.25697672
0.24427931 0.27169535 0.24943379 0.2676192 0.4626712 0.50082177 0.4814275 0.50013095
0.4849199 0.4998501 0.498336 0.48999983 0.49384287 0.4578054 0.45301998 0.399509
0.4688743 0.48132083 0.4577062 0.47726455 0.47507796 0.40352324 0.41116366 0.41059414
0.4079162 0.4116903 0.42066553 0.4095552 0.40298387 0.38496006 0.37381768 0.42546234
0.42907345 0.41750136 0.41598395 0.41496813 0.4167017 0.421074 0.38374084 0.418336
0.44797823 0.42100137 0.44734287 0.40788245 0.42861295 0.40496993 0.43750304 0.43348274
0.4260545 0.48317322 0.5039088 0.48605013 0.48751256 0.50397205 0.5045293 0.4761486
0.48493275 0.4996495 -0.51890075 -0.44848466 -0.52209437 -0.44984788 -0.5212585 -0.5038275
-0.47261435 -0.49349815 -0.5173882 -0.5261357 -0.510753 -0.50205874 -0.52829176 -0.5196893
-0.5213034 -0.45676613 -0.5077422 -0.51986015 0.42826536 0.39717522 0.38555297 0.41539863

conv_layers.0.0.conv.bias f4 [16]
00000000: 29ad 8a3e f683 8f3e 3d2b 8a3e c600 ab3e
00000010: f839 b73e 2b65 873e 7ae5 943e c42f a33e
00000020: 784b 9b3e f8c7 ab3e e0d9 9e3e 6ea7 8b3e
00000030: 39c6 893e ca8a 893e bf68 8f3e 40d3 933e
0.27085236 0.28030366 0.26986113 0.33399028 0.35786414 0.26444373 0.29081327 0.3187238
0.30331016 0.33551002 0.310256 0.27276176 0.26909044 0.268637 0.28009602 0.28872108

conv_layers.2.0.conv.weight f4 [32, 16, 3, 3]
00000000: c3cc d93e 6393 c83e 2e1c f23e b716 e13e
00000010: 41bb c73e f445 c63e c3fe d23e dd6f d93e
00000020: 34a0 d33e 650f 3d3e 6428 573e af7b 953e
00000030: 649d 483e b2cb 753e 9140 333e 8029 533e
00000040: eb59 963e fa2a 9a3e 0a3b d03e fd3a de3e
00000050: b5c2 e83e a5b4 d53e 86f9 eb3e abfe e33e
00000060: 38f2 e33e 9283 da3e 8dec e83e 67d9 b73e
00000070: d188 c03e 7531 c93e 2899 b83e c389 903e
00000080: 80ac c43e 3c3e b33e eede 8e3e fefc a53e
00000090: a227 b23e cd9d dc3e dd86 d03e 096c d23e
000000a0: e18e c03e 2e08 bf3e 78ea cf3e 5e54 da3e
000000b0: b8d3 cb3e 0333 cf3e 04f4 ce3e 1177 de3e
000000c0: cf9c f13e c3d7 e93e d83a ef3e 9d0a ca3e
000000d0: 067d de3e e7c7 c23e 60cd dc3e ea87 d23e
000000e0: 8fa0 d23e 052e e23e 78ce da3e 1712 d83e
000000f0: f7e5 dd3e 72a1 d33e b636 ca3e fd64 c43e
00000100: 979e e43e effc d13e 2178 d73e 42ab ca3e
00000110: 409a ab3e 1044 dd3e 03aa e73e d390 aa3e
00000120: c11d e73e 69c8 c93e 6553 c63e 6989 dc3e
00000130: 246a c83e 098a d53e edd4 ab3e a720 b73e
00000140: 689b a43e 9862 b63e 864b d53e 8a72 df3e
00000150: e63a bf3e 2bb8 bd3e 87b2 b83e 87d5 bf3e
00000160: f521 da3e 1542 c73e 84c1 ba3e c192 c93e
00000170: 192a d53e fcb6 e93e 72c5 e73e fc77 de3e
00000180: d4bf c03e 8ede a93e 65cd cd3e 232b c93e
00000190: 3f3c d23e c275 d33e 8b2f dc3e 0215 d03e
000001a0: f538 d53e 6953 cb3e c91f c73e 5dc7 d33e
000001b0: a880 ca3e 31ae e63e b3a5 d03e d583 d83e
000001c0: 08b7 da3e 7ee4 e43e 2c16 e13e 1085 d73e
000001d0: bdee d23e aae1 e53e 42d1 e53e fd63 d03e
000001e0: 3b04 e83e ed89 d83e 2b23 cd3e 226a cb3e
000001f0: 822f c83e 4f6c df3e 61ae d03e d0c5 e73e
00000200: 5d77 dc3e 026d e63e 2fd5 d83e 58c6 d33e
00000210: 2320 de3e f895 d43e c3e9 e63e 54a5 b83e
00000220: c895 db3e 08cc ac3e 49a9 dd3e 4542 db3e
00000230: 1ef7 d63e d553 b83e f3ef b53e 1f21 de3e
00000240: 3ed9 c2be 1d7a c3be f4dd e8be 9e2d ddbe
00000250: 1009 cdbe 8d66 c8be 8d22 c4be 0240 b4be
00000260: dfd0 ccbe 390c 92be 071a 38be a785 4fbe
00000270: afb7 19be 1934 94be fd76 84be cd58 44be
00000280: 3412 92be f2f3 3bbe 9067 d3be 9e5f d8be
00000290: f5fc dabe f49d d7be dc85 cabe cb02 d9be
000002a0: a1a1 d0be 2d65 c8be cf95 c8be 2b14 72be
000002b0: 236e 74be b396 b4be 1f1a c2be 5588 73be
000002c0: 44bd bcbe 0f71 a0be b98e 7fbe 59bb 8dbe
000002d0: 37c8 bfbe 9bfb d3be d2e2 a1be 8963 dbbe
000002e0: 3f71 a8be 4435 b4be 2f8a c8be 409a c8be
000002f0: 8a02 97be d8a9 d6be f57b cfbe b1aa d8be
00000300: 11a2 dbbe 0335 b8be c64d c3be b92e bbbe
00000310: b46c dbbe feb9 ddbe 7049 e4be 0230 dcbe
00000320: c693 e8be 89eb ddbe 7698 c6be 1f5c c4be
00000330: f140 e4be 468c cdbe 30f5 c8be a5d2 cebe
00000340: b8d5 bfbe 8ac5 babe 0892 c0be 2153 e1be
00000350: 4fa0 b9be f899 d2be f69f d4be 322b abbe
00000360: 9eb9 eabe a548 d8be 6d5b bbbe bfea dfbe
00000370: 879f abbe b96f d7be 0686 d4be 3b48 cdbe
00000380: c53f e4be c08d b8be 06a5 efbe 0ba7 dabe
00000390: c5e6 ccbe 120a dcbe d465 b3be 21ec e4be
000003a0: 8fb6 edbe fad4 bcbe f529 d3be 3ac7 e6be
000003b0: 174c bfbe 19d9 b8be c454 b1be 1d98 c6be
000003c0: fff2 e6be bc47 c6be df99 d3be 7495 cbbe
000003d0: ff33 ebbe a42c d7be 752c debe aeaa debe
000003e0: 7e58 e7be 2328 dfbe 1927 dcbe c25e e6be
000003f0: 9591 d6be 2abc dcbe ce4d cebe ba44 d7be
0.42539033 0.39174947 0.47287124 0.43962643 0.3901005 0.38725245 0.41209993 0.42468157
0.41333163 0.18462904 0.21011502 0.29195926 0.1959129 0.24003485 0.17505099 0.206213
0.29365477 0.30110914 0.40670043 0.4340438 0.4546105 0.41739383 0.4608881 0.44530234
0.44520736 0.42678505 0.45492974 0.35908052 0.37604383 0.39295545 0.3605435 0.28230104
0.38412857 0.3500842 0.27904457 0.3241958 0.34795862 0.43089142 0.40727893 0.4109805
0.37609008 0.37310928 0.40608573 0.42642492 0.39809966 0.40468606 0.40420544 0.43450215
0.47189948 0.45672426 0.46724582 0.39461222 0.4345476 0.38043138 0.4312544 0.4111932
0.4113812 0.44175735 0.42735648 0.422013 0.43339512 0.4133411 0.39494866 0.38358298
0.44652244 0.41013286 0.4208384 0.39583784 0.3351612 0.4321599 0.45246896 0.33313617
0.45139888 0.39410713 0.387355 0.43073586 0.3914348 0.41706875 0.33560887 0.357671
0.32149816 0.35622096 0.41659182 0.43642074 0.37349623 0.37054572 0.36073706 0.37467596
0.42604032 0.38917604 0.36475766 0.39369777 0.4163368 0.45647418 0.45267826 0.43450916
0.37646353 0.33177608 0.40195766 0.39290723 0.4106159 0.4130078 0.43005022 0.40641028
0.41645017 0.39712074 0.38891438 0.4136304 0.39551282 0.45054772 0.40751418 0.4228808
0.42717767 0.44705576 0.43962228 0.42093706 0.41197768 0.4489873 0.44886214 0.40701285
0.45315728 0.4229273 0.40065894 0.3972941 0.39098746 0.4363732 0.4075804 0.45268106
0.43059817 0.4500504 0.42350146 0.41362262 0.43383893 0.41520667 0.4510022 0.36063635
0.42887712 0.33749413 0.43293217 0.42823997 0.4198541 0.3600146 0.3553463 0.43384644
-0.38056368 -0.38179103 -0.45481837 -0.43198866 -0.40045977 -0.3914074 -0.3830761 -0.35205084
-0.40003106 -0.2852495 -0.17978679 -0.20265828 -0.15011476 -0.28945997 -0.2587203 -0.191745
-0.28529513 -0.18354777 -0.4128995 -0.4226045 -0.42771116 -0.42112696 -0.39555252 -0.42384943
-0.40748313 -0.3913969 -0.39176795 -0.23640506 -0.23870139 -0.35271224 -0.37910554 -0.23782475
-0.36863148 -0.31336257 -0.24956788 -0.27681997 -0.3745744 -0.41402897 -0.31618363 -0.42849377
-0.328989 -0.35196888 -0.39167926 -0.39180183 -0.29494125 -0.41926455 -0.4052426 -0.42317727
-0.42897084 -0.35977945 -0.38145274 -0.36559084 -0.4285637 -0.43305963 -0.44587278 -0.43005377
-0.45425242 -0.43343762 -0.38788193 -0.38351533 -0.44580796 -0.40146083 -0.39249563 -0.40395084
-0.37467742 -0.36478835 -0.37611413 -0.44008735 -0.36255118 -0.41133094 -0.4152829 -0.33431393
-0.4584474 -0.42242923 -0.3659319 -0.43733785 -0.33520147 -0.42077425 -0.41508502 -0.4009417
-0.44579902 -0.36045647 -0.4680559 -0.4270557 -0.40019813 -0.42976433 -0.35038626 -0.44711402
-0.46428344 -0.36881238 -0.41242948 -0.45073873 -0.3736274 -0.36103132 -0.34634984 -0.38787928
-0.45107266 -0.38726604 -0.41328332 -0.3976246 -0.45938107 -0.42026246 -0.43393293 -0.43489593
-0.45184702 -0.4358531 -0.4299858 -0.4499417 -0.41907945 -0.43112308 -0.40293735 -0.42044622

conv_layers.2.0.conv.bias f4 [32]
00000000: f6e0 b53e 3f9d 5cbe 85af b13e 2c67 c03e
00000010: 971e 853e 93ef 6bbe db06 a63e 50df 8d3e
00000020: a047 61be decf a83e 5bb7 9e3e c847 a83e
00000030: b396 ac3e 0eea 8dbe 1eb8 883e 1cec 883e
00000040: ab2c abbe 499a 6abe dd58 7c3e 70d3 8d3e
00000050: 21bb 8fbe 3947 c3be 915a bebe 28d9 79be
00000060: 689b 80be 0df4 ab3e e974 7cbe ea78 bb3e
00000070: a4b8 a23e 3a6c 893e 6eb5 36be 8145 9c3e
0.35523194 -0.2154436 0.34704223 0.37578714 0.259999 -0.23040609 0.32427105 0.27709436
-0.21999979 0.3297109 0.30999264 0.32867265 0.33708724 -0.27717632 0.2670297 0.26742637
-0.33432516 -0.22910418 0.24643274 0.27700377 -0.28072456 -0.38140276 -0.37178472 -0.24399245
-0.25118566 0.33584633 -0.24653973 0.36615688 0.31781495 0.26840383 -0.17842647 0.30521777

conv_layers.4.0.conv.weight f4 [32, 32, 3, 3]
00000000: 436c cb3e 90b0 f03e e6ef d03e 85e3 f03e
00000010: 7289 d63e 7cbf c43e e2b2 e73e 1718 cf3e
00000020: decc e83e 576a e1be 32b3 c4be 538b b4be
00000030: 483f ccbe 8b6b c6be 4652 dfbe 51c9 c7be
00000040: 7f7d dfbe d610 cdbe 25e0 c13e 35be dc3e
00000050: 5571 f53e 6752 e53e 5412 c63e 4517 d03e
00000060: df1f d73e 72f8 ea3e cdff d53e eb5a c33e
00000070: 5e0c c13e 93e4 923e 244c aa3e b9df a13e
00000080: c547 933e 0897 b73e 3682 8e3e 5f20 9e3e
00000090: d00d d33e 6626 ce3e 51e8 d33e 559d d63e
000000a0: 3cb0 d33e 0ae9 ee3e 27f1 c93e dd12 e83e
000000b0: e64a e63e ddf6 c1be b1a1 c3be d18b dbbe
000000c0: 8686 e0be 34e5 c1be ce48 bcbe 660f c5be
000000d0: abc8 e1be fdb7 e7be 4f5c da3e dc22 cd3e
000000e0: 9472 db3e 8e93 cd3e 9ad9 c73e 5f73 f13e
000000f0: 3987 d83e ba33 e43e 7075 ed3e f5ce c23e
00000100: 85bf db3e 77e5 ca3e e052 dd3e 5db1 e83e
00000110: 34f5 e33e e567 da3e 921d cd3e e26a e63e
00000120: 8f8d b0be 6f87 aebe 2914 bdbe a464 c6be
00000130: 39f9 dfbe 0658 c5be 71dd dabe 3365 b0be
00000140: dfd7 cebe ca97 d43e 5a88 dd3e 8efc ec3e
00000150: 4092 c23e 6c3e c63e 2691 ee3e 70ce da3e
00000160: fd52 d23e 246c ea3e 668a c53e d19f da3e
00000170: 5f1d cb3e a7d5 cd3e 228d d73e bb6f da3e
00000180: 072d de3e 880d dd3e 8204 c43e 2de4 c03e
00000190: a257 e23e 8aab c73e d39b c53e 5bb4 e03e
000001a0: 8edf f03e 89e6 d53e b46d e83e 60eb e53e
000001b0: d46b d13e 31ef e33e 9138 e63e 246f e43e
000001c0: 8172 df3e 0a54 ed3e 19fc cd3e 7a01 e63e
000001d0: d194 f33e 19b2 cebe 6b35 cbbe 50a9 d2be
000001e0: 7755 c3be 7d99 c9be 3115 dfbe a94a cabe
000001f0: 2d21 ddbe c551 d1be 4839 e63e 70f0 d63e
00000200: a88f e03e 0e67 d73e 8a06 eb3e a3ba dd3e
00000210: 0e5f dd3e 0382 e13e e127 e43e b7f1 d03e
00000220: b141 d73e 9a5d d43e 53b2 d33e 11f4 d93e
00000230: cd5c dc3e 4753 d43e a191 de3e a497 e23e
00000240: 8d1f d4be e7ec d9be 6b83 c9be 6517 debe
00000250: 7fd4 cfbe e558 dfbe 0999 cdbe 6b05 e6be
00000260: 79cc e1be 2abb c8be 277b e1be b23b cfbe
00000270: d0ac c4be 5057 c3be e2c4 c3be a57c b7be
00000280: c474 cabe cf1f b4be 533f d73e 2c75 e73e
00000290: 3cab d73e a658 c03e 9826 c43e 0cef cc3e
000002a0: 29a2 bb3e 0e88 d93e a1f1 e23e 9464 e33e
000002b0: 0a29 cd3e 0aac db3e 9d2a be3e 8d75 dc3e
000002c0: 12ba e83e df69 e13e 9482 e73e 5f2b e23e
000002d0: d92e cdbe 2617 d3be 182f e7be ceba c1be
000002e0: 8a78 cfbe 70df debe f9b1 cebe f305 cabe
000002f0: c3ea d3be be38 e0be 306b ebbe 4aef dbbe
00000300: 8b8e debe c15e e0be a875 e1be 5b0a bcbe
00000310: a3ae e0be dc6d e8be 60f9 d0be 9f9a dabe
00000320: f1f7 d9be dff5 d3be f749 d5be dcd7 cdbe
00000330: 7481 c4be f0e9 e4be 1d84 b7be e061 c0be
00000340: 5aa4 b8be 40c1 bebe a9a6 cbbe 7881 ddbe
00000350: b55b c4be b07e cebe 18f0 e1be 546a bbbe
00000360: 9429 c1be f08f bebe 7e5a bfbe 0fe0 debe
00000370: cd41 ccbe fcea b8be c335 d7be ca81 c8be
00000380: 4810 b5be 6b20 c73e 1ede e33e 4faf f43e
00000390: 8e2d df3e 958a d73e 3a1e d43e 3fd4 d13e
000003a0: 831f f13e 8f1f eb3e a935 dabe 8e9a d1be
000003b0: f784 d4be 3242 d4be 0a68 d2be 10d9 d1be
000003c0: 0130 c6be 6f52 cdbe 0d6c d4be 5af1 ee3e
000003d0: 24fa c53e c467 df3e 3f18 c83e 7566 e03e
000003e0: c820 ef3e 2377 c93e 8324 ca3e 7582 ed3e
000003f0: bac6 dc3e deee dc3e 4d73 e63e 6870 ec3e
0.39731035 0.47009706 0.40808028 0.47048584 0.41901737 0.3842734 0.45253664 0.40448067
0.454688 -0.44026443 -0.38417965 -0.35262546 -0.3989203 -0.38753924 -0.43617457 -0.3902078
-0.43650433 -0.40051907 0.3786632 0.43113866 0.47938028 0.4478943 0.38685858 0.40642753
0.42016503 0.45892674 0.41796723 0.38155302 0.37704748 0.28690013 0.33261216 0.31616
0.28765693 0.35857415 0.27833718 0.30884072 0.41221476 0.4026367 0.4138818 0.4191691
0.41345394 0.4666217 0.39441797 0.45326892 0.44979018 -0.37883654 -0.38209298 -0.4288011
-0.43852633 -0.3787018 -0.36774296 -0.3848831 -0.4409841 -0.4525756 0.4264855 0.40065658
0.42860854 0.40151638 0.39033204 0.47158334 0.42290667 0.44570714 0.4637866 0.3804852
0.42919555 0.39628193 0.4322729 0.45447817 0.44523013 0.4265739 0.40061623 0.4500342
-0.34483 -0.34087703 -0.36929443 -0.38748658 -0.4374483 -0.3854372 -0.4274707 -0.3445221
-0.40399072 0.41522056 0.4326809 0.46286434 0.38002205 0.387195 0.46595114 0.42735624
0.4107894 0.4578563 0.38582152 0.42700055 0.39670846 0.40202066 0.42099863 0.4266337
0.43393728 0.43174386 0.3828469 0.37674084 0.44207484 0.3899806 0.38595447 0.438876
0.4704556 0.41777447 0.45396197 0.4490614 0.4090258 0.44518426 0.44965032 0.44616044
0.43642047 0.4635318 0.40231398 0.44923002 0.47574475 -0.40370253 -0.39689192 -0.411448
-0.38151142 -0.39374915 -0.43570855 -0.39510086 -0.43189374 -0.40882698 0.44965577 0.41980314
0.438596 0.42070812 0.45903426 0.43306455 0.43236583 0.44044504 0.44561675 0.40809414
0.42042306 0.41477662 0.41346988 0.4256902 0.4303955 0.41469786 0.4347048 0.44256318
-0.4143032 -0.42563555 -0.39358076 -0.43377224 -0.4059181 -0.4362251 -0.4015582 -0.4492601
-0.44101313 -0.39205295 -0.4403927 -0.4047523 -0.38413095 -0.38152552 -0.38236147 -0.35837284
-0.3954221 -0.35180518 0.420405 0.45206583 0.4212283 0.37567633 0.38310695 0.40026128
0.36647156 0.42486614 0.44324973 0.44412673 0.40070373 0.42904693 0.37141886 0.43058434
0.4545446 0.44026086 0.4521681 0.44173715 -0.40074804 -0.41228598 -0.45153117 -0.37837833
-0.40521652 -0.43529844 -0.40370157 -0.39457664 -0.41390046 -0.4379329 -0.45980215 -0.42956
-0.43468127 -0.43822291 -0.44035077 -0.3672665 -0.43883237 -0.45396316 -0.40815258 -0.42696092
-0.42571977 -0.41398522 -0.41657993 -0.4020375 -0.38380015 -0.4470973 -0.35842982 -0.37574673
-0.3606289 -0.37256813 -0.3977559 -0.4326284 -0.38351217 -0.4033103 -0.4412849 -0.3660456
-0.37727034 -0.3721919 -0.37373728 -0.43530318 -0.39893952 -0.3611678 -0.42033204 -0.3916152
-0.35363984 0.3889192 0.445054 0.4779 0.43589443 0.42097917 0.4142931 0.40982243
0.47094354 0.45922515 -0.42619064 -0.40938228 -0.41507694 -0.41456753 -0.41095 -0.40985918
-0.387085 -0.40101954 -0.41488686 0.46668512 0.38667405 0.43633854 0.39080998 0.4382817
0.46704698 0.39348707 0.3948098 0.46388593 0.43120366 0.4315099 0.45009843 0.4617951

conv_layers.4.0.conv.bias f4 [32]
00000000: 97a8 813e c669 a93e 96ea 943e c64e 9d3e
00000010: 244b 6cbe 4cf2 71be fe43 a83e caaf 923e
00000020: 3aec b13e 7514 82be 175a 8d3e 5ba7 82be
00000030: de5b 87be f8f0 a23e 0b40 893e 0f21 9d3e
00000040: e17c 54be 154d 993e e6a5 943e 61a1 9b3e
00000050: 5659 b63e fea1 43be 9ae1 a03e e79d ac3e
00000060: a8d8 8c3e 5052 a1be 4e65 75be 5b33 893e
00000070: 37c0 6abe bd56 9a3e 8b8f 7cbe ba54 a93e
0.25323936 0.3308851 0.29085225 0.30724162 -0.23075539 -0.23627585 0.32864374 0.2864974
0.3475054 -0.25406232 0.27607796 -0.25518307 -0.26437277 0.3182447 0.26806673 0.30689284
-0.20750763 0.2994162 0.2903282 0.3039656 0.35615033 -0.19104764 0.3142212 0.3371422
0.27509046 -0.31508112 -0.23964426 0.26796994 -0.22924887 0.301443 -0.24664132 0.33072454

conv_layers.5.0.conv.weight f4 [32, 32, 3, 3]
00000000: 3fed e23e de01 bb3e 7452 dd3e 8d64 ca3e
00000010: e8e2 b83e ad8a d83e a51b c93e ed57 e23e
00000020: f905 cf3e 5726 db3e 69a2 d93e 3330 d23e
00000030: 51d3 c63e 8d61 dc3e 9ee9 d23e 5678 c93e
00000040: cbb0 cf3e ea1a d53e 870f df3e 76bb e83e
00000050: 7c8e d73e 2330 dd3e 494b c63e 1aed cd3e
00000060: ba44 df3e 3264 e53e 1890 d93e 21ca cf3e
00000070: 61a6 e23e 3221 d03e 902b cb3e 4acb db3e
00000080: b3ee cc3e 8548 c93e 8ddd c13e b449 bf3e
00000090: 72e5 bfbe a834 d4be e84e e6be d7c8 d8be
000000a0: 78e6 d5be 8306 d2be 2a85 bdbe f96a d6be
000000b0: 42ef bbbe ed61 d8be cdaf dabe f8fc d4be
000000c0: 0626 bfbe c210 d9be 8b39 d1be 2562 bfbe
000000d0: 126e d3be 0739 d3be 811e d23e f0bb eb3e
000000e0: 5838 cf3e b0a8 cb3e 3241 e83e b205 e93e
000000f0: 7390 c63e d647 e33e 924d df3e 6024 e83e
00000100: 90d0 ce3e 1708 cb3e 06f2 cb3e ac8d c43e
00000110: 0953 c13e 9599 ba3e b1b7 de3e 0284 d43e
00000120: e2f5 ea3e 7525 d23e 77e6 c93e 074b c03e
00000130: a349 d53e ac00 e83e c384 c73e e9c5 cd3e
00000140: 07c9 d03e c4fd d9be 7366 dfbe 0b31 d8be
00000150: dcbd d7be 9f02 d6be 4bf7 cebe a922 c1be
00000160: 536e d4be b215 cdbe 71a4 d83e 5587 c93e
00000170: b51e c83e edb5 ce3e 7e3c cf3e 0ac8 d53e
00000180: acc8 c03e d447 d53e 4b0f d13e 5624 dabe
00000190: bb6e d4be 8a04 cebe 654b ccbe 10dd dabe
000001a0: ed88 cbbe b6bb c5be ba31 d4be 9ac2 cebe
000001b0: 6127 cdbe 4e98 d0be 0d81 e4be 2b23 cfbe
000001c0: eedb dbbe 2b76 e2be d7ce d5be c679 d0be
000001d0: b96f dbbe 4677 d23e c939 cd3e 2dc9 da3e
000001e0: 5a1b e13e b5ed cc3e b4ef c93e 41f1 e23e
000001f0: 1436 e43e f355 c43e 2445 d33e 8287 d53e
00000200: 942d dd3e 4f3e d43e 8173 c83e 07c6 d63e
00000210: 1750 c73e 0b83 c73e a350 cf3e af06 d93e
00000220: 81bb dd3e eb1e cd3e 461f d23e 6d30 d63e
00000230: cf03 d83e d3cc cf3e d6ec d13e 720e d83e
00000240: 016a e0be 1827 e2be bc66 debe 6459 bdbe
00000250: 49f4 babe 1925 b3be bd82 d8be 6f56 c2be
00000260: 4da7 e0be f2db d63e 8afb e03e ff3c d03e
00000270: eea6 c63e b26e d83e f51a d13e 93fb ca3e
00000280: e60e ca3e fe23 db3e 52b2 dd3e 02dd d33e
00000290: 6ddb e13e 256d cb3e b6f7 d63e 860c d53e
000002a0: b637 da3e d03a db3e fbc2 c73e b27a dd3e
000002b0: f0d0 da3e a80b d83e 3f18 dd3e 3bc9 de3e
000002c0: 7d0c d23e 17eb ce3e 7c7e da3e 4d90 d63e
000002d0: 4eb8 e63e f9c0 d03e 7648 ba3e a3cb de3e
000002e0: 9c77 bc3e 69da df3e cdd2 be3e 8b2a dd3e
000002f0: 9a9a dd3e 606f e7be d176 d6be 5202 bfbe
00000300: d7f4 c0be f8af babe 69a0 b6be af29 cfbe
00000310: e854 bcbe c9c8 d0be 1ed9 d93e 3447 d53e
00000320: 7507 e23e 15b7 d43e 88d7 cd3e cc6e e03e
00000330: afa6 cf3e 15a4 de3e 3618 db3e 0b1a d73e
00000340: 5956 e03e aa64 c83e 9836 c83e c396 dd3e
00000350: c12d d73e 2676 c53e e7e5 c53e 3dc1 c33e
00000360: 84d5 e83e fa4b d23e 96e0 ca3e 787e e63e
00000370: 9782 e43e 86ca de3e 4375 c13e 774c cb3e
00000380: 8162 d43e 9847 dabe f27f e2be 4fb4 debe
00000390: be26 dbbe 1eed c5be 4c43 cebe 138a dbbe
000003a0: 6ac6 dbbe 2e66 c7be a6f0 d8be 8c57 cfbe
000003b0: bc23 dbbe 2685 c5be 597e d3be 0a84 c5be
000003c0: 65c4 d3be db27 cbbe 3bee d6be f209 e03e
000003d0: f0d8 d53e 6f31 e03e 406d d13e aefd d33e
000003e0: df5d de3e c518 c23e d8b0 c03e 3ae8 c73e
000003f0: 16fb d5be da14 e1be 88a6 d7be a9bd d7be
0.4432163 0.36524862 0.4322697 0.3952984 0.36110616 0.422933 0.39278904 0.44207707
0.40434244 0.42802688 0.42506722 0.41052398 0.38833097 0.43043175 0.4119386 0.39349622
0.4056457 0.41622096 0.43566534 0.4545552 0.42100894 0.43200788 0.38729313 0.40219957
0.43607122 0.44803005 0.42492747 0.405839 0.44267562 0.40650326 0.39681673 0.42928535
0.40025863 0.3931314 0.37864342 0.3736092 -0.3747974 -0.41446424 -0.44982076 -0.4234073
-0.41777396 -0.41020593 -0.3701566 -0.4187849 -0.36705977 -0.4226221 -0.4271225 -0.4159925
-0.37333697 -0.42395598 -0.40864214 -0.37379566 -0.41294914 -0.41254446 0.41038898 0.46041822
0.40472674 0.39777136 0.4536224 0.45512158 0.3878208 0.44390744 0.4361387 0.45340252
0.40393496 0.3965461 0.39833087 0.38389337 0.37758663 0.364453 0.4349952 0.41506964
0.4589072 0.41044202 0.39433643 0.3755724 0.41657743 0.45313013 0.38968477 0.40190056
0.40778372 -0.4257642 -0.4363285 -0.42224917 -0.4213704 -0.41798875 -0.40423045 -0.37721756
-0.4149042 -0.40055615 0.4231296 0.39361063 0.39085928 0.40373173 0.4047584 0.4175418
0.376531 0.41656363 0.4083198 -0.42605847 -0.4149073 -0.40237838 -0.3990127 -0.42746782
-0.39752904 -0.38619775 -0.41444188 -0.40382844 -0.40069106 -0.407412 -0.44629708 -0.4045652
-0.4294123 -0.4423078 -0.4175937 -0.40717906 -0.42858675 0.41106623 0.4008315 0.4273161
0.4396618 0.40025106 0.3944069 0.44324687 0.44572508 0.38346824 0.41263688 0.41704947
0.43198836 0.41453788 0.39150622 0.41947958 0.3892829 0.38967165 0.40491208 0.42387912
0.43307117 0.4006265 0.41039485 0.4183382 0.42190406 0.40585956 0.41001004 0.4219852
-0.43830875 -0.4417045 -0.43437755 -0.36982262 -0.365145 -0.3498924 -0.42287245 -0.3795657
-0.4387764 0.4196468 0.4394191 0.40671536 0.38799232 0.42271954 0.4084088 0.3964506
0.39464492 0.42800897 0.4330011 0.41379553 0.4411272 0.39731708 0.41985863 0.41611117
0.4262063 0.42818308 0.39015946 0.43257672 0.42737532 0.42196393 0.4318256 0.43512902
0.41025153 0.40413734 0.42674625 0.41906968 0.45062488 0.40772226 0.36383408 0.43514737
0.36810005 0.4372132 0.37270203 0.4319652 0.43282014 -0.4520216 -0.41887525 -0.37306458
-0.37686798 -0.36462379 -0.35669258 -0.4046149 -0.36783528 -0.40778187 0.4254846 0.41655886
0.44146314 0.4154593 0.402035 0.4383453 0.40556857 0.4348456 0.4279191 0.42012057
0.43815878 0.391393 0.39104152 0.43279085 0.42027095 0.38566703 0.38651964 0.38233367
0.454754 0.4107359 0.3962447 0.45018363 0.44630882 0.43513888 0.37784776 0.39706776
0.41481403 -0.42632747 -0.4423824 -0.4349694 -0.42802995 -0.3865747 -0.40285718 -0.4287878
-0.42924815 -0.38945144 -0.423711 -0.4049648 -0.428007 -0.38578147 -0.41307333 -0.385773
-0.41360775 -0.39678845 -0.4197863 0.43757588 0.41767073 0.43787715 0.40903664 0.4140448
0.43430993 0.37909523 0.3763492 0.39044362 -0.41793126 -0.4396122 -0.4211924 -0.42136887

conv_layers.5.0.conv.bias f4 [32]
00000000: eb8b 893e 9b5a 55be 4f05 743e 83e7 43be
00000010: 4a76 9b3e 1cd2 9f3e 03ee 8f3e c431 983e
00000020: 8cce 8d3e ee4c b13e 7500 973e a8cb 993e
00000030: e2d0 ab3e 325e 65be c473 983e 5972 933e
00000040: 7b94 973e a1e6 a93e f4dd 83be ab59 883e
00000050: c353 973e 761b 853e e26e 983e 0f1e 8e3e
00000060: 9949 913e 4c3c a43e cd3d 873e 4931 6bbe
00000070: 332f 8c3e bae3 4abe 1adb 5bbe 3fbf b03e
0.2686456 -0.20835344 0.2383015 -0.19131283 0.30363685 0.31214988 0.28111276 0.29725468
0.27696645 0.34629005 0.29492536 0.3003819 0.33557802 -0.22399214 0.29775822 0.28798178
0.2960547 0.33183768 -0.25755274 0.2663091 0.29556093 0.25997514 0.29772097 0.27757308
0.28376463 0.32077253 0.26414338 -0.2296802 0.2737976 -0.19813433 -0.214703 0.3452091

conv_layers.7.0.conv.weight f4 [16, 32, 3, 3]
00000000: 7adc c23e 3f76 cc3e 2621 da3e 71bf d83e
00000010: 7cf0 bb3e 6228 c13e e7b8 363e eed4 1b3e
00000020: 6483 903e 14db cabe 2520 c8be 09e5 ebbe
00000030: 3902 a9be 02f6 e3be ae8f debe 366a e5bd
00000040: 6d96 56be 70e2 4abe b2de c03e 13dd c73e
00000050: e25f bf3e 2539 be3e 31db e53e 656c e83e
00000060: 823e 673e 0fcc 7a3e b3d1 813e 4821 c2be
00000070: c805 bbbe 00a2 cdbe 7c4c b1be 1f39 b6be
00000080: 65f0 ecbe ea8e 0dbe 2c51 75be 46c7 2abe
00000090: 5d29 db3e 9685 e33e fbc8 cc3e ac13 d73e
000000a0: 859d e33e 6ded b93e bf8a 093e 4681 3d3e
000000b0: fa60 6d3e 53fb c83e f61c d43e 6e76 f33e
000000c0: b3ff d53e 2277 b83e 959d ce3e 6404 073e
000000d0: 4893 2e3e 2b84 5c3e 80a4 c23e 87b4 e33e
000000e0: 7616 cc3e 5715 bc3e 8726 e13e ab3f eb3e
000000f0: 03e1 023e 8df9 463e c590 3c3e 0c4a b73e
00000100: d734 cb3e 4b61 e83e 8b07 b83e 90b4 bb3e
00000110: 5b6a d33e a65b f03d 0c6f 633e b568 603e
00000120: ab05 b73e 2582 d93e 1c8f e73e da5e e53e
00000130: 007b c73e 8bdf c93e 7b9e 563e 2ed1 7e3e
00000140: b4e2 7c3e b991 b73e e48f e43e ad37 eb3e
00000150: 1de6 d13e e12e dc3e 0b4b e13e fe55 323e
00000160: 42f5 823e c302 7d3e 9cd1 cc3e b668 be3e
00000170: 66d1 cf3e 80d0 b33e b169 e13e 0c7f c23e
00000180: 3e7a 083e e4c9 453e 0657 6b3e 1fc7 e23e
00000190: 03ed ec3e 6330 d13e 77ab a93e 392f e63e
000001a0: 5a4c da3e 9b08 1c3e 82bc 513e 4329 6f3e
000001b0: c20b cd3e e827 d73e 9160 e13e d98d ad3e
000001c0: bad1 b13e 3a37 cd3e 3167 403e 1857 223e
000001d0: 5691 693e adf7 c5be 85da c6be 93a5 f4be
000001e0: 1b69 acbe 9b4a bbbe 054b d1be cd27 17be
000001f0: 9d15 69be 75ab 28be f7d0 d33e 673b d33e
00000200: 9796 fb3e 4c3c e13e a44f d83e 2abe ef3e
00000210: 7287 033e 746c 3d3e 0618 7a3e bae4 d63e
00000220: 1b50 de3e 76aa ef3e 7e55 ad3e bd18 be3e
00000230: 9bcb be3e 9d4b fe3d 7eb2 3e3e 429d 633e
00000240: 394d d73e dac1 d03e 7436 b53e 4f0b c43e
00000250: 3c84 a93e 1ec4 d53e 28b8 063e 0b9f 2d3e
00000260: 0533 4e3e af42 e23e 52af bf3e 6c58 d13e
00000270: bb38 cc3e 5bea bf3e 464c d33e 8ecd 433e
00000280: 69af 253e 6fed 743e e3ee dcbe 9a98 afbe
00000290: 12bb d7be 9399 abbe 7719 cfbe 0fbf d6be
000002a0: a8ba 10be fd6f 32be 9703 33be bb5c b23e
000002b0: f343 bb3e af25 e43e 0d44 ac3e 1273 e13e
000002c0: c628 c43e 704b f43d 7019 5a3e 68b8 183e
000002d0: d7b7 d73e bc23 c73e 4dc6 d63e 2943 ca3e
000002e0: c828 d53e 4c6a da3e a3a6 1a3e 8b88 2b3e
000002f0: 8fbf 5c3e ea3d c33e dd3e e23e 52bb dc3e
00000300: a6bd ce3e f074 ad3e da0f e73e 7bfe cc3d
00000310: a475 2f3e 196a 673e a31c cc3e 9c0e c53e
00000320: 8da6 df3e 635d a93e 7d4b c63e 9fbe c63e
00000330: a35b 513e ae2b 1c3e 59eb 773e 74e5 ea3e
00000340: 61d1 f03e 96bf d73e bd4c b43e 78fe e53e
00000350: e9ca ee3e d451 233e 1555 3f3e f68b 703e
00000360: 8b49 b83e 2a6c e13e 6b52 d33e 541c b33e
00000370: 8166 dd3e 9692 c93e b9d2 4b3e 9180 193e
00000380: 52a8 693e ff60 ca3e 281a cc3e 1285 e03e
00000390: b3b1 d33e db59 d63e 5d3e e03e 7802 103e
000003a0: a42f 673e 0a6b 393e 2237 bd3e d8ac bf3e
000003b0: 0edc cd3e 3867 d23e 90cc ce3e 894d cb3e
000003c0: dabe f83d 0000 2e3e c933 333e 27c0 b9be
000003d0: 7998 c4be 74b7 f2be 3cc0 c5be a28a b8be
000003e0: 865f ddbe 73ca 35be 835c 17be b0fa 6fbe
000003f0: 7d14 bf3e b6ab ab3e bd64 dc3e 175f df3e
0.38058835 0.39933965 0.42603415 0.42333558 0.36706913 0.37726122 0.17843972 0.15217945
0.28225243 -0.39620268 -0.39087024 -0.46073177 -0.33009508 -0.44523627 -0.43468994 -0.11201899
-0.2095582 -0.19812942 0.37669903 0.39035854 0.3737784 0.37152973 0.44893792 0.45395198
0.22582439 0.24491905 0.253553 -0.37916017 -0.36527848 -0.4016266 -0.34628665 -0.35590455
-0.46277156 -0.13824049 -0.23956746 -0.1667758 0.42804995 0.44437855 0.39997086 0.42007196
0.44456115 0.36313954 0.13431834 0.18506345 0.23181525 0.39254245 0.41428345 0.47551292
0.41796646 0.3602839 0.403546 0.13185269 0.17048371 0.21534793 0.3801613 0.4447367
0.39860886 0.3673503 0.43974707 0.45947012 0.12781148 0.19431134 0.184146 0.3579868
0.3968875 0.4538673 0.35943255 0.36661196 0.4129208 0.117362306 0.2221033 0.21914943
0.35746512 0.42482105 0.4522637 0.44798928 0.3896103 0.39428362 0.20958893 0.24884483
0.24695855 0.35853365 0.4464103 0.45940915 0.40995875 0.43004516 0.44002566 0.17415616
0.25577742 0.24708085 0.4000367 0.37189263 0.40589446 0.3512001 0.4402595 0.37987554
0.13327882 0.19315296 0.22982416 0.44292542 0.46274576 0.4085723 0.3313863 0.44957903
0.42636377 0.15237658 0.20482066 0.23355584 0.40048033 0.42022634 0.44018987 0.33897284
0.3473032 0.40081197 0.18789364 0.15853536 0.22809348 -0.38665524 -0.38838592 -0.47782573
-0.3367394 -0.36580357 -0.40877548 -0.14761277 -0.22762151 -0.16471656 0.41370365 0.41256258
0.49138328 0.43991315 0.4224826 0.4682477 0.12844637 0.18498403 0.24423227 0.4197138
0.4342049 0.4680974 0.33854288 0.3712825 0.37264714 0.12416766 0.18622777 0.22227958
0.42051104 0.40772897 0.35393107 0.38289878 0.331087 0.41751188 0.13156188 0.16955201
0.2013665 0.441915 0.37438446 0.40887773 0.39887032 0.37483487 0.4126913 0.19121382
0.16180195 0.23918699 -0.43151006 -0.34296113 -0.4213491 -0.33515605 -0.40449116 -0.4194264
-0.14133704 -0.17425533 -0.17481838 0.34836373 0.3657528 0.4456 0.3364567 0.44033104
0.38312358 0.11928451 0.21298766 0.14914095 0.42132446 0.3889445 0.41948166 0.39504364
0.41632676 0.42659223 0.1510263 0.16751306 0.21557449 0.38133174 0.44188586 0.43111664
0.40379065 0.3387828 0.4512928 0.10009476 0.1713472 0.22599067 0.39865598 0.3848771
0.43681756 0.3307906 0.38729468 0.38817307 0.20445113 0.15251037 0.24210872 0.45878184
0.47034743 0.42138356 0.35214797 0.44920707 0.46639183 0.15949184 0.186848 0.23490891
0.3599361 0.44027835 0.41273817 0.3498255 0.43242267 0.3936965 0.19904603 0.1499045
0.22818115 0.39527127 0.39863706 0.43851525 0.4134651 0.4186543 0.4379758 0.14063442
0.22576767 0.18107238 0.36956125 0.37436557 0.4020695 0.41094375 0.40390444 0.39707592
0.12145777 0.16992188 0.17500223 -0.36279413 -0.38397577 -0.4740559 -0.38623226 -0.36043268
-0.4323694 -0.1775301 -0.14781384 -0.23435473 0.3732032 0.33529443 0.43045607 0.43627235

conv_layers.7.0.conv.bias f4 [16]
00000000: cd7a 973e 650a 903e 3359 41be aa4b 9b3e
00000010: 44e1 a53e 94b3 6d3e 0eb6 78be d3bd 65be
00000020: f20b 6a3e 8fce 38be 20a5 4f3e 5699 34be
00000030: 7f73 9dbe deda 8c3e 39f4 1fbe 6314 8c3e
0.29585877 0.2813293 -0.18881683 0.30331165 0.32398427 0.23213035 -0.24288198 -0.22435693
0.2285612 -0.18047546 0.20277834 -0.17636618 -0.3075218 0.27510732 -0.15620507 0.27359304

linear_layers.0.weight f4 [64, 400]
00000000: 5d3e 213e a331 4f3e 19f9 023e fae0 253e
00000010: c2c2 6f3e 21bf 5a3e e629 163e edee 223e
00000020: 5a09 753e d588 643e b071 8c3e 41e1 473e
00000030: d0b8 843e 5963 933e 0d82 503e 34f7 a53e
00000040: 7892 9e3e f521 ac3e fe00 b43e 90dd ac3e
00000050: 12ea b03e 2c9d b33e 4142 b13e 4757 aa3e
00000060: 4c96 c53e 1c5f 523e 29df 2b3e 90fa 103e
00000070: 4407 4e3e 460e 163e 6009 483e 95d9 173e
00000080: f09f 513e f2c1 613e 065f 2c3e 7ce4 8a3e
00000090: 6bb7 6c3e 7e02 8e3e 1a3d 8d3e d70c 823e
000000a0: be10 a03e 5962 b73e a8e1 a13e e129 a93e
000000b0: 24aa a63e eb4e b53e 78f0 af3e c47c 9f3e
000000c0: 3bdf b53e 36d8 ae3e 5b30 0cbe ae4c 10be
000000d0: 11b0 32be ca1f 14be d0f4 35be 1a87 16be
000000e0: 29b1 47be 0727 37be 591c 3fbe bc74 39be
000000f0: 628d 7fbe a79f 67be ffed 90be e469 86be
00000100: a13e 6abe 4a0b a6be 1e07 a4be cecd 92be
00000110: e430 aebe 2343 afbe 4fd0 9abe fd93 a3be
00000120: f348 9cbe 1d9d c1be 4172 bebe 4b82 2f3e
00000130: 2ebd 2d3e cd8a 3e3e ed40 743e 9655 043e
00000140: 94de 463e 3d37 0c3e 804b 1e3e b79d 703e
00000150: 2374 083e 5126 983e 8f1c 8e3e 1127 803e
00000160: f382 9c3e 70e5 8d3e f3ab a23e c111 ae3e
00000170: 7502 b13e 23e7 be3e 99cd a13e 4a67 b63e
00000180: cf4e a03e 405b b13e 3823 a53e 89be a83e
00000190: d700 483e 1f49 373e 38fd 313e 1cff 653e
000001a0: a896 623e 27bc 343e 6572 7d3e c400 643e
000001b0: 8e77 863e 606c a03e c399 a83e 4f44 af3e
000001c0: 2156 a83e 4f15 b33e 441a ba3e 6599 a83e
000001d0: 84bd b93e 0b42 b43e fb55 993e 068c db3e
000001e0: 0636 9b3e 4afd b73e c854 cf3e 416a 8b3e
000001f0: 703b bc3e 912b 413e 1d87 503e 7c90 1a3e
00000200: 69f0 563e 5d54 fe3d 249f 753e 23ef 1f3e
00000210: a718 173e d95f 153e a62f 303e 0aa1 7d3e
00000220: 8e4e 643e b0be 423e d2d0 483e cebf 4e3e
00000230: 9e9b 963e df08 803e a507 a73e e0ba 9f3e
00000240: b905 9f3e 7b4b b23e b755 923e ea10 b83e
00000250: 65da b13e 31ba af3e 7685 4dbe 6d68 4ebe
00000260: bbd3 27be 26fa 4bbe 3640 30be cfd1 5fbe
00000270: 65d1 52be 5281 20be 1da0 70be 088d 39be
00000280: 3174 83be de44 6abe d37b 86be 1088 a2be
00000290: 42a2 7bbe 7dee 9dbe 9278 a0be 6d5b 88be
000002a0: bdd1 b3be 6681 93be bfa2 a7be 25fb b6be
000002b0: 5d99 a4be 5fa6 bdbe b960 acbe 892d 37be
000002c0: 231a 1cbe 9f93 40be e720 56be 65dc 23be
000002d0: 1e75 60be 6846 32be 5be6 37be 6000 64be
000002e0: 35dd 65be c621 84be bccd 89be 6ced 85be
000002f0: 1c94 83be 6047 88be 4aed 93be ba05 a6be
00000300: cc1e b0be d7f8 a4be 3592 a6be 90e4 b0be
00000310: f565 acbe 7d34 9dbe 3ed4 b9be 9d3e afbe
00000320: d05c 123e 3c36 283e b214 1b3e 685b 293e
00000330: 3f49 5e3e 5e7c 1f3e 2491 193e 481d 063e
00000340: 2638 103e f3cf 733e 7396 483e efc4 563e
00000350: 048d 663e 5a65 733e 3942 573e bde3 9d3e
00000360: d7e7 a33e 2dcf a23e af21 ae3e 7219 a33e
00000370: 6385 bb3e ace6 ae3e 6440 b63e 85b8 bd3e
00000380: a9f3 b83e c618 55be 7cda 26be 1578 27be
00000390: 189f 30be 4a6f 3fbe d73b 29be 2cb6 23be
000003a0: c675 3fbe 7118 2ebe 3c39 2fbe dbc9 3ebe
000003b0: a884 28be b793 49be 6edb 3dbe 187b 5cbe
000003c0: 484a 9fbe 245f a3be e497 9dbe b9b0 9fbe
000003d0: ba3a aabe f144 bfbe f7e2 aabe 651b b6be
000003e0: c094 a3be 8315 c4be 2e9a 2f3e 4524 2c3e
000003f0: 14d5 473e d0fe 1a3e 82e6 2c3e de8f 293e
0.15746446 0.20233779 0.12790336 0.16199103 0.23414138 0.21361972 0.1466442 0.15911455
0.23929349 0.22317822 0.27430487 0.19519521 0.2592225 0.28786734 0.2036211 0.32415164
0.30971122 0.33619657 0.35157007 0.3376279 0.3455358 0.3508085 0.3462086 0.33269712
0.3859123 0.20544094 0.16784348 0.14158082 0.20119959 0.14653882 0.19534826 0.14829095
0.20471168 0.2204664 0.16833124 0.27127445 0.23116843 0.27736276 0.2758568 0.2540042
0.31262773 0.3581722 0.31617475 0.33039764 0.32551682 0.35411772 0.3436315 0.31149876
0.35521874 0.3414933 -0.13690321 -0.14091751 -0.17449977 -0.14465252 -0.1776917 -0.14699975
-0.19501175 -0.17885982 -0.18663158 -0.18110937 -0.24956277 -0.22619496 -0.28306577 -0.26252663
-0.22875454 -0.32430488 -0.3203668 -0.28672642 -0.34021676 -0.3423091 -0.30237052 -0.31948844
-0.30524406 -0.3781518 -0.37196544 0.17139547 0.16966698 0.18607636 0.23852892 0.12923273
0.19420844 0.13692947 0.15458488 0.23497663 0.13325553 0.29716733 0.27756163 0.25029805
0.30568656 0.2771411 0.31771812 0.3399792 0.34572187 0.37285718 0.3160217 0.35625678
0.31310126 0.3463993 0.32253432 0.32957867 0.1953157 0.17898987 0.17381752 0.22460598
0.22127783 0.176499 0.2475067 0.22265917 0.26263088 0.31332684 0.3292981 0.34231803
0.3287821 0.34977195 0.36348164 0.3292953 0.362774 0.35206637 0.2994841 0.42880267
0.30314654 0.35935432 0.4049437 0.27229503 0.36764097 0.18864276 0.20364042 0.15094179
0.20990147 0.12418435 0.23986489 0.15618567 0.14755498 0.14587344 0.17205676 0.24768463
0.22295591 0.19018054 0.19610909 0.20190355 0.29415601 0.25006768 0.3262302 0.31197262
0.31059054 0.34823212 0.2858102 0.35950404 0.34736934 0.3432174 -0.20070443 -0.20157023
-0.16389363 -0.19919643 -0.17211995 -0.2185738 -0.2058769 -0.15674332 -0.23498578 -0.18120205
-0.25674585 -0.22877833 -0.26266345 -0.31744432 -0.24573615 -0.30846015 -0.31341988 -0.26632252
-0.35120955 -0.2880966 -0.32741353 -0.35738483 -0.32148257 -0.37040994 -0.33667544 -0.17888464
-0.15244345 -0.18806313 -0.20910989 -0.16002043 -0.21919677 -0.1740967 -0.17958967 -0.22265768
-0.22447665 -0.25807017 -0.26914775 -0.261577 -0.25698936 -0.26616955 -0.28891975 -0.32426244
-0.34398496 -0.322211 -0.32533422 -0.3454938 -0.33671537 -0.30704108 -0.3629474 -0.34227458
0.14293218 0.16426939 0.15144613 0.16538775 0.21707629 0.15574786 0.14996773 0.13097107
0.14083919 0.23809795 0.19588642 0.20973562 0.2251473 0.23769131 0.21021356 0.30837813
0.32012817 0.31798688 0.34010074 0.3185535 0.36625203 0.34160364 0.35596 0.3705484
0.36123398 -0.20810232 -0.16294283 -0.16354401 -0.1724819 -0.18694797 -0.16526733 -0.15987462
-0.18697271 -0.17001511 -0.17111677 -0.18631689 -0.16456854 -0.19685255 -0.18540737 -0.21531332
-0.3111136 -0.31908524 -0.30779946 -0.31189516 -0.3324793 -0.37357286 -0.33376285 -0.35567775
-0.31949425 -0.38297662 0.17148659 0.1681071 0.19514877 0.15136266 0.16884807 0.16558787

linear_layers.0.bias f4 [64]
00000000: 69fc 843e 0930 823e 3a05 8c3e fd4a 503e
00000010: 6659 cfbd 0d57 45be c946 6e3e 36c1 1ebe
00000020: d15c 6f3e bc99 31be 9913 503e 161c d6bd
00000030: 4f71 543e b9a5 8a3e de74 833e 1551 e8bd
00000040: 184e 8d3e fc8b 733e a13a 98bd 05bd 173e
00000050: c804 7e3e ca0b b4bd 08dc 17be f9c2 07be
00000060: 76c4 263e f366 5d3e 374d 403e 6ba9 34be
00000070: b389 903e 2b1a 693e a2fb 1d3e 1a7e dfbd
00000080: 15c6 793e 5351 babd 4438 853e 27e9 683e
00000090: acdb 7c3e 71fb 503e cbee 22be 0d20 843e
000000a0: 5bae 19be 007d f6bd 8652 2ebe f699 8c3e
000000b0: 2308 843e 8b54 1cbe d05e 33be fba1 283e
000000c0: e13d 24be 4444 603e 48b1 583e ac7f 763e
000000d0: c003 e0bd 52e1 03be 0e14 09be e1a7 403e
000000e0: 1284 e9bd 4c30 5b3e bfc3 17be fff2 643e
000000f0: 252c 483e d1c5 e7bd 6682 39be d965 733e
0.25973824 0.25427273 0.27347738 0.20341106 -0.10124473 -0.19271488 0.2326919 -0.15503392
0.2337525 -0.17343801 0.20319976 -0.10454576 0.20746349 0.2707956 0.256751 -0.1134359
0.27598643 0.23783869 -0.074330576 0.14818199 0.24806511 -0.08791311 -0.14830029 -0.1325797
0.16285881 0.21621303 0.18779455 -0.17642753 0.28230056 0.22763889 0.15428022 -0.10912724
0.24391969 -0.090975426 0.2601949 0.2274519 0.24693173 0.20408417 -0.15911405 0.25805703
-0.15007918 -0.120355606 -0.17023668 0.27461213 0.25787458 -0.15266626 -0.17516637 0.1646804
-0.1603923 0.21901041 0.21161377 0.2407214 -0.10938215 -0.12878922 -0.13386557 0.1881404
-0.114021435 0.21405143 -0.14820765 0.2235832 0.1954809 -0.11317027 -0.1811615 0.2376932

linear_layers.3.weight f4 [4, 64]
00000000: ee0f ba3e e5ba aa3e 6dc0 c43e f574 d73e
00000010: 0888 02bf fda3 d3be c862 043f 5add dabe
00000020: 47c2 cc3e da3d 04bf be52 033f f6a6 03bf
00000030: fa21 f33e 592a e43e e2bb 903e 6d2f dbbe
00000040: e507 c33e f1c7 f33e e295 fcbe 6549 793e
00000050: 9dfd f33e 44cb e4be e2c1 f7be 7bc0 d2be
00000060: 14b1 b33e b2a5 a03e 7b5a bf3e c040 e5be
00000070: 46e3 e03e 036c b93e b914 fd3e 3354 e7be
00000080: c1f5 ad3e b0c7 fcbe 2a14 f73e c326 cd3e
00000090: 1003 ef3e a5cf da3e 9cfd f9be d94e e03e
000000a0: 34f6 e5be 991a aabe d1db eebe d7f3 003f
000000b0: f653 e13e 19d2 dcbe 4ac6 d0be 7ebb b03e
000000c0: 3d2d 06bf 8f57 ce3e dc52 dc3e 608a b33e
000000d0: e005 c3be 0cf6 fbbe 6513 bcbe b07b f23e
000000e0: a3a8 00bf 7b64 023f 6e1d afbe b815 e63e
000000f0: f539 e23e 2ebb b0be 6ad1 ccbe 7614 083f
00000100: ee3d b8bd 4c53 2bbe 2150 68be 9f54 44be
00000110: 7442 073e 6c04 e63c 2798 8dbd 8167 e53b
00000120: 37b6 2abe 4477 c8bd 6b08 163d 28e7 7bba
00000130: 749e 8e3d 27b5 34be dd51 0abe 65b8 523d
00000140: c407 a2bc 94e9 89bd 5dcd f93d 710c db3d
00000150: 6473 60be 2d05 e53a 81fd 053e 0121 59bd
00000160: cc47 2fbe 9f7d 3bbc 4729 10be 103b babd
00000170: 9518 abbd ddd3 83be 5a57 a03d 4591 8ebd
00000180: 67ab 63bd fdfd ae3d 6c25 e2bc d1fd 493d
00000190: 1f3e 55be 3d9e 52be 14bd a93d ad53 48be
000001a0: a796 10bd 5253 0e3d 9302 3a3e fe16 71bc
000001b0: 7fd5 0ebe 2a09 b6bc 8099 a73d d319 ae3d
000001c0: e744 9a3d 0174 66be 2ddd cabb d222 29be
000001d0: 15a9 023d 48c0 793c 1749 363e 275b 7dbe
000001e0: 3a5d 9bbd e688 aebd d4a2 4bbd 0587 213d
000001f0: 95cb 04be 9b5b a4bd 3bea b6bd 8cb4 083c
00000200: 55a9 d53e d11b 073f dc51 fd3e 2922 d83e
00000210: cc46 e0be 6d94 d4be 8a31 fb3e 6956 06bf
00000220: 18be aa3e 8bf3 b5be d71b da3e 5054 e7be
00000230: 18bb 943e e7cc c73e a0ba fa3e 5c25 04bf
00000240: 3a05 e33e 962b c13e 9af9 09bf 7c43 c33e
00000250: dea7 b33e 0ffa f3be bf73 01bf 014b e1be
00000260: 86aa dc3e 453c dd3e d0f3 f83e ed7f f1be
00000270: e2bd ed3e b46f e63e 91c2 9d3e 6687 f0be
00000280: 2b12 f03e 691e edbe 6525 d23e f1e4 ee3e
00000290: 67eb c13e a984 063f 5e27 edbe 058d 973e
000002a0: 433e 02bf aef9 0abf d6cc b7be 6cb7 d23e
000002b0: 4ef9 fa3e 593d d4be e460 e0be 6c7c d13e
000002c0: d638 cebe de4a c03e 1305 0b3f a8e1 003f
000002d0: ea6f 08bf f135 02bf b843 f3be e384 983e
000002e0: 0943 dabe aeeb a93e fcb6 ffbe 3872 073f
000002f0: 0a26 ba3e 6100 96be 3a43 d9be 2be4 fc3e
00000300: 54e7 693d 4317 8e3d fb41 73bd dbe6 46be
00000310: e239 5ebd 1f8b ba3c 8c22 b5bc 7fca 89b9
00000320: e2f0 e7bd 5699 4cbd 96c8 a6bd 7dbe a03d
00000330: 4f12 af3d 3874 1f3c 8b9d cb3d 57de dbbd
00000340: 3407 c43d d813 cf3d 51c2 fc3d 5acc 0e3e
00000350: 742c e43d 6cb2 1ebd 270a 283d d210 dfbc
00000360: 273b 23be 0529 ce3d 1ef0 11be ed34 c8bd
00000370: e3ff 83bd 4b29 7ebd ffa8 633b 04ad 0fbe
00000380: 82bb 833d 041f 13bd 4c88 f33c aae7 223d
00000390: 4998 27be 0565 f2bd 77ea 29be f789 4ebd
000003a0: cc8d 0bbe 9a00 0bbb 84ea 59bd d9e5 a13d
000003b0: ae3d f6bd 05a8 52be 0f70 623d b3ff d3bc
000003c0: 9440 80bd 9c0d ffbc eba7 523d 72e1 d639
000003d0: d48a ba3d 85b5 dfbd 9120 bf3d 4097 47bd
000003e0: 3de0 b0bd 31ea aebd 02f8 cabd 6014 723d
000003f0: c3ce fcbd e10c 2fbe f200 eebd 50e5 de3d
0.36340278 0.33345714 0.3842806 0.4208142 -0.5098882 -0.4133605 0.5171323 -0.42747003
0.39991972 -0.5165688 0.5129813 -0.5142664 0.4748686 0.4456356 0.28268343 -0.4280962
0.3809196 0.4761348 -0.49333102 0.24344404 0.4765443 -0.4468633 -0.48390108 -0.41162476
0.35096037 0.31376415 0.3737372 -0.44775963 0.43923396 0.3621522 0.49429873 -0.45181426
0.33976558 -0.493711 0.4825757 0.40068635 0.46682024 0.42736545 -0.488263 0.43810156
-0.449144 -0.33223417 -0.46652082 0.5037207 0.4400937 -0.43129042 -0.40776283 0.34518045
-0.5241278 0.40301177 0.43031967 0.3506651 -0.3809042 -0.49211156 -0.36733547 0.4735999
-0.5025732 0.5093457 -0.3420214 0.44938445 0.44184843 -0.34517807 -0.4000352 0.5315622
-0.08996187 -0.16730994 -0.22686817 -0.19172905 0.13208944 0.02807828 -0.069137864 0.007000864
-0.16671072 -0.09788373 0.03662912 -0.0009609335 0.06963816 -0.17647229 -0.13507791 0.051445384
-0.019779094 -0.067340046 0.12197373 0.106957324 -0.21919018 0.0017472856 0.13084985 -0.05300999
-0.17117232 -0.011443525 -0.14078246 -0.090932965 -0.08354298 -0.25747576 0.07829161 -0.06961302
-0.055583384 0.08544538 -0.027605735 0.049314324 -0.20824479 -0.20568176 0.08288017 -0.1956317
-0.035299923 0.03474743 0.18165044 -0.014714954 -0.1394863 -0.022221167 0.08183575 0.08501019
0.07532673 -0.2250519 -0.006190917 -0.16517189 0.03189953 0.015243597 0.17801319 -0.24741803
-0.07586141 -0.08522205 -0.049715832 0.039435405 -0.12968285 -0.08025285 -0.08931395 0.008343827
0.41730753 0.5277682 0.49476516 0.42213562 -0.43804014 -0.4151949 0.49061233 -0.524756
0.33348155 -0.3553737 0.42599365 -0.45181513 0.2904899 0.39023516 0.4897051 -0.51619506
0.44339925 0.37728566 -0.53896487 0.38137424 0.3508901 -0.47651717 -0.5056724 -0.44002536
0.4309885 0.43210045 0.48623514 -0.47167912 0.46433932 0.45007098 0.30812505 -0.469783
0.4688886 -0.46312264 0.41044155 0.46659043 0.3787491 0.52546173 -0.46319097 0.29599777
-0.50876254 -0.5428723 -0.35898465 0.41155565 0.4901833 -0.41453055 -0.43823922 0.4091524
-0.40277737 0.3755712 0.5430462 0.50344324 -0.5329577 -0.5086356 -0.47512603 0.29788885
-0.4262927 0.33187622 -0.49944293 0.5290866 0.36357147 -0.29297164 -0.42434102 0.49392828
0.057105377 0.069380306 -0.059389096 -0.19424002 -0.05425442 0.022771416 -0.0221112 -0.00026281548
-0.113252416 -0.04995092 -0.081437275 0.07848833 0.08548414 0.009732299 0.09942158 -0.10735767
0.095716864 0.10111207 0.123417504 0.13945141 0.11141291 -0.038744375 0.041025307 -0.0272297
-0.15940534 0.100664176 -0.14251754 -0.0977572 -0.06445291 -0.0620511 0.003473818 -0.14030844
0.06432249 -0.03591825 0.029728077 0.039771713 -0.16366686 -0.11835674 -0.16593347 -0.050424542
-0.1362831 -0.0021210075 -0.053202167 0.07905168 -0.12023483 -0.20571907 0.05528265 -0.025878763
-0.06262317 -0.03113442 0.05142967 0.0004098523 0.091085106 -0.10923294 0.093323834 -0.048728228
-0.0863652 -0.08540762 -0.09910585 0.059101462 -0.12344124 -0.17094757 -0.11621274 0.10883582

linear_layers.3.bias f4 [4]
00000000: 51de 633e 0d03 20bc fed1 813e 040e 74bd
0.22252776 -0.009766352 0.25355524 -0.05958368
