models/model_1726156589278/model.pth (torch, 227178 bytes, 14 tensors)

conv_layers.0.0.conv.weight f4 [16, 10, 3, 3]
000000 6a 8a 78 3e 1b d7 90 3e cc e3 90 3e 5b 3f 84 3e
       0.24271551 0.28289112 0.28298795 0.25829586
000010 28 24 83 3e 2a 20 91 3e a7 7e 8e 3e ab 77 8b 3e
       0.25613523 0.28344852 0.27831003 0.27239737
000020 f9 ca 8d 3e 87 b2 a8 3c f9 cb 60 bb b9 35 fa 3b
       0.27693918 0.020592941 -0.0034301265 0.007635799
000030 e3 54 f3 3b d3 a9 a6 3c 28 f7 88 3c 72 1e 9b 3c
       0.007425891 0.02034465 0.016719416 0.018935416
000040 cb eb a2 3c 22 57 69 3b 09 01 0b 3b 4b 30 85 3c
       0.019887825 0.0035604914 0.0021210334 0.01625838
000050 16 96 81 3c 01 97 ef 3b 9f 4f 1d 3c 7e a6 d7 3b
       0.015818637 0.0073117022 0.009601503 0.0065811267
000060 9e 02 20 3b e0 79 e4 3b 44 49 cd 3c 80 c5 43 ba
       0.0024415622 0.0069725364 0.02505935 -0.00074680895
000070 1a a6 13 bd b9 ce 03 bc f0 c7 8c bc d2 83 47 39
       -0.03604708 -0.008044892 -0.017185181 0.00019027226
000080 39 84 76 b9 36 db b9 3b 05 b9 84 3b 98 3f 31 bb
       -0.00023509645 0.005671884 0.0040503764 -0.0027045961
000090 04 b0 f5 3a 6e 26 9e 3b af 3a 72 3a 4e 34 1b 3c
       0.0018744473 0.0048263585 0.0009240312 0.00947292
0000a0 ee a2 18 bb 65 58 1c 3c 2e 74 c6 3b 8a 3b fb 3b
       -0.0023290473 0.009542559 0.00605633 0.0076670097
0000b0 83 4c 3b bc 41 3d 88 3e 72 aa 88 3e c4 31 6a 3e
       -0.011431816 0.26609233 0.2669254 0.22870547
0000c0 67 d3 88 3e 16 61 76 3e 69 8e 80 3e 24 ff 85 3e
       0.26723787 0.24060473 0.2510865 0.2617122
0000d0 b9 fa 85 3e 2b 0f 87 3e f8 be 0c bd 9f 83 9e bc
       0.2616785 0.2637876 -0.03436181 -0.019349871
0000e0 88 91 4d bb 4e 59 92 bc 62 b0 81 bc 32 a9 3b b9
       -0.003136726 -0.01786485 -0.015831176 -0.0001789674
0000f0 4a 34 c5 bc 1d d5 e1 bc 77 6a f4 3b 95 60 94 bc
       -0.024072785 -0.02756744 0.0074589807 -0.01811246
000100 30 c7 8a bc 18 43 4e bc 00 89 8a b9 cc 42 fb bb
       -0.016940683 -0.012589239 -0.00026423484 -0.007667875
000110 4e 20 80 bc e5 fe 81 bc 3f 5f 99 bc a0 fb c6 3b
       -0.015640404 -0.015868613 -0.018722175 0.0060724765
000120 bc a9 84 3b 7d 89 dd 3b ff 74 aa 3b f0 2c f4 39
       0.004048554 0.0067607746 0.0052019353 0.00046572788
000130 b2 d3 81 3b 67 f6 ee 3b f2 a3 1b 3c 67 22 54 3c
       0.0039620036 0.007292557 0.009499537 0.012947655
000140 a1 23 20 bb 19 0c 72 bc b9 5d 11 bc d0 0e 91 bb
       -0.00244353 -0.014773392 -0.008872443 -0.0044268146
000150 07 f9 36 3a be f2 ad 39 b2 2a 04 ba bc 85 98 3b
       0.0006979857 0.00033177988 -0.00050417625 0.0046546143
000160 18 a8 02 3b 03 33 df 3a 33 34 71 3e d4 8d 82 3e
       0.0019936617 0.0017028752 0.23555069 0.2549883
000170 4e cf 84 3e 78 c9 81 3e 17 22 84 3e 8f 38 84 3e
       0.2593941 0.2534902 0.25807258 0.258244
000180 2c c6 7c 3e e4 20 85 3e e1 ba 84 3e d6 76 36 3a
       0.24684972 0.26001656 0.25923827 0.0006960457
000190 7b 93 24 bd 6b 50 fb 3b 5f 05 56 3c ff aa 7b 3c
       -0.04017971 0.0076694987 0.013062804 0.015360593
0001a0 2d 53 28 3c 76 5e 8e bc ad 9e 20 bd 78 db 12 bd
       0.010273737 -0.017379027 -0.039213825 -0.035853833
0001b0 f4 7b 9a 3b 31 c5 ac 3c 62 83 68 3c 0a 89 02 3c
       0.0047144834 0.021090122 0.01419148 0.007967243
0001c0 d0 b1 6d 39 1e fc ad 39 b7 d0 de 3c 18 95 c3 3c
       0.00022668322 0.00033184973 0.027199132 0.023874804
0001d0 a5 8a a5 3c b7 ae 71 bc 3b 37 8a bc dc cf 56 bc
       0.020207712 -0.014751128 -0.016872039 -0.013111081
0001e0 f5 10 a3 bc 4b 82 dd bb c4 a7 3b bc 7a 5c 27 bd
       -0.019905547 -0.006759917 -0.011453573 -0.040859677
0001f0 00 d4 08 bc 2f d1 7c 3b ca 9c 38 bc 75 e5 80 bc
       -0.008351326 0.0038576832 -0.01126785 -0.015734414
000200 93 10 6c bc 2f cf 26 bc ff e0 f2 bb 0a 04 03 bc
       -0.0144082485 -0.010181232 -0.0074120755 -0.007996568
000210 63 c9 e9 bb 33 45 45 bc dc ee 5a bc 7c aa 66 3e
       -0.007134603 -0.012040424 -0.013362613 0.22525972
000220 63 31 54 3e 6f c2 67 3e d1 ff 71 3e ac b9 7e 3e
       0.20721965 0.22632764 0.23632742 0.24875516
000230 37 fe 78 3e a5 a0 69 3e c0 46 77 3e 6c fc 71 3e
       0.24315725 0.22815187 0.24148083 0.23631448
000240 ca 26 cc 3c 85 dd 20 3c de 01 6c bc fe 3c 10 bc
       0.02492084 0.009818439 -0.014404742 -0.008803604
000250 62 04 cb bc 6a 0f 49 ba 1c 31 ea ba bf b7 10 3b
       -0.024782363 -0.00076698384 -0.0017867419 0.0022082177
000260 e2 1d df bc 83 f4 02 3d 90 c2 a0 3c 1d 7b 8c bc
       -0.027235929 0.031971466 0.019624025 -0.017148549
000270 ba 20 60 bb ba 40 52 bc 65 21 1f bb c6 98 1f 3c
       -0.0034199194 -0.012832815 -0.002428138 0.009741014
000280 d3 21 12 bc 09 dd 9a bc a9 e9 27 bb d6 c8 22 3b
       -0.008919197 -0.018904226 -0.002562145 0.0024838946
000290 b1 00 62 3c 79 c1 2c 3c 38 7a a7 3c 8a e2 9e 3c
       0.01379411 0.010544174 0.02044402 0.019395132
0002a0 a6 0c 29 3c 4c c8 99 3c 25 44 82 3c f1 84 5d 3c
       0.010317957 0.018772267 0.015901634 0.013520465
0002b0 a5 06 8f bb 3b 2f 22 bc 3f d7 d8 ba 66 05 7a 3c
       -0.0043648058 -0.009898956 -0.001654364 0.015260076
0002c0 76 dc 14 bc 00 47 80 39 07 27 0e bc 3f db bb bb
       -0.009085765 0.00024466962 -0.008676297 -0.0057329233
0002d0 f7 e5 69 3e a5 f0 80 3e 53 80 7b 3e 22 ae 73 3e
       0.22841631 0.25183597 0.2456067 0.23796895
0002e0 be 2e 80 3e a7 2a 80 3e 76 35 5d 3e a2 9e 7b 3e
       0.2503566 0.2503254 0.21602425 0.24572232
0002f0 3f c7 60 3e 68 38 21 bd a9 9c 29 3c 4a 86 30 3c
       0.21951006 -0.039360434 0.010352292 0.0107742045
000300 0e 81 e4 bc 0c eb 6b bc ed 5d 19 3b 77 f4 de 3c
       -0.02789357 -0.014399301 0.0023401931 0.02721618
000310 4c 39 e2 3c 6c 53 c8 bc 21 fe 96 3c e5 f8 a8 3b
       0.027615212 -0.024453841 0.018431725 0.0051566237
000320 3c 21 97 ba 75 b6 35 3c ec bd d1 3c c0 9d 8a 3c
       -0.001153029 0.011090864 0.025603257 0.016920924
000330 3e 80 c5 bb cb 50 d1 bb 5c 2a 44 3c f2 17 a7 bc
       -0.0060272506 -0.006387805 0.01197299 -0.02039716
000340 77 08 d8 bc 26 47 c9 bc cb 50 99 bc 8b a6 b9 bb
       -0.026371224 -0.024570059 -0.018715283 -0.0056656054
000350 78 97 22 bd af 30 9d bc 94 fc b2 bc 95 e0 a9 bc
       -0.039695233 -0.019188253 -0.021848954 -0.020736972
000360 f4 25 56 bc 84 f1 63 bb 23 8b 70 bb a7 2e 89 bb
       -0.013070572 -0.0034781406 -0.0036704026 -0.0041864696
000370 72 25 0f bc 66 74 14 ba df 77 2d bc 23 c0 46 3b
       -0.008736955 -0.00056630967 -0.0105876615 0.0030326925
000380 40 a5 de bb 59 82 40 3e b2 ca 4f 3e 60 26 5c 3e
       -0.0067946017 0.18799724 0.20292166 0.21499014
000390 cd 4a 66 3e b6 9a 6e 3e 63 f3 63 3e f9 33 45 3e
       0.22489472 0.23301205 0.22260813 0.19258107
0003a0 02 94 6a 3e 38 a2 5e 3e 17 92 93 bb 4d 77 1c bd
       0.22908023 0.21741569 -0.0045034993 -0.03819971
0003b0 a3 ec d6 3c e4 e6 93 bc d7 a9 0d bd c0 5e 91 bc
       0.026235884 -0.018054433 -0.0345858 -0.017745376
0003c0 28 5f 1d bd b4 66 1e bd 84 c4 a8 bc dd ba 0d bd
       -0.038420826 -0.038672164 -0.020601518 -0.034602035
0003d0 69 63 b6 3b 3d fb 29 3d ce b8 88 bc 98 6e e1 bc
       0.00556605 0.041499365 -0.016689684 -0.027518556
0003e0 6d 43 ca bc 63 84 63 3b 9a 5f da bc 8b 5c e2 3b
       -0.024690354 0.003471636 -0.026656915 0.0069080046
0003f0 57 08 a0 3c fa 5d 14 3b a6 c9 76 bb 4c 5c 8e 3c
       0.019535227 0.0022639022 -0.0037656813 0.017377995

conv_layers.0.0.conv.bias f4 [16]
000000 8b 30 70 bd 71 bf e6 3c 17 2a 19 3d b8 96 34 bd
       -0.058640044 0.028167458 0.037393656 -0.04408905
000010 fc 4a 61 bd 0f 92 96 bd 90 e6 48 3d 17 da 93 3c
       -0.05500315 -0.07352077 0.049048007 0.01804833
000020 9a de 1a bd bf 26 89 bd ec ea 7a bd 9d 35 4a bd
       -0.037809946 -0.06696843 -0.061259195 -0.049367536
000030 70 46 51 3d ed 94 62 bc ed 54 3e bd c3 d0 03 3d
       0.051092565 -0.013829452 -0.04646771 0.032181513

conv_layers.2.0.conv.weight f4 [32, 16, 3, 3]
000000 fa 0a fa bc 37 93 de bc 19 d9 e6 bc e1 fb 14 bb
       -0.030522812 -0.027169807 -0.028179692 -0.002273314
000010 c9 41 a7 bc 7e f3 94 3a a9 71 e7 bc e3 61 07 bd
       -0.020417111 0.001136407 -0.02825244 -0.033052336
000020 a3 2f f6 bc 42 c6 c5 bc d6 0b 51 bc 20 79 00 3d
       -0.030052012 -0.024142388 -0.01275917 0.031365514
000030 41 cd df bc 72 68 5a 3d d0 5a 29 3c 15 e9 27 3b
       -0.027319552 0.053322263 0.010336593 0.0025621105
000040 e2 eb a6 3c b3 82 f9 3c 66 30 c0 3c a4 20 7c 3b
       0.02037615 0.03045783 0.023460578 0.0038471604
000050 5f 01 77 bc be d5 2b 3d 57 bb d7 3c 07 2c ea 3c
       -0.0150760105 0.041951887 0.026334448 0.028585447
000060 b6 e6 c1 ba e4 c0 af 3c ba f0 c6 bc d3 a7 18 bd
       -0.0014793489 0.021454282 -0.02428471 -0.037269425
000070 20 7f 2f bd b3 c6 43 bd 6e 9b 16 bd a4 97 1c bd
       -0.042845845 -0.047796916 -0.036769323 -0.038230553
000080 5f 16 29 bd 6d 0f 2a bd ab 74 18 bd 5b 78 34 bd
       -0.0412811 -0.041518617 -0.03722064 -0.044060092
000090 de 5c e5 bb 47 43 0f ba 46 7a fa 39 c4 87 75 bb
       -0.006999596 -0.0005465042 0.00047774817 -0.0037464956
0000a0 6a b3 9f b9 5a cc ff 39 e8 45 1c bb 09 ae 52 3c
       -0.00030460517 0.00048789644 -0.0023845378 0.012858876
0000b0 38 c8 b8 bb 24 25 b3 bb dc e2 e6 bc df 51 bc bc
       -0.0056391023 -0.005467074 -0.028184347 -0.022988258
0000c0 b2 76 0c bc e9 90 7c bc fe 6c a6 bc 71 14 f5 bb
       -0.008573221 -0.015415409 -0.020315643 -0.0074792434
0000d0 76 78 a3 bc 7d bb df bc 05 2d 11 3c 82 06 8f 3d
       -0.019954901 -0.027311081 0.008860831 0.06983663
0000e0 61 7e 61 3d 3b 2f 00 bd ca 8e bf 3b 10 e7 9d 3b
       0.055052165 -0.031295042 0.005845879 0.0048188046
0000f0 a4 f4 2f 3d 75 98 83 bc c0 b7 45 3d e7 d3 39 bc
       0.042957917 -0.016063908 0.04827094 -0.011342025
000100 a7 65 60 bc 7f 90 04 3d 49 4b 8b 3c b8 93 1c 3d
       -0.013696111 0.032364365 0.017003672 0.038226813
000110 81 fc fb 3c 6d 16 06 3d 8f 5d 59 3d c5 d4 01 3d
       0.030760052 0.03273623 0.05306774 0.031697053
000120 75 fe de bb 7b 2d 08 3b 49 31 e7 3c 54 46 e0 bb
       -0.006805236 0.0020779062 0.028221743 -0.0068443213
000130 7d 81 2e bb 3d 19 3f 3c 74 33 38 bc 3a 72 31 ba
       -0.0026627474 0.011663732 -0.011242736 -0.0006769035
000140 91 68 9e 3b de ee a4 bc 04 85 13 bc c3 40 46 bb
       0.0048342426 -0.020133432 -0.009003881 -0.0030251003
000150 38 1d 27 3b b3 1d fc bc cb d0 34 bb 86 a9 9f bc
       0.0025499593 -0.03077588 -0.002759027 -0.019490015
000160 7e d0 f8 bc 3c bf 1f bc c6 19 e4 3c 62 fd 8b 3c
       -0.030372854 -0.009750184 0.027844321 0.017088596
000170 71 c9 0f 3c 67 c1 de 3c 00 e5 9d 3c 5f 12 df 3c
       0.008776055 0.02719183 0.019274235 0.02723044
000180 27 1a ee 3c a7 94 96 3c 13 c9 46 3c d9 ac 36 bc
       0.029065205 0.01838143 0.012132901 -0.0111496085
000190 4b 0e 38 bc ea c0 d5 bc fb f2 1a ba 25 1c 87 bc
       -0.011233876 -0.026092965 -0.00059108407 -0.016492913
0001a0 63 54 45 bc ea 4a bc bc 19 1d 8c bc 6d 6f 96 bc
       -0.012044045 -0.02298494 -0.017103719 -0.018363679
0001b0 d5 d5 f5 bc 26 55 4c 3d f9 80 17 3d e9 08 01 3c
       -0.03000919 0.04988589 0.036988232 0.0078756595
0001c0 34 de 99 3c 74 86 25 bd 17 63 00 bd 11 5f ae bb
       0.018782713 -0.040411428 -0.0313445 -0.0053213914
0001d0 49 b1 6c 3c 77 07 8c 3d 70 d1 73 3d 2e f4 2e 3d
       0.014446565 0.06837361 0.059525907 0.042713337
0001e0 12 ed 4c 3d 16 60 14 3d 33 6f 17 3d 6a e8 46 3d
       0.050030775 0.036224447 0.036971282 0.04856149
0001f0 8e 37 9f 3d 6d 60 25 3d dc 56 b7 3b a2 29 bb 3c
       0.07774268 0.040375162 0.0055950712 0.022847
000200 e1 50 d4 3b 83 e6 37 bb d0 59 70 3c eb 15 5a 3b
       0.006479368 -0.002806098 0.0146698505 0.0033277224
000210 40 c7 af bb fd 11 c7 bb f1 e1 33 3c d0 5d a8 3b
       -0.0053643286 -0.0060751424 0.010979162 0.0051381364
000220 a1 77 ce bc c2 ed 54 bd 8d d9 59 3c 63 41 fa bc
       -0.025203528 -0.051984556 0.013296497 -0.030548757
000230 1f 7e 03 3d 55 15 e8 bc 71 1d cb bc 8a 91 0d bc
       0.0321027 -0.028330484 -0.024794312 -0.008640656
000240 30 57 e8 3c 4b a9 28 3d e9 1b 2b 3d 25 dc ed 3c
       0.028361887 0.041177075 0.041774664 0.029035637
000250 72 bb 2d 3d af ab 22 3d fc 20 28 3d 80 aa 39 3d
       0.04241509 0.03971451 0.04104708 0.045328617
000260 d7 e8 13 3d 3d f1 67 3d c7 86 1c bc a4 8f e3 3c
       0.036110725 0.056626547 -0.009553618 0.027778454
000270 5f 5c 81 3d f9 23 91 3c ac bb c0 3b 92 f5 90 3d
       0.063164465 0.017717348 0.005881747 0.07078089
000280 a0 20 81 3c fc 61 f0 b8 09 11 1a 3d 65 a0 53 3d
       0.015762627 -0.00011462343 0.037613902 0.051666636
000290 24 cc bb bb d9 bf 5a bc ce 0d d8 3c 01 61 8e 3d
       -0.0057311226 -0.013351404 0.02637377 0.06952096
0002a0 84 a7 05 3d d9 dc 47 3c 09 77 82 3c 56 fd 9e 3d
       0.03263046 0.01219865 0.015925901 0.07763164
0002b0 6e 54 b6 3d 82 73 93 3d 71 4a c1 3d 95 52 c1 3d
       0.089028224 0.07199766 0.09438027 0.094395794
0002c0 91 a9 b1 3d 56 ab 9e 3d a2 8f d3 3d dd 11 b3 3d
       0.0867492 0.077475235 0.1033013 0.087436415
0002d0 3f cc 0d 3d 9d ef 26 3d 43 17 42 3d 7c 9c 4e 3d
       0.034618612 0.040755857 0.047385465 0.050442204
0002e0 71 ed 82 3d 2e 00 8b 3d a4 d4 13 3d 18 43 a8 3d
       0.063929446 0.06787144 0.03609146 0.08215922
0002f0 37 cd 86 3d 56 5b 5f 3d 6a 73 64 3d d3 9c 52 3d
       0.065821104 0.054530464 0.05577413 0.05141909
000300 a3 25 4f 3d 0c df 8a 3d d0 28 3d 3d 93 ca 92 3d
       0.050573003 0.06780824 0.0461815 0.07167544
000310 60 5d 6e 3d 46 9b fa 3c f8 6d a6 3c f4 e4 1c 3d
       0.058194518 0.030591618 0.020316109 0.038304284
000320 29 a5 52 bd 6a d1 ce 39 0c fe 51 bd 90 01 12 bc
       -0.05142704 0.00039447407 -0.05126767 -0.008911505
000330 df d6 4e 3d c0 7a 27 bd c4 ec ef 3c 29 3a 08 3c
       0.050497886 -0.040888548 0.029287703 0.008314648
000340 ae ca 89 3d 61 37 6a 3d 01 ad 79 3d a0 81 03 bc
       0.06728111 0.05718172 0.060956005 -0.0080265105
000350 87 af 74 3d 20 5c 6a 3c 16 0c 82 3d 61 09 c6 3b
       0.05973771 0.014304191 0.063499615 0.0060435985
000360 fd b4 9a bd 50 42 a2 bd fe 01 b7 bd 12 fa 8c bd
       -0.07554052 -0.07922804 -0.08935927 -0.068836346
000370 ac d6 a0 bd 73 80 a8 bd 9c dd 8d bd 23 5b a1 bd
       -0.078534454 -0.08227625 -0.06927034 -0.07878711
000380 4a 71 a6 bd 08 b5 40 3d 11 4a d1 3c ce ff 38 3d
       -0.08127077 0.047047645 0.025548013 0.04516583
000390 2f 6c 12 3d f7 84 65 3d 6a c0 7f 3d c1 ea 6f 3d
       0.035747703 0.05603501 0.06243936 0.05857349
0003a0 8d 09 3a 3d 5a 3d 51 3d c9 8a 88 3d a7 55 39 3d
       0.045419265 0.0510839 0.06667096 0.0452477
0003b0 ce 63 01 3d 12 e3 75 3d 81 cf 0f 3d a3 cb 9a 3c
       0.03158932 0.060031004 0.03511 0.01889593
0003c0 29 15 7e 3d e8 2e 84 3d 84 5f 4d 3d 20 0f 46 3d
       0.0620319 0.06454259 0.05013992 0.048354268
0003d0 c9 0c 6d 3d 12 6b 8b 3d 19 82 5f 3d a7 f8 a1 3d
       0.05787352 0.068075314 0.05456743 0.07908755
0003e0 64 f0 8e 3d bc 12 a3 3d 61 42 a2 3d 33 e1 a3 3d
       0.069794446 0.07962558 0.07922817 0.08001938
0003f0 06 3a 8c 3d 79 3e 06 3d 12 96 6c 3d 8c f4 97 bb
       0.068470046 0.032774422 0.057760306 -0.0046373066

conv_layers.2.0.conv.bias f4 [32]
000000 53 b1 ca bc 2f b2 49 bd 73 20 64 3c e7 b2 af bc
       -0.024742758 -0.049242195 0.013923752 -0.021447612
000010 63 f2 44 3d 09 18 96 3c 04 3d 58 bd 83 83 b8 bc
       0.04808272 0.018322008 -0.052792564 -0.022523647
000020 2f 53 55 bd 33 db 48 bd de e0 00 bd b0 23 41 3d
       -0.052081283 -0.04903717 -0.03146445 0.047153175
000030 c5 17 81 3d 96 54 05 3d 9c 09 45 bb 98 d5 ad bc
       0.06303362 0.03255137 -0.0030065542 -0.021220013
000040 22 52 1f 3c 4a 71 53 bd b0 49 2d bd 79 63 b4 3b
       0.009724172 -0.051621713 -0.042306602 0.005505022
000050 3b 4b d9 bc d6 1e 2e bc a4 e7 67 3d 43 1f c3 bc
       -0.02652513 -0.010627469 0.056617394 -0.023818618
000060 eb f3 15 3d d6 96 22 3d c9 2f 42 3d 53 17 81 3d
       0.03660957 0.03969463 0.047408853 0.06303277
000070 ef 28 11 3d cc f3 7a 3d 45 56 2e bd d5 a0 13 bd
       0.035439428 0.06126766 -0.04256274 -0.036042053

conv_layers.4.0.conv.weight f4 [32, 32, 3, 3]
000000 1e ea f6 3c bd dc 11 bc 05 86 96 3b 79 9f 02 3d
       0.030140933 -0.008902726 0.004593613 0.031890366
000010 ef 81 d7 3b 3f 2b 73 3b 9b a2 d8 3b 15 f3 1c bb
       0.0065767686 0.0037104634 0.006611181 -0.00239486
000020 51 31 30 3c 3c 0f 97 3c 81 ba 13 3d ec 83 5d 3c
       0.010753945 0.018439882 0.036066536 0.013520222
000030 85 5d e9 3c 52 e4 bf 3c 7e a2 40 3c 81 27 dd 3c
       0.028486976 0.023424301 0.011757491 0.026996376
000040 a8 fb 1d 3d 22 aa 28 3c 81 41 5c 3d 88 16 2c 3c
       0.038570076 0.010294469 0.053773407 0.010503419
000050 21 0e 24 bd 79 27 3e 3d a1 9f 8f 3d 8e 35 46 bc
       -0.040052537 0.046424363 0.07012869 -0.012097729
000060 ab 45 59 3d 29 dc 55 3d a6 ff c4 ba 8f 8f 8b 3d
       0.053044956 0.052211914 -0.0015029802 0.06814491
000070 fa f6 cc 3d 67 9c 9c 3c 36 42 73 3d a3 f8 c7 3d
       0.100080445 0.019117547 0.059389316 0.097642206
000080 80 51 8a 3c 5c 9f 86 3d 0c 6a cc 3d 90 95 a1 3c
       0.016884565 0.06573364 0.09981164 0.019724637
000090 78 b4 89 3c 84 00 2e 3b f4 41 ac bb 96 1a 61 bc
       0.016809687 0.00265506 -0.0052568857 -0.013739249
0000a0 81 6b bd 3c 63 5c 74 3d 1e f8 8f bb 59 16 b6 3c
       0.02312255 0.05965842 -0.0043935915 0.022227453
0000b0 25 6f 3e 3d aa 93 69 3c a8 60 e3 3c d5 5e 01 3c
       0.046492714 0.014256397 0.02775605 0.007896145
0000c0 8f c8 8d 3c 3d a0 08 3d 24 7b 50 3c 82 eb 12 3c
       0.017307548 0.03335594 0.0127246715 0.008967282
0000d0 61 59 29 3d 60 bf cb 3b 62 cf f6 3c a2 65 bc 3c
       0.041345004 0.006217882 0.030128185 0.022997681
0000e0 a1 4d 50 3c 48 1c 0d 3d 49 5b 04 3c 60 fd b2 bb
       0.012713821 0.0344508 0.008078405 -0.0054623336
0000f0 00 e9 1c bb dd 4d cb 3c 31 59 a1 3c ff c5 93 3c
       -0.002394259 0.024817402 0.01969585 0.018038748
000100 b7 c2 0d 3d d1 c2 f2 bb 86 fa 27 3c 63 db 22 3d
       0.034609523 -0.007408478 0.010252601 0.039760005
000110 4e a6 39 3c b3 26 92 3b 39 71 0e 3d be 5a b7 ba
       0.011331154 0.0044601797 0.034775946 -0.0013988835
000120 f1 56 61 3c be 8a c1 3c 9f 87 ef bb 34 a1 fb 3b
       0.013753639 0.023625728 -0.0073098685 0.007679129
000130 dc 2c 1d 3d f9 59 60 bc 8c 8f 59 3b 6b 2d d5 3c
       0.03837286 -0.013693326 0.0033197133 0.026022634
000140 c7 be 45 bc 65 a1 c6 3c 79 c0 37 3d ce 2a 09 bb
       -0.012069411 0.02424688 0.04486129 -0.0020930055
000150 70 0e 07 3d ad a8 37 3d ac 90 24 bc c0 48 53 3c
       0.032972753 0.044838596 -0.010044258 0.012895763
000160 9e a5 3b 3d 08 06 51 3c ab 18 98 3c d5 4f 2f 3d
       0.04581224 0.012757786 0.01856645 0.042800743
000170 03 7b 13 3c 7b 3d 47 3d 49 73 72 3d 83 c3 29 ba
       0.009001496 0.048642617 0.059191976 -0.0006475972
000180 24 48 cb 3c 19 c9 65 3d 82 94 c7 3c f9 9a 56 3d
       0.024814673 0.056099985 0.024362806 0.052393887
000190 b1 ee 9e bc c2 16 4b 3d 74 91 37 3d c9 ec 03 3d
       -0.019400926 0.04958225 0.04481645 0.032208238
0001a0 d7 71 e7 bb 94 b7 a4 3c 8a ba 15 3d 44 1c ae 3c
       -0.0070631313 0.020107068 0.03655485 0.021253712
0001b0 ed 8b 3f 3c 9a 88 8a ba e3 14 9e 3c dd 0b 64 3c
       0.011691076 -0.0010569275 0.019297069 0.013918844
0001c0 ef ac f9 3c 77 66 ac 3a 62 f6 32 3d 1a fc ef bc
       0.030477969 0.0013153095 0.043692 -0.029295016
0001d0 87 42 0a 3c eb ee 7a bc 75 6b 7a 3c 91 b1 02 3c
       0.008438713 -0.015315752 0.015284409 0.007976905
0001e0 43 a6 83 3c d3 2a fe 3c 35 e8 c1 3c d7 88 9c 3c
       0.01607049 0.03102628 0.023670295 0.01910822
0001f0 3a c0 da 3c bc b4 c9 3c ed a5 b7 3d 69 b2 aa 3d
       0.026702989 0.024622314 0.08967195 0.0833481
000200 bd e9 f9 3c 4d a6 b4 3d 07 72 ac 3d 69 9d 07 3d
       0.030506963 0.08820782 0.084201865 0.033109102
000210 34 7f b8 3d df f4 b9 3d ed b6 06 3d 6f 32 d9 3d
       0.09008637 0.090799086 0.032889295 0.106053226
000220 14 43 fe 3d 29 d5 0a 3d d4 74 9b 3d 3e 46 eb 3d
       0.12415138 0.03389469 0.075906426 0.11488007
000230 6e 7d ec 3c 4b 9e c0 3d 67 43 f4 3d 55 94 3b 3c
       0.028868403 0.09405192 0.119269185 0.011448939
000240 e9 92 06 bc fa be 5d bd 39 b2 77 b9 27 6d 07 bd
       -0.008213737 -0.054137208 -0.00023622149 -0.03306308
000250 25 10 07 bd 4d 40 2b 3d f2 d5 e5 3b f2 db 91 bc
       -0.03297438 0.04180937 0.0070140297 -0.017805073
000260 76 5a 58 3b 67 39 0e 3d a3 de 2d 3d 5b 8f 9b bc
       0.0033012903 0.034722712 0.04244865 -0.018989256
000270 7f 1a c5 3c 25 79 f3 3c 69 a4 ac b9 ec 24 27 3c
       0.024060486 0.029720852 -0.00032928892 0.010201674
000280 6f 46 b8 3c fc 8e b1 3a 12 b7 29 3d 3e 3e 4b 3d
       0.022494523 0.0013546641 0.041434355 0.049619906
000290 56 da a4 bb ff 7b 0f 3d 1d 19 21 3d f6 29 61 bb
       -0.0050309105 0.03503036 0.03933059 -0.0034357286
0002a0 37 f1 fc 3c 24 ad 10 3d c8 f8 b1 3a 26 1b e2 bc
       0.030876739 0.03532137 0.0013578171 -0.027600836
0002b0 fc c5 81 bd 1f 98 d5 bc c4 27 04 bb 5a cb ee 3b
       -0.06336591 -0.026073514 -0.0020165304 0.007287425
0002c0 3f 5d 0e 3c cc c5 73 bc 3a 32 93 bd 1a 2c 4e bb
       0.008689224 -0.014878701 -0.07187314 -0.0031459392
0002d0 85 77 d5 3c 4a a8 1e 3d 68 f8 17 3c a1 25 8e 3c
       0.026057968 0.03873471 0.009275533 0.017351927
0002e0 5c 65 30 3d 0c 0a 8a 3c 9e a3 d2 3c 04 54 3c 3d
       0.043065414 0.016850494 0.025712784 0.04597856
0002f0 ac 69 6a 3c ed d6 a4 3c 6a a4 29 3d 7e aa 9c 3b
       0.014307421 0.020122016 0.041416563 0.0047810664
000300 99 a4 c7 3c d4 fe 10 3d cc b3 80 3b ca 95 e7 3c
       0.024370478 0.035399273 0.0039276835 0.028269667
000310 d9 ec 0b 3d 44 34 bb 3b 09 11 5d 3d 22 07 fe 3b
       0.034161422 0.0057130177 0.053971324 0.007752315
000320 32 04 4c 3c 26 27 53 bc 24 51 0a 3d 09 4a 8d 3c
       0.012452172 -0.012887752 0.033768788 0.017247217
000330 4e 84 6b 3d ba 7b 7f bc ff 53 4c 3c f3 63 a8 3c
       0.057499222 -0.015593464 0.012471198 0.020555472
000340 1b f4 15 3d 22 26 bd bc ea ca 5a 3c e5 36 b1 3c
       0.03660975 -0.023089472 0.013354043 0.021632621
000350 75 8d 67 3c 4f db 22 bc 04 0b 14 3d f4 11 8d 3c
       0.014132847 -0.009939983 0.036143318 0.017220475
000360 19 4a 5b 3d b8 fe 43 3c a8 ac 18 bc 87 78 0b 3d
       0.053537462 0.011962585 -0.009318508 0.03405049
000370 56 b2 c1 3c 7a 98 4f 3d 79 fb 53 3d 52 88 fa 3c
       0.023644608 0.050682522 0.051753495 0.03058258
000380 f3 b9 0e 3d 13 67 c8 3c 0e 11 14 3d f6 c3 26 3c
       0.034845304 0.024463212 0.036149077 0.010178557
000390 2d a9 ab 39 ce 65 2e bc 2d e8 dc 3b 74 4e 08 bd
       0.00032741707 -0.010644389 0.0067415447 -0.033277944
0003a0 bc b3 c4 3c 12 39 3e 3c ba 7c 1e 3d 06 47 3b 3c
       0.024011485 0.011610286 0.038693167 0.0114305075
0003b0 af 7b cd 3c 91 fc de 3c dc 82 3c 3c 2b d5 3f 3d
       0.025083391 0.027220042 0.011505809 0.046834152
0003c0 c3 0c 08 3d 67 7f 86 3c bf 99 51 3d 74 21 21 3d
       0.033215296 0.016418172 0.051172014 0.039338544
0003d0 b0 16 cd ba cf 6a 58 bb 57 16 1e 3d e5 5c 12 3d
       -0.001564702 -0.0033022647 0.038595524 0.035733122
0003e0 ed 8e 58 3d 04 94 05 3c 1a e0 c4 3c 5d 97 b0 3c
       0.05287068 0.008152965 0.024032641 0.02155655
0003f0 8e 0d 79 ba ab cc f3 3c 6a d6 6a ba 11 3f 95 bc
       -0.0009500616 0.02976068 -0.0008958342 -0.018218549

conv_layers.4.0.conv.bias f4 [32]
000000 97 6d 0b bd 91 1e 78 3c 19 b5 01 3d 5a b2 d5 3a
       -0.03404006 0.015144006 0.03166685 0.0016303763
000010 89 a8 10 bc 48 02 aa bc 93 22 2a 3a f3 81 c5 3b
       -0.008829244 -0.02075304 0.00064901373 0.006027454
000020 fc 11 d2 3b bd 27 bd bc bf 6b c6 ba 1b a4 ab bc
       0.0064108353 -0.023090238 -0.0015138312 -0.020952275
000030 72 a9 1d bc 38 a1 a0 bc d1 ac 67 3c 42 c6 9a bb
       -0.009622918 -0.019608125 0.014140324 -0.004723341
000040 2b f7 f1 bc c1 7e 83 bc 72 0e ee 3c 28 6d 80 bd
       -0.029536804 -0.016051652 0.029059622 -0.0627082
000050 b4 0b 86 bc bc ec 85 bc 05 2d 5c 3d 7d 14 de 3b
       -0.016363002 -0.016348235 0.05375387 0.0067773447
000060 ea b7 93 3d 64 69 66 3d fe 78 6f bc 25 44 a6 bd
       0.07212813 0.056252852 -0.014616249 -0.08118466
000070 07 c9 1c 3d a1 b6 18 3d 09 ec 81 3d 93 0b 39 3d
       0.038277652 0.037283543 0.06343848 0.045177054

conv_layers.5.0.conv.weight f4 [32, 32, 3, 3]
000000 0e 2f 3a 3c b1 12 96 3d 76 ed 02 bd 7e b8 3a 3d
       0.011363758 0.07327784 -0.03196474 0.0455861
000010 1b d9 8e 3d a5 44 9e bc 2b 74 d4 3c c9 00 bb 3d
       0.06975003 -0.019319842 0.0259343 0.09131009
000020 54 f1 3b bb 89 8d 36 bc 61 f1 ab 3c 6b ea fd bc
       -0.0028677778 -0.011142143 0.020989122 -0.030995568
000030 de ca a2 3d f3 42 f5 3c d8 aa e9 3c 56 e9 43 3d
       0.0794885 0.02993915 0.028523847 0.04782995
000040 9e 91 89 3d 24 40 e4 3c a7 7d 36 bd 0b 3d 1c bd
       0.067172274 0.027862616 -0.044553425 -0.038144153
000050 5f 0c 96 3a 65 61 02 3c 94 43 14 3c a8 f3 bc bc
       0.0011447779 0.007957791 0.009049315 -0.023065403
000060 30 a0 9b 3c 2c ca 66 3c b6 c0 1b 3c 29 c2 5c bb
       0.018997282 0.0140862875 0.009506395 -0.0033685064
000070 ec ec f9 bc 6f 1b eb bc 86 61 96 bc 30 47 6d bc
       -0.030508481 -0.028699605 -0.01835705 -0.014482304
000080 5c 48 0c bd b5 50 de 3c 78 21 21 3d c1 1d 2e 3d
       -0.034248695 0.027138093 0.03933856 0.042508844
000090 77 74 50 3d 16 e0 a0 bc 2d 01 cc 3a c9 b9 02 39
       0.05089232 -0.019638103 0.0015564315 0.00012466976
0000a0 8d fd 9b 3b 8a 21 23 3d 9d 0c c5 ba ed 9d c8 3c
       0.00476045 0.039826907 -0.0015033666 0.024489367
0000b0 ed c3 c9 bc eb d0 2f 3c 0d 31 a3 3c 12 a1 3c 3d
       -0.024629558 0.010730962 0.01992085 0.046052046
0000c0 cc df 84 3d 04 11 23 3d df 21 46 bb 37 a8 12 3d
       0.06487998 0.03981115 -0.003023259 0.035804953
0000d0 10 4f a2 b9 69 72 15 3d a7 e8 56 ba 36 bd e4 3c
       -0.00030957954 0.036486063 -0.000819812 0.027922254
0000e0 4c 41 8a 3c 9a 57 41 3b 0c 36 25 3d fd a1 26 3c
       0.01687684 0.0029501677 0.040334746 0.010170457
0000f0 4b f2 ed 3c f0 eb 19 3d 57 cb 7e 3d a3 73 0c 3d
       0.029046198 0.037578523 0.06220564 0.034289967
000100 ef 32 e6 3c 98 24 d3 3c 4c 7a ae 3c 7f cf 6a 3d
       0.028100459 0.025774285 0.02129855 0.05732679
000110 41 a8 f8 3c db 56 33 3c 51 31 60 3a cf 0b aa 3b
       0.030353667 0.010946001 0.00085522706 0.005189396
000120 80 77 58 3d f1 83 90 3c 65 f1 0e 3d fa 38 75 3b
       0.05284834 0.01764104 0.03489818 0.0037417994
000130 1a e4 a1 3c 58 61 ce bc 01 8f d9 bc de 38 a2 bc
       0.019762088 -0.025192901 -0.026557447 -0.019802507
000140 46 b4 3f 3d 6e 19 5a 3d b4 99 47 3d 09 db 0c bd
       0.04680278 0.053246908 0.048730567 -0.034388576
000150 46 f5 36 3d 49 87 06 bc be 5b 4e bc c1 06 a0 3a
       0.044667505 -0.008210965 -0.012595115 0.0012209044
000160 45 23 92 3d bc 11 b7 bc db 34 ed bc e2 59 9a bc
       0.071356334 -0.022347324 -0.028955868 -0.018841688
000170 e2 f8 11 3c 77 ae 56 3a bb 56 29 3c e0 eb ee 3c
       0.008909436 0.00081894494 0.01033562 0.029165208
000180 f2 48 d7 bb a3 33 38 bd a5 89 41 bc 6b ad 8a bc
       -0.006569975 -0.04497112 -0.011812602 -0.016928395
000190 2d 85 9e bc 21 54 5f bc bd 13 a6 3d 69 d3 e9 3c
       -0.019350613 -0.013630898 0.081092335 0.028543191
0001a0 be 07 0b bd bf 80 6b 3b 4a e2 8a 3d db 0b 5d bc
       -0.03394293 0.0035934893 0.067814425 -0.013491596
0001b0 a4 7d 7f bd 52 e3 55 bd 8a c0 5f 3c 6f 95 20 bc
       -0.06237568 -0.052218743 0.013656745 -0.009801253
0001c0 d2 4a 96 3b c9 f4 dc 3c a0 0a 9b bd 48 72 e6 bc
       0.004586556 0.026972191 -0.07570386 -0.028130665
0001d0 04 3f d4 bc 60 90 81 3c 38 88 da bc 97 28 2f bd
       -0.025908954 0.015815914 -0.026676282 -0.04276332
0001e0 88 0c 65 bc c2 39 bb 3c 47 e9 cb bc ac a1 51 3d
       -0.013980038 0.02285469 -0.024891509 0.051179573
0001f0 c5 4d 93 3d 76 70 3f 3d ad 07 80 3c c8 6d 16 3d
       0.07192568 0.04673811 0.01562866 0.03672579
000200 1f 29 46 3d 4a c4 8b 3d 60 7f 97 bc 53 58 04 bd
       0.04837906 0.068245485 -0.018493354 -0.032310795
000210 de 7c a5 3c 4b 01 4b bb c0 8d 58 3c 75 5a 88 3d
       0.020201143 -0.0030976112 0.01321739 0.06657878
000220 25 6b 7f 3c 76 b0 2b bc b4 b1 45 3d 74 7d 8b bc
       0.01558951 -0.010479083 0.048265174 -0.017027594
000230 60 69 ba 3c 32 54 e2 3c 11 d0 1e 3c 0f 4f 36 3d
       0.022755325 0.027628038 0.009693162 0.04450899
000240 4a c7 09 3d 63 3a 23 3d ba b1 70 3a e3 35 18 bc
       0.033637322 0.039850604 0.0009181757 -0.009290191
000250 da 55 2d 3d 39 ee af 3c 14 35 38 3c 2d ac d7 3b
       0.042318203 0.021475898 0.011243124 0.0065818042
000260 76 2f 4d 3c 37 c8 b5 bb d2 bd 81 bb 11 f9 e8 bc
       0.012523523 -0.005547549 -0.003959396 -0.028439077
000270 d3 77 be 3b 23 0e 72 3d 12 99 2c bc cd de 59 3c
       0.005812624 0.059095513 -0.010534542 0.013297749
000280 5c 1d 60 bc 33 d9 49 3d 60 0a 52 3d 28 1a 03 3c
       -0.013678875 0.049279403 0.051279426 0.008001842
000290 5b 18 a9 ba b4 95 0c 3d b1 f6 b5 3c c1 dc 4d 3d
       -0.0012900935 0.034322456 0.022212358 0.050259355
0002a0 b6 0d 81 3d 87 a3 79 3d 92 40 94 bc f8 14 ba 3c
       0.06301443 0.060946967 -0.018097196 0.022715077
0002b0 53 5b 63 bd 03 81 46 bd 75 70 26 bd 04 c4 96 bd
       -0.055507015 -0.04846288 -0.04063459 -0.07361606
0002c0 1f 8e 4e bd 87 28 69 3c 34 1f 31 bd e3 b3 87 bd
       -0.050428506 0.014230854 -0.04324265 -0.066261075
0002d0 5a d9 56 3d 56 99 4f 3d 58 dc a2 bb b5 78 0b 3c
       0.052453376 0.050683342 -0.0049701147 0.0085126655
0002e0 43 70 21 3d 4d a7 b2 bc 61 90 cc 3c e0 c9 25 bc
       0.0394137 -0.02180829 0.024971189 -0.0101189315
0002f0 20 ac b6 bb ea aa 69 3d 7f da 57 3c 57 04 07 3c
       -0.005574718 0.057047762 0.013174652 0.008240781
000300 3e 62 90 3b 32 15 a7 bc f6 ac f5 bb 86 7b 86 3d
       0.0044062426 -0.020395849 -0.007497425 0.06566529
000310 f2 85 c3 bc 01 f6 56 3c 23 12 40 bc 00 d4 73 bd
       -0.023867581 0.013120175 -0.011723074 -0.05952835
000320 b8 37 b6 bc 78 6f 12 bd 47 41 33 3b f9 30 49 bd
       -0.022243366 -0.035750836 0.002735214 -0.04911897
000330 14 f7 52 38 19 78 c4 bc 2b 8d 16 bd 30 6e 13 3d
       5.029801e-05 -0.023983048 -0.036755722 0.035993755
000340 50 5a 59 bc 20 8c 00 3d 94 6c 99 bc 00 42 53 3d
       -0.013266161 0.031383634 -0.018728532 0.051576614
000350 11 b5 9f 3c fb 12 1e 3d e1 6e c3 bc f8 59 bd bc
       0.019495519 0.03859232 -0.023856582 -0.02311419
000360 3d 37 6f bc d9 19 96 3c bc 6b 06 bd 22 42 43 bd
       -0.014600572 0.018322872 -0.032817587 -0.04767049
000370 fd 4a d7 bc ec ec da bc d9 67 94 bd 50 0a a4 3c
       -0.026280874 -0.026724301 -0.0724637 0.020024449
000380 a3 66 16 3c 87 76 43 3b d6 b0 68 bc 78 bb 0d bd
       0.009179744 0.0029825286 -0.014202317 -0.034602612
000390 2d ea e3 bc 7c 91 33 3a 91 ad 66 3c 4f 07 63 bd
       -0.027821625 0.0006849987 0.014079467 -0.055426892
0003a0 86 1e 48 bc b7 63 3d bd 16 a1 83 3d f2 10 5c 3d
       -0.012214309 -0.046237674 0.06427209 0.053727098
0003b0 65 22 e2 bc 64 0b 06 3d 85 db 54 3d 8c b3 31 bd
       -0.027604291 0.032725707 0.051967163 -0.04338412
0003c0 c3 86 02 3d 4d 7f e0 bc 4a be 9f 3c c6 5a 08 3c
       0.0318668 -0.027404452 0.019499917 0.008322423
0003d0 8a 56 16 bc 32 bd 13 bc 40 9f 81 bc 73 18 58 3c
       -0.009175906 -0.009017276 -0.015823007 0.013189423
0003e0 45 d8 d5 3c 22 fc 25 ba 55 95 b5 bb c1 87 ab bc
       0.026104102 -0.0006331821 -0.0055414834 -0.020938756
0003f0 47 bc 0f bc 87 a8 41 bd 56 c9 e7 3c 60 3b 2f bd
       -0.008772916 -0.04727986 0.028294247 -0.042781234

conv_layers.5.0.conv.bias f4 [32]
000000 53 3c 5a 3d d4 aa 52 bd c9 b4 7e bd 7e 5e b5 bc
       0.053280186 -0.051432446 -0.06218413 -0.022139784
000010 b9 ae 92 ba 76 8d 80 3c 53 7d 5b 3d cc f4 48 3c
       -0.0011190987 0.015692454 0.053586315 0.012265395
000020 3a ee 44 3d 8f 8a 18 3d 29 ce d7 bb 83 63 c4 3c
       0.048078753 0.037241515 -0.0065858555 0.023973232
000030 10 36 5b 3c 1b 94 2b bc 22 a0 c9 3c 22 4f 25 bd
       0.013379589 -0.010472323 0.02461249 -0.04035867
000040 9e 5d 3c 3d 07 6e 57 3d 2b 02 19 3d ab 22 86 3a
       0.045987718 0.052595165 0.037355583 0.001023372
000050 ec 22 06 3d a1 09 9c bc 20 3e b5 bb 15 05 1d 3b
       0.032748148 -0.01904756 -0.0055310875 0.0023959328
000060 b4 af 86 bc ff 7e b2 3c 8b 88 42 bc 3a a9 3b 3d
       -0.016441204 0.021789072 -0.011873375 0.045815684
000070 72 7e 80 3d ae c1 a5 3c 17 df 67 3d 98 db 2b 3c
       0.062741175 0.020233955 0.05660924 0.010489367

conv_layers.7.0.conv.weight f4 [16, 32, 3, 3]
000000 d8 e1 5b bb 8b b8 4e bd 2b a6 80 bd 69 c9 30 3d
       -0.0033551361 -0.050468963 -0.06281694 0.04316083
000010 be 43 a1 3b ef d6 5e 3c fd d5 23 3b 91 9e 57 bd
       0.0049214056 0.013601049 0.0024999373 -0.052641455
000020 54 db ac 3a 06 58 d0 3c 9b c9 ca bb 07 4e 27 3d
       0.0013187923 0.025432598 -0.006188584 0.040845897
000030 21 40 80 3c 3f e7 96 bc 28 af 76 3d d8 19 57 3c
       0.015655579 -0.018420814 0.060225636 0.01312872
000040 84 1d d4 bd b9 cf 25 bd 49 7f 1a bd a5 63 be 3b
       -0.10357192 -0.040481303 -0.037719045 0.0058102184
000050 55 9b 97 bc 52 dd d6 3a 2f c5 81 bd 74 07 34 bd
       -0.018506685 0.0016392863 -0.06336438 -0.04395242
000060 85 d3 21 3c 8c 21 10 3d f5 66 8f bd 9f 6b 50 bd
       0.00987709 0.035188243 -0.07002059 -0.050883885
000070 b1 18 a3 bd 88 58 8f 3c 78 c2 57 3d 45 4f c8 3b
       -0.07963694 0.01749827 0.052675694 0.0061129653
000080 1d 3e 8f 3d 57 0e 1d bd f5 0c 4d 3d 46 05 25 bd
       0.06994269 -0.038343754 0.050061185 -0.040288232
000090 d5 f8 44 bd a0 60 19 bd 9a a9 29 3d 45 14 11 bd
       -0.048088867 -0.037445664 0.04142151 -0.03541972
0000a0 ad e9 db bc ce 88 2e 3d 42 b1 15 bd 2e 5e 5f bc
       -0.026844824 0.042610936 -0.036546 -0.013633294
0000b0 e6 34 be 3c f9 20 81 3b 96 40 f0 bb 52 63 5e bc
       0.023218583 0.003940698 -0.007331918 -0.0135734845
0000c0 d6 3f 2a 3d b3 7f 4c 3c 2b 24 d9 bc ad 89 2e bd
       0.041564785 0.012481618 -0.026506504 -0.042611767
0000d0 20 55 3a 3d 7b fd 29 bd fb fc ce 3b 50 77 39 3c
       0.045491338 -0.041501503 0.0063167787 0.01131995
0000e0 81 17 4b 3c 08 2b 5b bd 59 45 8a 3d 3a 8f 0d 3c
       0.0123957405 -0.053507835 0.06751508 0.008640105
0000f0 5e ad 7a bb 4a 27 7a 3d 6f f3 84 bd 66 3b 92 bd
       -0.0038250308 0.061072625 -0.06491744 -0.071402356
000100 a9 56 01 3d 52 08 d7 3c 99 b3 c8 bc 46 7c 99 3c
       0.031576786 0.026249085 -0.024499701 0.018736016
000110 2a 36 09 bd 82 74 1b 3d 86 6b 67 3c bf 63 2d bd
       -0.03349892 0.037952907 0.014124757 -0.042331453
000120 c4 89 ab 3c d5 10 c0 bc 73 9e 82 bc 09 8f fe 3c
       0.020939715 -0.023445526 -0.015944695 0.031074064
000130 cb 95 46 bd c3 c1 03 bd f8 82 ed bb 54 b7 02 bd
       -0.048482697 -0.032167207 -0.0072482787 -0.031913117
000140 0c 21 b3 bc 36 53 19 3d b3 21 27 bd 9c 0d 17 bd
       -0.021866344 0.03743287 -0.040803622 -0.036878213
000150 30 9e d0 bc b0 6b e1 3a 15 48 ef bc 5d 4a 73 3d
       -0.025466055 0.0017198231 -0.029209176 0.05939709
000160 ee 5f 18 3d 87 98 94 3c 2d d4 4a bd a7 33 59 3d
       0.03720086 0.018139137 -0.049518753 0.053027775
000170 1a 80 68 3c 39 2f 2e 3c f4 0d 47 3d e1 6e 7b bd
       0.014190698 0.010631376 0.04859729 -0.06138504
000180 4d 4d 63 3c b0 2c 51 bc e4 ec 65 bd 79 2b d1 ba
       0.01387341 -0.012767002 -0.05613412 -0.001595839
000190 b7 d2 cc bc 14 96 51 3d 9c 19 70 39 fe 36 38 3d
       -0.02500282 0.051168516 0.00022897724 0.04497432
0001a0 b4 fe 89 bc 6a b3 0a bd cf 45 c5 bc 1c 7c 1b 3d
       -0.016845085 -0.03386251 -0.024081139 0.037960157
0001b0 5a 95 5a bd 59 31 9e bc 96 be bc bc 4a 98 e6 ba
       -0.05336509 -0.01931064 -0.023040097 -0.0017592993
0001c0 16 23 50 bd 10 97 9d 3d 58 7c 54 3d 53 8b 00 bd
       -0.05081471 0.076948285 0.051876396 -0.03138287
0001d0 bd 15 91 3c 70 28 7d bd a7 26 19 3d 4d 71 2c 3d
       0.017710561 -0.061806142 0.037390377 0.04210024
0001e0 83 51 9e bd dd 47 d5 3c 3a 4a ee bc 16 60 16 3d
       -0.07730391 0.026035244 -0.029088128 0.03671273
0001f0 3e e0 95 bb f0 70 38 3d 2f 3e 71 bd 33 4e be bc
       -0.004573851 0.04502958 -0.058897194 -0.023230648
000200 e4 c7 49 3c 19 b8 74 bc 25 c3 9e ba 1a 9f ca 3b
       0.012315724 -0.01493647 -0.0012112601 0.006183517
000210 4a 1c 78 3c de c3 86 3c 30 07 2b 3c 34 6a 54 3d
       0.015143463 0.016450819 0.010438725 0.051859096
000220 13 08 86 bd a6 53 32 bd f4 9a c9 bc 13 86 d8 bc
       -0.06544509 -0.043536805 -0.02461002 -0.02643112
000230 53 ad 0e 3d d5 2c c7 bc fd e6 64 bd 02 ea 02 bd
       0.034833264 -0.02431337 -0.05588435 -0.03196145
000240 31 50 e0 3c 6d d2 05 bd 7a 50 e7 bc ed 9d 5b 3c
       0.027381988 -0.03267138 -0.028236616 0.013404352
000250 22 00 52 bd c9 5f 99 bb 0c cd 79 3d 3c 3b 4a bd
       -0.051269658 -0.004680608 0.060986564 -0.049372897
000260 22 7c 40 3d 61 a3 08 3d ac a2 9a bd 76 8e 2f 3c
       0.046993382 0.033358935 -0.075505584 0.010715118
000270 bc 9f 41 3c 50 32 0d bc 14 4c 45 3c 73 6f 88 bc
       0.011817869 -0.0086179525 0.012042064 -0.016654706
000280 ae 63 47 3d 9c 53 b1 bc 58 e5 5b 3d bb 56 77 bd
       0.048679046 -0.021646313 0.053685516 -0.060385447
000290 97 2a 2e bd 10 99 31 3b 0b 19 01 bc 6d a4 03 bc
       -0.042521086 0.002709929 -0.007879506 -0.008034808
0002a0 0a 1c 34 3d 4a bc 2a 3d b1 24 df 3c 00 33 ba 3c
       0.043972053 0.041683473 0.027239176 0.022729397
0002b0 6e dd d6 3b fc e4 ea bc 64 cb 8d bd ce c8 37 bc
       0.006557158 -0.028673641 -0.06923559 -0.011217309
0002c0 4d 8e b6 bc bf 93 1d bc ef ec a6 3c c0 3b 9d bc
       -0.022284651 -0.009617745 0.02037665 -0.01919353
0002d0 02 0f 67 bd e3 15 02 bd 61 13 2a 3c e0 a5 59 bd
       -0.056410797 -0.031759154 0.010380597 -0.053136706
0002e0 52 0c f8 bc 39 b3 1f bd 52 4d 8e 3c 83 02 44 3d
       -0.030279312 -0.03898928 0.017370854 0.047853958
0002f0 09 5a 9d 3c 93 d0 43 bd f8 30 8f 3d b0 4d 2b bd
       0.019207971 -0.047806334 0.06991762 -0.041822135
000300 22 45 6d bd 67 fc b3 3b 35 09 de 3c ae c4 89 bc
       -0.05792726 0.005492735 0.027104 -0.016817417
000310 3d bc 59 3c 43 a0 2e bd 78 7c f6 3c 6a 36 89 bc
       0.013289508 -0.042633306 0.030088648 -0.01674958
000320 2a af 14 3a 89 bd 4b bd 69 29 0a bd 5b ce 85 3b
       0.00056718534 -0.0497413 -0.033730898 0.0040834374
000330 a6 c0 e3 bb 43 bc 2f bc 33 92 c9 bc 15 28 24 bc
       -0.0069504557 -0.010726037 -0.024605846 -0.010019322
000340 1d 60 c0 bc 31 26 1d 3d f1 be e8 bc b3 a5 11 3d
       -0.02348333 0.0383665 -0.02841136 0.035558414
000350 72 7e 41 bd cf 7d 4b 3d 4d 5e f4 3b 44 ee 34 3d
       -0.04723973 0.049680527 0.0074575306 0.04417254
000360 64 32 0a bd 0b 22 2e bd 4e d3 51 3d af 8d 74 3d
       -0.033739462 -0.042512935 0.051226906 0.059705433
000370 18 e1 63 bd 04 61 17 3d ea e2 18 3d 6e cb 06 bd
       -0.055634588 0.036957756 0.037325777 -0.03290885
000380 6d 4d 2c 3c 9c 38 0c bd 22 26 9c 3d 54 85 de 3c
       0.010516507 -0.034233674 0.07624461 0.027163185
000390 a1 dd 48 bc db c4 ad 3c 51 fc 85 3c 5c 76 35 bd
       -0.012259872 0.021212032 0.016355665 -0.04430233
0003a0 a9 fd 3c 3d e0 9f 83 bd 76 b6 a7 bb 1f 3a df bc
       0.046140347 -0.06426978 -0.0051181866 -0.027249394
0003b0 16 46 ae bc f4 d1 cf b9 6e dc d0 3c 1e a1 6a 3c
       -0.021273654 -0.00039638544 0.025495734 0.01432064
0003c0 f1 c8 bc bc 05 bc bb bc dd bb 2c 3d 25 3b 42 3d
       -0.023045035 -0.022916803 0.042171348 0.047419686
0003d0 83 a1 62 bc 1e 7b cf bb 49 b7 2f 3d bc 91 33 bd
       -0.013832453 -0.0063318154 0.042899404 -0.043840155
0003e0 4d d7 3e 3d f4 c4 19 bd bb 8e f6 bb 67 e9 77 3c
       0.046592046 -0.037541345 -0.007524339 0.015131331
0003f0 b0 a0 10 3d 3b 24 2d bc 77 0b 0c 3b 98 ca 8f 3c
       0.035309494 -0.01056772 0.0021369138 0.017552659

conv_layers.7.0.conv.bias f4 [16]
000000 25 e3 21 3d d0 c4 c1 3b c0 2a 8a 3d 1a 58 95 3d
       0.039523263 0.0059133545 0.06746435 0.07292195
000010 ba af a9 3d b3 1e d3 3c cc 3e 8c bd 8c b1 b8 3d
       0.0828547 0.025771474 -0.06847915 0.090182394
000020 50 86 92 3d bc 8b 80 3d 32 26 01 3d 30 a7 d4 bb
       0.07154524 0.06276652 0.031530567 -0.006489657
000030 7f 07 a2 3b d8 d2 13 3d 2e 4f 97 3d b8 72 37 bd
       0.0049447413 0.03608975 0.07388149 -0.04478714

linear_layers.0.weight f4 [64, 400]
000000 7e 2b 24 3d e9 4f 56 3b 7f 5e 42 3c 39 c1 51 3d
       0.04008054 0.0032701439 0.01186335 0.051209662
000010 40 dc 86 3b 4c 25 a3 3c 32 89 d2 bc 3a af bc bb
       0.0041156113 0.019915245 -0.025700185 -0.0057581933
000020 ab fc da bc ba 35 5b 3c 9f 3d cb 3c 03 aa b3 3c
       -0.02673181 0.013379509 0.024809657 0.021931654
000030 4c b2 aa bc 68 0b 1e bc 76 1b 9c 3c 9a 90 20 bc
       -0.020836972 -0.009646274 0.019056063 -0.009800101
000040 35 84 39 bd 13 bd 56 3c ef 61 fc bc 50 e7 f8 3b
       -0.045292098 0.013106602 -0.030808417 0.007595934
000050 cf 18 c2 bc d6 80 2c 3d ac 58 13 3d 05 ab e0 3a
       -0.02369347 0.042115055 0.035973236 0.0017140812
000060 75 f4 bc bc 2a 01 ab 3c 6f f1 14 3b 6d da 84 3c
       -0.023065785 0.020874579 0.0022726913 0.016217435
000070 ff b3 97 3b 75 ba cd 3a 06 00 e3 bb d1 02 3d bc
       0.0046296115 0.0015695827 -0.006927493 -0.011536316
000080 a3 b5 15 3c d3 63 a8 3c f1 32 94 39 a5 75 8c bc
       0.009137544 0.020555412 0.00028266714 -0.017145941
000090 70 50 f7 3b 83 ce c0 bc e0 11 36 3c ee 21 43 bc
       0.0075474307 -0.023535972 0.01111266 -0.011909945
0000a0 ba 62 ba 3b 40 26 0d bd a9 ee 80 bc 2c 01 0a bc
       0.0056880387 -0.034460306 -0.015738802 -0.008423131
0000b0 c1 8d c9 bc 3d fc 8d bc 9a 47 fd bc bd 3a ff bc
       -0.024603726 -0.01733219 -0.030917931 -0.031155938
0000c0 cc d0 bb bc 55 d1 f4 bc 45 51 72 bd c7 96 c4 bc
       -0.02292671 -0.029884974 -0.059159536 -0.023997677
0000d0 a1 d1 0a bd 4c 11 8e bc bd 74 06 bd 98 64 4e 3b
       -0.033891324 -0.017342232 -0.032826174 0.0031493064
0000e0 22 d7 1c bc b5 75 7d bc 94 19 9e 37 64 cc ce 3b
       -0.009572776 -0.015469958 1.8846978e-05 0.0063109864
0000f0 05 27 41 3d d5 0c 13 ba 4a 7b 56 bc 15 de fc 3c
       0.047156353 -0.0005609517 -0.013090918 0.030867616
000100 56 04 0b 3d 84 a2 89 3d 1b 06 73 3d 60 e5 35 3d
       0.033939682 0.067204505 0.059331995 0.044408202
000110 bf c3 71 3d ab 8a 14 3c 9d 2c 3e 3d c6 a7 5f 3d
       0.05902457 0.009066264 0.046429265 0.05460336
000120 3b 76 31 3d 04 73 35 3c af 42 88 3d 92 1c 57 bd
       0.043325644 0.011074785 0.06653344 -0.05251748
000130 85 a3 2b bd f1 0f c9 bc 32 a4 d0 bc c5 63 54 bd
       -0.04190399 -0.024543734 -0.02546892 -0.05185296
000140 f4 23 f2 bc 14 e4 9d 3c cb 48 b1 bc a2 da 0b bd
       -0.02955816 0.019273795 -0.021641156 -0.03414405
000150 a0 66 7f bc f3 96 17 bc 45 d5 45 bb df 2a 5a bc
       -0.015588433 -0.009252298 -0.0030186933 -0.013315885
000160 d8 17 91 bc 9a d5 db 3c 97 b7 1c bc a7 de eb 3c
       -0.017711565 0.026835252 -0.009565256 0.028792692
000170 26 b8 17 3d 94 76 56 3d d5 f4 21 3d 20 b1 c2 3c
       0.037040852 0.05235918 0.03954013 0.0237661
000180 30 f2 52 3d f3 63 d1 3c 89 97 4b 3d 0b 52 98 3d
       0.0515005 0.025560355 0.049705062 0.074375235
000190 bf 23 9b bc 79 ba 90 bd 83 54 b3 bc 5d 09 04 bd
       -0.018937944 -0.07066817 -0.021890884 -0.032235492
0001a0 b3 19 2e bd 08 aa a7 bc 87 37 d3 3b 41 87 44 bd
       -0.042504977 -0.02046682 0.0064458284 -0.04798055
0001b0 35 ee e3 bb a8 c3 60 bd 87 9d 99 3d 41 61 f1 3c
       -0.0069558867 -0.054874092 0.07500749 0.02946532
0001c0 bc 6f 40 3d 69 a0 16 3d dd a6 72 bc 35 17 b1 3c
       0.04698156 0.036774073 -0.014810291 0.021617511
0001d0 d3 0e 94 3d 2d 77 83 3d f3 17 81 3d 9c fd 47 3d
       0.0722939 0.06419215 0.06303396 0.048825845
0001e0 ba 2a 0a 3d 90 d2 9b 3d 2e 54 56 3d f9 e9 85 3d
       0.033732153 0.07608521 0.052326374 0.06538767
0001f0 87 4c f3 bb 69 f3 3d 3c a8 83 6a 3c fa 1c 52 3c
       -0.0074248943 0.011593678 0.014313616 0.012824291
000200 8f 9f a4 3c e7 b9 57 3c ff b9 65 bc 07 fd c0 bc
       0.020095615 0.013166881 -0.014021396 -0.023558153
000210 dc 4d 02 bd 00 f4 2c b9 46 e9 44 bd 44 f1 6a bc
       -0.031812534 -0.00016494095 -0.04807403 -0.014339749
000220 89 1b 80 bb c1 1f 54 bc 70 73 36 3b 6a c4 8b 3c
       -0.0039095324 -0.012947024 0.0027839802 0.017061431
000230 a6 e3 99 bc a6 e1 78 bc 5d b9 30 bc fe 66 a4 bc
       -0.018785309 -0.0151905175 -0.010786382 -0.020068642
000240 23 49 cd bc 72 6a 0b bb 22 f5 eb 3c b1 56 09 3d
       -0.025059288 -0.0021273163 0.028803412 0.03352994
000250 2c a9 0c 3d 7c ba 9f 3c 91 d7 91 bc aa c7 3a bd
       0.034341022 0.019498102 -0.017802985 -0.04560057
000260 44 37 73 bc 48 90 ee ba d0 4d d1 bc 60 83 4d 3b
       -0.014844719 -0.0018200958 -0.0255498 0.0031358823
000270 c6 8e 50 bd 35 8a a5 bd 63 1e 2b bd e6 d2 39 bd
       -0.05091741 -0.080830015 -0.041777026 -0.045367144
000280 58 a6 93 bc a2 99 96 bc 32 9d 10 bd 05 4e 12 bd
       -0.018023655 -0.018383805 -0.035306163 -0.035718936
000290 d7 6f fb bb 56 6f 34 3d db 89 11 3d 5c ad bf 3c
       -0.0076732445 0.04405149 0.03553186 0.023398094
0002a0 c5 20 9c bc 10 29 95 3c bb 15 34 bc a2 52 13 3b
       -0.019058594 0.018208057 -0.010991509 0.0022479673
0002b0 4e e1 cf bc c9 2e 8e bd 52 7b e2 bc 3a fe 83 bd
       -0.025375988 -0.06942517 -0.027646694 -0.06444974
0002c0 7c 95 32 3c 6f 87 c6 bb 09 ce 99 bd ae 6c 05 bc
       0.010899898 -0.0060586254 -0.07510001 -0.008143587
0002d0 a7 d8 b0 bc 48 ed 50 bd 43 6a bf bc f3 d0 b4 3c
       -0.021587683 -0.05100754 -0.0233661 0.022072291
0002e0 71 7f ce bc d5 c8 d6 3b e7 94 13 3c 55 23 4f bc
       -0.025207253 0.0065547028 0.009007669 -0.012642701
0002f0 29 84 2f bd 4f e7 f5 ba 40 b0 30 3c 08 72 0b 3d
       -0.042850647 -0.0018760952 0.010784209 0.034044296
000300 e0 a8 a4 bc c5 92 0d 3d 6b e7 00 ba a6 be 8f 3c
       -0.020100057 0.0345638 -0.00049172965 0.017546963
000310 a1 fa 16 3d a3 d6 04 3d df 6d 6a 3d 81 65 89 3c
       0.036860112 0.032431256 0.057233687 0.016772034
000320 f3 e8 a3 bd c6 27 69 bc ea b8 f2 bc 82 fe a8 bd
       -0.08003416 -0.014230674 -0.02962919 -0.082516685
000330 8d 32 af bd 46 c4 f7 3b a3 a2 3e 3d 50 1e 24 3d
       -0.08554564 0.0075612394 0.04654182 0.04006797
000340 45 b8 03 3d 4d f3 44 3d d4 c8 ce 3c fe 44 07 3d
       0.032158155 0.048083592 0.025242247 0.03302478
000350 7e 82 31 3d c4 42 00 3d 2e 80 a0 3c de 80 e0 3c
       0.043337338 0.031313673 0.01959237 0.027405199
000360 40 3c b0 3b 5e 26 22 3d c7 d1 c1 3c 02 de 11 3d
       0.005378276 0.03958737 0.0236596 0.035612114
000370 d9 e7 0e 3c 43 7b 03 3d 1a e4 ab 3b 7a e0 f8 3c
       0.008722269 0.032099973 0.0052456977 0.030380476
000380 a6 bc 4e bd 66 8c c6 3c 3b db 2e 3d 3c 94 6b 3c
       -0.050472878 0.024236869 0.042689543 0.014378604
000390 bc b1 c8 3c 43 61 55 3d d2 5f c4 3c ca 09 e3 bc
       0.024498813 0.05209471 0.023971472 -0.027714629
0003a0 ff 5e 63 3c 31 e9 3b 3c 85 c1 c0 3c 34 b3 dd 3c
       0.013877629 0.011469171 0.023529777 0.02706299
0003b0 36 6a 7f 3c b2 e1 27 bd 4e ef ab 3b 21 96 c8 bc
       0.0155892875 -0.040986724 0.005247033 -0.02448565
0003c0 83 8f df 3c a9 ce e4 3b 27 c0 04 3d 59 a6 35 3d
       0.027290111 0.0069826436 0.032409813 0.044348095
0003d0 1e cf fc bc 57 21 66 bb 99 bc 21 bd ff c5 22 3c
       -0.03086048 -0.0035115087 -0.0394865 0.009934901
0003e0 cb 21 5c ba f0 7d 11 bd 28 4d fe 3c dd c1 4d bc
       -0.00083973695 -0.035520494 0.03104265 -0.012558428
0003f0 0d 4b 7e 3d fd f1 43 3c 27 cd 0a 3d a1 fe 2f 3d
       0.062083293 0.01195955 0.033887055 0.042967442

linear_layers.0.bias f4 [64]
000000 fd ae 9f 3c a5 5c 0f 3c c2 4c 4a bd 96 63 62 3d
       0.01949262 0.0087501155 -0.04938961 0.055270754
000010 9a 47 45 3c 8d 77 48 3d aa ef 9c 3c ea f6 e1 3c
       0.012040997 0.048942138 0.01915725 0.027583558
000020 4b db 33 3d 6d 61 7c 3d 2c 41 10 38 0b e3 ef 3c
       0.043910306 0.06161635 3.439297e-05 0.029283067
000030 1a 6a 83 3d 87 22 20 3d 83 52 9b bc 55 4c 8f 3c
       0.06416722 0.039095428 -0.018960243 0.017492453
000040 08 84 d8 3b d6 14 11 bd d4 4a 94 3d c9 a7 ff 3c
       0.006607536 -0.03542026 0.07240835 0.031207936
000050 1f d4 40 3a 0c 21 92 3c 0c 71 3e 3c cb 5d 22 bc
       0.0007355827 0.017838024 0.011623632 -0.009910057
000060 e1 c5 ce bb 32 b9 65 3d 7e a8 55 bc 90 18 04 bd
       -0.00631021 0.05608482 -0.01304066 -0.032249987
000070 be 35 a6 bb b9 6b f6 bc 35 78 8a 3d 89 ec 19 3d
       -0.0050723245 -0.030080663 0.06761209 0.037579093
000080 cc f8 81 bc 02 ba 0d 3d 19 fa 89 3d 82 a9 e7 bc
       -0.015865706 0.03460122 0.067371555 -0.02827907
000090 b9 4a e1 bc ca 9a 95 3c 4f 2d ff 3c 23 00 ae 3c
       -0.02750145 0.018262286 0.031149535 0.0212403
0000a0 32 e5 8a 3d a5 03 6f 3d ee ee 42 3d a4 8b 93 3c
       0.06781997 0.058353085 0.047591142 0.018010922
0000b0 b8 ac 11 bc f5 69 83 3d c5 3c bd 3c 2d 34 48 3b
       -0.008891277 0.06416694 0.023100266 0.0030548677
0000c0 a5 02 86 3c 7f 78 44 3c 81 6f 91 bc 95 17 dc 3b
       0.016358683 0.011991619 -0.017753365 0.0067166784
0000d0 57 01 81 bc 5a 37 0d bd 7c 37 e7 3c 59 c0 9b 3c
       -0.01574771 -0.034476615 0.0282247 0.019012617
0000e0 34 4e 92 3d 29 91 c7 bc fe 04 9a 3d b0 0b c3 3b
       0.07143822 -0.02436121 0.075204834 0.005952321
0000f0 e7 73 73 bc fd f3 1e 3d 99 30 c6 3b f3 34 04 3d
       -0.014859176 0.038806904 0.0060482738 0.03227706
