models/model_1726055049931/model.pth (torch, 227178 bytes, 14 tensors)

conv_layers.0.0.conv.weight f4 [16, 10, 3, 3]
000000 75 ae 05 3e ef 1c 0c 3e e5 15 08 3e 47 1d 0d 3e
       0.13054831 0.13682912 0.13289602 0.137807
000010 17 ab 05 3e 1e 4b 0f 3e 22 e2 06 3e 9f 65 06 3e
       0.13053547 0.13993499 0.131722 0.13124703
000020 cd d7 0c 3e e9 5b 53 3c 46 b9 87 3c 43 a4 97 3c
       0.13754196 0.012900331 0.016567837 0.018510943
000030 3d 69 dc 3c 3d d4 d5 3c 90 79 eb 3c e1 96 0d 3d
       0.02690565 0.02610218 0.028744489 0.034567717
000040 7d 86 dc 3c 22 76 04 3d ca 97 3a bc bb 0a 67 bb
       0.026919598 0.032339223 -0.011388728 -0.0035254199
000050 a7 dd 93 3b 34 d0 9d bb 3b 98 c1 bb 05 a2 fd bb
       0.004512507 -0.0048160795 -0.00590804 -0.0077402615
000060 e2 08 ff bb b4 3a c8 3b e2 48 84 bb b0 42 fe 3c
       -0.0077830413 0.0061105136 -0.0040370086 0.031037658
000070 04 e8 ad 3c 0b 3b a6 3c 9b b1 9f 3c 3f 0c bb 3c
       0.021228798 0.020291826 0.019493869 0.022832988
000080 5d 82 3f 3c e7 02 97 3c 70 98 b9 3c d3 60 99 3c
       0.011688796 0.018434001 0.022655696 0.018722927
000090 e2 9a ce 3c 4c d9 d8 3c e9 a5 c8 3c 2f 13 4d 3c
       0.025220338 0.026470803 0.024493175 0.012516781
0000a0 17 b2 56 3c 16 ea cf 3c 30 18 1f 3c 60 66 c8 3c
       0.013103983 0.025380176 0.009710357 0.024462879
0000b0 60 42 06 3c 26 83 1c 3e 76 06 16 3e db 90 15 3e
       0.008194536 0.15284404 0.14650902 0.14606039
0000c0 f3 ac 21 3e 45 e3 24 3e 9e d8 19 3e 3e 6d 1c 3e
       0.15788631 0.16102321 0.15024039 0.15276048
0000d0 df 31 25 3e 6f 63 1c 3e 9b e8 09 bd 22 93 9d bc
       0.16132306 0.15272306 -0.033669095 -0.019235197
0000e0 66 1b 0f bd bd dc bc bc d9 06 c3 bc c9 57 ef bc
       -0.03493824 -0.023054475 -0.023806976 -0.029216664
0000f0 3e ef e4 bc 5a a2 05 bd 76 b3 bf bc c8 73 f0 bc
       -0.02794611 -0.032625534 -0.023401003 -0.029352084
000100 d4 97 0a bd 9d 91 c8 bc c1 60 51 bc b0 47 c1 bc
       -0.0338362 -0.024483496 -0.012779416 -0.023593754
000110 1d e2 f8 bc 3a 19 e8 bc c6 0f fb bc a6 14 bb bc
       -0.030381257 -0.028332341 -0.03064717 -0.022836994
000120 32 a2 3c ba c8 e2 25 ba b2 8a 8d bb ec cc ac bb
       -0.00071958 -0.00063280435 -0.0043195123 -0.005273452
000130 13 4e 4b 3b 7c 93 f0 ba 19 12 37 3b 59 26 83 bb
       0.0031021878 -0.0018354501 0.002793437 -0.004002374
000140 11 69 0a bc 87 b2 85 ba b8 59 b3 bb 5c ef f7 bb
       -0.008447901 -0.00102003 -0.005473342 -0.0075663757
000150 80 98 5e b8 20 bf bb 3b f7 66 3f 3c 77 92 a2 bb
       -5.307095e-05 0.005729571 0.011682264 -0.0049613076
000160 66 24 f1 bb e1 09 f5 bb 36 12 2c 3e b6 f3 28 3e
       -0.0073590754 -0.0074779843 0.16803822 0.16499218
000170 46 e1 1e 3e 05 e6 26 3e 77 ee 31 3e 5d eb 29 3e
       0.15515622 0.16298683 0.17376123 0.1659369
000180 ea 9e 1b 3e 48 00 22 3e fc 5f 24 3e 07 46 68 3d
       0.1519734 0.1582042 0.1605224 0.05670741
000190 ee c3 68 3d 13 5e 50 3d b8 e5 01 3d 68 61 65 3d
       0.056827478 0.050870966 0.031713217 0.056001097
0001a0 a7 c7 6f 3d 25 ef 7a 3d 58 4f 6d 3d ea 2c 38 3d
       0.058540013 0.061263222 0.057936996 0.04496471
0001b0 9a 54 31 3c 18 1b dd 3b fa a0 ac 3b f9 a4 0e bb
       0.010823393 0.0067476146 0.0052682133 -0.0021765812
0001c0 d2 cc 8e 3b 07 0b a5 3b 77 31 cc 3a f7 3b 48 3b
       0.0043579126 0.005036715 0.0015578707 0.003055332
0001d0 68 dd 80 bb ef 6d 3e 3d c5 c4 3c 3d d3 ee 17 3d
       -0.0039326437 0.04649156 0.04608609 0.037092995
0001e0 13 d7 5b 3d 0e 8a 39 3d 55 64 2b 3d ed 7f 1b 3d
       0.053671908 0.045297675 0.04184373 0.037963796
0001f0 41 f2 20 3d 5d c3 10 3d 97 bf 42 3d e8 9d 43 3d
       0.03929353 0.035342563 0.047545996 0.047758013
000200 9f a2 1b 3d 95 ec 14 3d e3 01 2b 3d d2 d6 38 3d
       0.037996884 0.036358435 0.041749846 0.045126744
000210 1c 11 2f 3d aa e0 1e 3d 2c 4a 0d 3d 60 dc 30 3e
       0.042740926 0.038788475 0.034494564 0.17271566
000220 f8 9b 32 3e fe e7 43 3e 80 b1 45 3e 00 00 3f 3e
       0.1744231 0.19131467 0.19305992 0.18652344
000230 0d 10 41 3e 11 86 44 3e 87 d6 45 3e 8c 66 44 3e
       0.18853779 0.19191767 0.19320117 0.19179744
000240 57 e1 8b bd 0d e4 66 bd ef e3 88 bd 5a 9f 83 bd
       -0.068300895 -0.05636983 -0.066841 -0.06426878
000250 39 d7 45 bd 0e 2e 7a bd 03 31 81 bd 9c 9c 89 bd
       -0.048300955 -0.061079077 -0.06308176 -0.06719324
000260 8b 28 80 bd 35 dd 6a bd 06 7d 62 bd bc 79 68 bd
       -0.06257733 -0.057339866 -0.055295013 -0.05675672
000270 51 d2 79 bd bd 5a 31 bd 2e 29 55 bd a3 c5 82 bd
       -0.06099159 -0.043299425 -0.052041225 -0.063853525
000280 6e 1e 7a bd 47 b1 7f bd a0 4d 51 ba 42 1e 56 bb
       -0.061064176 -0.062424924 -0.00079842843 -0.0032671844
000290 00 a5 9b bb aa 90 4e b9 8e 62 2e 3b 13 16 6b bb
       -0.004749894 -0.00019699582 0.0026609036 -0.0035871312
0002a0 85 5d f3 ba 17 fc aa bb 12 3e f2 bb 03 ad 80 bc
       -0.00185673 -0.0052180397 -0.0073926533 -0.015707498
0002b0 a4 ca 9a bc 31 fc e5 bc b2 e6 8f bc a5 ba 1b bc
       -0.018895455 -0.028074356 -0.017566059 -0.009504949
0002c0 fd aa 3e bc 03 eb 03 bc d5 30 5f bc 65 c6 90 bc
       -0.0116374465 -0.008051637 -0.013622482 -0.017672727
0002d0 b7 e8 35 3e 8e 86 3c 3e c2 b0 38 3e 0c 76 3f 3e
       0.17764555 0.18410704 0.18036178 0.18697375
0002e0 81 2f 3f 3e 1d 22 47 3e 89 55 3f 3e b5 4a 37 3e
       0.18670465 0.19446607 0.18684973 0.17899592
0002f0 92 64 38 3e fa d9 e5 3c 8d af 09 3d a6 c6 04 3d
       0.18007115 0.02805804 0.033614684 0.03241601
000300 f6 bd 19 3d ab 41 04 3d 86 29 28 3d 23 bf f6 3c
       0.037534676 0.03228919 0.041055225 0.030120438
000310 8e 55 22 3d 4d a9 1d 3d 2c 80 81 bc 18 de aa bc
       0.039632373 0.038491536 -0.015808187 -0.020857856
000320 66 d3 c8 bc f1 4d 29 bc 87 2c 1c bc d6 d5 77 bc
       -0.024514865 -0.010333524 -0.0095321005 -0.015126666
000330 8e fb c1 bc 31 cc 95 bc d1 9c 38 bc fb c0 8d 3c
       -0.023679521 -0.018285843 -0.011267857 0.017303934
000340 ee 29 24 3c ec 48 c3 3c 70 d3 30 3c 8f e7 90 3c
       0.010019762 0.023838483 0.010792598 0.01768854
000350 bd cb 43 3c 2a 70 58 3c 31 47 6c 3c b5 c5 36 3c
       0.01195043 0.013210336 0.01442127 0.0111555355
000360 d8 0c 88 3a 18 23 44 3c 79 d0 a7 3c 66 ff 65 3a
       0.0010379804 0.011971258 0.02048515 0.0008773714
000370 1a 8a dd 3b a4 9f 75 3b df 14 4c 3c 22 8e e2 3b
       0.0067608478 0.0037479186 0.012456148 0.006913916
000380 93 36 e6 3a b4 12 42 3e 24 43 46 3e 27 4b 4e 3e
       0.0017563872 0.18952447 0.1936155 0.20145856
000390 d4 26 4b 3e 8e 07 45 3e 03 53 52 3e 3b d1 4a 3e
       0.1983903 0.19241163 0.20539479 0.19806378
0003a0 f6 42 45 3e e9 7b 4a 3e 92 49 d9 bc 2c 53 81 bc
       0.19263825 0.1977383 -0.026524339 -0.01578673
0003b0 ae b6 63 bc e8 25 4d bc ae e3 70 bc 9f f0 42 bc
       -0.013898535 -0.012521245 -0.014702721 -0.011898189
0003c0 2a c9 d7 bc f1 a6 97 bc 93 9c 93 bc cc 6d 91 bc
       -0.02634104 -0.018512221 -0.018018996 -0.01775255
0003d0 68 6c 81 bc f7 ae 95 bc 0e 08 9d bc 37 0f 9d bc
       -0.015798762 -0.018271906 -0.01916888 -0.019172294
0003e0 f6 43 87 bc ce 6a df bc ee 98 de bc 31 4d cb bc
       -0.016511898 -0.027272608 -0.027172532 -0.024817081
0003f0 ba 88 23 bc 20 4c 51 bc 77 df 5c bc 27 81 9e bb
       -0.009981329 -0.012774497 -0.013481013 -0.0048371735

conv_layers.0.0.conv.bias f4 [16]
000000 7e 46 59 3b 05 b1 b2 bc 35 53 86 bd f2 52 65 bd
       0.003315359 -0.021812925 -0.06558839 -0.055987306
000010 bc f6 b2 bd 15 85 d5 bc b9 8d 0c 3d 6e e0 5b 3d
       -0.08738467 -0.026064435 0.034314845 0.05368083
000020 37 2e 8f bd 87 8a 4a bd 70 c6 11 bd 91 84 62 bd
       -0.06991237 -0.049448516 -0.035589635 -0.055302206
000030 73 6e ee 3c 13 7e 0f bd 88 50 5b bc a4 ec 96 bd
       0.0291054 -0.035032343 -0.013385899 -0.07369354

conv_layers.2.0.conv.weight f4 [32, 16, 3, 3]
000000 35 2b ef ba 4e 89 6a 3b 94 9c 8a bb df 3f a3 bb
       -0.001824713 0.0035787406 -0.0042300913 -0.0049819793
000010 ae 74 9f 3b bd 30 48 bc 75 a9 24 bc 88 8e fe bb
       0.004866204 -0.012218651 -0.010050167 -0.007768456
000020 f2 35 88 bb 4f 55 25 bc b9 23 dc ba bc 08 ef bb
       -0.0041568214 -0.01009114 -0.0016795314 -0.0072947424
000030 7b 50 02 bc d0 af f2 bb 0d a4 0f bc 44 51 68 bc
       -0.007953758 -0.0074062124 -0.00876714 -0.0141795315
000040 eb d3 33 bc 4f 10 08 bc c8 7b b9 3a 3e 98 29 3b
       -0.010975818 -0.0083046695 0.001415127 0.0025878097
000050 f0 ad 59 38 f7 13 48 bb 68 47 52 bb 11 0e 90 bb
       5.1898824e-05 -0.0030529478 -0.0032086018 -0.004396208
000060 72 a8 04 bc 9e e7 8b bb 1e 07 e8 bb 4d a5 43 3b
       -0.008096801 -0.0042695543 -0.0070809266 0.0029853166
000070 08 e4 3e 3b fc 2b 0d 3a dd 6f 05 39 aa 2d db 3a
       0.0029127616 0.00053852773 0.00012725541 0.0016721983
000080 20 e6 79 38 d1 bb 24 bb 68 67 d9 b9 e1 c4 39 bb
       5.9580547e-05 -0.0025136361 -0.0004146651 -0.0028346109
000090 56 06 77 bb a8 db 61 bb 3f 4b 68 bb 0d 31 89 bb
       -0.0037692985 -0.00344632 -0.003544524 -0.0041867555
0000a0 b5 26 9e bb e2 bb 5a bb c3 a6 f6 bb 93 87 d3 bb
       -0.0048263916 -0.0033376147 -0.0075272038 -0.0064553707
0000b0 93 14 e1 bb 14 d9 9e 3c 52 89 a2 3c bc 1f 91 3c
       -0.0068689077 0.01939062 0.01984087 0.017715327
0000c0 12 a2 78 3c 0d 64 7b 3c 6a de 65 3c 0f 55 23 3c
       0.015175359 0.015343678 0.014030078 0.00996901
0000d0 f1 ea 35 3c a3 7e 1e 3c 7b d1 2a bc 85 09 27 bc
       0.011103378 0.009673747 -0.010425921 -0.010195141
0000e0 ad 8d b7 bc 88 40 d3 bc 41 80 85 3c 12 cf 9e 3b
       -0.022406423 -0.025787607 0.016296508 0.004846462
0000f0 ce e0 45 3c 30 2a 6e 3c c6 63 55 39 09 10 d7 3c
       0.012077523 0.0145364255 0.00020350431 0.026252763
000100 b0 cd 84 3c 41 70 3e 3c 85 39 41 bc 6e 69 a4 bc
       0.01621136 0.011623443 -0.011793499 -0.020069804
000110 c2 9f 6c 3c 7b d9 46 bc 14 0d a5 3b f4 45 ca bb
       0.014442386 -0.012136812 0.0050369594 -0.00617289
000120 a6 58 f5 3b 32 ed d0 3b 1a 5f 8f 3b 3b d3 4b 3b
       0.0074873744 0.006375932 0.0043753507 0.0031101245
000130 9e 8c 14 3b 94 ae 96 3b e7 41 c4 bb b4 ee d4 3a
       0.0022666822 0.004598448 -0.0059893015 0.0016245455
000140 e8 92 96 b8 b8 c4 51 3b fe dc 93 3b f4 3b 91 ba
       -7.179921e-05 0.0032008123 0.0045124283 -0.001108049
000150 3c 3e 05 bb 42 7b 91 38 04 c6 9f ba 3c 8f c8 bb
       -0.0020331284 6.937097e-05 -0.001218975 -0.0061205905
000160 6d 00 99 bb ed 8f 89 bb 68 62 fe 3b 90 f3 21 3c
       -0.00466924 -0.0041980655 0.007763196 0.00988473
000170 3c ff da 3b d8 dc a6 3b cd 39 cb 3b 51 71 94 3b
       0.0066832583 0.0050922446 0.0062019587 0.00453011
000180 cb 6a b5 b9 37 ca d7 3a c2 0d 65 3a 4f 8c fa ba
       -0.00034602577 0.0016463463 0.0008737707 -0.0019115302
000190 22 3f 5c 39 28 c5 37 bb e3 26 94 bb a9 a8 fb ba
       0.00021004354 -0.0028041098 -0.004521237 -0.0019200045
0001a0 e1 ee 97 bb 2c 3c 29 bc 93 7b ec bb bf f4 07 bc
       -0.004636631 -0.0103292875 -0.0072168796 -0.008298098
0001b0 d8 5e 06 bd 80 e8 32 bd 98 c0 a3 bc 9a 1b 20 bd
       -0.032805294 -0.04367876 -0.019989297 -0.039088823
0001c0 41 f2 73 bc 75 31 a9 bc c7 93 12 bd fc e6 a8 3b
       -0.014889301 -0.020653466 -0.035785463 0.0051544886
0001d0 11 7a 83 bc ae fd b3 bb 8d 05 80 bb f5 1f b3 bb
       -0.016049417 -0.0054928875 -0.0039069117 -0.005466456
0001e0 50 17 e7 bb c6 a8 ce bb b6 49 0b bc 4c 97 1a bc
       -0.0070523396 -0.0063067405 -0.008501461 -0.009435486
0001f0 06 4f 36 bc 9c 2e 0c bc 51 3f a1 3c d4 15 ce 3c
       -0.011127239 -0.008556034 0.019683512 0.025156893
000200 c6 8a 8c 3c 80 b0 d4 3c ae 9c bc 3c 27 61 99 3c
       0.017156016 0.025963068 0.02302393 0.018723084
000210 8d 58 aa 3c 6f 4f 8b 3c 2d 58 9e 3c e2 81 4d 3b
       0.020794177 0.01700565 0.019329155 0.0031357934
000220 84 9e 6c 3b 99 5e b7 3b 9c 6d 94 3a cc 63 15 3b
       0.0036105225 0.0055959937 0.001132417 0.002279508
000230 34 3c 99 3a 4c bf 00 3a 31 61 17 3b c7 10 dc 3a
       0.0011690916 0.0004911318 0.0023098702 0.0016789668
000240 65 b0 87 3c b0 dd 7e 3c 45 fb 80 3c 7b 47 71 3c
       0.016563604 0.015555784 0.015744815 0.014726515
000250 52 93 44 3c 6e b9 7e 3c e4 9c 8a 3c 93 71 8b 3c
       0.0119980145 0.01554714 0.016920514 0.01702193
000260 0d 78 8a 3c 23 01 49 bb 60 09 9d bb 7c e8 70 ba
       0.016902948 -0.0030670844 -0.0047923774 -0.00091899163
000270 3a b6 b1 bb 64 14 df bb 71 16 dc ba e8 2c 81 bb
       -0.0054233344 -0.0068078507 -0.0016791356 -0.003942121
000280 86 02 2b bb d0 a7 22 3b 74 33 de 3c 55 45 c2 3c
       -0.0026094033 0.0024819262 0.027124144 0.0237147
000290 0d 92 8a 3c 20 c9 f2 3c ea a4 cc 3c a1 f6 bb 3c
       0.016915346 0.02963692 0.02498098 0.02294475
0002a0 22 08 03 3d 54 6a fa 3c 46 45 de 3c 1f d1 b5 3c
       0.031990178 0.03056828 0.027132642 0.022194443
0002b0 68 22 9e 3c 30 4f 68 3c 78 41 c4 3c 3f dc 97 3c
       0.019303516 0.014179036 0.023957 0.018537639
0002c0 fa cc 90 3c 2d ab de 3c c1 d4 d8 3c ca db b3 3c
       0.017675865 0.027181232 0.026468636 0.02195539
0002d0 3d 84 14 3d b0 ff 17 3d 79 31 0b 3d 32 90 18 3d
       0.036258925 0.037109077 0.033982728 0.03724689
0002e0 f1 40 0f 3d 6b 5e 11 3d 26 0c 30 3d 83 90 2f 3d
       0.034974042 0.035490435 0.042980336 0.042862426
0002f0 d6 58 30 3d 2f 8d 9e 3d d3 4e a5 3d e0 5f 8d 3d
       0.04305347 0.077417724 0.08071675 0.06903052
000300 a6 99 b0 3d 2c f3 ab 3d 31 2e a5 3d 76 3d aa 3d
       0.08623056 0.08395991 0.08065451 0.08312504
000310 49 b9 b3 3d dd ca a6 3d b8 41 09 3c 00 bb 49 3b
       0.08775575 0.08144162 0.008377485 0.0030781627
000320 02 d8 22 3c 1c a3 06 3c cb 8b 4d 3c b5 07 16 3c
       0.009939196 0.008217599 0.012545536 0.009157111
000330 e3 f2 c3 3b 8b 75 0a 3c 34 1f e1 3b 54 a6 36 3c
       0.005979882 0.008450876 0.006870175 0.011148054
000340 3f ef 4a 3c 90 4d 9b 3c bd d0 43 3c 9c 1a 07 3c
       0.012386142 0.018957883 0.011951623 0.00824609
000350 7f 33 52 3c ac 0f 7e 3c 2d 4d e7 3b ac 18 c5 3b
       0.01282966 0.015506666 0.0070587606 0.006014904
000360 43 e1 f2 3c 2a 4f e2 3c 5c d7 af 3c 80 71 ff 3c
       0.029648429 0.027625639 0.021464996 0.03118205
000370 28 26 e0 3c 2e 8d d4 3c 50 a8 11 3d 00 18 08 3d
       0.027361944 0.025946226 0.035560906 0.033226013
000380 9e 1a fb 3c 58 88 2f 3d b2 cb 44 3d c5 4a 20 3d
       0.03065234 0.042854637 0.04804582 0.039133806
000390 7c ff 40 3d f7 64 4e 3d 50 04 3b 3d a1 53 55 3d
       0.04711865 0.050389256 0.04565841 0.052081708
0003a0 e7 fa 67 3d c6 06 5e 3d 48 4c 27 3d fe 3d 1f 3d
       0.056635763 0.05420568 0.04084423 0.03887748
0003b0 a3 13 f2 3c 61 f4 2e 3d 68 f3 12 3d d6 95 0b 3d
       0.02955038 0.042713527 0.03587666 0.03407844
0003c0 db 7f 2e 3d 8b a6 33 3d 88 c4 1a 3d 40 48 ba 3c
       0.0426024 0.04386 0.037785083 0.02273953
0003d0 37 bb b4 3c 5f b9 8d 3c d0 7c a8 3c d7 eb a0 3c
       0.022061927 0.017300306 0.020567328 0.019643707
0003e0 11 09 97 3c 99 e9 9b 3c e7 8c c4 3c 5c ee ab 3c
       0.01843694 0.019032286 0.023992969 0.020987682
0003f0 86 06 20 3c 52 45 a7 3b 29 e9 e5 3b 62 79 06 3b
       0.00976718 0.005104699 0.0070163202 0.0020519127

conv_layers.2.0.conv.bias f4 [32]
000000 b2 24 dc bc 02 d1 a4 3b b7 db e4 3a 9a 6b d5 3b
       -0.026872966 0.0050297985 0.00174605 0.0065130712
000010 bf b2 2b 3d f4 74 ed bc 7a 07 89 3c 12 4f c1 3c
       0.041918512 -0.028986432 0.016727198 0.023597274
000020 b5 86 1d bd ac 1a d9 3b f6 cb bb bb 08 5e bd 3c
       -0.038458545 0.006625494 -0.005731101 0.023116127
000030 e6 1e b3 bc ff 0d 00 bd 69 9e ac bc e6 7e 20 3b
       -0.02186532 -0.031263348 -0.02107163 0.00244897
000040 0f 04 12 bc 28 3c 57 bd 98 8b 65 3d 3e 51 2f 3c
       -0.0089121 -0.052547604 0.05604133 0.010700522
000050 61 39 b9 3c 5b 42 08 bd 60 8a 6b bc 39 b2 ea 3b
       0.022610368 -0.033266407 -0.014376253 0.007162359
000060 80 35 f7 3c 9e 1a eb bc 13 88 2a 3b ff fa 8b 3c
       0.030176878 -0.028699216 0.0026021048 0.017087458
000070 96 4e df 3c 0b 04 d0 bb 3c 3c e7 3c a3 cd 23 bc
       0.027259152 -0.006348138 0.028226964 -0.009997758

conv_layers.4.0.conv.weight f4 [32, 32, 3, 3]
000000 57 ef 5d bc ac f6 54 3c e9 95 48 bc 60 43 25 bc
       -0.013545833 0.012998264 -0.012242773 -0.010086864
000010 f6 20 59 3c 4e f5 08 3c 86 60 3b 3c c5 22 82 3a
       0.013252487 0.008359266 0.011436587 0.0009928575
000020 ef d1 54 bc 21 13 f9 3c 6d 7a 25 3d 17 4d de 3c
       -0.012989505 0.03040463 0.040399957 0.027136369
000030 db 82 04 3d 4e 45 2c 3d 4a eb fd 3c b4 f4 11 3d
       0.032351356 0.04205828 0.030995984 0.035633758
000040 ea 3c 45 3d 94 43 27 3d 2a d8 d9 3c 52 c7 4f 3d
       0.048153795 0.040835932 0.026592333 0.050727196
000050 9a 4c 08 bc 38 06 cc 3b af d7 f7 3b 3f 91 51 3b
       -0.0083190445 0.0062263273 0.0075635533 0.0031977443
000060 24 e9 8b 3c 27 fc 0c 3d a9 5e 09 3d b6 6f 2f 3d
       0.017078944 0.03442016 0.03353754 0.042831145
000070 e7 fb 9d 3c c5 59 e4 3c 30 1f 32 3c 43 bd 5d 3d
       0.019285155 0.027874837 0.0108716935 0.054135572
000080 17 b3 be bb 22 af 6d 3a c0 b6 67 3c b8 55 39 3d
       -0.005819689 0.00090669293 0.014142692 0.045247763
000090 30 b5 05 3d 1b 82 50 3d 9c c3 52 3c 67 63 e8 3b
       0.032643497 0.05090533 0.01286402 0.007091928
0000a0 65 67 83 3c 2c b0 4e 3c 2f bb 03 3d fd 10 2a 3d
       0.016040513 0.012615245 0.032160934 0.041520108
0000b0 36 d7 e7 3c ba 86 11 bd 18 82 9c bc 1f c8 c3 bc
       0.028300863 -0.035528876 -0.019105002 -0.023899136
0000c0 06 ba 13 bd 6f 51 c7 bc b6 eb a4 bc 43 c1 bc bc
       -0.036066078 -0.024330823 -0.020131927 -0.023041373
0000d0 71 9f 82 bc b4 ba df bc df 65 e6 3b 7b 81 84 3c
       -0.015945168 -0.027310707 0.007031187 0.016175022
0000e0 e0 1d ca 3c c5 2a c2 3c 43 5f fe 3c c3 00 b1 3c
       0.024672449 0.023702035 0.031051284 0.021606809
0000f0 0e 0a c6 3c 27 33 16 3d 49 28 ba 3c b6 da 15 3d
       0.024174716 0.036669876 0.022724288 0.036585532
000100 ed fb 63 3d a2 59 77 3d a8 46 f2 3c f7 62 01 bc
       0.055660177 0.060388215 0.029574707 -0.00789713
000110 48 d4 80 3a 58 9d 07 bc c3 9b 3f 3d dd 68 b9 3c
       0.000982889 -0.00827726 0.046779405 0.02263301
000120 dc 8e 1a 3c d5 ff ad 3a 69 7f 0d 3c 40 85 27 3c
       0.009433474 0.0013275096 0.008636334 0.01022464
000130 96 25 9b 3a d7 cb 3e 3b 76 f1 62 3a 97 3f d7 3b
       0.0011836763 0.0029113197 0.00086571963 0.00656886
000140 49 8b 3e 3c 5f cc 48 bc f1 50 a2 3c 7a 1c bb ba
       0.011629888 -0.012255757 0.019813986 -0.0014275454
000150 d5 3c 88 bc e0 ae d7 3c e8 6b 5f bb d0 ce 25 3d
       -0.01663057 0.026328504 -0.0034091417 0.040480435
000160 86 1e 19 3d 33 a8 e4 3b 8c 17 99 3c 51 77 ae 3c
       0.037382625 0.0069780587 0.018687986 0.021297129
000170 38 2d 29 3c 7a af c8 3c 95 40 a8 3c c8 53 5f 3c
       0.010325722 0.024497736 0.020538608 0.013630815
000180 eb b4 42 3c a1 9e d5 3c ff 68 c2 3c 44 b8 fe 3c
       0.0118839545 0.026076617 0.023731707 0.031093724
000190 0f 8c b1 3b 8d a8 00 bc 4e ad a5 3c 31 cd d6 3c
       0.0054183076 -0.007852686 0.02022424 0.02622089
0001a0 2e a7 ca bc bd 98 3c 3d 19 45 86 bb cc 55 2e 3d
       -0.02473792 0.0460441 -0.0040975926 0.04256229
0001b0 34 e9 2d 3b a0 c7 b6 3b d2 ad 72 ba c8 32 44 3a
       0.0026536705 0.0055779964 -0.00092574686 0.00074843736
0001c0 48 74 e5 3b 1e 77 af 3b e9 55 22 bb b0 5b 64 3c
       0.007002387 0.005354776 -0.0024770445 0.013937876
0001d0 2a 2e 22 3c 59 84 0c 3d 97 dd b9 3c df 38 87 3c
       0.009898702 0.034305904 0.02268867 0.01650661
0001e0 da b2 c3 3c 2f fb 8e 3c c8 37 f5 3c 8b c4 15 3d
       0.023888994 0.017453758 0.029933825 0.03656439
0001f0 0d 60 a0 3b b2 a8 14 3c 1a 70 28 3d 87 f9 57 3d
       0.0048942626 0.009073423 0.041122533 0.052728202
000200 b4 51 e4 3c fa 4d 2a 3d 54 ff 54 3d c8 b0 28 3d
       0.02787099 0.04157827 0.052001312 0.041184217
000210 e9 fe 34 3d a3 dc 6e 3d bf 56 5c 3d 79 cd a1 bb
       0.044188414 0.058315884 0.053793665 -0.0049378243
000220 57 f0 03 3d ad 94 e5 3c 32 63 3d bc 42 ad eb 3c
       0.032211628 0.028024996 -0.011559295 0.02876914
000230 2c e7 fd 3b d9 44 a5 bc 81 14 59 3d 1c 49 61 bc
       0.007748505 -0.02017443 0.05299807 -0.013750341
000240 b5 c9 91 3c 69 b9 1e 3d 73 87 ac 3c 22 b5 88 3c
       0.017796377 0.03875104 0.021060681 0.016687933
000250 9a 43 dc 3c 2a 5d fb 3c d9 8a 6e 3c 6c 93 e6 3c
       0.026887704 0.030684073 0.014559471 0.028146468
000260 b5 15 63 3c 77 11 a8 3b 80 5b 56 bc 25 84 d3 bc
       0.013860156 0.005129035 -0.013083339 -0.025819847
000270 56 cb 9a bc 11 b4 16 bc f3 ba 4b 3a 07 75 9c 3c
       -0.018895786 -0.009198205 0.0007771693 0.019098772
000280 0a 82 7f 3b c1 ae 3b bc e6 9f a6 bc 86 a3 5c 3d
       0.0038987421 -0.011455239 -0.020339917 0.053866886
000290 82 b6 19 3d 78 d0 61 3b c7 ad e1 bb ee 60 62 3c
       0.03752757 0.0034456532 -0.006887171 0.013817055
0002a0 4b 9d 1e 3d c9 dd 18 bd ac cd fd 3c bb 18 57 3c
       0.038724225 -0.037320886 0.030981861 0.013128455
0002b0 d5 7b 04 3d 88 0f b6 3a ea 70 8a 3c 27 be 3b 3d
       0.032344658 0.0013890127 0.016899545 0.04583564
0002c0 eb f2 23 3d af cd bd bb 8d 11 0b 3c 89 3e 8a 3c
       0.040026587 -0.0057923417 0.008488071 0.016875522
0002d0 a1 91 20 3d b7 d8 2e 3d 50 1e 89 bc ba 7c db 3c
       0.039201383 0.042687144 -0.016738087 0.026792873
0002e0 04 7f 12 3d 21 8a 92 ba 2a 07 16 3d d3 af 30 3d
       0.035765663 -0.0011180082 0.036627926 0.04313643
0002f0 c5 c1 43 3d eb 82 94 bc f5 03 91 bc c3 0e a7 3b
       0.047792215 -0.018128833 -0.017702082 0.0050981953
000300 ea 2c ca bc 69 45 77 bc d5 af db 3a 1c 88 1d bc
       -0.02467962 -0.015092232 0.0016760776 -0.009614971
000310 90 c5 cb 38 38 aa e9 ba 0b 1f a5 3c 5b 94 ff 3c
       9.716593e-05 -0.0017827218 0.020156404 0.031198671
000320 3d 7a bc 3c 39 38 9f 3c 8d 74 fa 3c cc c8 c8 3c
       0.023007507 0.019435989 0.030573154 0.02450981
000330 4f 00 b7 3c 14 e7 0f 3d 4c c8 ee 3c 53 89 4a 3c
       0.022339014 0.035132483 0.029148243 0.012361842
000340 5b 03 35 3d f7 12 9e 3c 1c 4d 57 3c 8d 1f 96 3c
       0.044192653 0.019296153 0.013140943 0.018325591
000350 29 30 14 3c 8a 69 0b 3d a0 dc 05 3d b5 fc d4 3c
       0.009044685 0.034036197 0.032681108 0.025999406
000360 45 9b 5c 3d 1b bb a5 3b 73 82 42 3d 20 47 30 3d
       0.053859014 0.005057705 0.047487687 0.04303658
000370 18 79 2b 3c 75 84 dc 3a 81 31 5b 3c a0 06 0c 3d
       0.010465883 0.0016824143 0.013378502 0.034186006
000380 ad f6 cd 3c 8c 88 e3 bb 61 7d 58 3b 9c 06 ac 3b
       0.025142038 -0.006943768 0.0033033716 0.0052498113
000390 0a f9 cb bc 6a 60 2c 3b 2d c3 24 bc 90 d7 5b bc
       -0.024899025 0.0026302584 -0.010056299 -0.013418093
0003a0 64 09 aa bc 74 62 8a 3c 74 66 c1 3b f1 9f 9a bc
       -0.02075643 0.01689265 0.005902106 -0.018875094
0003b0 79 00 35 bb ca 3e f5 bc 26 8b 99 bc fb b3 ef bc
       -0.002761869 -0.029937167 -0.018743109 -0.029260626
0003c0 f3 35 94 3c c9 24 1d bd f0 fc af b8 92 ec c4 3b
       0.018092131 -0.03836516 -8.3917635e-05 0.0060096467
0003d0 09 19 ca 3b d0 b5 67 3c bd 10 95 3b e5 db b8 3c
       0.006167535 0.014142469 0.0045491145 0.022565791
0003e0 00 16 22 3c 8a 1d 9f 3c 2f f8 7d 3c 6e e6 8d 3b
       0.0098929405 0.019423265 0.015501066 0.004330448
0003f0 d2 ef fe 3c 92 f2 2a 3c 0c 92 0b 3d 8e 4a 09 3d
       0.031120215 0.01043381 0.034074828 0.033518367

conv_layers.4.0.conv.bias f4 [32]
000000 20 e7 04 bd e1 ed cc bc 54 50 0e 3d f7 6f 1e bc
       -0.03244698 -0.025015773 0.034744576 -0.009670249
000010 be 87 5a 3c 4f 5a f7 3c 94 76 20 bd f2 ec 1d bd
       0.0133380275 0.03019443 -0.039175585 -0.038556047
000020 7b f0 15 bd ab c9 fb 3b 6e d3 84 3c 1a 32 fa 3c
       -0.036606293 0.007683953 0.016214099 0.030541468
000030 db 7c 93 bc d5 61 54 3d 94 93 9a bc be d5 02 3d
       -0.018003872 0.051851112 -0.018869199 0.03194212
000040 90 b3 d7 bc cb ad a3 3c a5 cf 09 3c b1 45 14 3d
       -0.02633074 0.019980332 0.008411323 0.036199275
000050 1d 2e d2 bc 7e 4c 10 3d e2 5a 2f 3d 6c 7e 29 3d
       -0.025656754 0.0352292 0.042811282 0.04138033
000060 f4 a9 fb 3c 96 ee cc bc 0b 9b b3 ba c8 73 d5 bc
       0.030720688 -0.02501611 -0.0013702823 -0.026056185
000070 b6 a8 06 bd 34 82 f3 3c 5e 57 ef bc 3b f6 0c bc
       -0.03287574 0.029725172 -0.029216465 -0.008603628

conv_layers.5.0.conv.weight f4 [32, 32, 3, 3]
000000 37 f4 19 bc d8 5f c1 bc 66 cf e6 bc 98 ce 81 bd
       -0.009396604 -0.023605272 -0.028175067 -0.06338233
000010 9b bc cf bb 25 39 4e bd 10 ab bf bb 26 5c 11 bd
       -0.006339622 -0.050347466 -0.0058492497 -0.03548827
000020 1e 5d e0 bb dd a8 5a 3c 21 f3 5a bc be d7 bb bc
       -0.006847038 0.013345924 -0.0133636305 -0.022930022
000030 3f 95 9e bc 2d 68 d1 bc 91 a5 a7 bc c5 2e 7c bc
       -0.019358275 -0.02556237 -0.02046469 -0.01539201
000040 36 9e 6c bc 1b 34 b3 3c c2 83 22 3c 30 ae 56 bc
       -0.014442017 0.021875432 0.009919109 -0.013103053
000050 f2 92 32 bb aa 19 91 bc c8 e2 88 3b f7 5d f5 3a
       -0.002724823 -0.017712433 0.004177425 0.001872002
000060 04 07 21 ba c6 74 89 bc 84 f6 13 bc 63 e6 4c bc
       -0.0006142708 -0.016779315 -0.009030942 -0.0125061
000070 79 0e 8b bc d4 93 ba bc f4 48 a1 bc 32 52 86 bc
       -0.016974675 -0.022775568 -0.019688107 -0.016396616
000080 0f 50 ba bc 97 20 8e bc 7f 7b ca bc 8b d0 aa bc
       -0.022743253 -0.017349524 -0.02471709 -0.020851394
000090 88 17 a1 3b 80 d7 49 bd 5f cf 22 bd 29 f2 3a bd
       0.004916135 -0.049277782 -0.039748546 -0.0456411
0000a0 e4 f0 b3 3c df 50 31 bd c4 1f 32 bd ec b3 02 bd
       0.021965452 -0.043290015 -0.043487325 -0.031909868
0000b0 3a f1 6c bb 55 cd 82 bb ca 0f 31 bc 87 82 9e 3c
       -0.0036154524 -0.0039917626 -0.010806987 0.01934935
0000c0 6b cf 88 3c 94 aa e6 3b 92 56 1e bc 3f ea 68 3c
       0.016700467 0.0070393775 -0.009664195 0.014216005
0000d0 14 ac 34 3c 0c 57 55 bb 93 28 fa bc 7d 1b 47 bb
       0.011027355 -0.0032553105 -0.030536925 -0.0030381375
0000e0 07 4f 98 bc d8 3b 7d 3c 8a 10 05 bd c9 ba 12 bb
       -0.01859237 0.015456162 -0.032486476 -0.0022389165
0000f0 8f 94 2b bc 8c 3b 29 bc 48 9a 83 38 20 65 4b 3c
       -0.010472431 -0.0103291385 6.275304e-05 0.012414247
000100 d7 6d 90 3c d0 6d e2 bb 58 8e 2f 3c 1a 8f 17 bd
       0.0176305 -0.0069100633 0.01071509 -0.037001707
000110 d1 ee e4 3c ea f5 8b bc 15 6b 79 3b 6f 7a 98 3c
       0.027945908 -0.017085034 0.003805821 0.018613068
000120 4e 5f ea bc a7 3e 83 3c 4c 0d 0b bd 3e 45 6c bc
       -0.028609898 0.016021086 -0.033948228 -0.0144208055
000130 71 64 c3 3c cc be ed 3c b7 e3 8f 3c 43 86 18 bd
       0.023851605 0.029021643 0.017564638 -0.037237417
000140 5b 71 a0 bb fb a7 83 bc e0 f5 c7 bb 2f 16 05 bd
       -0.0048963255 -0.01607131 -0.0061023086 -0.03249186
000150 ad e9 95 3c d4 0e 3e bc 24 bb 00 bd 33 77 23 bd
       0.018299902 -0.011600215 -0.03142847 -0.0399086
000160 3c 41 6e 3c a6 5c 60 ba d9 8d 50 bc 2e 94 26 bc
       0.01454192 -0.00085587276 -0.012729132 -0.010167165
000170 b9 a2 32 bb 30 c8 bd bc 73 54 d5 bc 79 5b 1f bc
       -0.0027257635 -0.023166746 -0.026041245 -0.009726399
000180 47 da b2 bc 07 d6 42 3b 50 4b 15 3c b2 f8 05 bb
       -0.021832598 0.002972962 0.009112194 -0.0020442423
000190 1a 2c f9 3b 27 f8 ce 3b dd 02 b3 bb d4 78 23 bc
       0.0076041343 0.006316203 -0.005462988 -0.009977538
0001a0 2d 94 e4 bb bd a4 03 bc e9 a6 2a ba f9 09 8b bb
       -0.0069756717 -0.008034882 -0.0006509857 -0.004243132
0001b0 52 63 a9 39 7b 0a 2d bc 93 53 61 bc be 9a 4f bc
       0.0003230819 -0.010561581 -0.013752836 -0.012671171
0001c0 3c 93 5e bc 7d 8c dc bb 34 2f 1f bd 26 54 c6 bc
       -0.013584908 -0.0067306147 -0.038863376 -0.024210047
0001d0 46 bb e5 bc b4 05 09 3d 7a 2f 5c bc 0a 18 7e bc
       -0.0280434 0.033452705 -0.013439054 -0.015508661
0001e0 2c 6c fc bb 41 c5 a3 3c e9 f1 cf 3c fd ef 17 3a
       -0.007703325 0.019991519 0.025383906 0.0005795954
0001f0 15 af b6 3c d7 24 33 3c f4 5b d7 3c 1a 27 c5 bc
       0.022300282 0.010934076 0.026288964 -0.024066497
000200 8f ee bd bb 89 15 4e 3c 34 01 e1 bc b6 77 06 bd
       -0.0057962607 0.012578377 -0.027466394 -0.03282901
000210 91 cd 83 3c 2b 70 a8 bc 21 b6 6e 3b ab 33 e7 3b
       0.016089233 -0.020561298 0.0036424475 0.00705572
000220 11 6f 5f bc 3a 15 82 bc 71 41 86 bb 30 d2 a1 3c
       -0.01363732 -0.015879262 -0.0040971567 0.019753546
000230 bb 9d 54 3c 20 cc fe 3a fb 5c 9e 3c 54 d8 b4 3c
       0.012977059 0.0019439496 0.019331446 0.02207581
000240 ce 10 10 bd 3b 8e db bc 92 06 18 bd 30 e8 da 3b
       -0.035172276 -0.02680122 -0.03711564 0.006680511
000250 76 e9 64 ba b7 2c d6 3b 06 54 b4 3a fb 86 e6 bc
       -0.0008732298 0.006536092 0.0013757951 -0.028140536
000260 a8 3c 21 bc 8b b5 09 3c 86 ee dd 3c 81 8e c2 3b
       -0.009841122 0.0084051 0.027091276 0.005937398
000270 19 13 45 3c 49 4e 2b 3d 0f 12 0e bc 80 36 a9 3c
       0.012028479 0.041822705 -0.008671298 0.02065587
000280 1e 49 22 bc a2 fe 2b 3c e1 76 02 bc 7e 6a 79 bc
       -0.009905128 0.010497721 -0.007962913 -0.015223144
000290 8d cb 11 3c 39 84 e8 bb 27 00 0d bc 5c 49 41 3c
       0.008898628 -0.0070958403 -0.008605993 0.011797275
0002a0 60 9e fb b9 e1 4b d8 bb b1 1f 8c 3c 82 3b 38 bc
       -0.0004799245 -0.0066008423 0.017104955 -0.0112446565
0002b0 72 0f 81 3c 76 0c f6 3a bd 1a a8 3c d8 c4 8f bb
       0.015754435 0.0018772024 0.020520562 -0.0043874793
0002c0 cc 57 88 3b 8c 50 7a bc 7f 59 1a 3c a9 d1 94 bb
       0.004160857 -0.015277993 0.009420752 -0.004541595
0002d0 06 71 03 3b 2d 8e 6e 3b 06 75 5e 3c 84 9f fb bc
       0.002005638 0.0036400661 0.013577705 -0.030715711
0002e0 f6 cf 61 bc 17 89 03 bd e9 58 f0 bc 34 0e 83 3c
       -0.013782492 -0.03211316 -0.02933927 0.015997984
0002f0 36 5e 5f 3c 61 27 50 3c d4 a0 59 bd 62 65 99 3c
       0.0136333015 0.012704701 -0.053131893 0.0187251
000300 a7 05 14 3a ec 48 e4 3c 41 0b 8d bc b2 ab 3c bd
       0.0005646594 0.027866803 -0.01721728 -0.04606218
000310 02 b6 0f bd 38 30 64 3c bf ad 88 3c f8 e8 84 3c
       -0.035085686 0.013927512 0.016684411 0.01622437
000320 45 83 95 3c 58 9e 03 3d 7b 7f 97 bc d0 ef dd bb
       0.01825107 0.03213343 -0.018493405 -0.0067729726
000330 c1 c5 8e 3c ff 50 33 bc 9d 0c d0 3c 2f 89 b3 bb
       0.01742828 -0.010944604 0.02539664 -0.005479
000340 00 cd 33 3d c2 4b 3c 3c 00 0d 99 3c 25 ab 55 bb
       0.043896675 0.011492671 0.018682957 -0.003260323
000350 ce 99 22 bd f9 e1 05 3d c4 be 85 bc 1e e6 88 39
       -0.03969746 0.032686207 -0.016326316 0.00026111392
000360 3f 63 a6 3c d4 02 42 3b d9 7c a8 3c 87 00 d3 bc
       0.020310996 0.0029603736 0.020567345 -0.025757087
000370 22 38 8a 3c ad 7f b6 bc a1 c3 5a bc f4 01 8c bc
       0.01687247 -0.022277677 -0.013352306 -0.017090775
000380 e7 38 0c bc 48 7a 2d bd 69 f2 00 bc 9b c9 e9 bc
       -0.008558488 -0.042352945 -0.007870295 -0.028538516
000390 77 ad 17 bc a5 d5 fb bc 22 08 f4 3b dc 4e 1a bd
       -0.009257666 -0.030741522 0.0074472586 -0.037672862
0003a0 c5 be c3 bc 29 36 a1 ba a9 10 5a bb 02 d8 1e bd
       -0.023894677 -0.0012299466 -0.003327409 -0.03878022
0003b0 89 12 03 bc 75 a3 c9 bb b0 fd f4 bc f6 b9 63 bc
       -0.008000025 -0.006153519 -0.029906124 -0.013899317
0003c0 8b d5 98 bb 31 8f fc bb c4 44 31 bc b8 58 dc 3b
       -0.004664128 -0.0077074994 -0.010819618 0.0067244433
0003d0 ac 42 8a bb 16 63 52 3c ec e6 58 3c 3a 08 d0 bc
       -0.0042193737 0.012841007 0.01323865 -0.025394548
0003e0 21 6e 80 bc d2 60 fd bb cf cb 83 bb 72 85 37 bc
       -0.015677514 -0.007732489 -0.0040220986 -0.011201249
0003f0 91 6d d2 bc 50 01 71 bc 9c 62 0b bd 2f cd 31 bd
       -0.025687011 -0.014709786 -0.034029588 -0.04340857

conv_layers.5.0.conv.bias f4 [32]
000000 ef d4 7f 3d 20 54 a7 b8 85 36 2f bc 5a a7 27 bc
       0.06245893 -7.97885e-05 -0.010694151 -0.010232771
000010 be 63 f0 3b b1 cf 03 bc 9a 66 01 3d df 9e 92 3d
       0.007336109 -0.008045123 0.03159199 0.071592085
000020 03 bd 09 3c 35 3b 16 3c c1 92 40 3d 55 1e 93 3d
       0.00840688 0.0091693895 0.047014955 0.0718352
000030 30 e5 90 3d f1 73 89 3d 2e bc 5d bd 58 7a e2 3a
       0.07074964 0.06711567 -0.05413454 0.0017278893
000040 7a 7c 39 3d f2 e1 c7 bc 4a d9 e1 3c de ca ab bc
       0.045284726 -0.024399731 0.027569432 -0.020970758
000050 e6 67 99 3c 26 7c 1f 3d 09 9e 84 bc de 80 01 bc
       0.0187263 0.038936757 -0.016188638 -0.0079042595
000060 4d 80 80 3d 70 d0 6f 3c 6d fb 90 3b e3 c3 37 bd
       0.062744714 0.014637098 0.0044245035 -0.044864547
000070 38 9a 12 3d f6 f0 f4 bc e7 1f 1e bd 70 41 27 bb
       0.035791606 -0.029900055 -0.038604643 -0.0025521182

conv_layers.7.0.conv.weight f4 [16, 32, 3, 3]
000000 f4 41 26 3c 7e 22 0c bd 2d 9b aa 3d 2a 6e e6 ba
       0.01014756 -0.03421258 0.08330379 -0.0017580439
000010 9c b1 5a bd 13 63 cd 3c f9 a5 ae 3b e4 bf 2b bd
       -0.053392038 0.025071656 0.005329844 -0.041931048
000020 92 e5 4f 3b 5d e1 f7 bc 14 77 a0 3c e5 a0 69 bc
       0.0031722528 -0.030258829 0.01958803 -0.014259552
000030 74 90 4e bc 10 c5 2b 3d 0e 42 10 bc f2 e0 11 bd
       -0.0126076825 0.04193598 -0.008804811 -0.035614915
000040 44 66 12 3d 48 45 12 bd fa 3d 82 bc 1c 04 2f 3c
       0.03574206 -0.035710603 -0.015898693 0.010682132
000050 af 51 3c 3b e6 90 85 bb 08 1f 8b 3c 56 9d 7a 3b
       0.002873521 -0.004076111 0.01698257 0.0038240752
000060 20 43 d3 bc 88 9c 21 3c 23 d5 6c bc 5f 40 2b 3c
       -0.025788844 0.00986398 -0.014455113 0.010452359
000070 aa e7 0e 3d fe 20 11 bc d5 dc d1 bb 94 0a bc 3c
       0.0348889 -0.008857964 -0.006404499 0.022954263
000080 6b f7 76 3a b7 d7 13 bd e2 3d ef 3b 5a a8 c5 bb
       0.00094210234 -0.036094394 0.007301078 -0.006032032
000090 d4 17 25 3c fc ef 08 3d 03 2f 02 bd f1 ff 7a bd
       0.010076482 0.033431992 -0.031783115 -0.06127924
0000a0 82 6f 09 3d 03 f0 22 bd 8f 9a e8 bc ff 79 ee 3c
       0.033553608 -0.039779674 -0.028394012 0.029110907
0000b0 c2 80 8d bd 47 3e 0c bc 5e e7 b3 3c a8 aa 36 bd
       -0.06909324 -0.00855977 0.02196091 -0.044596344
0000c0 96 6d 08 bd 1c 6b 3a 3d 00 b6 6d 3c 43 82 9a bc
       -0.033307634 0.045512304 0.014508724 -0.018860942
0000d0 a7 5f 12 3c c9 bd b1 bc 89 89 b7 3c ef 1e e2 3c
       0.008933938 -0.021696942 0.022404449 0.02760264
0000e0 61 aa a1 3c fa 9e c9 3c 5c ca 2f 3b d9 8e ea 3c
       0.019734563 0.024611939 0.0026823496 0.028632568
0000f0 c5 d2 ed 3c aa 38 f9 3b 5a 55 a4 3c 4a 73 8b 3d
       0.029031167 0.007605632 0.02006023 0.06809099
000100 8c c0 8c 3b b0 c9 68 3d a3 92 b9 3c 27 bd fd 3c
       0.0042954143 0.05683297 0.02265293 0.030973984
000110 6c 48 1f 3d e1 c3 07 3d c9 6f e7 bc 85 34 7f 3d
       0.038887426 0.03314579 -0.028251546 0.062305946
000120 29 f8 b5 ba 2c cf e3 3c 15 8d 84 bc 28 04 f1 bb
       -0.0013883162 0.027808748 -0.016180554 -0.007355232
000130 f6 ff 17 3d 66 f4 b1 bc 68 c0 60 bc ca ec 3f 3d
       0.037109338 -0.021722984 -0.013717748 0.04685668
000140 9c a1 52 bc 96 59 e1 3c 61 c7 85 bd 8d f3 b8 3b
       -0.0128559135 0.027508538 -0.06532169 0.005644268
000150 77 98 39 3d 64 b8 bb bd f8 a6 69 3d 0c 73 84 3d
       0.045311417 -0.09166029 0.057044 0.06467256
000160 a7 20 6d bd 9c 2d 38 3d cd 1e c4 3d 30 8d 4c bd
       -0.057892468 0.04496537 0.09576187 -0.049939334
000170 e7 ad 9d 3d f3 ea 0d 3d f0 c7 56 3c 3f e4 1a 3d
       0.07699185 0.034647893 0.013109192 0.03781533
000180 b3 d5 12 3d 46 32 9d bb eb 39 3d 3d 1f ac 19 3d
       0.03584833 -0.004797253 0.046197813 0.037517663
000190 b0 27 cd bc ec 61 a1 3c db a9 c4 3d 79 d4 89 bd
       -0.025043339 0.019700013 0.0960271 -0.06729979
0001a0 25 a1 3d 3d f4 45 99 3c f7 02 ab bd 3f 56 09 3d
       0.046296258 0.018710114 -0.08350175 0.033529516
0001b0 ad 4d c7 3d e1 a6 12 bd d9 11 6c 3d 7a 83 db 3c
       0.09731612 -0.03580368 0.05763421 0.026796091
0001c0 2d 2c 3f bc 53 be 36 3b ec 5e 8e 3b 23 61 8f bd
       -0.011668247 0.0027884438 0.0043448117 -0.07000949
0001d0 f9 c0 b2 3d 0e 4d 8d 3d 55 26 f4 bc 19 0a 87 3c
       0.08728213 0.06899463 -0.029803434 0.016484307
0001e0 5c 7d b9 3c 60 d7 36 bd ad d3 cc 3d f1 02 bc 3c
       0.022642784 -0.04463899 0.100013115 0.022950621
0001f0 23 39 aa 3c 16 6b a6 3d b7 5f 31 3c e7 2c 79 bc
       0.020779198 0.08125894 0.010826043 -0.015208459
000200 e9 35 57 bb 57 c4 e7 3c f7 28 49 bd db e1 c7 bc
       -0.003283853 0.028291864 -0.049111333 -0.024399688
000210 e1 0d e2 bc 09 f3 40 bd 12 b6 0a bc 7e ab e4 ba
       -0.027594509 -0.047106776 -0.0084662605 -0.0017446128
000220 63 1d 6f 3c 9c 0d c4 bc 8e b6 83 bc 92 ec 31 3d
       0.014594409 -0.02393227 -0.01607826 0.0434385
000230 15 07 17 3c 1f 18 b1 bc c7 77 3a 3d 0e 3d f5 bc
       0.009217997 -0.021617947 0.045524385 -0.02993634
000240 d5 d4 09 3d 01 0d 06 bd 18 fe 10 3d 17 a2 ad 3d
       0.033650238 -0.032727245 0.035398573 0.08478182
000250 14 c4 9f bd 02 6b 02 3d 85 cb b1 3c 2a fd 3f bb
       -0.07801071 0.03184033 0.021703491 -0.0029295185
000260 70 d0 12 3d e2 46 08 bd 83 26 1f bc 91 50 d2 bc
       0.035843313 -0.033270724 -0.009713772 -0.025673183
000270 87 6a 0f bd 5f f8 94 3c 19 f7 5b bc 15 0e f1 bc
       -0.0350137 0.018184839 -0.013425612 -0.02942566
000280 84 8e bc 3c ac 15 78 bc 15 d6 21 bc cb 8c 09 bd
       0.023017175 -0.015141886 -0.009877701 -0.033581536
000290 a0 c5 0a bd c2 0a b8 3b 78 9a 57 3d b3 7b 43 3d
       -0.033879876 0.005616517 0.052637547 0.04772539
0002a0 30 5e 30 bd dd 7e 15 3d e3 2a de bc 21 ab 2a bd
       -0.043058574 0.03649794 -0.02712006 -0.041667107
0002b0 e5 15 97 3c 50 99 4c bc 94 62 75 bb b2 84 3a 3d
       0.018443057 -0.012487724 -0.003744279 0.045536704
0002c0 bc 53 1c bd ee 9f 55 bd de 60 5c 3c 0d 25 b2 bc
       -0.038165793 -0.052154474 0.013450829 -0.021746183
0002d0 88 53 2b 3c 9e a1 a0 3c ae a9 cc bc 13 fa d9 bc
       0.010456927 0.019608315 -0.024983253 -0.026608502
0002e0 9a 34 f0 3c 04 e9 06 bd 9f d5 e4 bb 43 0c 87 bc
       0.029321957 -0.032937065 -0.0069834734 -0.016485339
0002f0 40 f9 79 bd bf 14 88 3d 20 04 33 bd 00 50 5f 3d
       -0.06102872 0.06644582 -0.043705106 0.054519653
000300 ce 0b a2 3a b6 25 7e bd 62 2a 64 bc 51 dd 05 3d
       0.0012363137 -0.062047683 -0.0139261205 0.032681767
000310 99 6d 58 bd 64 e7 7e 3d df 35 12 3d 67 8a 4e 3c
       -0.052838895 0.06223239 0.035695907 0.01260624
000320 7a ae a0 3c a3 40 c3 3b ff 5b a8 3b 7a b3 98 3c
       0.019614447 0.005958633 0.00513792 0.018640269
000330 87 fe d2 3c 99 59 d3 bc ca 89 83 3c 33 4c 15 3d
       0.025756134 -0.02579956 0.016056914 0.036449622
000340 86 87 0f bd 03 7f 8b 3c 81 1a a1 3d 54 83 e5 ba
       -0.035041355 0.017028337 0.07866383 -0.0017510452
000350 26 36 2b 3c 36 e5 93 3d 7e 44 5c bc 05 b2 6d 3d
       0.010449922 0.07221453 -0.013444064 0.0580311
000360 a0 0d ab 3d fa 9e ad bb 90 16 09 3d cf 3e 51 3d
       0.08352208 -0.0052984925 0.033468783 0.05108529
000370 8f 0d 89 ba 93 40 9d 3d 9d a5 b9 3d 57 30 a5 bd
       -0.0010456311 0.07678332 0.09064791 -0.08065861
000380 72 b9 46 3d df ef 7b 3d 95 39 50 bd af 7d b1 3c
       0.0485167 0.061508056 -0.050836165 0.021666376
000390 43 f6 88 3d d6 f7 85 bc 51 29 0a 3c e0 aa 0b 37
       0.06687596 -0.016353529 0.008432702 8.324831e-06
0003a0 24 1b 90 bd 0f d6 8f 3d f2 ec c7 bc 21 dc bf 3a
       -0.07036427 0.0702325 -0.024404977 0.0014637747
0003b0 91 f8 91 bc a3 83 f2 bc 83 28 b5 3c 0f 9e 36 bc
       -0.017818721 -0.029603785 0.022114044 -0.011146083
0003c0 25 f0 2e bd 56 ea 93 3c ed de fd bc dc d0 18 bd
       -0.04270949 0.018056076 -0.030990088 -0.03730856
0003d0 0e 70 f2 b9 ef e2 4e bd d5 15 92 bb 12 48 92 3c
       -0.00046241324 -0.05050939 -0.004458169 0.017856631
0003e0 21 d2 8f bc 9a de db bc 31 3a e2 3c 07 bc ea bc
       -0.017556252 -0.026839543 0.027615638 -0.028654112
0003f0 df b0 8a 3d 37 4d 98 3a 61 99 a4 bc 7e 48 a4 3d
       0.06772017 0.0011619692 -0.020092668 0.08021639

conv_layers.7.0.conv.bias f4 [16]
000000 95 85 9d bc cd 96 11 3b 61 8a 30 3c 0e 86 10 3c
       -0.019228736 0.0022215128 0.01077518 0.008821024
000010 9f 13 45 bd 94 10 25 3d da 0a 1c 3d 44 f0 7f bd
       -0.048114415 0.040299013 0.038096286 -0.062484995
000020 db 19 a1 3c 4d 96 de 3b 46 80 d1 3c b0 06 29 3d
       0.01966565 0.0067928196 0.02557386 0.041266143
000030 ac bc 02 bd bf 0c 4a 3d 3e a4 ff 3c 63 7f f1 3b
       -0.031918213 0.049328562 0.031206246 0.007369922

linear_layers.0.weight f4 [64, 400]
000000 df 0b 95 bd 43 57 8a 3b 68 cd 88 3a 7c a4 1c 3c
       -0.07277655 0.004221828 0.0010437192 0.0095607005
000010 1a a9 c7 3c d5 98 b0 bd 43 51 46 3c 9a e5 76 3a
       0.024372626 -0.086229004 0.012104335 0.00094183686
000020 8b 48 86 3c db c8 1b 3d d6 7f c4 bd 32 e1 3b 3d
       0.016392013 0.038033348 -0.09594695 0.04586906
000030 82 92 c1 bc 2e 67 5f bd 2b f4 f2 3c cc 37 04 bd
       -0.02362943 -0.05454176 0.029657444 -0.032279775
000040 da 7c f8 3b 97 e3 06 3d ed 5c 0b 3c 2e df 5a 3d
       0.007583243 0.03293189 0.008506042 0.053435497
000050 64 a3 ee bc b8 69 b2 3c 5d c3 93 3c 8d 81 60 bd
       -0.029130645 0.021778926 0.018037492 -0.05481105
000060 5d 37 f8 3b ef 70 ea bc 80 1c 94 bc 73 92 9f bc
       0.007574959 -0.028618304 -0.018079996 -0.019479012
000070 f9 89 27 3c 71 fd 53 3c ef dc 4f bd 08 5d e5 bc
       0.010225766 0.012938843 -0.050747808 -0.027998462
000080 fc 56 cc bc 91 1a 1a 3d 19 35 46 3c 3e 47 e9 bc
       -0.024943821 0.037622992 0.01209762 -0.028476354
000090 dc 22 cd bc 5e fc 00 bc 18 da b2 3c 9c 85 3a 3d
       -0.025041036 -0.007872669 0.02183251 0.045537576
0000a0 f7 1e f8 bc a6 ac a9 bb a0 d1 e3 3c f0 c7 75 bc
       -0.030288203 -0.005178052 0.027809918 -0.015001282
0000b0 30 a6 b8 3c 4f e9 68 bd 63 18 2d bd b8 3b 35 3c
       0.022540182 -0.056863125 -0.042259585 0.011061601
0000c0 02 44 43 bd 98 32 04 3d 37 ea ac 3b 62 53 17 3c
       -0.04767228 0.032274812 0.005276944 0.009236189
0000d0 7c e7 d1 3b 1c 5a cf 3c 9c 48 8d 3c 93 4f 0e 3d
       0.006405769 0.025311522 0.017246537 0.034743857
0000e0 d1 96 bf bc 3c ef ae bc 85 d5 af 3c 99 17 66 bc
       -0.023387345 -0.02135431 0.021464119 -0.014043712
0000f0 d5 19 1f bd 13 48 1a bb ef f7 3c 3c 19 75 41 bc
       -0.038842995 -0.0023541495 0.011533721 -0.011807703
000100 f4 10 d4 3c 2e e1 24 bc 34 27 b1 3b 48 b8 90 bc
       0.02588699 -0.010063453 0.0054062847 -0.017665997
000110 54 aa f9 bb 68 be d9 bb 54 5c a0 bd 98 42 4e 3c
       -0.0076191816 -0.0066450126 -0.0783011 0.012589119
000120 b4 8e 88 bc 9a 4f 03 bc 1d 01 02 bd 9c a0 87 bd
       -0.016669609 -0.008014584 -0.031739343 -0.06622431
000130 f8 c0 1f 3d 03 e3 20 bb f7 43 17 3d 43 b6 57 bb
       0.03900239 -0.0024549372 0.03693005 -0.0032915033
000140 ef a3 7b bd 74 21 4a 3c 25 0a 28 3d 5f 72 c2 3a
       -0.061435636 0.012337077 0.0410253 0.0014835111
000150 41 8c 41 3c c2 da 51 bd 96 1d f6 3c 72 b0 01 bd
       0.011813224 -0.051234014 0.030043405 -0.031662412
000160 9d d7 75 3c e5 62 21 bd aa 52 d8 bc 0e 6e 10 bd
       0.0150050195 -0.039400954 -0.026406605 -0.035261206
000170 b0 31 a6 bc 03 86 2c 3d 06 27 be 3c fb 9c 25 bd
       -0.020287365 0.04211999 0.023211967 -0.04043291
000180 67 43 68 3b fe c6 04 3d 86 62 3f 3c 3a ef 9c 3c
       0.0035440566 0.032416336 0.011681205 0.01915704
000190 60 9b e6 bb eb 81 96 3b d2 06 8b 3a 2e a5 0d bd
       -0.007037565 0.004593124 0.0010606891 -0.034581356
0001a0 60 d5 33 bc 47 e3 44 3a e0 7d c8 3b bc 02 2d 3d
       -0.0109761655 0.00075106736 0.006118521 0.042238936
0001b0 c1 6a cd bc 25 a1 fa 3b bf 50 c1 bc e0 39 eb 3c
       -0.025075318 0.0076486045 -0.023598073 0.02871412
0001c0 5e 04 6f bb f8 a2 eb bc de e0 33 bd c0 75 ed 3c
       -0.003647111 -0.028764233 -0.043915622 0.028986812
0001d0 3f 11 20 bc 07 85 72 bc b7 a2 3e 3c 48 91 42 bc
       -0.009769737 -0.014802224 0.011635474 -0.011875458
0001e0 bf 22 20 bc 38 27 1b 3b 03 6b cc 3c 85 1e 2f bb
       -0.009773909 0.00236745 0.02495337 -0.0026721072
0001f0 fb 57 8b bc 70 7f 8c bc 3b 94 52 bc cc 20 5a bc
       -0.017009726 -0.01715061 -0.012852724 -0.013313483
000200 6c b8 43 3b 60 61 8b bd 29 19 29 3d 2a e6 ef bc
       0.0029864563 -0.06805682 0.04128376 -0.029284555
000210 39 1e a3 3b 9c cd 07 bc ce 91 59 bd 44 5b 05 3d
       0.004977968 -0.008288767 -0.053117566 0.03255774
000220 dc 14 13 3c 15 11 cd 3c 8d b5 1a 3b e2 43 53 bd
       0.008977141 0.02503256 0.0023606748 -0.05157841
000230 da 69 49 3c 1d 22 b7 bc 48 1f 5a 3d 16 9f e0 3c
       0.012293303 -0.022355134 0.05325249 0.027419608
000240 37 b9 53 bd dd 9b 6d 3b cd 1b 76 3b 04 1b 00 bd
       -0.051690307 0.0036256232 0.0037553192 -0.031275764
000250 6f da 2b 3d 49 5d 0d bd ad bb 01 3d a8 17 af bc
       0.04195636 -0.03451279 0.031673122 -0.021373585
000260 72 f4 a4 3b 98 9d fd 3c 40 37 67 3d d7 b0 03 3d
       0.005034023 0.030958936 0.056449175 0.03215107
000270 7b fd 53 bd 6e 1f a3 bc 86 65 c9 3c c2 c9 d7 bc
       -0.05175541 -0.019912448 0.024584543 -0.026341323
000280 29 49 e3 3b 04 0a 90 bd e5 2a da 3b e2 b9 9b 3c
       0.0069362116 -0.0703316 0.0066579455 0.019009534
000290 17 e4 3e bb 5e 50 aa bc e6 25 0b bd 21 8d 2f bc
       -0.0029127651 -0.020790275 -0.03397169 -0.0107148
0002a0 2c fa e2 bc 4b 61 dd 3b 1c 11 04 bc 57 df 5c bd
       -0.027707182 0.006755983 -0.00806072 -0.05392393
0002b0 cd 0f 58 bd b7 f7 9e bc 67 da 10 bd 4f 5d 04 3d
       -0.052749444 -0.019405229 -0.035364535 0.03231555
0002c0 0c c7 68 bd bc 17 72 bc c2 68 05 bd 10 2c 69 bc
       -0.05683045 -0.0147761665 -0.032570608 -0.014231697
0002d0 43 9b 37 3d b1 f6 03 bd b8 74 a1 3b 87 87 50 bd
       0.044825803 -0.032217685 0.004927244 -0.0509105
0002e0 24 e8 08 bd 04 53 4a 3c 6f 40 e4 bb 20 3c ce 3c
       -0.03342451 0.012348894 -0.006965689 0.025175154
0002f0 80 e4 a8 37 6b 95 a4 3a 71 db 2a 3d 3b 8b ec bb
       2.0133564e-05 0.0012556737 0.041713182 -0.007218746
000300 d7 74 f5 3b 1c c9 fa 3c 40 cf bc 3c 78 51 b2 3c
       0.007490735 0.030613475 0.023048043 0.021767363
000310 81 85 da 3c d5 e2 08 3c 63 25 dc 3c e3 9c 1c 3d
       0.026674988 0.008354862 0.026873296 0.038235556
000320 af fe f6 b9 bd bc 0e 3c b3 fd 1b bb 0d 64 eb 3c
       -0.0004711053 0.008711991 -0.002380234 0.028734231
000330 64 4a 14 bb e3 04 db bc 23 3f f9 bc 68 07 91 bc
       -0.0022627348 -0.026735729 -0.030425614 -0.017703727
000340 31 59 1e 3d 90 e3 67 3c 6a da 49 bd 7c 11 5f bc
       0.03865928 0.014153376 -0.04928056 -0.013615008
000350 5a ea 0a bd 65 39 0f bd 6c d1 f8 bb b5 1d 21 3b
       -0.0339149 -0.034966845 -0.0075933244 0.0024584357
000360 fb 46 3a bc a5 b2 f4 3c 8a 2b 46 3c 58 29 db 3c
       -0.011369462 0.02987034 0.012095341 0.026753113
000370 b3 c2 63 bd f5 fd 12 bd 4a cd 08 bc 5d 33 7d 3c
       -0.0556056 -0.035886724 -0.008349726 0.0154541405
000380 0e 81 3f bd 16 a6 79 bd 0a f6 0e 3d 7d c9 ac 3c
       -0.046753936 -0.060949408 0.03490261 0.02109217
000390 fd 02 d7 bc 46 e8 8d 3c 28 64 63 bd be ec b5 3c
       -0.026246542 0.01732267 -0.05551544 0.022207614
0003a0 ce 4c a4 3c 20 eb 15 bd 51 50 8c 3d 3a 4a 29 3c
       0.020056155 -0.036601186 0.06851257 0.010332638
0003b0 43 12 3a bc d2 e5 42 bd ec 0c 8f bc 75 1b 1a bd
       -0.011356893 -0.047582455 -0.017462216 -0.03762384
0003c0 a2 67 f9 bc 9b 49 52 bd cf cd 83 bc a7 91 94 bc
       -0.030444924 -0.051339727 -0.016089348 -0.018135859
0003d0 f7 e5 88 3d 8d da fa bc 2b 7d 54 bd 64 2b 62 bb
       0.06684487 -0.030621791 -0.051877182 -0.0034510726
0003e0 30 0b bd bc 63 6f d6 bc 22 37 81 bd 80 d0 14 3a
       -0.023076624 -0.02617616 -0.06309344 0.0005676821
0003f0 0b df ab bc 26 08 a0 bb 58 e0 d4 3a 0b 23 13 bc
       -0.020980379 -0.004883784 0.0016241176 -0.008980523

linear_layers.0.bias f4 [64]
000000 31 8d c6 bc 52 17 de bb 73 ed 81 bd fc 55 2d 3d
       -0.024237247 -0.0067776823 -0.06344118 0.04231833
000010 4e 68 92 3c b8 7d e6 3b c1 3c 14 3d cd 87 35 3c
       0.017872002 0.00703403 0.036190752 0.011079741
000020 01 18 25 3d fc c3 5f 3c 21 2f 57 3d 2c 6d f6 3c
       0.040306095 0.013657566 0.05253518 0.030081354
000030 1c 9f 17 bc 34 ff 5f bd 71 af 93 3c 4b fa ca bb
       -0.009254243 -0.05468674 0.018027993 -0.006194388
000040 cd 57 8b 3b a4 96 ac 3c 52 e9 15 3c 5b fc a4 bc
       0.00425241 0.021067925 0.009149866 -0.020139864
000050 81 19 8c 3c 55 bc 76 3d 73 79 02 bd a2 d0 96 bc
       0.017102005 0.0602382 -0.031854104 -0.01841003
000060 2a a0 68 bc 8d 44 b6 bc 15 f9 4f bd 04 71 a0 3b
       -0.014198342 -0.022249484 -0.050774653 0.004896285
000070 e8 8e 49 3d 08 7d a8 3c 35 4e a7 3c 56 fc 17 bd
       0.04920855 0.020567432 0.020423034 -0.03710588
000080 61 ae 3b 3c 49 5b 69 3c 80 5f 28 3d 4e ad fc b9
       0.011455149 0.0142429555 0.0411067 -0.00048194308
000090 ef 78 7b bd 4e 3b 05 3b 94 d4 88 bb 10 67 27 3b
       -0.061394628 0.0020329538 -0.004175732 0.0025543608
0000a0 61 4f 89 3b 0f e0 82 3c fe 88 fd bc 69 1e 1f 3d
       0.004190371 0.01597598 -0.030949112 0.03884736
0000b0 63 1c 3a 3a 31 54 a5 3c c1 30 12 3d 31 9a db bc
       0.0007099567 0.020181747 0.035691027 -0.026806923
0000c0 05 38 14 bd f0 02 3f bd e1 92 a0 bc 85 95 06 3d
       -0.036186237 -0.04663366 -0.019601287 0.032857437
0000d0 b4 3d 3a bd 85 0b 19 bd c4 6e 70 bc 44 6e e7 3c
       -0.045469 -0.0373645 -0.014674846 0.028250821
0000e0 de 07 69 bb 5f 51 bc bb 23 5c 33 bb 0e 53 4b 3c
       -0.0035557668 -0.005747005 -0.002736815 0.0124099385
0000f0 91 01 38 3b 30 d7 24 bd c6 46 1c bc 0d 12 1f 3d
       0.0028077106 -0.04024428 -0.009538358 0.038835574
