models/model_1726150853519/model.pth (torch, 227178 bytes, 14 tensors)

conv_layers.0.0.conv.weight f4 [16, 10, 3, 3]
00000000: a72c 53b2 272b 3db7 00b4 5632 4606 10b4
00000010: 3b2e 8a35 7a22 8eb4 6c64 4eb1 de36 a5b1
00000020: 5fa4 c1b5 804b 89b5 56a1 b832 b377 b034
00000030: 54a8 4eb2 58d1 ab30 96be a22f eeeb a4af
00000040: 5bb2 8531 68f8 0734 db31 b6b3 3859 a3b1
00000050: 5e57 9832 870a 38b2 c29a 1a31 7909 8eb5
00000060: 2cfc 2c35 99a9 14b6 aad3 e7b1 ec4c d3b0
00000070: 9d77 96b3 bdde c830 ae56 f933 ad67 0232
00000080: 23a3 89b1 6ab5 c935 1860 bd31 c773 6132
00000090: 1242 4eb2 165b a3b8 8351 d5b5 1fc9 b7b3
000000a0: 7345 a8b5 7eb6 63b1 14b1 07b9 4e7e a132
000000b0: 1bca 8c32 c06a d8b5 56f6 6db8 2bc5 0b34
000000c0: 7786 7d32 b007 c62f 03fd d632 846a b6b5
000000d0: 784b dc33 3eb0 0e32 871f 1d37 5e7c 1d32
000000e0: 13f5 d938 4e6f 65b7 39a1 6e33 faf5 d334
000000f0: d397 2a33 d6d9 7c32 6c67 5838 f4a9 a0af
00000100: e6c3 fc30 6b7e 8bb2 1a16 1133 cccb c9b0
00000110: 8b51 d238 5302 29b6 8863 90b3 f32e ecb2
00000120: 0b21 1cb7 101f beb2 8ed6 6c37 6e02 2231
00000130: 633b c5b8 f3f2 3ab3 02d4 a4b1 9556 d532
00000140: 97b8 9935 e74f c2b5 2ce9 432f c601 23b0
00000150: f63a 19b5 1288 2736 01b5 7cb7 4f76 3932
00000160: a336 1db1 63c5 27b6 fba7 1532 ddc1 cbb1
00000170: 58c1 19b2 6cc2 f4b2 700d 88b1 3f03 c6af
00000180: f05f 85b1 a0fa 5caf b5d5 0c38 0a63 e0b3
00000190: e825 27b6 c675 75b2 69c2 75b2 c279 cb34
000001a0: f83c c0b4 e29d 4231 0632 9bb2 c18e 89b5
000001b0: 36dd 19b0 f942 13b4 9de7 0a32 257b 3932
000001c0: a0d1 faaf df65 b034 d487 4a34 4fbf 13b2
000001d0: 04a7 6bb7 e6c7 d130 ec5a dc37 b80b 0eb6
000001e0: dc9e e1b5 e2fb cbb2 fa0b f1af 77f3 46b2
000001f0: 7698 8c37 5ccb 8633 c8b4 d730 3a24 8831
00000200: df65 24b6 d77d a2b2 846a 8d33 36fb 06b4
00000210: 1854 8334 d77d fcb2 526d e7b6 f06b c0b8
00000220: 2baa 8eb3 483e ae31 ad01 b430 c654 1db3
00000230: 12bc 27b6 55ff a532 7acd b8b4 23be 03b1
00000240: 468f 0ab2 f178 0fb4 3ed9 71b3 c501 4631
00000250: ebb0 89b3 3580 1e34 581a 4fb2 40fe 4e30
00000260: de9c dd34 5e92 01b9 ee62 e535 6801 3c32
00000270: 2c20 04b9 6033 d4b1 2525 a9b4 2ae8 0431
00000280: 0e7e ecaf c819 88b1 304b 6a33 77cd e335
00000290: aa8d 2433 c05b ccad a5e9 3937 7d32 042f
000002a0: f028 c72e a47b bbb6 1967 c331 0aea 0131
000002b0: 1db0 47b2 a668 4cb0 8e9a 2f33 788c c737
000002c0: edb8 c931 c637 0931 ec4f 8533 b9da 4a37
000002d0: 12f2 8033 4695 7c32 2d8a 4033 3dc7 aa36
000002e0: c28a f82f 7cff afb0 33d3 4f32 b09e f231
000002f0: 5cf7 b8b4 1a86 beb0 9686 f932 b746 1b36
00000300: 8fe6 98b2 7d19 0432 c936 aa32 7da8 73b2
00000310: 529f ea35 322e ec34 2c2f 3232 e82a ffb3
00000320: 78e4 57b3 beb3 a134 0575 b1b5 c47e 86b4
00000330: fcf7 dc31 a394 1239 afcf 0eb2 404d 5637
00000340: b86b c730 9fcc 2836 31f1 98b2 dc42 1cb7
00000350: 33ce e432 c434 44b1 9bd9 05b6 de1c d7b3
00000360: c6dd d8b4 2ebf 2836 8472 9fb3 6403 0db1
00000370: 88cf 7233 762f 54b2 5c1f 5632 5056 0db9
00000380: ad75 10b0 d0b6 2736 e4e3 82b4 be3c d3b8
00000390: 44ef bdb0 e6b3 3fb8 36b9 0db5 77dc 56b2
000003a0: cc8f 5c35 60dd 7b32 6033 2db8 720f 4f31
000003b0: 24d4 6eb2 335e 67b4 7a7b 0eb2 44ab bdb2
000003c0: e75b 80b2 46c4 cb32 9d67 60b3 471f 28b3
000003d0: e8b5 6bb7 7c65 2a36 7041 93b2 2ab3 28b6
000003e0: 59f6 0034 4022 4ab2 59ee 7cb3 c4cb d4b0
000003f0: 7e04 0db0 00a8 6f2e 65d9 8033 e7a5 beb1
-1.2291969e-08 -1.1275325e-05 1.2497367e-08 -1.3413327e-07 1.0295256e-06 -2.6474646e-07 -3.0034029e-09 -4.8083697e-09
-1.4427459e-06 -1.0229269e-06 2.1493786e-08 3.2869647e-07 -1.20290515e-08 1.2501387e-09 2.9603048e-10 -2.9999064e-10
3.891086e-09 1.2663224e-07 -8.484104e-08 -4.7540674e-09 1.7734859e-08 -1.0712603e-08 2.249792e-09 -1.0582581e-06
6.444195e-07 -2.2152437e-06 -6.7470483e-09 -1.5374133e-09 -7.006677e-08 1.4615221e-09 1.1610733e-07 7.590569e-09
-4.0057713e-09 1.5028465e-06 5.5115486e-09 1.3123048e-08 -1.2005801e-08 -7.789412e-05 -1.589346e-06 -8.558185e-08
-1.2537188e-06 -3.3136582e-09 -0.0001294057 1.8800304e-08 1.6390052e-08 -1.6124322e-06 -5.673462e-05 1.3017113e-07
1.4757112e-08 3.6021452e-10 2.5027935e-08 -1.3591057e-06 1.0258276e-07 8.305561e-09 9.36527e-06 9.166881e-09
0.00010393015 -1.3675379e-05 5.5560324e-08 3.9480784e-07 3.9719293e-08 1.4717861e-08 5.1594732e-05 -2.922459e-10
1.8391091e-09 -1.6239218e-08 3.3780545e-08 -1.4682597e-09 0.00010028769 -2.5184315e-06 -6.723627e-08 -2.7495366e-08
-9.306018e-06 -2.2133037e-08 1.4116651e-05 2.3575484e-09 -9.404754e-05 -4.352746e-08 -4.7971307e-09 2.4835836e-08
1.1453111e-06 -1.4477381e-06 1.7817986e-10 -5.9301575e-10 -5.708274e-07 2.4964143e-06 -1.5062514e-05 1.07953175e-08
-2.2877564e-09 -2.4999833e-06 8.711136e-09 -5.9301173e-09 -8.949733e-09 -2.8493751e-08 -3.9596486e-09 -3.6018297e-10
-3.8817163e-09 -2.0097923e-10 3.357763e-05 -1.0448828e-07 -2.4907004e-06 -1.42876555e-08 -1.4305081e-08 3.7900287e-07
-3.5807147e-07 2.8320462e-09 -1.8067123e-08 -1.0248842e-06 -5.5975435e-10 -1.3714806e-07 8.08532e-09 1.0796417e-08
-4.5623683e-10 3.2856676e-07 1.886213e-07 -8.600025e-09 -1.4045978e-05 1.5263566e-09 2.6268382e-05 -2.116647e-06
-1.681004e-06 -2.3746853e-08 -4.3846154e-10 -1.1580474e-08 1.6760296e-05 6.276852e-08 1.569469e-09 3.9622394e-09
-2.4497201e-06 -1.8916507e-08 6.585199e-08 -1.2571113e-07 2.4461838e-07 -2.9393886e-08 -6.897063e-06 -9.175378e-05
-6.643344e-08 5.071147e-09 1.30972e-09 -3.6631512e-08 -2.499441e-06 1.932464e-08 -3.4422175e-07 -1.917109e-09
-8.065234e-09 -1.3361911e-07 -5.6309766e-08 2.8813798e-09 -6.411741e-08 1.4761538e-07 -1.2054976e-08 7.5303674e-10
4.1278594e-07 -0.00012356925 1.7090622e-06 1.094336e-08 -0.00012600486 -6.1758527e-09 -3.150573e-07 1.9340498e-09
-4.3017717e-10 -3.961052e-09 5.4550753e-08 1.6972616e-06 3.831307e-08 -2.323286e-11 1.1081259e-05 1.2023267e-10
9.056744e-11 -5.587428e-06 5.686968e-09 1.8905006e-09 -1.1623368e-08 -7.436348e-10 4.088593e-08 2.378806e-05
5.8708935e-09 1.9967827e-09 6.207833e-08 1.2091064e-05 6.004497e-08 1.4702271e-08 4.4829154e-08 5.089589e-06
4.520953e-10 -1.2805539e-09 1.2097007e-08 7.0611677e-09 -3.4452648e-07 -1.3862433e-09 2.9048618e-08 2.3137961e-06
-1.7799975e-08 7.689207e-09 1.9815518e-08 -1.4182771e-08 1.7480727e-06 4.3992037e-07 1.0371689e-08 -1.18821674e-07
-5.026638e-08 3.0119367e-07 -1.3221585e-06 -2.505168e-07 6.4310353e-09 0.00013979017 -8.31271e-09 1.277338e-05
1.4509771e-09 2.5153056e-06 -1.780481e-08 -9.3138915e-06 2.6636462e-08 -2.8551748e-09 -1.9945207e-06 -1.00169686e-07
-4.0394497e-07 2.5145232e-06 -7.424845e-08 -2.0520128e-09 5.6533764e-08 -1.23508155e-08 1.246357e-08 -0.00013478962
-5.255412e-10 2.499135e-06 -2.43802e-07 -0.00010072578 -1.3819563e-09 -4.5705492e-05 -5.279611e-07 -1.2506567e-08
8.216564e-07 1.4660458e-08 -4.129426e-05 3.0131244e-09 -1.39016585e-08 -2.1547821e-07 -8.293563e-09 -2.2080378e-08
-1.4942954e-08 2.3721565e-08 -5.22483e-08 -3.9143995e-08 -1.4049445e-05 2.5391046e-06 -1.714281e-08 -2.5138238e-06
1.201055e-07 -1.1765735e-08 -5.8890098e-08 -1.5482944e-09 -5.1301885e-10 5.4491522e-11 6.000008e-08 -5.5485887e-09

conv_layers.0.0.conv.bias f4 [16]
00000000: 52f1 f431 a861 a7b2 3a6b 9033 72c1 a734
00000010: 9613 bf38 9cf1 09b2 16e6 9832 dcaf bc38
00000020: d843 fcb1 cf10 a6b1 26fa ed32 bbe3 ea30
00000030: d163 8037 2421 0631 5e38 6fb0 d324 bb30
7.1287696e-09 -1.9485768e-08 6.725027e-08 3.1246924e-07 9.111238e-05 -8.029385e-09 1.779976e-08 8.997295e-05
-7.341878e-09 -4.8331468e-09 2.7704186e-08 1.7090466e-09 1.530527e-05 1.9518405e-09 -8.7027796e-10 1.3616507e-09

conv_layers.2.0.conv.weight f4 [32, 16, 3, 3]
00000000: f133 28b5 b633 de31 c0b1 5db2 a010 4733
00000010: 75c1 5633 b2df 9bb1 9dd3 60b3 93f0 b332
00000020: 3e03 57b2 fc75 1e2f 53ca 8b31 18e4 7e32
00000030: ef29 0933 a587 ac31 f567 3631 bea8 9c32
00000040: 167a 73b5 13bd 8a33 c5fb 55b0 6943 f632
00000050: 55c6 11b2 cc42 55b3 60b6 c2ae 0ce6 9bb1
00000060: 3091 7db2 c377 d734 43cd ce34 b1b0 5932
00000070: 0675 d9b3 9026 6d31 1cd0 f5b1 1104 9232
00000080: e840 d6b4 bc04 7cb0 1fcc a634 c1d0 a7b3
00000090: 81ca f9b2 33fa ae32 6b77 1034 9b97 2b34
000000a0: 02c0 67b3 bf19 5cb1 da80 c730 0fac 89b1
000000b0: 80c9 e130 2aed bfb4 aab6 9730 7084 8eb4
000000c0: 836f b633 58f1 79af b66c a630 636f 0536
000000d0: 0b7e d9b0 92da ddb0 6979 a9b5 39bc 10b2
000000e0: 1158 6ab3 98d6 c0b2 4940 64b2 c97e b4b1
000000f0: 486f f332 1cb9 07b2 ea18 e1b1 0681 49b3
00000100: 40da c1ad b8ab ae30 c09d f3b0 dd66 0732
00000110: a8d5 acb2 d3fa ebb5 f0ec feb3 8d2b bc32
00000120: 68ff 1231 0bbb 0ab5 3b72 c234 4668 cb35
00000130: 2a8a cfb4 5751 88b2 15e0 0e32 eff9 d335
00000140: 8c6e b3b2 0d14 ddb4 64cd 0632 22d7 8db1
00000150: acf6 58b1 052a c734 dfb8 9bb4 1add 1cb1
00000160: 52a6 1334 eaec 73b2 6e24 cbb3 52a3 82b3
00000170: a521 f335 56a8 21b2 d01a 4132 6aa8 7cb2
00000180: 8efc 1932 8e43 3532 0e4f 0532 f04c 2db2
00000190: 57cb 8f33 0915 2b33 2ad4 8fb1 dd8a 44b2
000001a0: c920 deb4 0693 b1b4 2c79 33b4 6b1c db30
000001b0: b913 9033 30e0 82af 628d dab4 9e81 8033
000001c0: 62e3 2ab1 aa90 01b5 7a80 c2b5 2357 d9b4
000001d0: 272c 44b5 efee 52b2 1671 652f e823 e831
000001e0: 8a9e 1134 eb80 d2b4 5d33 8e33 3aee 3db1
000001f0: 5cd0 bbb3 a89e 6bb0 c657 2eb3 839f e8b1
00000200: 88a4 b234 cee5 f3b1 7849 f9b2 714c 5435
00000210: 7fdc ef33 ec45 06b2 18f5 9231 479a 9fb3
00000220: 1db3 d933 1eaf ee33 94a7 94b1 04ce 92b2
00000230: 8a11 9931 84d1 9fb3 6837 8830 3b03 98b2
00000240: d688 d130 217b 50b3 0a0d 50b1 8041 38b0
00000250: 7dae 0f33 7d7d ccb0 75a8 64b1 68ee 0332
00000260: 07d5 d932 1777 4533 3f42 ca32 73c0 ce31
00000270: 71a1 dbb1 c6f8 3eb1 2821 9b34 1663 83b2
00000280: d5f4 ec33 9cd3 2eb3 817b 7731 2465 b3b0
00000290: 64e1 6fb3 74e3 8c33 2476 6db2 3024 0833
000002a0: 58ce 8bb1 34c7 0532 460c 0eb4 03cf 5632
000002b0: d094 21b2 e86d 38b2 8885 22b1 620c 10b2
000002c0: 0d40 f9b2 9cdb 02b4 1078 4731 744c dd32
000002d0: 8543 8832 6955 0430 ba27 5db1 e41b 6732
000002e0: 08eb 9832 50ca 2faf 9e17 57b2 d785 5633
000002f0: f269 65b3 768e 58b1 6c01 feb4 fcdb 2433
00000300: b8a6 31b3 9445 a531 7a5b f6b3 d093 b834
00000310: c0a1 51ae 32e0 00b2 d192 89b3 2756 2733
00000320: 1c1c 9ab3 dcb8 292f 94aa a4b1 6ef6 8033
00000330: 1911 84b3 c09c 9432 a260 a734 9382 c932
00000340: 183b 5bb1 9e39 8032 53a3 2233 a368 cc31
00000350: 248e 50b3 34a1 8c35 1814 c1b1 e5f2 21b2
00000360: 7c70 d6b1 8538 b1b2 fd71 2a31 d3b2 dfb5
00000370: dd62 d3b4 c5bf 8cb3 c2cd c235 47bd 8634
00000380: 2179 40b1 c84e 3ab2 afe5 dc34 70bc 342f
00000390: 10e9 0eb6 e487 bc32 3b82 fbb1 5a71 3033
000003a0: 0dba be32 dbe8 c6b0 853b 1833 7413 d133
000003b0: c11d 2db3 0f25 34b2 8c90 b82e 7c5f 35b4
000003c0: 5f6a 1eb3 9256 72b1 9229 ab34 c2f4 6734
000003d0: 52c4 3ab3 f4bc c0b1 8a66 d7b3 5b1a f632
000003e0: 977b 1db3 ffc0 73b2 78e9 db30 41a8 f6b5
000003f0: b527 2ab3 539d 7cb2 1478 95b2 8ad6 f932
-6.266046e-07 6.466929e-09 -1.2904309e-08 4.634842e-08 5.0001706e-08 -4.536525e-09 -5.2346525e-08 2.0947743e-08
-1.2515384e-08 1.4411933e-10 4.068434e-09 1.4836608e-08 3.1935937e-08 5.02128e-09 2.6543578e-09 1.8237525e-08
-9.070221e-07 6.460518e-08 -7.7846735e-10 2.8668824e-08 -8.485206e-09 -4.965368e-08 -8.854495e-11 -4.537247e-09
-1.475955e-08 4.013401e-07 3.8519838e-07 1.2671237e-08 -1.01261364e-07 3.450996e-09 -7.1540978e-09 1.6998486e-08
-3.9907832e-07 -9.1683794e-10 3.1068427e-07 -7.8145156e-08 -2.9079503e-08 2.0370043e-08 1.3454489e-07 1.598077e-07
-5.395851e-08 -3.2028848e-09 1.4515777e-09 -4.0067856e-09 1.6428174e-09 -3.5749082e-07 1.1038612e-09 -2.6545922e-07
8.495319e-08 -2.273216e-10 1.2108987e-09 1.988338e-06 -1.5824652e-09 -1.6141988e-09 -1.2626816e-06 -8.4247e-09
-5.4562467e-08 -2.2449328e-08 -1.3285963e-08 -5.2531033e-09 2.8339528e-08 -7.900123e-09 -6.5511943e-09 -4.6916306e-08
-2.2038482e-11 1.2708972e-09 -1.7725412e-09 7.881423e-09 -2.0120595e-08 -1.7581864e-06 -1.18708954e-07 2.1905885e-08
2.1390978e-09 -5.168119e-07 3.621843e-07 1.5155026e-06 -3.8657282e-07 -1.5869473e-08 8.316438e-09 1.5793465e-06
-2.0888614e-08 -4.1179047e-07 7.846527e-09 -4.128098e-09 -3.1572354e-09 3.7097212e-07 -2.900551e-07 -2.282667e-09
1.3750949e-07 -1.419833e-08 -9.459551e-08 -6.0833045e-08 1.8114703e-06 -9.409709e-09 1.1240175e-08 -1.47066235e-08
8.963196e-09 1.0550947e-08 7.759594e-09 -1.0087419e-08 6.695944e-08 3.983317e-08 -4.185968e-09 -1.1440275e-08
-4.1374577e-07 -3.3075793e-07 -1.6714756e-07 1.5942424e-09 6.70911e-08 -2.3806157e-10 -4.0708534e-07 5.984042e-08
-2.4867508e-09 -4.826676e-07 -1.4491518e-06 -4.04828e-07 -7.307994e-07 -1.2277936e-08 2.0867605e-10 6.7561707e-09
1.3561854e-07 -3.9209348e-07 6.621733e-08 -2.7638536e-09 -8.7457664e-08 -8.5717966e-10 -4.059236e-08 -6.770223e-09
3.3274796e-07 -7.0983566e-09 -2.9020825e-08 7.908739e-07 1.1169413e-07 -7.815725e-09 4.277023e-09 -7.432077e-08
1.01374305e-07 1.1114592e-07 -4.3264183e-09 -1.7090322e-08 4.45488e-09 -7.442125e-08 9.91105e-10 -1.7696598e-08
1.5245643e-09 -4.854076e-08 -3.0275396e-09 -6.703189e-10 3.3453478e-08 -1.487862e-09 -3.3274123e-09 7.679411e-09
2.5358998e-08 4.597595e-08 2.354602e-08 6.017268e-09 -6.3920926e-09 -2.779005e-09 2.8895124e-07 -1.5295466e-08
1.1034141e-07 -4.070499e-08 3.6013434e-09 -1.305271e-09 -5.5851515e-08 6.5606315e-08 -1.3822078e-08 3.169788e-08
-4.068891e-09 7.7869124e-09 -1.3229246e-07 1.25035085e-08 -9.4052695e-09 -1.0735199e-08 -2.3650006e-09 -8.384719e-09
-2.9016542e-08 -1.2187087e-07 2.902656e-09 2.5762553e-08 1.5863188e-08 4.8142695e-10 -3.2182315e-09 1.3452311e-08
1.7802009e-08 -1.5988033e-10 -1.2520017e-08 4.9947484e-08 -5.3414574e-08 -3.1513117e-09 -4.731222e-07 3.83843e-08
-4.1362654e-08 4.810042e-09 -1.1471907e-07 3.4380218e-07 -4.766476e-11 -7.501557e-09 -6.4062654e-08 3.8961073e-08
-7.176297e-08 1.5436136e-10 -4.7924207e-09 6.00529e-08 -6.149839e-08 1.730075e-08 3.1176484e-07 2.3458858e-08
-3.1902285e-09 1.4927362e-08 3.7867107e-08 5.9490772e-09 -4.855805e-08 1.0477729e-06 -5.6193237e-09 -9.426661e-09
-6.2410077e-09 -2.0631214e-08 2.480305e-09 -1.6666839e-06 -3.9373745e-07 -6.554141e-08 1.451401e-06 2.5097162e-07
-2.800853e-09 -1.0844538e-08 4.114531e-07 1.6437851e-10 -2.129531e-06 2.1947876e-08 -7.319867e-09 4.1081286e-08
2.2203517e-08 -1.4472578e-09 3.544439e-08 9.7358594e-08 -4.0306762e-08 -1.0485805e-08 8.393028e-11 -1.6891676e-07
-3.6883986e-08 -3.5264844e-09 3.1881478e-07 2.1602594e-07 -4.3485052e-08 -5.609417e-09 -1.00303694e-07 2.8650154e-08
-3.6666815e-08 -1.4188344e-08 1.6000703e-09 -1.8377397e-06 -3.9617323e-08 -1.4704102e-08 -1.7400488e-08 2.9084976e-08

conv_layers.2.0.conv.bias f4 [32]
00000000: 943d ce34 4b63 e732 cbed a8b4 8345 7d32
00000010: 70ee 3a32 f971 9a32 8294 20b2 5226 1034
00000020: ac01 1ab1 3a49 0432 635a 2e33 5f13 13b4
00000030: 9b10 9033 4237 cf32 03c5 7db3 16ad 07b4
00000040: 7def b435 0fb4 24b2 e581 0134 954b f232
00000050: 6e31 012f 4d08 3f34 50a1 6ab3 644f ab30
00000060: 5980 da32 c42f 3833 9419 6a33 c6a5 2e33
00000070: b3aa 4f2e 30ce 0eb4 9ef1 a332 56ac 0a32
3.8415294e-07 2.6937093e-08 -3.1465456e-07 1.4742343e-08 1.0880839e-08 1.7979788e-08 -9.3469925e-09 1.3424986e-07
-2.24109e-09 7.700061e-09 4.059474e-08 -1.3697489e-07 6.708543e-08 2.41231e-08 -5.9085334e-08 -1.2635823e-07
1.3480745e-06 -9.586997e-09 1.2061317e-07 2.8206879e-08 1.1750043e-10 1.7791281e-07 -5.4629083e-08 1.2464452e-09
2.5436906e-08 4.288428e-08 5.4505634e-08 4.0663302e-08 4.7217962e-11 -1.3299791e-07 1.9085572e-08 8.071842e-09

conv_layers.4.0.conv.weight f4 [32, 32, 3, 3]
00000000: c910 952f c830 4eb1 e343 57b1 81ef f7b1
00000010: 9908 35b3 42ad d1b2 435b 5fb2 1c0a b232
00000020: 0cf9 00b3 4a3d 8d33 b1ce 0f31 cd54 20b2
00000030: 3356 2d32 b148 0532 e8cd 8133 1f81 1132
00000040: 2654 1933 fa7a 6b31 2ae3 af31 3458 82b3
00000050: be1e 51b3 93b1 9132 6e18 7b32 3dc4 0d32
00000060: a3c0 46b3 5af0 eb32 4040 a92f 808c 9d32
00000070: a944 a431 b5cd 83b1 4039 632f 36b4 bd31
00000080: 362e 8c31 f6cd 8cb1 faef 1131 6f1f a232
00000090: f7da 5831 290a 6d2f 2815 82b2 a120 4eb3
000000a0: 2b7f ed31 3d40 0a33 a35f 9232 f96b e4b0
000000b0: 4659 ac32 35ae 4d32 489b bd32 bf36 90b3
000000c0: 6336 2db3 86fa 93b2 9546 0a31 4ea9 1e33
000000d0: 3dbe 25b3 e762 d931 17d9 a430 f7bd 08b3
000000e0: f6d9 0e32 605d a130 66d0 e0b0 b512 80b1
000000f0: e295 36b2 224c bb30 c465 1631 f7d6 0fb3
00000100: b74e 8bb1 b803 0932 abda 2333 7817 27b1
00000110: 016c d3b1 85d6 7cb2 e5af 41b2 a956 8a32
00000120: ba12 fab1 cd51 93b0 6f1a 8fb3 cc52 5e31
00000130: c439 91b1 d081 31b3 ec41 232f 5e8c 31b1
00000140: b14b e832 5070 4f31 8956 f3b1 6a51 7032
00000150: 48e8 95b0 5c3f 9a32 88fe f22f 29fd d6b2
00000160: 0a51 1432 5acd 9833 aaf2 1b33 d3d2 c9b0
00000170: 364a 9a2f cc35 55b2 6be9 11b1 7249 d8af
00000180: c1b2 09b0 1394 2f33 79d7 89b2 0754 8f31
00000190: 4787 1eb3 7ccf 6132 bb26 c830 b134 84b3
000001a0: 8e40 dd32 d8d7 97b1 98e4 e631 3745 42b2
000001b0: 5077 7db1 e583 3532 7c39 65b2 56eb 3833
000001c0: 9736 a532 18d8 3832 60ad 88ae 7573 87b2
000001d0: 073b 09b2 4089 36b3 4adb 2e2f 90b7 22b1
000001e0: f250 8a33 e4d9 28b1 9136 7d32 5371 6b31
000001f0: 52ce bb30 9b71 12b2 59d4 81b1 6884 8f31
00000200: 5e3a d5b2 a6f1 9832 db88 9132 366a 4bb2
00000210: c0ca 8431 614e e3b2 f902 fc30 6c89 f531
00000220: 4a5d b7b0 31b5 62b0 a759 31b2 1b40 94b2
00000230: 154f bcb2 3b17 bdb2 3e23 2031 d684 c4b0
00000240: 18b5 5931 3731 8f32 3e23 1333 d36f 93b2
00000250: b9ab 0baf db30 1fb1 44c1 11b1 a46f f42f
00000260: 1706 ba32 57ce f9b1 37dd 7c32 a05c 39b2
00000270: f9ea e231 34c2 63b2 64f9 77b2 77ff 2bb1
00000280: 1a60 1132 daad 70b2 d8d4 1db1 95f3 8cb3
00000290: 5e56 49af eeec c2b2 ae64 e431 796e 3c33
000002a0: 7dd2 8cb3 b2df ad30 2809 f931 2d66 8a32
000002b0: 96f5 6832 a8a9 afaf a2f1 a731 48a7 f1b2
000002c0: 2cca 25b2 0d0c 1eb1 939f d7b1 ed5f 4032
000002d0: c690 e630 8e19 3b33 9f47 4532 e69e edb0
000002e0: c11c 4932 9ef0 8a32 417b 69b1 182f b1b2
000002f0: 1a53 87b3 ac6f aab2 b2df 28b2 8dc8 2033
00000300: d9f1 4432 6832 efae c2ba 8f33 78e4 01b0
00000310: d9e9 4633 d5d6 2633 2da7 4933 6597 2c32
00000320: 2c20 4830 3634 b732 b9bf 1ab3 85c4 23b1
00000330: 1c30 50b2 6bf3 8cb1 2b5d 58b2 de9d 6732
00000340: bfa4 2032 0f7c ffb1 b0ba 85b3 3ed9 f8b1
00000350: c88b 45b2 a0f5 b8ad 6a6c 63b0 4a4c 5db2
00000360: 1ac3 1d33 eeb5 64b2 0c49 dbb1 e8a6 1a33
00000370: 6523 00b2 e025 2833 a8ab acb0 ae5a d6b2
00000380: b461 3cb0 71b3 2bb2 9b3d 28b3 936e 85b2
00000390: 45fe 2433 e487 e4b0 bd42 90b3 66de bb2f
000003a0: 9d27 1db3 da7f b7b0 4d08 cbb1 53bf 5032
000003b0: 38b1 aa30 1cff 0d33 ba8c 39b1 99d5 6d2f
000003c0: 7224 acb0 b739 90b3 2b09 3931 6ab8 0833
000003d0: f173 1ab1 496c c031 2b0c 4d32 81b8 3db2
000003e0: 2927 b4b2 08eb 0eb2 e55d b630 2833 f432
000003f0: e1d9 2cb2 b0bc d0ae 58f0 f2b0 4426 4330
2.711487e-10 -3.0004674e-09 -3.1325207e-09 -7.2158746e-09 -4.2150166e-08 -2.440959e-08 -1.3001059e-08 2.0726524e-08
-3.002883e-08 6.5769726e-08 2.092673e-09 -9.332507e-09 1.0089525e-08 7.758147e-09 6.044485e-08 8.46947e-09
3.569962e-08 3.4266905e-09 5.118996e-09 -6.069641e-08 -4.8689564e-08 1.6960973e-08 1.4615678e-08 8.2519e-09
-4.627567e-08 2.74669e-08 3.0786573e-10 1.8341098e-08 4.780834e-09 -3.835988e-09 2.0665869e-10 5.5211116e-09
4.07979e-09 -4.0979513e-09 2.1236688e-09 1.8873576e-08 3.1556604e-09 2.1558634e-10 -1.5143613e-08 -4.799279e-08
6.912065e-09 3.2189053e-08 1.7040128e-08 -1.6619871e-09 2.0064032e-08 1.1972181e-08 2.207311e-08 -6.715481e-08
-4.0329166e-08 -1.7226977e-08 2.0121764e-09 3.6941223e-08 -3.8590077e-08 6.326775e-09 1.1994271e-09 -3.183774e-08
8.315046e-09 1.174083e-09 -1.6357375e-09 -3.727417e-09 -1.0627874e-08 1.3627679e-09 2.188572e-09 -3.349029e-08
-4.0543813e-09 7.975295e-09 3.8150272e-08 -2.4315039e-09 -6.153187e-09 -1.4717107e-08 -1.1274072e-08 1.6104723e-08
-7.2780866e-09 -1.0718907e-09 -6.663765e-08 3.2352316e-09 -4.2266226e-09 -4.1329088e-08 1.4848184e-10 -2.583668e-09
2.7042775e-08 3.0186307e-09 -7.0820687e-09 1.398835e-08 -1.0907195e-09 1.7956772e-08 4.42004e-10 -2.5028003e-08
8.63316e-09 7.115405e-08 3.630945e-08 -1.4684595e-09 2.8065167e-10 -1.2410464e-08 -2.123296e-09 -3.9342357e-10
-5.0094334e-10 4.0880035e-08 -1.6046885e-08 4.1714006e-09 -3.6910276e-08 1.31439e-08 1.4562923e-09 -6.1563135e-08
2.5757142e-08 -4.419217e-09 6.719869e-09 -1.1308024e-08 -3.6884167e-09 1.0565576e-08 -1.3342625e-08 4.3054875e-08
1.9233353e-08 1.0759344e-08 -6.2153616e-11 -1.5768572e-08 -7.987871e-09 -4.2500005e-08 1.5903115e-10 -2.3678446e-09
6.4408496e-08 -2.4571074e-09 1.4738945e-08 3.4261418e-09 1.366468e-09 -8.524149e-09 -3.7785353e-09 4.1769006e-09
-2.4823006e-08 1.7805018e-08 1.6942456e-08 -1.1840305e-08 3.8647556e-09 -2.646192e-08 1.8336258e-09 7.1460615e-09
-1.3341517e-09 -8.247581e-10 -1.0323141e-08 -1.725862e-08 -2.1922043e-08 -2.201306e-08 2.3303097e-09 -1.4298631e-09
3.1680596e-09 1.6669771e-08 3.4258157e-08 -1.7163904e-08 -1.2702984e-10 -2.3165316e-09 -2.1210136e-09 4.4462667e-10
2.165602e-08 -7.270312e-09 1.4718629e-08 -1.0789478e-08 6.604179e-09 -1.3257296e-08 -1.4433997e-08 -2.502899e-09
8.461962e-09 -1.4009368e-08 -2.2967495e-09 -6.563565e-08 -1.8311527e-10 -2.2692316e-08 6.6471193e-09 4.3872635e-08
-6.5575456e-08 1.2650985e-09 7.2478947e-09 1.6111779e-08 1.3560017e-08 -3.1952863e-10 4.88781e-09 -2.8132163e-08
-9.650233e-09 -2.2998876e-09 -6.275465e-09 1.1197682e-08 1.677585e-09 4.3562572e-08 1.1483194e-08 -1.7289181e-09
1.1706278e-08 1.6174734e-08 -3.3976024e-09 -2.0626928e-08 -6.3015435e-08 -1.9841387e-08 -9.8297495e-09 3.7435303e-08
1.1463691e-08 -1.08774156e-10 6.6929275e-08 -4.72546e-10 4.631315e-08 3.8845275e-08 4.6951005e-08 1.0046141e-08
7.2805295e-10 2.1327747e-08 -3.603029e-08 -2.383133e-09 -1.2118132e-08 -4.1022097e-09 -1.2594039e-08 1.34818645e-08
9.350685e-09 -7.4355806e-09 -6.2272534e-08 -7.2424475e-09 -1.1498692e-08 -2.1027458e-11 -8.2736185e-10 -1.2881239e-08
3.6731855e-08 -1.3312713e-08 -6.3820433e-09 3.600772e-08 -7.458628e-09 3.9149995e-08 -1.2563435e-09 -2.4954115e-08
-6.8532846e-10 -9.99431e-09 -3.9171578e-08 -1.5533521e-08 3.8415482e-08 -1.6627806e-09 -6.717662e-08 3.4173125e-10
-3.659044e-08 -1.335134e-09 -5.9090213e-09 1.2150696e-08 1.2419497e-09 3.306114e-08 -2.7001037e-09 2.163091e-10
-1.2525005e-09 -6.716021e-08 2.6926255e-09 3.183269e-08 -2.2475855e-09 5.600246e-09 1.1935337e-08 -1.1043199e-08
-2.0972566e-08 -8.318928e-09 1.3268929e-09 2.8428602e-08 -1.0061258e-08 -9.4922625e-11 -1.7676127e-09 7.0994965e-10

conv_layers.4.0.conv.bias f4 [32]
00000000: 1334 4db2 e869 c8b1 b2d5 27b3 a0d9 0032
00000010: c05b 1033 8e85 6c32 5bcd 00b2 a984 81b1
00000020: 5772 49b2 edbc 0d32 aff4 d5b2 fe57 9033
00000030: 0ddf edb1 1a8a 5731 c224 4631 b714 9930
00000040: 0bbf 8eb3 745f 0333 b291 7cb2 38d4 1cb3
00000050: d83d 2732 b0e4 1cb2 28cd 9832 d4aa 3732
00000060: a430 16b0 7be2 6e32 147b cd31 5cb1 7bb2
00000070: 304c 8d2f c210 e231 172f 0c32 eb1a d030
-1.1944411e-08 -5.8328062e-09 -3.9077072e-08 7.500063e-09 3.361106e-08 1.3767375e-08 -7.497273e-09 -3.769476e-09
-1.1725738e-08 8.250237e-09 -2.4907733e-08 6.721528e-08 -6.9229658e-09 3.136512e-09 2.8833687e-09 1.1138103e-09
-6.647141e-08 3.058763e-08 -1.4701458e-08 -3.6514592e-08 9.734741e-09 -9.132393e-09 1.7788423e-08 1.0690844e-08
-5.4638805e-10 1.3904919e-08 5.9802776e-09 -1.465045e-08 2.5701885e-10 6.579371e-09 8.1597795e-09 1.5141642e-09

conv_layers.5.0.conv.weight f4 [32, 32, 3, 3]
00000000: ac6f a432 bd5c 6331 de7f 53b2 a80e 9ab1
00000010: 6a15 3332 8e81 d031 b00c be31 f8bb abae
00000020: da75 e830 4376 84b2 4686 2132 18df 69b2
00000030: b0f6 dfb1 6c14 53b3 ffc4 e6b0 b13d 2fb3
00000040: 27aa 21b3 2f72 a7b0 90dc 4f32 6ec2 a230
00000050: c2fa 99af 0478 e3b1 0ac1 af31 6dc8 5731
00000060: 8817 aeb2 5d03 fdb0 82c0 04b1 b885 9830
00000070: 488a ea2f 0809 b9b0 7950 39b2 8c3e c9b0
00000080: ba5f 9033 2fa2 abb0 4f55 9132 3b61 2d33
00000090: 330b 04b2 76cb 0e31 509b e2af 5f16 5432
000000a0: 6878 31b3 380b 58b1 8bfb 2d33 f9d8 b9b1
000000b0: a79a a832 bec3 f831 8383 be32 c947 ed32
000000c0: 00b0 f52b 673b 16b3 054e e430 f9ce 86b3
000000d0: e2a9 6930 1a89 0ab2 18bc 0eb2 a6cb e7b2
000000e0: 8001 892e 8b89 f832 1b19 5eb2 6a6b cbb0
000000f0: 3938 9d31 a0c7 0b2e af0d 8330 2faa 31b3
00000100: f85a d9af aa8d 8cb2 0c03 98b2 f4b7 edb2
00000110: f600 e932 c4cd 00b0 201e 6231 9e19 e6b1
00000120: 0625 1130 1553 6532 baa8 1db1 0048 0e2e
00000130: 0266 eaae 4922 43b2 3e61 8ab3 3c74 8630
00000140: 806b 4932 667a a0b1 d5c0 fc31 8a52 af32
00000150: ae20 cab2 ff25 80b3 29d5 4932 496f 7d32
00000160: 992c 9632 002f 5a30 5f9b 2c33 fe34 bc31
00000170: 3007 7032 8cd1 1530 5bc1 3531 2c74 f8b2
00000180: 5c6a c0b1 e4dd c9b1 e08c 0cb2 6694 ed32
00000190: cffc 4fb3 a7dc 8db2 4668 d0b2 d42e fc31
000001a0: 204c c5ad 02c4 e5b2 7db6 7a33 0628 be32
000001b0: 0398 9c31 46ff 3732 49af 51b1 0bc9 b232
000001c0: 0e57 4ab3 b688 c5af c32a 9630 cf30 55b2
000001d0: b853 b732 b276 01b3 4ba3 96b2 6eb7 43b3
000001e0: 827d 8632 40dd 6b31 267b 9032 3afd 4632
000001f0: d769 1ab1 dce0 a032 de3f 09b0 c810 0db2
00000200: aca4 a4b2 4cba 0933 2c7d 4331 8cb5 8d33
00000210: 8905 96b2 4eef 26b3 9f11 2a31 915d bb32
00000220: 52bf ac32 f77e 3632 69cf 9532 24ed 0a31
00000230: de2d c5b1 a86e 2331 b797 b6b2 ba04 5132
00000240: ca75 31b3 3b5d 1e32 2128 dd31 b403 be32
00000250: e8c5 b8b1 257f 1bb3 5e38 2230 2288 6732
00000260: 8178 56b2 6e77 afb0 d8c1 5631 d40e 4932
00000270: 6ada a731 e72d 23b2 f635 f231 4bdb fa30
00000280: d040 36b2 a012 7132 46bb cab0 8388 30b3
00000290: a752 1530 0ec5 8331 ec0d 83b1 6f05 2eb3
000002a0: 4fa3 5431 fe20 79b1 adad 3031 4ebc 7a2f
000002b0: 052a e932 b9c3 94b2 f44c 8b33 2d01 cb31
000002c0: 852e 8b32 e42c 11b0 dbd4 3e30 9445 ca31
000002d0: fb3c 3b30 707e 8930 89a7 b131 1ac2 79b2
000002e0: f13f 48af 3374 a832 bb7a f3b2 ac41 9ab1
000002f0: 45f5 aa32 c39c 20b3 2e69 49b2 7d4f a9b0
00000300: c484 ae31 ee0f 0532 d6bf 99b1 ce61 f2b1
00000310: 9371 f130 d24f 8faf 9861 eb30 ef04 6033
00000320: 38e5 d72d b4e3 0db0 47ba 62b2 590a 2831
00000330: ce70 9b32 025d f7b2 17ad ef31 27d1 a5af
00000340: e8ec 43b0 9287 1eb2 66d6 35b2 6ec5 73b2
00000350: baeb 1bb0 c4f8 05b1 f4b5 f4af 881d e9b0
00000360: 308a 3c33 ccbd 36b0 adae 9c31 e79d 1c31
00000370: 2c7e b332 ca0b 9db1 a0d6 4733 b293 76b2
00000380: 7cf0 7d30 741a feb1 9a8d 1831 04aa 31b3
00000390: ed11 74b2 3154 b6b2 1925 36b2 3778 2e31
000003a0: dedf 82b1 13ca a9b0 89b3 15b1 e3bd e032
000003b0: 8874 8131 573d f7b1 969e ebae 04c6 b932
000003c0: ee8a 2c32 00a7 3a31 282a b92e 8082 71b2
000003d0: 4be0 a430 de4a 3b33 0eb6 bd30 2053 cc2e
000003e0: 5fa5 ed30 72c2 4f31 7261 bcb2 c3f2 5033
000003f0: 90d3 d9b0 b823 fc2f dc08 41b0 304f 6d32
1.9142895e-08 3.3085563e-09 -1.231089e-08 -4.483656e-09 1.042404e-08 6.0683254e-09 5.53117e-09 -7.80957e-11
1.6913717e-09 -1.5420602e-08 9.401964e-09 -1.3613111e-08 -6.5181993e-09 -4.914584e-08 -1.6790692e-09 -4.080147e-08
-3.7640486e-08 -1.2183302e-09 1.2099136e-08 1.1842312e-09 -2.8008712e-10 -6.6202137e-09 5.1151163e-09 3.1400547e-09
-2.0266967e-08 -1.8409129e-09 -1.9317956e-09 1.1097461e-09 4.2662607e-10 -1.3463088e-09 -1.0786715e-08 -1.4642452e-09
6.722935e-08 -1.2487983e-09 1.6919016e-08 4.0368132e-08 -7.685958e-09 2.0779374e-09 -4.1219517e-10 1.2345111e-08
-4.1320533e-08 -3.1438514e-09 4.050848e-08 -5.4088756e-09 1.9628102e-08 7.2400033e-09 2.2178716e-08 2.7623075e-08
1.7457147e-12 -3.4978623e-08 1.6611358e-09 -6.2775094e-08 8.5006324e-10 -8.0638305e-09 -8.308255e-09 -2.6984548e-08
6.230305e-11 2.8933547e-08 -1.2927809e-08 -1.4800723e-09 4.575693e-09 3.1782244e-11 9.535394e-10 -4.1365805e-08
-3.9536707e-10 -1.6362566e-08 -1.7696514e-08 -2.7674083e-08 2.7125207e-08 -4.685854e-10 3.2904452e-09 -6.6967933e-09
5.2803306e-10 1.3348445e-08 -2.2942417e-09 3.235101e-11 -1.0659208e-10 -1.1358289e-08 -6.443814e-08 9.782819e-10
1.17241825e-08 -4.670528e-09 7.3560877e-09 2.0410216e-08 -2.3530756e-08 -5.967376e-08 1.1748207e-08 1.47518415e-08
1.7482579e-08 7.937473e-10 4.018818e-08 5.4775446e-09 1.3971473e-08 5.450367e-10 2.6448876e-09 -2.8923829e-08
-5.600027e-09 -5.875096e-09 -8.181104e-09 2.7657915e-08 -4.842587e-08 -1.6514901e-08 -2.4261805e-08 7.339489e-09
-2.2430113e-11 -2.6748243e-08 5.8373633e-08 2.2137112e-08 4.5574793e-09 1.0710044e-08 -3.051314e-09 2.0813351e-08
-4.7110966e-08 -3.593123e-10 1.092609e-09 -1.240933e-08 2.1342075e-08 -3.0143106e-08 -1.7536555e-08 -4.5568804e-08
1.5656727e-08 3.4322767e-09 1.6819808e-08 1.1582694e-08 -2.2470112e-09 1.8728706e-08 -4.993107e-10 -8.211096e-09
-1.9166997e-08 3.2067234e-08 2.8447387e-09 6.598847e-08 -1.7464815e-08 -3.8867533e-08 2.4748272e-09 2.1812214e-08
2.0110438e-08 1.0622663e-08 1.7440202e-08 2.0216442e-09 -5.738669e-09 2.3782523e-09 -2.125658e-08 1.2166476e-08
-4.1318152e-08 9.218009e-09 6.4365087e-09 2.2120595e-08 -5.377604e-09 -3.6204387e-08 5.901536e-10 1.3476923e-08
-1.2483839e-08 -1.276687e-09 3.1251286e-09 1.1703111e-08 4.8851705e-09 -9.498286e-09 7.0492616e-09 1.8252221e-09
-1.0608531e-08 1.4032281e-08 -1.4750661e-09 -4.110235e-08 5.432334e-10 3.8350043e-09 -3.8141845e-09 -4.0517474e-08
3.094289e-09 -3.6253023e-09 2.5710094e-09 2.2804267e-10 2.7143878e-08 -1.7318472e-08 6.4866896e-08 5.9082113e-09
1.6202884e-08 -5.2814486e-10 6.9424083e-10 5.886884e-09 6.811686e-10 1.0003998e-09 5.1704245e-09 -1.4537841e-08
-1.821261e-10 1.9610615e-08 -2.8344735e-08 -4.489456e-09 1.990214e-08 -3.7395477e-08 -1.1723655e-08 -1.231896e-09
5.07916e-09 7.745241e-09 -4.4746953e-09 -7.054246e-09 1.7567338e-09 -2.6068264e-10 1.7126238e-09 5.215855e-08
2.4544464e-11 -5.1619087e-10 -1.3197286e-08 2.44531e-09 1.8095673e-08 -2.879688e-08 6.9754935e-09 -3.0161937e-10
-7.127725e-10 -9.2276355e-09 -1.0584335e-08 -1.4189352e-08 -5.672366e-10 -1.9495454e-09 -4.4512627e-10 -1.6961375e-09
4.3897842e-08 -6.648093e-10 4.560056e-09 2.2790745e-09 2.0895719e-08 -4.5706416e-09 4.65285e-08 -1.4352667e-08
9.238261e-10 -7.3953803e-09 2.2199402e-09 -4.1365652e-08 -1.4206745e-08 -2.1225874e-08 -1.0602229e-08 2.5388667e-09
-3.8089487e-09 -1.2353801e-09 -2.1784408e-09 2.6163383e-08 3.767642e-09 -7.1956197e-09 -1.0714733e-10 2.1626882e-08
1.0043307e-08 2.716149e-09 8.4203144e-11 -1.40577185e-08 1.1996318e-09 4.360742e-08 1.3803303e-09 9.291612e-11
1.7291021e-09 3.0232994e-09 -2.1930394e-08 4.8649564e-08 -1.5848958e-09 4.5863913e-10 -7.022558e-10 1.3813221e-08

conv_layers.5.0.conv.bias f4 [32]
00000000: 4cae bf2f eeec 1632 f488 75b3 e6e1 b9b1
00000010: a048 c032 0230 1ab2 e887 f4b0 cbf4 80b2
00000020: 3a89 a7b1 bd38 87b3 9e9c 5eb2 22f0 c8b2
00000030: a27c 2333 bd02 cbb2 0199 c432 0e72 6532
00000040: 187d b832 e031 a8ad aca5 8f31 0069 a1b2
00000050: 3c36 98b3 bcf4 0fb1 8b6a e131 cef0 09b2
00000060: 4250 3a30 10d9 18b0 2611 8631 2b15 b731
00000070: 96dc 5a30 cc8f a02f b717 f932 b209 85af
3.4866543e-10 8.785021e-09 -5.7168066e-08 -5.4098903e-09 2.2384768e-08 -8.9748955e-09 -1.7791963e-09 -1.501248e-08
-4.8759405e-09 -6.296748e-08 -1.2957711e-08 -2.3392264e-08 3.8064748e-08 -2.3633556e-08 2.2886981e-08 1.3355487e-08
2.1477305e-08 -1.9121538e-11 4.1806825e-09 -1.8790615e-08 -7.087917e-08 -2.0948354e-09 6.5604744e-09 -8.029202e-09
6.778046e-10 -5.560574e-10 3.901863e-09 5.3284075e-09 7.962141e-10 2.9206004e-10 2.89982e-08 -2.4199448e-10

conv_layers.7.0.conv.weight f4 [16, 32, 3, 3]
00000000: 1279 b6b2 3403 1031 db48 f0b2 84d6 c532
00000010: b5e9 e932 655e f8b2 4c29 1fb1 fc86 4333
00000020: 2334 d0b2 6cbb 8fb3 0027 042d 225d 6132
00000030: 6c39 8cb3 96df aeb1 3b3a 2232 de13 ccae
00000040: c884 6fb0 5158 57b2 b878 0532 2456 4930
00000050: 9c69 4cb2 70b5 e5b0 3580 c831 fe84 6d32
00000060: c6b6 c0b1 644d a7af a180 f8b2 9460 0930
00000070: 6bcd 5bb0 36a9 4cb1 3023 3f32 c8d5 6ab2
00000080: c905 79b3 5741 e92f 9c2d c331 4a1a 81b1
00000090: 9047 f9af 494a 5733 066e f0b2 3852 cf32
000000a0: 5558 61b3 4cb0 0e32 8f02 b332 ee69 4ab0
000000b0: d341 82b3 e60b 60b1 8c5c 7630 b42f 7d32
000000c0: 3c01 9e30 0ddf 2db2 b0dc 53b0 68c7 162e
000000d0: 60cd 96ae 0914 2e32 9c4b c530 0823 86b3
000000e0: 6464 a931 242a cb31 0a4c 8831 ad43 2ab3
000000f0: 0051 6d33 2616 c0b1 42ff 72b1 33b6 feb0
00000100: b7d3 f832 9200 08b2 fcc7 a7b1 67d7 0631
00000110: f911 bcb2 7d7a f832 5812 e3b1 36fc f431
00000120: a625 9832 b2b9 6132 2933 4632 62ea d032
00000130: a71f 6531 bafc d9b2 49e2 3131 5988 9331
00000140: ff53 7931 3f0b d6b1 a262 48b2 c346 a0b1
00000150: 3888 8332 2c2b 7332 9240 8632 5fc1 f1b1
00000160: 95f5 25b3 ba57 aa32 757a cdb1 1768 5e33
00000170: c65b 08b2 9cfc f430 c6c1 1433 d9b4 8032
00000180: db0d ceb1 d56a b331 f6cd fb2f cc73 e732
00000190: 000c 9fb1 190f f832 04f2 a7b2 8eda 8732
000001a0: f4ca 2c32 8624 9132 0657 c131 b7ec 2333
000001b0: 1423 d8b0 d150 e331 e099 d3b1 3aae 6ab2
000001c0: 5794 f331 fef8 c032 7ddd 2331 4fcc 62b3
000001d0: d1e0 87b0 00d9 3f2d d9d8 f031 2cb7 28b2
000001e0: c75b d5b1 2892 dc2f 18e9 eab1 f24e 94b1
000001f0: 6982 83b1 8277 4bb1 8039 bdb1 6023 1832
00000200: 0075 41b3 89eb e632 f79d 2ab3 feca 88b3
00000210: 1ffe 94b0 b45d 56b2 7814 6930 cad8 b032
00000220: 4afc df31 b855 d9b1 a849 41b2 4a9b b0b1
00000230: 69fe 7f31 e375 90b3 321e 7d32 acd0 5eaf
00000240: 6d3c 2e32 5eca 14b3 6a6b 3932 524f 72b2
00000250: d621 46af f674 0eb1 52d1 90b1 4a6f 2d33
00000260: 2ef0 1ab2 cd95 91b1 c839 d932 bd20 2e31
00000270: 12af 55af 8ae5 98b1 8bae 5eb2 deb6 bf31
00000280: ae8e a8b2 2f5f 4132 4a69 e8b2 c0fa fd30
00000290: c1a9 2932 1bfe 18b1 c9f3 84b0 4eb0 5432
000002a0: c8f3 acb2 da0d 94b1 f14d f5b1 4fb5 56b2
000002b0: fc0d 2bb0 6166 2b31 fe70 0530 e77e 8f32
000002c0: 2ff2 2bb3 1b4f 5cb3 de2e af32 ba69 4c31
000002d0: 4b97 f9b2 2c38 94b1 5a21 f231 3039 15b0
000002e0: 5b0f 0b31 304a d0b1 a6bd f5b0 3dc2 86b3
000002f0: 501d 86b1 c66d d1b0 79be 0032 4865 0eaf
00000300: 447c 8533 fce5 f02f 0c9f 74b1 bd6f 9033
00000310: 8612 60b1 30c1 b82f d048 7032 d9d1 2bb3
00000320: 0b8a 3531 0414 efb0 1bb5 02b3 27cc b4b0
00000330: 06dd 5330 f26b f6b1 5b58 3ab0 6224 3db2
00000340: d3c1 2f32 d72b 2032 c80f a932 66bb 9db1
00000350: b8b1 8032 bedd abb2 1d64 bc31 4868 74b0
00000360: 620e 3b32 fa6b 1ab2 3e0b 8ab1 0ec8 5033
00000370: 8a0a a031 eb6d 7e33 6828 3133 a4d9 af31
00000380: e23f 26b1 7bea 12b3 6e05 77b2 1580 b330
00000390: c0de b831 8802 65b2 6393 2eb3 ce76 2c33
000003a0: e8ab 8532 1281 77b2 a113 c52e b94a 8bb3
000003b0: 8771 cbb1 d4a9 ccb1 e06d 5c30 e49f b42f
000003c0: cff9 ddb2 abc8 47b1 8566 2833 fe2c 0e32
000003d0: fc91 7533 910d 8633 70e6 6bb2 5cc3 18b2
000003e0: 11d4 0fb1 807c 0db2 e834 8aaf dbc7 4330
000003f0: e0de b8af 62c9 42b1 fcbb c0b2 6426 2632
-2.1242645e-08 2.0956579e-09 -2.7972808e-08 2.3031369e-08 2.7231048e-08 -2.8913925e-08 -2.316102e-09 4.5524743e-08
-2.4238096e-08 -6.693048e-08 7.511991e-12 1.31179e-08 -6.529703e-08 -5.0894853e-09 9.442881e-09 -9.280375e-11
-8.7136387e-10 -1.2534728e-08 7.769067e-09 7.3245787e-10 -1.1898376e-08 -1.6713511e-09 5.8353415e-09 1.3825455e-08
-5.6087144e-09 -3.0432112e-10 -2.8929493e-08 4.9977555e-10 -7.996365e-10 -2.9782092e-09 1.1125664e-08 -1.3669201e-08
-5.7980092e-08 4.242888e-10 5.680432e-09 -3.757383e-09 -4.5343684e-10 5.012615e-08 -2.798971e-08 2.413536e-08
-5.2467232e-08 8.305573e-09 2.0839506e-08 -7.3637707e-10 -6.06557e-08 -3.2603054e-09 8.9625796e-10 1.4737385e-08
1.1496364e-09 -1.0120641e-08 -7.707497e-10 3.428316e-11 -6.857692e-11 1.01326885e-08 1.4355126e-09 -6.2462334e-08
4.9299604e-09 5.9128684e-09 3.9667656e-09 -3.964276e-08 5.525453e-08 -5.5904534e-09 -3.5360732e-09 -1.8532716e-09
2.8967277e-08 -7.916372e-09 -4.8830753e-09 1.9622008e-09 -2.1894254e-08 2.8926701e-08 -6.608655e-09 7.1300077e-09
1.771225e-08 1.3138946e-08 1.1536749e-08 2.4320972e-08 3.3341878e-09 -2.5377052e-08 2.5885518e-09 4.293764e-09
3.6282015e-09 -6.2294983e-09 -1.1663959e-08 -4.6646575e-09 1.5312352e-08 1.4154278e-08 1.5629016e-08 -7.036007e-09
-3.864041e-08 1.9830498e-08 -5.980207e-09 5.1783072e-08 -7.937109e-09 1.7825132e-09 3.463517e-08 1.4983401e-08
-5.9969643e-09 5.221731e-09 4.5802978e-10 2.6944598e-08 -4.6288733e-09 2.8877865e-08 -1.9551415e-08 1.5815456e-08
1.0057864e-08 1.689683e-08 5.6269327e-09 3.8166686e-08 -1.5726038e-09 6.6157573e-09 -6.158402e-09 -1.3660207e-08
7.089095e-09 2.246497e-08 2.3845523e-09 -5.2805543e-08 -9.886439e-10 1.0905277e-11 7.009572e-09 -9.8205355e-09
-6.2095498e-09 4.0121617e-10 -6.836796e-09 -4.316342e-09 -3.8274277e-09 -2.960832e-09 -5.507161e-09 8.855608e-09
-4.5042725e-08 2.6882633e-08 -3.9724878e-08 -6.3699176e-08 -1.0840643e-09 -1.2477745e-08 8.4793994e-10 2.0587681e-08
6.518836e-09 -6.3252763e-09 -1.1250826e-08 -5.1399285e-09 3.7252e-09 -6.726966e-08 1.4733404e-08 -2.0264918e-10
1.0141872e-08 -3.4642987e-08 1.079284e-08 -1.4104289e-08 -1.8020016e-10 -2.0730204e-09 -4.2147486e-09 4.0380918e-08
-9.01859e-09 -4.237086e-09 2.52884e-08 2.5338942e-09 -1.9434435e-10 -4.449878e-09 -1.2961787e-08 5.579621e-09
-1.9622657e-08 1.1255721e-08 -2.7056235e-08 1.847944e-09 9.875692e-09 -2.2263353e-09 -9.673552e-10 1.2380111e-08
-2.0134294e-08 -4.3089416e-09 -7.1392994e-09 -1.2497664e-08 -6.222931e-10 2.494197e-09 4.854569e-10 1.67051e-08
-4.0034305e-08 -5.1294688e-08 2.0393994e-08 2.9746006e-09 -2.9056215e-08 -4.313753e-09 7.0469186e-09 -5.428715e-10
2.023589e-09 -6.062031e-09 -1.7879997e-09 -6.275193e-08 -3.9032457e-09 -1.5237951e-09 7.493889e-09 -1.2950807e-10
6.215899e-08 4.381916e-10 -3.559708e-09 6.7258476e-08 -3.260682e-09 3.3606673e-10 1.3986394e-08 -4.0004895e-08
2.6417435e-09 -1.7395227e-09 -3.0432698e-08 -1.3154747e-09 7.7075446e-10 -7.1718143e-09 -6.7791966e-10 -1.100952e-08
1.0230411e-08 9.323194e-09 1.9681366e-08 -4.590606e-09 1.4981978e-08 -2.0007857e-08 5.4829017e-09 -8.8914875e-10
1.0888103e-08 -8.988531e-09 -4.0176067e-09 4.8610723e-08 4.657811e-09 5.9238953e-08 4.1247773e-08 5.117913e-09
-2.4192492e-09 -3.4206533e-08 -1.4378527e-08 1.3060367e-09 5.3804285e-09 -1.333013e-08 -4.064658e-08 4.0154923e-08
1.5561412e-08 -1.4406639e-08 8.9620096e-11 -6.486284e-08 -5.920984e-09 -5.9564886e-09 8.0191676e-10 3.2855418e-10
-2.5841386e-08 -2.9072378e-09 3.920879e-08 8.275718e-09 5.717628e-08 6.242329e-08 -1.3731196e-08 -8.891984e-09
-2.0929785e-09 -8.235588e-09 -2.5139646e-10 7.12246e-10 -3.3627767e-10 -2.8345188e-09 -2.2437227e-08 9.671201e-09

conv_layers.7.0.conv.bias f4 [16]
00000000: 46bb e231 78a6 aa32 45f8 fe2f 4ac9 2cb2
00000010: 64b7 8832 588d 82b2 3006 2fb0 939c b932
00000020: 9c1a 0a32 849c 64b0 fa8e bb2e a318 2e33
00000030: 1145 1cb2 46da 9eb0 9071 55b2 95a4 81b2
6.598756e-09 1.9866306e-08 4.6378737e-10 -1.00574855e-08 1.591588e-08 -1.5198268e-08 -6.367342e-10 2.1608036e-08
8.0387075e-09 -8.316834e-10 8.529173e-11 4.053494e-08 -9.096099e-09 -1.155805e-09 -1.2424053e-08 -1.509242e-08

linear_layers.0.weight f4 [64, 400]
00000000: 9078 6b2f dcc4 372f 2093 2930 87fd e6b2
00000010: 626d bfb2 8a45 55b1 b3d4 4932 86cd 1db3
00000020: 034a 56b2 6c50 1fb1 56b4 8e32 245d 8fb1
00000030: c795 1bb2 327c 6c31 d845 5132 856c 4d30
00000040: ed43 f0b2 f3c0 6fb2 5aff fcb1 3139 5232
00000050: 2c1a c931 d634 a631 5ab9 9db1 287e 3b32
00000060: ee12 acb1 503c 6431 9ecc 7c32 228f 9532
00000070: 9b0c 6baf f8c3 82b2 fa07 52b1 64a0 a632
00000080: 7b23 a832 3a7e 81b2 e3e6 0b32 ac2c 6a31
00000090: 3c3a 5331 7c5b 0ab1 3eea 1132 2434 a2b2
000000a0: 0005 91af ec05 0432 1298 2031 47d0 cfb1
000000b0: 8040 d831 1a56 2e31 3d72 65b1 963d e4b1
000000c0: 530f 92b2 cb53 1f32 7819 bbaf 5c6f 09b0
000000d0: 4ba6 9db2 2c9b 31b3 cc6f 2431 c042 3d30
000000e0: e089 0fb2 5792 cc31 5687 b0b2 f76c 8c32
000000f0: 9027 13b3 c076 1db0 1982 bf31 ca7f 31b3
00000100: 966d 6c31 4502 4db1 6e68 2532 46d0 ab32
00000110: eabc 1433 23c9 b8b1 008f 412d 1de8 a931
00000120: 76b4 cd32 98f4 df2f a6eb 30b3 3246 0eb2
00000130: 70b0 67b1 2992 4332 3b6e 6a30 cf16 5f32
00000140: 26f9 c130 de83 bd30 5579 64b2 0cc4 4ab1
00000150: 1e8e 1332 41dd d1af 06fb 08b2 9459 2e33
00000160: 8c9c 90b2 39f4 3b32 a2bb 2533 3e7e 3932
00000170: 510b 2432 5213 e7b1 5f48 9530 5c49 afb0
00000180: 8e24 2132 b6ac 1d2f 8355 bcb2 b2ca 6031
00000190: 0d27 6732 9013 1a32 bcaa ccb2 f681 9eb2
000001a0: e7d7 84b0 2436 9ab0 74ab 6eb2 788b 62b0
000001b0: 9d7e b1b1 fb4b 8ab1 446a 5c32 b810 98ad
000001c0: 7809 b831 b39a 85b1 4f7b 9d30 6419 5d31
000001d0: 207c 9332 f485 3033 0072 1eb0 2a21 4232
000001e0: bcb3 d4b1 c420 d932 7ff5 ee32 6033 47b2
000001f0: 6b41 6bb2 b96c 7db2 502e cb31 bacc f2b0
00000200: 721d be31 da29 9d32 34d1 ce32 860a d830
00000210: 8f0b 7db2 2cfd 2532 fd1f bdb2 ed76 7db2
00000220: 8f08 44b1 a572 7d31 4bff f431 a1f5 ebb1
00000230: 153d d3b1 a03a 32b2 5779 1db2 ffe7 93b2
00000240: ca62 e7b2 19a9 c332 0509 f132 08f0 83b2
00000250: e41b 66b2 e423 6e32 4d44 dbb0 e872 beb2
00000260: 7de1 94b1 1a5a e430 ca0b a6b0 db46 ec30
00000270: 94f8 c731 4506 f3b1 4473 0232 eba3 cf30
00000280: b848 37b1 902c 4bb0 df3b bcb1 cb31 eb32
00000290: 5b0f cc32 480c 1432 291f 2eb3 5edb 0631
000002a0: a6d1 ae30 111f 5632 7ee1 f7b2 92ba 34b2
000002b0: 2b91 9a32 3e9e 18b0 dc35 dd31 905a 71af
000002c0: 14ef 9cb1 d6b8 8a31 1d43 ce30 9cf3 cb31
000002d0: 659d 24b3 3c4c 1c30 7979 af30 fe9f 2b31
000002e0: 9113 0eb0 4f8e d4ae 00cb 49ad dfe4 1833
000002f0: 2338 9931 86f8 4eb2 28d9 04b1 8a64 ba31
00000300: ead5 4831 382b 2ab3 9261 7b2f 3e8b 96af
00000310: 0e67 3032 7daf ab32 b117 4431 e24f 05b3
00000320: dc0c 2f32 67db 8731 16d2 4430 d49c 3f32
00000330: bba3 e431 da69 34b1 0baf 18b2 9d9c b5b1
00000340: 467a 8732 4e92 39b1 a1d3 4231 c019 202b
00000350: f809 b932 be2f ab32 fbcf 19b1 1914 1832
00000360: 913a 53b0 4285 20b2 b8aa 0332 d84c 6230
00000370: f0a0 c430 0800 1db3 b458 c932 9c7b 2633
00000380: 565c 1eb2 91dc 12b2 1fcd 95b2 d077 ddb1
00000390: b0d3 e2b1 a7a4 c831 c04a d1b1 c68b 31b3
000003a0: 4691 ae32 1982 8cb0 fd31 7ab2 d057 2a33
000003b0: 0643 fcb1 5cd7 7232 ae06 2231 40f4 7cae
000003c0: 2d14 8ab2 8dc5 2a33 5055 94ae a576 7db2
000003d0: 2499 7a32 cfe8 7c32 4034 4e31 944d af30
000003e0: 4876 0d32 c00a 0132 ee81 f1b2 0ca2 8132
000003f0: eea5 2233 b2ff a131 c6f2 30b2 6bd4 0c33
2.1415958e-10 1.6713692e-10 6.169092e-10 -2.6890815e-08 -2.2285068e-08 -3.1035108e-09 1.1748102e-08 -3.6741334e-08
-1.2473268e-08 -2.318326e-09 1.6612983e-08 -4.1724366e-09 -9.056243e-09 3.4413117e-09 1.2181282e-08 7.473278e-10
-2.7970566e-08 -1.39555025e-08 -7.3631954e-09 1.2236613e-08 5.8528453e-09 4.8372426e-09 -4.5903734e-09 1.0913517e-08
-5.008011e-09 3.321265e-09 1.4714855e-08 1.7410972e-08 -2.1377604e-10 -1.5223108e-08 -3.0563556e-09 1.939788e-08
1.9573909e-08 -1.5074978e-08 8.143362e-09 3.4076875e-09 3.0737644e-09 -2.0133646e-09 8.493371e-09 -1.8882993e-08
-2.63789e-10 7.684758e-09 2.3369506e-09 -6.0481713e-09 6.29376e-09 2.5369276e-09 -3.3388823e-09 -6.642675e-09
-1.7003606e-08 9.27407e-09 -3.4033198e-10 -4.999856e-10 -1.8352827e-08 -4.1352152e-08 2.392869e-09 6.8852657e-10
-8.355045e-09 5.9538183e-09 -2.055064e-08 1.6347697e-08 -3.4262087e-08 -5.728502e-10 5.573622e-09 -4.1327247e-08
3.4404812e-09 -2.9832716e-09 9.628009e-09 2.0001732e-08 3.463075e-08 -5.3779714e-09 1.1002532e-11 4.9449356e-09
2.3947205e-08 4.0737258e-10 -4.1192514e-08 -8.281448e-09 -3.3715217e-09 1.1383727e-08 8.528535e-10 1.29854945e-08
1.411341e-09 1.3789039e-09 -1.3298934e-08 -2.9506309e-09 8.58884e-09 -3.817409e-10 -7.973318e-09 4.0594003e-08
-1.6834996e-08 1.0940362e-08 3.8587707e-08 1.0797121e-08 9.548629e-09 -6.7251813e-09 1.0861746e-09 -1.2753776e-09
9.379745e-09 1.4340426e-10 -2.1924967e-08 3.271151e-09 1.3454849e-08 8.968428e-09 -2.3826367e-08 -1.845272e-08
-9.665627e-10 -1.1220362e-09 -1.3892407e-08 -8.241652e-10 -5.1657723e-09 -4.0249666e-09 1.2829847e-08 -1.7287824e-11
5.3561813e-09 -3.8883967e-09 1.14583e-09 3.2174166e-09 1.7169498e-08 4.1100023e-08 -5.764207e-10 1.1299827e-08
-6.1904455e-09 2.5277025e-08 2.7818485e-08 -1.1595006e-08 -1.3693675e-08 -1.4751259e-08 5.9133427e-09 -1.7666004e-09
5.5330753e-09 1.8296237e-08 2.407669e-08 1.5719059e-09 -1.4729166e-08 9.661829e-09 -2.2017042e-08 -1.4753579e-08
-2.8526619e-09 3.6881513e-09 7.130358e-09 -6.867325e-09 -6.1478524e-09 -1.0374293e-08 -9.166192e-09 -1.7218552e-08
-2.6936863e-08 2.2777884e-08 2.8060194e-08 -1.535956e-08 -1.3394104e-08 1.3861584e-08 -1.5953759e-09 -2.2171164e-08
-4.333002e-09 1.6614792e-09 -1.208144e-09 1.7191398e-09 5.8199223e-09 -7.0729436e-09 7.593204e-09 1.510782e-09
-2.667134e-09 -7.3914297e-10 -5.4783267e-09 2.7380244e-08 2.3755709e-08 8.617526e-09 -4.0540872e-08 1.9624262e-09
1.2719752e-09 1.2463503e-08 -2.8857126e-08 -1.05198e-08 1.7993974e-08 -5.5522154e-10 6.4380696e-09 -2.1950997e-10
-4.5673776e-09 4.037342e-09 1.5007547e-09 5.9357728e-09 -3.8327375e-08 5.6860805e-10 1.276745e-09 2.497472e-09
-5.1687105e-10 -9.665923e-11 -1.1470602e-11 3.5598415e-08 4.459268e-09 -1.2047286e-08 -1.9331967e-09 5.4247424e-09
2.9225427e-09 -3.9620517e-08 2.2862981e-10 -2.7383779e-10 1.026798e-08 1.9986823e-08 2.853522e-09 -3.103913e-08
1.01892645e-08 3.9539603e-09 7.1602935e-10 1.1153322e-08 6.6542873e-09 -2.6253617e-09 -8.887365e-09 -5.285598e-09
1.5771672e-08 -2.7004208e-09 2.8351013e-09 5.6879154e-13 2.1541368e-08 1.992873e-08 -2.2382654e-09 8.852134e-09
-7.684458e-10 -9.343525e-09 7.6640205e-09 8.232752e-10 1.4306618e-09 -3.655444e-08 2.3439817e-08 3.876231e-08
-9.217805e-09 -8.5484695e-09 -1.7439161e-08 -6.4455676e-09 -6.6015318e-09 5.839485e-09 -6.0911987e-09 -4.1338147e-08
2.0322329e-08 -1.0223317e-09 -1.4563281e-08 3.9661074e-08 -7.341785e-09 1.4135221e-08 2.35779e-09 -5.7515104e-11
-1.607449e-08 3.976088e-08 -6.745415e-11 -1.4753515e-08 1.4586735e-08 1.4721265e-08 3.0006646e-09 1.2754975e-09
8.234174e-09 7.5112325e-09 -2.8115178e-08 1.5091267e-08 3.7869476e-08 4.714786e-09 -1.0299749e-08 3.2789483e-08

linear_layers.0.bias f4 [64]
00000000: 723a 36b2 94b3 beb2 e8eb 8fb0 a6a9 9831
00000010: af21 6031 b282 9f31 370e 70b1 cfd0 e9b2
00000020: c7ec ce32 fcc9 34b2 33c9 98b1 7af8 d532
00000030: 8832 efaf 6274 2432 9c8f 1db2 6cdb a931
00000040: 2849 412f 90f4 a2af 0d4f 7532 70a5 d4ae
00000050: 5233 7530 d915 1631 febb 4330 7856 70b0
00000060: 6ed5 7ab2 582f a6b1 6bdd 8f31 a6bf 6532
00000070: 7462 49b1 ec93 f932 1816 24b1 5afa 64b1
00000080: ceb9 bdb2 5aba 85b1 2350 2db2 4ac5 b2b1
00000090: 4f62 2632 4371 d3b0 90c8 8c32 264f f031
000000a0: 96e7 67b0 31ed 98b2 68dc 162f 35fb 7f31
000000b0: 7d0f 1cb3 016d 04b1 58c8 3caf e09d 0432
000000c0: 7892 d2b1 60d8 14b2 8d37 f432 c134 3730
000000d0: 9201 602e e158 f7b2 2020 292e a602 fab2
000000e0: 4acc 07b0 c24f 90b1 aba9 2431 737a 59b2
000000f0: 9556 97b2 f126 da32 b45e d931 a4ea e72e
-1.0607083e-08 -2.2200574e-08 -1.0471668e-09 4.443069e-09 3.2615437e-09 4.6423674e-09 -3.4932677e-09 -2.7219725e-08
2.408923e-08 -1.0523305e-08 -4.446656e-09 2.4909458e-08 -4.350975e-10 9.572519e-09 -9.171256e-09 4.9434927e-09
1.7579238e-10 -2.96414e-10 1.4278851e-08 -9.6700314e-11 8.920341e-10 2.1840292e-09 7.120774e-10 -8.743437e-10
-1.46004435e-08 -4.836618e-09 4.18702e-09 1.337313e-08 -2.9305314e-09 2.9054682e-08 -2.38777e-09 -3.3320675e-09
-2.208699e-08 -3.891995e-09 -1.0088146e-08 -5.202911e-09 9.6848245e-09 -1.5384461e-09 1.638935e-08 6.9939174e-09
-8.4366414e-10 -1.7802991e-08 1.3720725e-10 3.7250178e-09 -3.6335667e-08 -1.927049e-09 -1.7169677e-10 7.719308e-09
-6.128456e-09 -8.663932e-09 2.84306e-08 6.664998e-10 5.0933098e-11 -2.8795002e-08 3.8454684e-11 -2.9105035e-08
-4.9403026e-10 -4.200019e-09 2.3961586e-09 -1.2658904e-08 -1.7618087e-08 2.5396249e-08 6.3262977e-09 1.05463444e-10
