models/model_1729161316947/model.pth (torch, 275575 bytes, 32 tensors)

conv_layers.0.0.conv.weight f4 [16, 2, 3, 3]
0.21692304 0.0670418 -0.19628535 0.23316516 -0.2233915 0.062186763 0.21241932 0.1901652
-0.09602848 -0.07310441 0.11977498 -0.21526337 0.21946321 0.03860216 0.18990599 -0.04200059
0.16473134 0.13881315 -0.089429185 0.0036554784 -0.20600565 0.011915535 -0.073458195 0.1580127
0.112265095 -0.093843415 0.17290516 -0.22814915 0.16401754 -0.007252261 -0.1630815 -0.18795727
0.12857406 0.157654 -0.041197896 0.22186978 0.16969864 0.14862736 -0.018641159 0.0012150407
-0.21161182 0.13526182 0.12908171 0.032474056 -0.080511466 -0.21422072 -0.14204724 -0.11819797
-0.1399013 -0.05455263 0.21153925 -0.18600635 -0.104142815 0.14423646 -0.05134827 -0.13177237
0.09070216 0.028521493 -0.03218384 0.0756367 0.19677828 -0.04698567 -0.21995111 -0.10399383
0.06066872 -0.09125282 0.121657476 0.16225503 0.21090253 -0.0053851604 -0.17751777 -0.08393696
0.15554936 -0.035222262 -0.07725841 0.12993143 -0.13695613 -0.033389583 0.2126625 -0.16910401
0.048970208 0.1931035 0.09991382 -0.21416469 0.10343285 0.1856756 0.07945268 0.08406825
-0.05962795 -0.029259354 0.09096946 0.12563471 -0.1675394 0.0051121563 -0.1825151 0.11755739
-0.083269 -0.041277617 0.011181816 0.21007986 -0.06734572 -0.19425336 0.20231159 -0.16880041
-0.15827738 -0.15949458 -0.078528 0.20955758 0.05767162 0.2186022 0.19198085 0.105903044
0.21032546 -0.12252266 -0.18641405 -0.08875935 0.06777014 0.23440291 0.15034284 -0.22337589
-0.122917354 -0.039318353 -0.07023154 0.21686156 -0.10545574 -0.23098305 -0.0057483464 0.0008868873
0.2095222 -0.0490271 0.059454784 -0.054638073 0.13821124 -0.21508211 -0.20276119 -0.13610965
-0.17583624 -0.016447946 0.10460673 -0.14092967 -0.17363192 -0.064351246 0.17771609 -0.0054320246
0.17400159 0.039688274 -0.17424619 0.1591024 0.18802007 -0.22729127 0.01956059 0.10360266
0.16689767 -0.060125798 -0.19007465 0.16697256 0.08408405 -0.023912042 0.13242687 -0.22102179
-0.118489176 0.16941185 0.095854536 -0.23201028 0.054262742 0.057950392 -0.083346575 0.1930056
-0.027329728 -0.23101188 0.040520802 0.14862035 -0.17038438 -0.055675477 -0.091637984 0.05970694
-0.00069989264 0.022384092 -0.004940316 0.12648089 0.05566369 0.07045843 -0.19723885 0.12991782
0.0956877 -0.122743174 -0.08014122 -0.16844657 0.10545091 -0.18045056 0.09664796 0.22369699
-0.18288748 0.16372 -0.055993065 0.10444032 -0.19944748 0.012050316 -0.001166001 -0.116962425
-0.19117641 0.23383798 0.07719569 -0.060655802 -0.18707989 -0.23099285 -0.16932878 -0.1243699
0.23185392 0.008338869 0.1529301 0.15709661 0.22279276 0.031691268 0.09781842 0.06315969
-0.15741095 -0.08310406 0.0664603 0.06180437 0.011910021 -0.14211383 -0.0015353858 -0.19093253
0.10917865 -0.120837264 0.03524746 0.10861085 0.20818372 -0.06339723 0.20666741 0.07181905
-0.037053123 0.23435898 0.19734417 -0.22133566 0.1837147 0.22308142 0.201768 0.12266658
0.11436401 -0.07368936 0.20796098 -0.15862739 -0.14044662 -0.11218814 -0.14656806 -0.1410097
0.09148745 -0.035305157 -0.08711214 0.02408038 -0.20928504 0.09696899 -0.12842207 -0.23551235
00000000: 1321 5e3e 364d 893d 07ff 48be d9c2 6e3e
00000010: bec0 64be 8cb7 7e3d 7384 593e abba 423e
00000020: 94aa c4bd c4b7 95bd 964c f53d 006e 5cbe
00000030: f7ba 603e 4c1d 1e3d b776 423e d008 2cbd
00000040: 55af 283e 0925 0e3e a626 b7bd c090 6f3b
00000050: 25f3 52be 6039 433c 4071 96bd 15ce 213e
00000060: 3eeb e53d fa30 c0bd 0d0e 313e ee9f 69be
00000070: 37f4 273e 60a4 edbb d6fe 26be df77 40be
00000080: eba8 033e 0d70 213e 20bf 28bd d531 633e
00000090: 7bc5 2d3e c531 183e 58b5 98bc 0042 9f3a
000000a0: c5b0 58be 1382 0a3e ff2d 043e 8403 053d
000000b0: 32e3 a4bd ad5c 5bbe d574 11be c711 f2bd
000000c0: 4942 0fbe 9472 5fbd bf9d 583e 7378 3ebe
000000d0: d448 d5bd b9b2 133e 9052 52bd 56ef 06be
000000e0: 0ec2 b93d e8a5 e93c 34d3 03bd 6ae7 9a3d
000000f0: 3f80 493e 0c74 40bd dd3a 61be b8fa d4bd
00000100: c47f 783d c2e2 babd 8e27 f93d 2f26 263e
00000110: d5f6 573e 0076 b0bb 38c7 35be 24e7 abbd
00000120: 5548 1f3e 3845 10bd a839 9ebd bf0c 053e
00000130: 3a3e 0cbe 84c3 08bd 33c4 593e 9a29 2dbe
00000140: fc94 483d edbc 453e 9e9f cc3d fd4d 5bbe
00000150: 9ad4 d33d bf21 3e3e 16b8 a23d fa2b ac3d
00000160: 703c 74bd 50b1 efbc 324e ba3d 63a6 003e
00000170: 738f 2bbe e083 a73b 3de5 3abe eec1 f03d
00000180: f088 aabd b812 29bd f033 373c 2d1f 573e
00000190: 8eec 89bd 5aea 46be c52a 4f3e 04da 2cbe
000001a0: 7713 22be 8c52 23be 4ad3 a0bd 4396 563e
000001b0: 1439 6c3d 41d9 5f3e a196 443e b2e3 d83d
000001c0: 8f5f 573e 29ed fabd 53e3 3ebe 76c7 b5bd
000001d0: 12cb 8a3d 5107 703e 79f3 193e a6bc 64be
000001e0: 18bc fbbd 480c 21bd 8ed5 8fbd f510 5e3e
000001f0: 2ef9 d7bd d286 6cbe a05c bcbb 007e 683a
00000200: fd8c 563e a4d0 48bd dc86 733d 2ccc 5fbd
00000210: 3f87 0d3e 7c3e 5cbe a1a0 4fbe 5460 0bbe
00000220: 6a0e 34be d8bd 86bc 0e3c d63d de4f 10be
00000230: 91cc 31be 96ca 83bd 35fb 353e 20ff b1bb
00000240: 792d 323e 2c90 223d 986d 32be bdeb 223e
00000250: 5588 403e 0bbf 68be 883d a03c a22d d43d
00000260: 39e7 2a3e 7846 76bd eea2 42be dbfa 2a3e
00000270: 4234 ac3d 30e3 c3bc e99a 073e 8953 62be
00000280: 74aa f2bd 4d7a 2d3e 624f c43d 1a94 6dbe
00000290: 9c42 5e3d 645d 6d3d 9cb1 aabd 43a3 453e
000002a0: 98e2 dfbc 618e 6cbe 24f9 253d ef2f 183e
000002b0: 3e79 2ebe f80b 64bd b2ac bbbd 448f 743d
000002c0: 0079 37ba d85e b73c 60e2 a1bb 3584 013e
000002d0: 9cff 633d 824c 903d fbf8 49be 2d09 053e
000002e0: eaf7 c33d c660 fbbd 1421 a4bd 427d 2cbe
000002f0: a6f6 d73d 08c8 38be 5eef c53d d310 653e
00000300: db46 3bbe 37a6 273e fc58 65bd cee4 d53d
00000310: f63b 4cbe b06e 453c 80d4 98ba ff89 efbd
00000320: c0c3 43be 3973 6f3e c618 9e3d 3872 78bd
00000330: df91 3fbe 6489 6cbe 8664 2dbe a5b5 febd
00000340: 1d6b 6d3e c09f 083c b599 1c3e efdd 203e
00000350: c923 643e b4ce 013d 0655 c83d de59 813d
00000360: 5630 21be 7632 aabd 561c 883d 9426 7d3d
00000370: 4022 433c 4a86 11be 003f c9ba d183 43be
00000380: 0e99 df3d 8779 f7bd a45f 103d 5e6f de3d
00000390: 1d2e 553e 68d6 81bd 9fa0 533e de15 933d
000003a0: 04c5 17bd cdfb 6f3e 9714 4a3e d1a5 62be
000003b0: b51f 3c3e 756f 643e 459c 4e3e 9e38 fb3d
000003c0: ae37 ea3d 72ea 96bd b9f3 543e 386f 22be
000003d0: 3dd1 0fbe e5c2 e5bd f015 16be d964 10be
000003e0: c65d bb3d 249c 10bd da67 b2bd 3844 c53c
000003f0: d14e 56be ae97 c63d 1381 03be 262a 71be

conv_layers.0.1.weight f4 [16]
1.0 1.0 1.0 1.0 1.0 1.0 1.0 1.0
1.0 1.0 1.0 1.0 1.0 1.0 1.0 1.0
00000000: 0000 803f 0000 803f 0000 803f 0000 803f
00000010: 0000 803f 0000 803f 0000 803f 0000 803f
00000020: 0000 803f 0000 803f 0000 803f 0000 803f
00000030: 0000 803f 0000 803f 0000 803f 0000 803f

conv_layers.0.1.bias f4 [16]
0.0 0.0 0.0 0.0 0.0 0.0 0.0 0.0
0.0 0.0 0.0 0.0 0.0 0.0 0.0 0.0
00000000: 0000 0000 0000 0000 0000 0000 0000 0000
00000010: 0000 0000 0000 0000 0000 0000 0000 0000
00000020: 0000 0000 0000 0000 0000 0000 0000 0000
00000030: 0000 0000 0000 0000 0000 0000 0000 0000

conv_layers.0.1.running_mean f4 [16]
0.0008085957 4.3093944e-05 -0.00046340458 5.1675357e-05 0.0005102733 -0.0002782825 4.1559808e-05 -0.00050965307
0.00017549777 -3.4381286e-05 -7.7823184e-05 0.0005334483 0.0004962019 -0.00022595067 1.04809105e-05 0.00024784976
00000000: f0f7 533a c5bf 3438 1cf5 f2b9 febd 5838
00000010: ddc3 053a 72e6 91b9 8150 2e38 3d9a 05ba
00000020: d305 3839 a034 10b8 0135 a3b8 1cd7 0b3a
00000030: 8c13 023a 2ced 6cb9 2bd7 2f37 d5f1 8139

conv_layers.0.1.running_var f4 [16]
6.901028e-05 5.9477283e-05 5.3430864e-05 3.910409e-05 4.7080623e-05 6.231807e-05 6.592756e-05 4.059437e-05
4.693924e-05 2.8116607e-05 4.673696e-05 5.2995838e-05 4.5625482e-05 4.0811392e-05 5.326166e-05 4.635002e-05
00000000: 9db9 9038 3f77 7938 f41a 6038 b203 2438
00000010: 6f78 4538 c2b0 8238 9742 8a38 df43 2a38
00000020: a0e0 4438 f4db eb37 6e07 4438 d947 5e38
00000030: fd5d 3f38 e62c 2b38 4665 5f38 f467 4238

conv_layers.2.0.conv.weight f4 [32, 16, 3, 3]
-0.031015199 -0.05812061 0.01448828 -0.06818147 -0.035677165 -0.072895184 0.04227569 0.033256076
-0.04202407 -0.03822151 0.0050325617 -0.038960695 -0.036760222 0.055627085 0.026219524 -0.07637241
-0.025673568 0.00022425503 0.06845442 -0.0063321516 -0.037778854 -0.047092408 0.07640276 0.073596455
0.072568394 0.04965236 -0.014173217 -0.036443274 0.032265544 0.05685156 0.00903967 -0.007637255
-0.04019072 -0.0799624 -0.07782629 0.06227488 0.052247472 0.034344196 0.049108453 0.07250885
0.05166877 0.011467725 -0.062725276 0.024803467 0.0036560223 0.0036747083 -0.03882472 -0.040043943
-0.05749347 0.031302787 -0.0068160817 -0.0585548 0.030016668 0.03308352 -0.07344364 -0.070213825
-0.0708259 -0.005581714 -0.06831985 0.03321266 -0.08113891 0.08239824 0.054758184 0.07925073
-0.036818158 0.06881163 0.010789543 -0.0189659 0.016076721 -0.082501456 -0.040627062 -0.033097915
0.041083045 -0.051686406 -0.01784169 -0.059856348 0.014635928 0.021402813 -0.006896943 0.04829236
-0.072120145 0.07282997 -0.035847306 -0.0013043955 -0.07425615 -0.046138525 -0.029629748 -0.0042994097
-0.07569629 -0.07511657 0.00824938 0.07647077 -0.06787237 0.034585536 0.021400519 -0.053008974
0.078750424 0.06772948 -0.032349408 -0.08181055 0.05982112 0.045511477 0.052833147 0.051349588
0.06390441 0.056814976 0.080700465 0.046926863 0.025933854 0.08036978 -0.031130783 -0.010913789
-0.0036706403 -0.019573122 -0.039850663 -0.030678075 -0.026757002 0.007747628 0.071723975 -0.075028114
-0.050394237 0.040006436 -0.049088072 -0.018694043 0.081416585 0.07455415 -0.081186645 -0.027315777
-0.026866734 -0.041298896 0.060258083 -0.026489347 0.018390529 -0.032281876 -0.06409699 -0.022420228
-0.0142477825 -0.019382454 0.05935163 -0.032387972 -0.015119441 0.049507 0.0047926903 -0.027343504
0.0594965 0.013719529 -0.07107255 0.009859912 0.06603446 -0.0361243 0.019871406 0.054203518
-0.075955294 0.079652555 0.018190853 -0.018160075 0.0037446246 0.0012962818 0.038908385 -0.046486646
0.06652785 -0.07011005 0.03570146 0.07587198 0.03695614 0.060037054 0.080773465 -0.08030145
0.052871488 -0.041573018 0.055374138 0.025383957 0.0660216 0.0018611923 0.021746643 0.045955665
-0.07929817 0.040243864 -0.042489886 0.07991616 -0.051956326 0.0083790645 -0.04937076 0.009410523
0.06374446 -0.016685069 0.031544805 0.0335413 0.03205704 -0.029253036 -0.015768759 -0.029370558
0.020433336 -0.04692459 0.07245187 -0.0024099275 -0.044017248 -0.029825829 -0.055874974 -0.080390126
0.03217148 0.05714316 -0.008893944 0.06107589 0.083025895 0.038149662 0.004220672 -0.032108646
-0.05814138 0.02124583 -0.050456285 0.017790683 0.01123143 -0.07572012 0.013374619 0.08315403
0.0659673 0.011272348 0.030458413 0.038903944 0.015387334 0.035961896 -0.036478322 0.0018386841
-0.06548407 -0.019765995 0.043106295 0.054856487 -0.07464522 0.008165173 0.055024125 0.06308726
-0.07719745 -0.042780768 -0.015118398 -0.08075249 -0.0144445 0.032177806 0.016532697 -0.06917764
0.0462699 -0.042928945 0.014415145 -0.0033167005 0.061124854 -0.05196468 -0.04532685 0.042870604
-0.0331181 0.03685976 0.063139044 -0.015064359 -0.010922551 0.07853884 -0.0033537373 0.0334804
00000000: 9613 febc e00f 6ebd 4060 6d3c baa2 8bbd
00000010: 3822 12bd 124a 95bd 4629 2d3d 8637 083d
00000020: 6e21 2cbd 288e 1cbd 30e8 a43b 4095 1fbd
00000030: e391 16bd 3ad9 633d 54ca d63c 2369 9cbd
00000040: 6051 d2bc 0026 6b39 d531 8c3d f07d cfbb
00000050: 00be 1abd f8e3 40bd 0d79 9c3d bdb9 963d
00000060: bd9e 943d 4660 4b3d c836 68bc 8b45 15bd
00000070: e028 043d 2edd 683d 201b 143c f041 fabb
00000080: 069f 24bd 54c3 a3bd 6463 9fbd f213 7f3d
00000090: 7201 563d 80ac 0c3d f225 493d 857f 943d
000000a0: a2a2 533d 20e3 3b3c 1c76 80bd a430 cb3c
000000b0: e099 6f3b 60d3 703b ab06 1fbd 1e05 24bd
000000c0: 467e 6bbd 5a37 003d 7059 dfbb 28d7 6fbd
000000d0: 84e5 f53c 9682 073d 9e69 96bd 44cc 8fbd
000000e0: 2b0d 91bd d0e6 b6bb 47eb 8bbd 000a 083d
000000f0: 282c a6bd 69c0 a83d 1e4a 603d 354e a23d
00000100: a3ce 16bd 1ded 8c3d a0c6 303c 605e 9bbc
00000110: 54b3 833c 86f6 a8bd 9068 26bd ae91 07bd
00000120: b246 283d 20b5 53bd bc28 92bc ee2b 75bd
00000130: 88cb 6f3c f454 af3c c0ff e1bb 36ce 453d
00000140: bab3 93bd e127 953d a0d4 12bd 40f8 aaba
00000150: 9c13 98bd c0fb 3cbd 16ba f2bc 10e2 8cbb
00000160: a806 9bbd b7d6 99bd 6828 073c b59c 9c3d
00000170: ab00 8bbd 90a9 0d3d 2450 af3c f01f 59bd
00000180: e747 a13d c1b5 8a3d d080 04bd 4a8c a7bd
00000190: fe06 753d 3e6a 3a3d 9267 583d f253 523d
000001a0: 51e0 823d d2b6 683d 4946 a53d 6236 403d
000001b0: 3c73 d43c e998 a43d fc05 ffbc c0cf 32bc
000001c0: 208f 70bb d057 a0bc 733a 23bd 9650 fbbc
000001d0: 8031 dbbc d0df fd3b 05e4 923d 57a8 99bd
000001e0: 306a 4ebd cadd 233d 9310 49bd 4024 99bc
000001f0: bdbd a63d d9af 983d 2f45 a6bd 56c5 dfbc
00000200: a017 dcbc 0829 29bd 2ed1 763d 3000 d9bc
00000210: bca7 963c 003a 04bd 4845 83bd a0aa b7bc
00000220: 886f 69bc f4c7 9ebc b21a 733d 40a9 04bd
00000230: 88b7 77bc dac7 4a3d 000c 9d3b 7cff dfbc
00000240: 9ab2 733d e0c7 603c 7c8e 91bd 788b 213c
00000250: 133d 873d 13f7 13bd 5cc9 a23c 8204 5e3d
00000260: 738e 9bbd e120 a33d fc04 953c 70c4 94bc
00000270: 6068 753b 00e8 a93a 665e 1f3d c868 3ebd
00000280: c13f 883d dc95 8fbd b23b 123d c562 9b3d
00000290: 525f 173d 6ae9 753d 8f6c a53d 1675 a4bd
000002a0: c68f 583d 7848 2abd fecf 623d 04f2 cf3c
000002b0: 5536 873d 40f3 f33a 0426 b23c 023c 3c3d
000002c0: 1467 a2bd c0d6 243d e009 2ebd 15ab a33d
000002d0: 28d0 54bd 5848 093c fe38 4abd 982e 1a3c
000002e0: 758c 823d 20af 88bc 2035 013d 9a62 093d
000002f0: 3e4e 033d 10a4 efbc 7c2d 81bc 869a f0bc
00000300: d063 a73c 0034 40bd a561 943d e0ef 1dbb
00000310: 6e4b 34bd 4c55 f4bc 28dd 64bd 94a3 a4bd
00000320: 3ec6 033d f20e 6a3d e8b7 11bc b62a 7a3d
00000330: 7b09 aa3d d242 1c3d 904d 8a3b 5b84 03bd
00000340: a825 6ebd bc0b ae3c 40ab 4ebd c4bd 913c
00000350: 0804 383c 2613 9bbd 3821 5b3c a94c aa3d
00000360: dd19 873d a8af 383c ec83 f93c be59 1f3d
00000370: 281b 7c3c c84c 133d 4b6a 15bd 0000 f13a
00000380: 831c 86bd 4cec a1bc 3a90 303d 32b1 603d
00000390: 98df 98bd 38c7 053c fa60 613d e533 813d
000003a0: b219 9ebd e33a 2fbd 28b3 77bc 9061 a5bd
000003b0: a0a8 6cbc e0cc 033d 946f 873c 02ad 8dbd
000003c0: 8285 3d3d 43d6 2fbd 802d 6c3c 005d 59bb
000003d0: 0e5e 7a3d ebd8 54bd a6a8 39bd 1699 2f3d
000003e0: d8a6 07bd 42fa 163d 0b4f 813d 80d0 76bc
000003f0: 80f4 32bc f9d8 a03d 60ca 5bbb be22 093d

conv_layers.2.1.weight f4 [32]
1.0 1.0 1.0 1.0 1.0 1.0 1.0 1.0
1.0 1.0 1.0 1.0 1.0 1.0 1.0 1.0
1.0 1.0 1.0 1.0 1.0 1.0 1.0 1.0
1.0 1.0 1.0 1.0 1.0 1.0 1.0 1.0
00000000: 0000 803f 0000 803f 0000 803f 0000 803f
00000010: 0000 803f 0000 803f 0000 803f 0000 803f
00000020: 0000 803f 0000 803f 0000 803f 0000 803f
00000030: 0000 803f 0000 803f 0000 803f 0000 803f
00000040: 0000 803f 0000 803f 0000 803f 0000 803f
00000050: 0000 803f 0000 803f 0000 803f 0000 803f
00000060: 0000 803f 0000 803f 0000 803f 0000 803f
00000070: 0000 803f 0000 803f 0000 803f 0000 803f

conv_layers.2.1.bias f4 [32]
0.0 0.0 0.0 0.0 0.0 0.0 0.0 0.0
0.0 0.0 0.0 0.0 0.0 0.0 0.0 0.0
0.0 0.0 0.0 0.0 0.0 0.0 0.0 0.0
0.0 0.0 0.0 0.0 0.0 0.0 0.0 0.0
00000000: 0000 0000 0000 0000 0000 0000 0000 0000
00000010: 0000 0000 0000 0000 0000 0000 0000 0000
00000020: 0000 0000 0000 0000 0000 0000 0000 0000
00000030: 0000 0000 0000 0000 0000 0000 0000 0000
00000040: 0000 0000 0000 0000 0000 0000 0000 0000
00000050: 0000 0000 0000 0000 0000 0000 0000 0000
00000060: 0000 0000 0000 0000 0000 0000 0000 0000
00000070: 0000 0000 0000 0000 0000 0000 0000 0000

conv_layers.2.1.running_mean f4 [32]
-0.017339338 0.07450217 0.08017081 0.054966316 -0.022687158 0.051602665 -0.05934822 0.01124443
-0.031163704 -0.03045994 -0.0075945635 0.071778156 -0.09093439 0.027604546 -0.06821145 -0.09619127
0.03176238 0.0772866 0.056029595 0.0028864883 0.034504537 -0.0012991156 0.07402146 -0.027775034
0.07701084 -0.04463693 0.028104013 -0.03211603 0.016143972 0.0015811877 0.11395577 0.0122213075
00000000: 3a0b 8ebc 9894 983d 9830 a43d 5c24 613d
00000010: 6bda b9bc 515d 533d 1e17 73bd 8f3a 383c
00000020: 064b ffbc 2087 f9bc d1db f8bb 6d00 933d
00000030: cf3b babd ee22 e23c 72b2 8bbd eeff c4bd
00000040: 4519 023d 7048 9e3d 4a7f 653d 3d2b 3d3b
00000050: a154 0d3d 1647 aaba 9098 973d 7888 e3bc
00000060: dcb7 9d3d 37d5 36bd 633a e63c 198c 03bd
00000070: 5d40 843c db3f cf3a a561 e93d e13b 483c

conv_layers.2.1.running_var f4 [32]
0.040005468 0.111380585 0.059610367 0.048642322 0.044837363 0.050060943 0.07056334 0.07699434
0.0807045 0.03518552 0.042739026 0.053766504 0.12575196 0.044219892 0.05567185 0.07252673
0.0526916 0.0813412 0.056931518 0.07026294 0.04455607 0.046909124 0.10478374 0.039568745
0.106427446 0.030480886 0.04339394 0.055673175 0.040466774 0.08103211 0.116373785 0.076427035
00000000: c6dc 233d 811b e43d 002a 743d 2c3d 473d
00000010: 62a7 373d b40c 4d3d 8383 903d 35af 9d3d
00000020: 6748 a53d b11e 103d 1e0f 2f3d 443a 5c3d
00000030: 1fc5 003e eb1f 353d 2a08 643d e588 943d
00000040: 26d3 573d 3796 a63d 0631 693d 04e6 8f3d
00000050: 6d80 363d c823 403d dc98 d63d d612 223d
00000060: a2f6 d93d 0db3 f93c d8bd 313d 8e09 643d
00000070: 7dc0 253d 2af4 a53d 6155 ee3d c785 9c3d

conv_layers.3.conv1d.weight f4 [1, 1, 3]
0.0868147 0.5392915 -0.5586476
00000000: e8cb b13d 020f 0a3f 8703 0fbf

conv_layers.5.0.conv.weight f4 [32, 32, 3, 3]
-0.035158325 -0.048971724 -0.05620401 -0.013151657 0.05238087 0.012465682 0.046705958 0.05027793
-0.013556723 -0.02711523 0.0008060783 0.05265752 -0.010365672 0.0040442087 -0.013524052 0.05736221
0.0056930818 -0.029368304 -0.05579109 -0.012190703 0.036463816 0.01490261 -0.05137035 0.008571748
0.053680275 -0.017338146 -0.020200845 -0.021445189 0.031292874 0.0465377 -0.035799064 -0.039850533
0.012896422 0.05693407 0.030527163 -0.05881326 0.012294341 0.05066919 -0.04900994 0.027426701
0.023276996 0.03809901 0.046690706 -0.008208528 -0.053546965 -0.007897422 0.049455192 -0.03150602
-0.009577114 0.004048776 -0.051110893 0.0022931248 -0.05466801 -0.051893573 0.00810561 -0.016882047
0.00551584 0.050906707 -0.019387115 -0.03128506 -0.0029685423 0.0015789978 -0.044499155 -0.02897926
0.035346445 0.043606464 -0.03744342 0.027700502 0.040726084 -0.037367858 -0.032104976 -0.0031982698
0.03673807 -0.041060317 -0.032439973 0.011806738 -0.025860205 -0.029838488 -0.044864647 -0.058331735
0.021152738 -0.022773221 0.04024602 0.055355627 -0.04596194 -0.0030092224 0.04600924 0.05888122
0.0502412 -0.03881028 -0.04280217 -0.001070559 -0.042635716 0.026038084 -0.023539815 -0.027260393
0.009893116 -0.045445997 -0.024647042 -0.034690134 -0.01817096 -0.05481591 0.031701367 -0.040391546
-0.050242633 -0.041905284 0.00026102364 -0.019359376 -0.00042885914 -0.050836727 0.0513576 -0.0549516
-0.017436363 0.016893428 0.024463635 -0.008823156 -0.0151802115 0.031552065 -0.019443162 -0.041603982
-0.053835534 -0.033649318 0.04710279 0.0114772655 -0.0021664612 0.052185733 0.0007428527 -0.011707749
0.03664471 0.0364219 0.014453713 -0.0029824525 0.0531543 -0.041544057 -0.008789878 0.033528212
-0.028501518 -0.027519736 0.0068178065 0.046463568 0.033329774 0.016060267 -0.041796505 -0.010804232
0.023727048 -0.034091316 0.055557985 -0.047444742 -0.020782806 6.334856e-05 -0.030024284 0.0315832
-0.0049369484 0.0471516 0.04949068 -0.05018032 -0.031052336 0.052202623 -0.04388678 -0.024202857
-0.04768429 -0.004374385 0.023741204 -0.054382436 -0.052270472 0.02169523 -0.00091903284 -0.031386033
-0.019826658 -0.018575706 -0.023560755 -0.008536641 0.03926873 0.047807243 -0.015856657 0.051644813
0.026944395 0.00471567 -0.04600074 -0.019013088 -0.054615803 0.012327548 -0.021355428 0.013856623
-0.03271193 0.05738848 -0.00904087 -0.05288985 0.025932666 0.042638082 -0.055033557 0.009727526
0.041402306 0.027937386 -0.03586942 0.057811964 0.020244878 0.033644143 -0.007087197 0.030909117
-0.019528579 -0.008583136 0.013149682 -0.04327141 -0.008384757 0.023074362 0.031808045 -0.007875256
-0.05595016 0.028786529 -0.008607186 -0.014410149 -0.012291715 -0.033772748 -0.009851895 0.055294532
-0.039089978 0.026061255 -0.05803683 -0.020336106 0.005573999 -0.01354764 -0.054590486 -0.033507213
0.0016757511 0.0217073 0.015037339 -0.008621115 -0.014182471 -0.017578952 -0.0011604838 0.014479775
0.027531367 0.016716007 0.0488594 -0.012984622 0.004586246 -0.057836223 -0.04875157 -0.055482436
0.039598007 -0.0467084 -0.053797368 0.016413394 -0.042980302 -0.017826509 0.03196205 -0.02986525
0.052657153 -0.044668265 -0.046168115 -0.016949706 0.011074733 0.037764195 0.002898194 -0.050074868
00000000: 2d02 10bd 9396 48bd 2d36 66bd 0c7a 57bc
00000010: 538d 563d dc3c 4c3c bf4e 3f3d 3bf0 4d3d
00000020: 041d 5ebc c220 debc 004f 533a 69af 573d
00000030: c8d4 29bc 4885 843b fc93 5dbc a3f4 6a3d
00000040: 088d ba3b cc95 f0bc 3385 64bd 84bb 47bc
00000050: 155b 153d 142a 743c b769 52bd 8470 0c3c
00000060: d9df 5b3d ba08 8ebc 3e7c a5bc d2ad afbc
00000070: f52c 003d 519e 3e3d 0aa2 12bd 503a 23bd
00000080: 844b 533c b333 693d 1a14 fa3c 2ce6 70bd
00000090: 346e 493c 7f8a 4f3d a6be 48bd f6ad e03c
000000a0: 66af be3c b50d 1c3d c13e 3f3d 107d 06bc
000000b0: 1054 5bbd 3064 01bc 8791 4a3d 750c 01bd
000000c0: 54e9 1cbc 98ab 843b a859 51bd 4048 163b
000000d0: 90eb 5fbd 5b8e 54bd 64cd 043c 384c 8abc
000000e0: 38be b43b 8d83 503d bad1 9ebc c324 00bd
000000f0: e08b 42bb 60f6 ce3a bf44 36bd ea65 edbc
00000100: 6fc7 103d b19c 323d 465e 19bd 2aec e23c
00000110: 65d0 263d 0a0f 19bd 8280 03bd 109a 51bb
00000120: a97a 163d dd2e 28bd c7df 04bd 0c71 413c
00000130: c8d8 d3bc d86f f4bc fec3 37bd 42ed 6ebd
00000140: 8248 ad3c e88e babc 03d9 243d 95bc 623d
00000150: 9642 3cbd 6036 45bb 2f74 3c3d 6f2d 713d
00000160: b7c9 4d3d 87f7 1ebd 5451 2fbd 0052 8cba
00000170: caa2 2ebd d24d d53c 92d6 c0bc 3051 dfbc
00000180: bc16 223c 9525 3abd 98e8 c9bc 3e17 0ebd
00000190: 44db 94bc a686 60bd 4bd9 013d 9b71 25bd
000001a0: 38cb 4dbd e0a4 2bbd 00da 8839 8e97 9ebc
000001b0: 80d8 e0b9 2c3a 50bd 595c 523d ee14 61bd
000001c0: b4d6 8ebc 1664 8a3c f667 c83c 008f 10bc
000001d0: 6cb6 78bc bd3c 013d 4447 9fbc f068 2abd
000001e0: a682 5cbd ded3 09bd dbee 403d 240b 3c3c
000001f0: 30fb 0dbb b5c0 553d 00bc 423a dcd1 3fbc
00000200: c318 163d 212f 153d 44cf 6c3c 4075 43bb
00000210: 53b8 593d 1a2a 2abd 6c03 10bc e154 093d
00000220: 047c e9bc 1271 e1bc e867 df3b 9550 3e3d
00000230: cd84 083d d290 833c d032 2bbd 3c04 31bc
00000240: 3a5f c23c 56a3 0bbd c590 633d 6b55 42bd
00000250: b440 aabc 00da 8438 7df5 f5bc 635d 013d
00000260: 20c6 a1bb 0922 413d bdb6 4a3d e189 4dbd
00000270: 7861 febc 6bd2 553d a0c2 33bd 1245 c6bc
00000280: 9a50 43bd 0057 8fbb ea7c c23c 1ec0 5ebd
00000290: 9019 56bd 32ba b13c 40eb 70ba a48e 00bd
000002a0: 846b a2bc 142c 98bc 7c02 c1bc 44dd 0bbc
000002b0: 3fd8 203d 87d1 433d d2e5 81bc 8389 533d
000002c0: 7eba dc3c e885 9a3b 466b 3cbd 56c1 9bbc
000002d0: d2b4 5fbd 7cf9 493c 94f1 aebc e406 633c
000002e0: f2fc 05bd 2f10 6b3d 2820 14bc 07a3 58bd
000002f0: be70 d43c 45a5 2e3d de6a 61bd 3460 1f3c
00000300: 7795 293d f2dc e43c d0eb 12bd 3dcc 6c3d
00000310: 96d8 a53c 71ce 093d b83b e8bb 1e35 fd3c
00000320: 66fa 9fbc 48a0 0cbc c471 573c 5d3d 31bd
00000330: 3860 09bc 7206 bd3c 2749 023d 3807 01bc
00000340: ff2b 65bd bad1 eb3c 2805 0dbc 8c18 6cbc
00000350: 3063 49bc 4b55 0abd d869 21bc 857c 623d
00000360: d01c 20bd 6a7e d53c 07b8 6dbd e897 a6bc
00000370: 18a6 b63b ecf6 5dbc 469a 5fbd dc3e 09bd
00000380: e0a4 db3a 82d3 b13c 2c5f 763c 943f 0dbc
00000390: 985d 68bc bc01 90bc 601b 98ba 943c 6d3c
000003a0: 7689 e13c 02f0 883c cb20 483d 74bd 54bc
000003b0: 3848 963b ade5 6cbd baaf 47bd 8d41 63bd
000003c0: 8531 223d 4f51 3fbd a15a 5cbd 6275 863c
000003d0: 1d0c 30bd e608 92bc a3ea 023d f8a7 f4bc
000003e0: 07af 573d 12f6 36bd c71a 3dbd 1cda 8abc
000003f0: cc72 353c a1ae 1a3d a0ef 3d3b 4e1b 4dbd

conv_layers.5.1.weight f4 [32]
1.0 1.0 1.0 1.0 1.0 1.0 1.0 1.0
1.0 1.0 1.0 1.0 1.0 1.0 1.0 1.0
1.0 1.0 1.0 1.0 1.0 1.0 1.0 1.0
1.0 1.0 1.0 1.0 1.0 1.0 1.0 1.0
00000000: 0000 803f 0000 803f 0000 803f 0000 803f
00000010: 0000 803f 0000 803f 0000 803f 0000 803f
00000020: 0000 803f 0000 803f 0000 803f 0000 803f
00000030: 0000 803f 0000 803f 0000 803f 0000 803f
00000040: 0000 803f 0000 803f 0000 803f 0000 803f
00000050: 0000 803f 0000 803f 0000 803f 0000 803f
00000060: 0000 803f 0000 803f 0000 803f 0000 803f
00000070: 0000 803f 0000 803f 0000 803f 0000 803f

conv_layers.5.1.bias f4 [32]
0.0 0.0 0.0 0.0 0.0 0.0 0.0 0.0
0.0 0.0 0.0 0.0 0.0 0.0 0.0 0.0
0.0 0.0 0.0 0.0 0.0 0.0 0.0 0.0
0.0 0.0 0.0 0.0 0.0 0.0 0.0 0.0
00000000: 0000 0000 0000 0000 0000 0000 0000 0000
00000010: 0000 0000 0000 0000 0000 0000 0000 0000
00000020: 0000 0000 0000 0000 0000 0000 0000 0000
00000030: 0000 0000 0000 0000 0000 0000 0000 0000
00000040: 0000 0000 0000 0000 0000 0000 0000 0000
00000050: 0000 0000 0000 0000 0000 0000 0000 0000
00000060: 0000 0000 0000 0000 0000 0000 0000 0000
00000070: 0000 0000 0000 0000 0000 0000 0000 0000

conv_layers.5.1.running_mean f4 [32]
-0.078633726 -0.026780652 0.045488 -0.0023356883 -0.022037085 0.05410277 -0.08818744 0.014994064
-0.0822883 -0.04521819 -0.006463795 -0.0234475 -0.002379543 -0.016235005 0.0136464145 0.030676818
-0.036789514 0.0004923197 0.0036715087 0.08511595 0.021538481 0.057986226 -0.0050673783 -0.014779099
0.026232582 -0.05805044 0.024787365 0.05522432 -0.039845385 -0.09890881 0.021114364 0.071325846
00000000: b80a a1bd 1963 dbbc a051 3a3d 5912 19bb
00000010: 1e87 b4bc de9a 5d3d 9e9b b4bd aaa9 753c
00000020: c586 a8bd b536 39bd 3ece d3bb f914 c0bc
00000030: 1bf2 1bbb 46ff 84bc 3695 5f3c f34d fb3c
00000040: 9ab0 16bd 040f 013a b29d 703b 4551 ae3d
00000050: 7871 b03c f782 6d3d 400c a6bb 0924 72bc
00000060: b6e5 d63c 4cc6 6dbd df0e cb3c e632 623d
00000070: ea34 23bd b490 cabd 08f8 ac3c 4913 923d

conv_layers.5.1.running_var f4 [32]
0.03891162 0.029922813 0.013450577 0.013801191 0.026601717 0.030741166 0.050596442 0.016284209
0.01967224 0.032469694 0.011158281 0.013299819 0.016807588 0.028949322 0.01680966 0.023067666
0.016094135 0.019243767 0.015980266 0.017068423 0.018867284 0.052881062 0.039662864 0.022333868
0.019921936 0.01825885 0.011726638 0.014281253 0.021521326 0.02450999 0.035340674 0.023516804
00000000: ca61 1f3d b020 f53c cf5f 5c3c 641e 623c
00000010: d8eb d93c e6d4 fb3c 373e 4f3d 7666 853c
00000020: ad27 a13c f1fe 043d 39d1 363c 7ce7 593c
00000030: 11b0 893c 2127 ed3c 69b4 893c 67f8 bc3c
00000040: d9d7 833c 1ba5 9d3c 0ce9 823c 14d3 8b3c
00000050: 908f 9a3c d099 583d 8775 223d 84f5 b63c
00000060: 5433 a33c 9593 953c 1621 403c ebfb 693c
00000070: 7e4d b03c 2dc9 c83c 62c1 103d 50a6 c03c

conv_layers.6.0.conv.weight f4 [32, 32, 3, 3]
0.012829971 -0.008970428 -0.03228989 0.013323192 0.017197099 0.02146152 0.008263167 0.04792833
0.017628547 -0.040587775 0.05454598 -0.040431365 -0.026454523 0.0009094663 -0.046957314 0.005909648
0.044108715 0.012265425 0.0015737787 -0.028204974 -0.02664014 0.03893325 0.010433253 0.015984636
-0.010303345 -0.02012387 0.042264637 -0.031637236 -0.030249882 -0.054577205 0.036819216 0.04040638
-0.057944696 0.00021625683 0.005301725 -0.045386024 0.012122329 0.016459431 0.019808155 0.050936874
0.0053481422 0.030688312 0.04522601 -0.025989048 0.045988824 -0.056734245 -0.020724203 0.015657905
0.042265493 -0.03832613 -0.054587606 -0.0144930035 -0.0035986751 0.007549364 0.050046716 0.029675964
0.024044294 0.05264749 0.009962585 -0.05253514 0.044043545 0.032055322 -0.053464442 -0.036014266
-0.008972831 -0.007755745 -0.054726712 -0.0048175678 -0.029463591 -0.049902488 0.023483153 -0.049719922
0.027227383 -0.02007914 -0.023300514 -0.0559575 -0.007443048 -0.005598154 -0.058292415 0.012804616
-0.012240667 0.037889447 0.047138732 -0.036679186 0.009960521 -0.008480746 -0.029707115 0.0026465915
-0.051471867 0.044719268 -0.033058576 -0.013258852 0.02497894 0.021156829 -0.041461624 0.0428282
0.032860685 0.048198637 0.017799128 0.019807022 0.030911963 -0.004862167 -0.017409015 -0.055211492
-0.025595717 0.03963015 0.05122857 -0.05521039 -0.0076572187 -0.037883922 0.03560317 -0.033670597
-0.058325127 0.041442063 0.009529907 -0.051777866 0.012895729 0.016940136 0.027639914 -0.027867468
-0.04324411 -0.036225155 -0.0129203275 0.056597237 0.05457544 0.03417525 0.0065209307 -0.00085173175
-0.024034936 0.04358759 -0.038504913 0.05681354 -0.030090047 0.05412202 0.0075330697 -0.041167326
-0.020955723 0.048965428 -0.03222795 0.026158039 -0.03431857 0.0493933 0.031183343 0.01126207
-0.03769978 0.0062866993 -0.039576277 0.039531607 0.038835693 0.031518485 -0.015597012 0.0561621
-0.03033806 -0.02160491 -0.03389375 0.0039554425 -0.049341977 -0.007389549 -0.051688943 0.0115433
-0.04766545 0.050862487 0.029125664 -0.02712246 0.021966193 -0.017591547 0.040988225 0.0121870525
-0.055865325 -0.026099626 0.040160086 0.048523363 0.016266156 0.031980794 0.0069217123 -0.023363207
-0.031834282 -0.006726075 -0.045976114 0.011600938 -0.04561793 -0.009261306 0.041127782 0.04676355
0.04299723 0.028124098 0.04780071 0.02410743 -0.05593807 0.043806393 -0.0311495 -0.01220157
0.017921206 0.023864489 -0.053956416 -0.022006836 -0.046370983 -0.008067299 -0.010850195 0.047167446
-0.003548991 -0.03129928 -0.0029465705 0.050456587 0.0009005852 -0.055668674 -0.011489019 0.04082792
-0.058137596 0.045319762 0.012703609 0.05739565 -0.029613731 0.002524279 -0.019553706 0.032762196
0.051906202 -0.02952686 -0.042514272 0.012267094 0.05306704 -0.045740183 0.050860774 -0.03715572
0.045531627 0.03966477 0.030988332 -0.005972497 -0.02116255 0.008032259 -0.0093201995 -0.056744833
-0.014645368 0.055742975 -0.024296042 0.051852923 -0.03345368 -0.02186462 -0.049547743 0.05100983
-0.010577012 -0.0008058883 0.025092091 0.053248968 0.003602896 -0.026723925 0.008900594 0.025130276
-0.052459866 0.037894074 0.01871917 0.05377016 -0.054952756 -0.010843702 -0.047145654 -0.0022591054
00000000: cc34 523c b4f8 12bc 6742 04bd 8449 5a3c
00000010: eee0 8c3c 12d0 af3c 3c62 073c 7f50 443d
00000020: be69 903c 5e3f 26bd 9b6b 5f3d 5c9b 25bd
00000030: 28b7 d8bc 4069 6e3a 5056 40bd b8a5 c13b
00000040: 57ab 343d ecf4 483c 4047 ce3a 1e0e e7bc
00000050: 6c3c dabc 7978 1f3d 3cf0 2a3c 36f2 823c
00000060: 5ccf 28bc d0da a4bc af1d 2d3d 0c96 01bd
00000070: 9ace f7bc 598c 5fbd bfcf 163d 2981 253d
00000080: 6b57 6dbd 00c3 6239 18ba ad3b b2e6 39bd
00000090: bc9c 463c eed5 863c b644 a23c 2fa3 503d
000000a0: 783f af3b 0e66 fb3c e93e 393d fce6 d4bc
000000b0: c75e 3c3d 2b62 68bd cec5 a9bc 0245 803c
000000c0: 951e 2d3d dcfb 1cbd 4197 5fbd 1074 6dbc
000000d0: c0d7 6bbb a860 f73b c9fd 4c3d 021b f33c
000000e0: 8af8 c43c e5a4 573d 1c3a 233c 162f 57bd
000000f0: 0167 343d 714c 033d 88fd 5abd b283 13bd
00000100: c802 13bc e823 febb 1e29 60bd b0dc 9dbb
00000110: a15d f1bc 8d66 4cbd be5f c03c 1ea7 4bbd
00000120: f60b df3c 027d a4bc b8e0 bebc b133 65bd
00000130: d0e4 f3bb b870 b7bb 07c4 6ebd 74ca 513c
00000140: 148d 48bc f731 1b3d 8b14 413d ea3c 16bd
00000150: 7431 233c d4f2 0abc 565c f3bc 7072 2d3b
00000160: 2ad4 52bd 8d2b 373d 6e68 07bd a83b 59bc
00000170: a2a0 cc3c 1651 ad3c aad3 29bd 9f6c 2f3d
00000180: ed98 063d ef6b 453d 7acf 913c 5642 a23c
00000190: 163b fd3c d052 9fbb 5a9d 8ebc 7225 62bd
000001a0: 1cae d1bc 3953 223d 0dd5 513d 4a24 62bd
000001b0: 68e9 fabb 2c2c 1bbd a1d4 113d 2eea 09bd
000001c0: 54e6 6ebd 27bf 293d 5423 1c3c 0715 54bd
000001d0: 9c48 533c 0ac6 8a3c 1a6d e23c 514a e4bc
000001e0: bc20 31bd d460 14bd c8af 53bc 81d2 673d
000001f0: 7f8a 5f3d 59fb 0b3d 88ad d53b c046 5fba
00000200: eae4 c4bc e788 323d 54b7 1dbd 51b5 683d
00000210: 677f f6bc 0daf 5d3d f8d7 f63b 129f 28bd
00000220: 56ab abbc f98f 483d 7401 04bd 6249 d63c
00000230: a191 0cbd a150 4a3d 3674 ff3c 8c84 383c
00000240: 166b 1abd a800 ce3b bc1a 22bd e5eb 213d
00000250: 2d12 1f3d 8719 013d 9c8a 7fbc 3b0a 663d
00000260: 8687 f8bc c8fc b0bc 2cd4 0abd a89c 813b
00000270: d01a 4abd 0824 f2bb c9b7 53bd 1c20 3d3c
00000280: d93c 43bd 2f55 503d f298 ee3c ec2f debc
00000290: 72f2 b33c 261c 90bc 45e3 273d 34ac 473c
000002a0: 0ad3 64bd e2ce d5bc e77e 243d 6fc0 463d
000002b0: 9a40 853c 4bfe 023d 88cf e23b 3264 bfbc
000002c0: aa64 02bd 6866 dcbb 7351 3cbd dc11 3e3c
000002d0: ded9 3abd bcbc 17bc 9b75 283d 238b 3f3d
000002e0: dd1d 303d 8264 e63c adca 433d f27c c53c
000002f0: 511f 65bd 556e 333d 3c2d ffbc 18e9 47bc
00000300: 7ecf 923c 767f c33c 6701 5dbd ae47 b4bc
00000310: 80ef 3dbd b42c 04bc 04c5 31bc a732 413d
00000320: 3096 68bb ac33 00bd 401b 41bb 91ab 4e3d
00000330: 4015 6c3a d604 64bd 703c 3cbc 2d3b 273d
00000340: b021 6ebd 37a1 393d cc22 503c b317 6b3d
00000350: 7f98 f2bc 606e 253b 182f a0bc a731 063d
00000360: 999b 543d 50e2 f1bc 7223 2ebd ecfb 483c
00000370: d35c 593d 0f5a 3bbd 6353 503d 9930 18bd
00000380: 5f7f 3a3d 8777 223d 3edb fd3c f0b4 c3bb
00000390: 165d adbc bc99 033c c0b3 18bc 456d 68bd
000003a0: 20f3 6fbc bf52 643d 7e08 c7bc bb63 543d
000003b0: ba06 09bd 6e1d b3bc 93f2 4abd afef 503d
000003c0: 344b 2dbc 4042 53ba ee8d cd3c 971b 5a3d
000003d0: 901e 6c3b 22ec dabc ccd3 113c 02de cd3c
000003e0: 28e0 56bd d136 1b3d f258 993c 193e 5c3d
000003f0: 2416 61bd c8a9 31bc cd1b 41bd 800d 14bb

conv_layers.6.1.weight f4 [32]
1.0 1.0 1.0 1.0 1.0 1.0 1.0 1.0
1.0 1.0 1.0 1.0 1.0 1.0 1.0 1.0
1.0 1.0 1.0 1.0 1.0 1.0 1.0 1.0
1.0 1.0 1.0 1.0 1.0 1.0 1.0 1.0
00000000: 0000 803f 0000 803f 0000 803f 0000 803f
00000010: 0000 803f 0000 803f 0000 803f 0000 803f
00000020: 0000 803f 0000 803f 0000 803f 0000 803f
00000030: 0000 803f 0000 803f 0000 803f 0000 803f
00000040: 0000 803f 0000 803f 0000 803f 0000 803f
00000050: 0000 803f 0000 803f 0000 803f 0000 803f
00000060: 0000 803f 0000 803f 0000 803f 0000 803f
00000070: 0000 803f 0000 803f 0000 803f 0000 803f

conv_layers.6.1.bias f4 [32]
0.0 0.0 0.0 0.0 0.0 0.0 0.0 0.0
0.0 0.0 0.0 0.0 0.0 0.0 0.0 0.0
0.0 0.0 0.0 0.0 0.0 0.0 0.0 0.0
0.0 0.0 0.0 0.0 0.0 0.0 0.0 0.0
00000000: 0000 0000 0000 0000 0000 0000 0000 0000
00000010: 0000 0000 0000 0000 0000 0000 0000 0000
00000020: 0000 0000 0000 0000 0000 0000 0000 0000
00000030: 0000 0000 0000 0000 0000 0000 0000 0000
00000040: 0000 0000 0000 0000 0000 0000 0000 0000
00000050: 0000 0000 0000 0000 0000 0000 0000 0000
00000060: 0000 0000 0000 0000 0000 0000 0000 0000
00000070: 0000 0000 0000 0000 0000 0000 0000 0000

conv_layers.6.1.running_mean f4 [32]
-0.0073505603 -0.19965316 0.08834205 -0.050656706 -0.135788 0.06460468 0.032874845 -0.0095705185
0.04006027 0.13267078 -0.06291615 0.061441574 -0.11647405 -0.04801016 0.024482356 0.09080277
-0.118000776 -0.08765407 0.15392959 0.07762977 0.0074580736 0.14184712 -0.24962844 0.076252885
-0.00051645975 -0.06989648 0.059164662 -0.06141972 -0.09864122 -0.02363877 -0.08319357 0.020020878
00000000: f8dc f0bb e171 4cbe adec b43d 687d 4fbd
00000010: 020c 0bbe 754f 843d c6a7 063d aacd 1cbc
00000020: 3d16 243d d9da 073e 2fda 80bd 29aa 7b3d
00000030: f289 eebd 4da6 44bd 398f c83c cdf6 b93d
00000040: 64aa f1bd fa83 b3bd b89f 1d3e 5bfc 9e3d
00000050: db62 f43b 5f40 113e 999e 7fbe 792a 9c3d
00000060: 0763 07ba e325 8fbd a556 723d 3f93 7bbd
00000070: 6804 cabd 18a6 c1bc 6461 aabd d302 a43c

conv_layers.6.1.running_var f4 [32]
0.20287007 0.3088914 0.13353436 0.119093336 0.31590676 0.3058807 0.16028747 0.14323695
0.16687822 0.26171717 0.14440697 0.29692057 0.18824689 0.109414734 0.12010841 0.288235
0.14013633 0.17308216 0.119227365 0.11754827 0.11363554 0.1336387 0.23815554 0.123409994
0.10684337 0.17428745 0.12979764 0.105053775 0.11079556 0.097454935 0.12933858 0.12357393
00000000: 2cbd 4f3e 0327 9e3e 3bbd 083e 35e7 f33d
00000010: 88be a13e 659c 9c3e 6622 243e b5ac 123e
00000020: 20e2 2a3e cbff 853e 6cdf 133e f905 983e
00000030: cbc3 403e d514 e03d 66fb f53d 8a93 933e
00000040: e67f 0f3e 733c 313e 7a2d f43d 26bd f03d
00000050: c0b9 e83d 95d8 083e 0cdf 733e 61be fc3d
00000060: b2d0 da3d 6978 323e ace9 043e 6f26 d73d
00000070: c8e8 e23d 7496 c73d 5571 043e 5414 fd3d

conv_layers.7.conv1d.weight f4 [1, 1, 3]
-0.14793527 0.044279158 0.45518208
00000000: 587c 17be 105e 353d a00d e93e

conv_layers.9.0.conv.weight f4 [16, 32, 3, 3]
-0.055421714 0.05440366 -0.01978371 0.037804406 -0.05372704 -0.018509582 -0.05242329 0.03947221
0.027334597 0.00029667094 -0.00042650476 -0.008306321 0.05580454 -0.012158509 0.008537609 0.0136881955
-0.047333825 0.03825018 -0.05079609 -0.027502295 -0.048288018 -0.017701045 0.010359917 0.045076255
0.05003294 0.046734046 0.048795614 -0.00092688575 -0.01651648 0.006778706 -0.032389157 0.040414657
0.04947545 -0.021102842 0.021166172 0.029059801 -0.022736061 0.030376825 0.020594042 0.0030731522
-0.04127013 -0.033691905 0.055804048 -0.034835108 0.022774626 -0.034071624 -0.0157388 0.020182636
-0.01904897 -0.048132107 -0.028916104 -0.05297266 -0.042026617 -0.055407 0.011151481 0.0031887963
0.02539784 -0.0521866 -0.013698325 -0.058183674 -0.011803076 -0.03733336 0.051976692 0.00608008
-0.05271157 0.052632537 0.008245159 0.004240688 -0.033483133 0.041218575 -0.008168925 -0.03768568
-0.035716828 -0.029321956 0.01432218 -0.033963364 -0.056169175 0.057432216 0.02098034 -0.053819656
-0.026181594 0.047940176 -0.028825065 0.04569902 0.053622324 -0.026892576 0.023319501 0.039717335
0.029992703 0.038371745 0.0128333755 0.014009509 -0.024011806 0.018843066 0.057977203 -0.04942681
-0.029759988 0.028297108 -0.030865155 0.026325073 0.043944146 -0.039059985 -0.04816672 0.024974559
0.012774657 0.05768146 -0.025281262 0.015570272 0.034199174 -0.018813785 0.039717074 -0.025935084
0.041954797 -0.010041762 -0.034114018 -0.014033522 6.720424e-05 -0.05704133 0.039290626 -0.040431585
0.039336648 -0.021629497 0.05677103 0.017698023 0.042658467 0.04079983 -0.016697604 0.03637388
0.044962656 0.049398016 0.03861766 0.015958775 -0.013718657 0.05304015 0.05180439 -0.0005936399
-0.056648076 -0.050157603 0.012231749 0.048967633 0.047939125 0.026900377 0.035543453 0.048079815
-0.034803357 -0.017249659 -0.047289453 -0.022154737 0.051764864 -7.6483935e-05 -0.028615203 0.056696583
-0.016623363 0.013885569 -0.034611598 0.010225814 0.026988547 0.043605085 -0.0507043 -0.008665577
-0.05518312 -0.051351447 -0.037486102 -0.008294564 0.046326976 0.01884975 -0.05636459 0.011504453
0.0041064583 0.0037575997 -0.046634912 -0.04009624 0.016766343 0.041607503 -0.058016907 0.028748702
0.046116043 0.007663805 0.03298143 -0.032139942 0.03810421 -0.009566456 0.010873061 -0.027251702
-0.053447023 -0.003349837 -0.0015045926 0.041102868 -0.024132725 -0.035370484 -0.04052642 -0.008650888
-0.055345893 -0.028727567 -0.03361217 -0.05079859 0.055837136 -0.016957916 0.05399398 0.020439457
0.05857235 -0.024087522 0.054339428 0.029332507 -0.03572753 -0.020452145 -0.041879952 -0.014817808
0.04177877 -0.046260886 0.036869574 0.01609705 0.035431046 -0.02188348 -0.01584236 -0.038498364
0.0295376 -0.05392808 0.039586637 -0.023188908 0.0586765 0.007856321 0.02545749 -0.009523783
0.049682777 0.028152589 -0.0036954135 0.007141564 -0.02411215 0.05005754 0.006372515 -0.0050929636
-0.049783085 -0.009609573 -0.007960498 0.01209626 0.022402879 0.025773939 0.049167577 0.04761732
-0.011404242 0.028472032 0.008789334 -0.041182794 0.049247246 0.018612903 -0.018269274 -0.03907519
-0.03507573 -0.003341794 0.012034524 0.036221538 -0.05535974 -0.047373727 0.018913534 -0.018587675
00000000: e101 63bd 5fd6 5e3d 7211 a2bc cbd8 1a3d
00000010: e210 5cbd 68a1 97bc ceb9 56bd 9dad 213d
00000020: ceec df3c 808a 9b39 809c dfb9 3c17 08bc
00000030: 4d93 643d 7c34 47bc 54e1 0b3c 7444 603c
00000040: 1de1 41bd 39ac 1c3d 900f 50bd 7e4c e1bc
00000050: a8c9 45bd c801 91bc a4bc 293c e1a1 383d
00000060: 57ef 4c3d 336c 3f3d e9dd 473d 40fa 72ba
00000070: 924d 87bc e81f de3b 7eaa 04bd d789 253d
00000080: c5a6 4a3d dedf acbc ae64 ad3c d20e ee3c
00000090: fa40 babc d2d8 f83c d6b4 a83c f066 493b
000000a0: de0a 29bd 8600 0abd c992 643d 42af 0ebd
000000b0: da91 ba3c b08e 0bbd a8ee 80bc 0e56 a53c
000000c0: 960c 9cbc 2c26 45bd 77e1 ecbc dcf9 58bd
000000d0: 1a24 2cbd 73f2 62bd b4b4 363c 20fb 503b
000000e0: 220f d03c 9ec1 55bd f06e 60bc 0152 6ebd
000000f0: b061 41bc deea 18bd 83e5 543d 683b c73b
00000100: 16e8 57bd 3795 573d b416 073c 78f5 8a3b
00000110: 9c25 09bd cfd4 283d f4d6 05bc 4d5c 1abd
00000120: cf4b 12bd 9934 f0bc 94a7 6a3c 2b1d 0bbd
00000130: a611 66bd 0b3e 6b3d f6de ab3c 0072 5cbd
00000140: c87a d6bc eb5c 443d 8b22 ecbc e52e 3b3d
00000150: 15a3 5b3d d24d dcbc 8a08 bf3c a5ae 223d
00000160: 42b3 f53c b12b 1d3d 1443 523c 2488 653c
00000170: 68b4 c4bc c65c 9a3c 8179 6d3d c473 4abd
00000180: 38cb f3bc 56cf e73c ecd8 fcbc aea7 d73c
00000190: c7fe 333d 5dfd 1fbd 774a 45bd 7297 cc3c
000001a0: cc4c 513c 6543 6c3d a61a cfbc 741a 7f3c
000001b0: 6f14 0c3d 5e1f 9abc 5fae 223d d075 d4bc
000001c0: cbd8 2b3d 3486 24bc 24bb 0bbd dcec 65bc
000001d0: 00f0 8c38 2ba4 69bd 35ef 203d 979b 25bd
000001e0: 771f 213d 5830 b1bc bd88 683d 72fb 903c
000001f0: a5ba 2e3d b91d 273d 6ac9 88bc c7fc 143d
00000200: c32a 383d 9355 4a3d 8d2d 1e3d fabb 823c
00000210: 38c4 60bc a140 593d d730 543d 809e 1bba
00000220: d007 68bd 0f72 4dbd ac67 483c 4992 483d
00000230: d15b 443d 2e5e dc3c 0396 113d 57ef 443d
00000240: f78d 0ebd 284f 8dbc 96b2 41bd da7d b5bc
00000250: 6507 543d 0066 a0b8 6e6a eabc ad3a 683d
00000260: b82d 88bc 4c80 633c e4c4 0dbd 2c8a 273c
00000270: 1617 dd3c 3f9b 323d 50af 4fbd 10fa 0dbc
00000280: b207 62bd e555 52bd 078b 19bd ece5 07bc
00000290: 5bc1 3d3d ca6a 9a3c 8ede 66bd 2c7d 3c3c
000002a0: 788f 863b 1042 763b 4004 3fbd f43b 24bd
000002b0: 9259 893c a16c 2a3d 23a3 6dbd 6682 eb3c
000002c0: 2de4 3c3d a820 fb3b 8917 073d 2ca5 03bd
000002d0: 2913 1c3d a0bc 1cbc ec24 323c f63e dfbc
000002e0: 44eb 5abd f088 5bbb c035 c5ba 7b5b 283d
000002f0: feb1 c5bc a4e0 10bd 08ff 25bd 74bc 0dbc
00000300: 60b2 62bd 1356 ebbc eaac 09bd 2f12 50bd
00000310: 7bb5 643d 54eb 8abc cb28 5d3d a670 a73c
00000320: 8fe9 6f3d 3253 c5bc 0593 5e3d ba4a f03c
00000330: 0857 12bd 428b a7bc 508a 2bbd 64c6 72bc
00000340: 3720 2b3d 0e7c 3dbd 8d04 173d f6dd 833c
00000350: 2520 113d fc44 b3bc d6c7 81bc 76b0 1dbd
00000360: d6f8 f13c b1e3 5cbd 9925 223d aaf6 bdbc
00000370: c556 703d ccb7 003c 3a8c d03c a409 1cbc
00000380: 2b80 4b3d 42a0 e63c c02e 72bb c803 ea3b
00000390: d886 c5bc 2309 4d3d 88d0 d03b e0e2 a6bb
000003a0: 59e9 4bbd 7871 1dbc c06c 02bc 642f 463c
000003b0: 3e86 b73c de23 d33c f163 493d 610a 433d
000003c0: dcd8 3abc 2e3e e93c 2401 103c 4aaf 28bd
000003d0: 7bb7 493d 167a 983c 72a9 95bc 4e0d 20bd
000003e0: 92ab 0fbd 0002 5bbb 742c 453c 095d 143d
000003f0: e5c0 62bd f40a 42bd 8ef0 9a3c 2e45 98bc

conv_layers.9.1.weight f4 [16]
1.0 1.0 1.0 1.0 1.0 1.0 1.0 1.0
1.0 1.0 1.0 1.0 1.0 1.0 1.0 1.0
00000000: 0000 803f 0000 803f 0000 803f 0000 803f
00000010: 0000 803f 0000 803f 0000 803f 0000 803f
00000020: 0000 803f 0000 803f 0000 803f 0000 803f
00000030: 0000 803f 0000 803f 0000 803f 0000 803f

conv_layers.9.1.bias f4 [16]
0.0 0.0 0.0 0.0 0.0 0.0 0.0 0.0
0.0 0.0 0.0 0.0 0.0 0.0 0.0 0.0
00000000: 0000 0000 0000 0000 0000 0000 0000 0000
00000010: 0000 0000 0000 0000 0000 0000 0000 0000
00000020: 0000 0000 0000 0000 0000 0000 0000 0000
00000030: 0000 0000 0000 0000 0000 0000 0000 0000

conv_layers.9.1.running_mean f4 [16]
-0.0032986458 0.083717674 -0.0037581143 0.0019222168 -0.071536176 -0.005723566 0.010126283 0.094706334
-0.07627478 -0.06246638 -0.031592697 0.004565322 -0.0058416342 -0.0014290578 0.008897533 -0.031084951
00000000: 182e 58bb 2c74 ab3d b24a 76bb e5f2 fb3a
00000010: 8f81 92bd c08c bbbb b6e8 253c 65f5 c13d
00000020: f435 9cbd bfdc 7fbd 5867 01bd b298 953b
00000030: 2e6b bfbb 394f bbba f5c6 113c dea5 febc

conv_layers.9.1.running_var f4 [16]
0.0061343135 0.008286698 0.0059870738 0.0063741533 0.007996875 0.0058601783 0.010894387 0.008715719
0.0063827117 0.006574081 0.0048939562 0.0045280624 0.0026990266 0.0067854878 0.009744842 0.005428725
00000000: 5a02 c93b eec4 073c 372f c43b 46de d03b
00000010: 5305 033c bd06 c03b 5f7e 323c 60cc 0e3c
00000020: 1126 d13b 636b d73b 7b5d a03b 2460 943b
00000030: 27e2 303b cc58 de3b d4a8 1f3c 72e3 b13b

conv_layers.10.conv1d.weight f4 [1, 1, 3]
0.26906872 -0.31709242 0.48600638
00000000: 60c3 893e f059 a2be d4d5 f83e

linear_layers.0.weight f4 [64, 576]
0.041125316 -0.018400665 -0.030887157 -0.017808488 -0.03463252 -0.03845153 -0.0067255683 -0.022573456
0.03694324 -0.023576489 -0.01290909 -0.026985493 0.030660722 -0.037959173 0.0054992475 -0.018099
-0.007840987 -0.018745538 0.03162549 0.014699977 -0.025502672 0.0004887581 -0.0004744269 0.0018311031
-0.040579077 -0.011078339 0.032590616 0.008793652 0.033700395 0.03886092 -0.031818777 0.002879288
0.03130837 0.018688012 -0.020690983 -0.0037259273 -0.03402006 0.025602665 0.036138464 -0.03674295
0.008058444 0.020179149 0.025244165 -0.030183718 0.009567779 0.019185469 -0.011560893 0.00820446
0.026357327 -0.035015862 0.00939047 0.013063412 -0.024618303 -0.003289003 -0.015434008 -0.022024592
-0.00520302 -0.024255216 0.0317694 -0.025588866 0.025799219 -0.029334223 -0.01300863 0.0107697435
-0.005098149 0.023330558 -0.039385192 -0.036905166 0.011993837 -0.03577975 -0.013564061 0.0020251386
0.018913299 0.0022292547 -0.011103567 -0.022070339 -0.021929493 -0.038910322 0.017028358 -0.01747105
-0.011737436 0.034749944 0.01672703 -0.009171039 0.040282678 0.039752286 0.004038077 0.04022366
0.03566025 -0.03318594 -0.032887995 0.019345965 0.024814334 0.025828231 0.029640008 -0.00238809
-0.015409982 -0.040648174 -0.039447747 0.038527478 0.007517088 -0.017502269 0.014904242 0.008219127
0.027311746 0.04138002 0.01041105 -0.03603796 -0.039298635 -0.03694517 0.013138097 -0.025337756
0.015174221 -0.027778536 -0.015001189 -0.012774587 0.007040724 0.03607117 0.040780257 0.026824418
0.029595155 0.016219001 -0.0276899 -0.010652021 -0.030690402 -0.0053738467 -0.0330787 0.008178681
-0.018823847 -0.01038998 0.0028386898 -0.024182241 -0.00024436414 0.02908462 -0.032140493 -0.026861932
-0.0039058663 -0.028346878 -0.014538219 0.02654748 0.010295782 -0.031265065 -0.00905773 0.034256373
-0.012336498 -0.023490112 0.030878033 -0.017675698 -0.032547846 0.025013637 -0.03922552 0.030302484
-0.024560675 -0.0021593757 -0.009985324 0.023828607 0.0038614422 -0.00912356 0.039133642 -0.017395705
-0.017516077 -0.0104770865 0.01504362 0.036798727 -0.038261637 0.03509747 0.010493118 -0.0404424
0.020169556 0.02457456 -0.013874605 0.034089383 0.0259553 0.009306729 -0.016053116 -0.004574731
0.041324746 0.021588136 0.030083712 -0.0100388415 -0.0073124766 0.039737504 0.009816986 0.027465332
0.038406167 0.0064250827 -0.0067619234 -0.011721209 0.0212106 0.002777487 -0.0118617825 -0.027490329
-0.013230598 -0.015763905 -0.01373671 -0.021664646 0.034658913 0.015579607 -0.035854295 0.03366388
0.01165444 -0.012643769 0.015418675 0.02557541 -0.03962028 -0.035441644 0.016135652 0.040201407
-0.018337807 -0.013576195 -0.0085712485 0.03399344 -0.0011870265 0.023760136 0.009729851 -0.0014152974
-0.026598305 0.00086803734 -0.025121074 -0.03253769 -0.029282615 0.013484899 0.026576418 -0.0058448166
0.0331696 0.033190127 0.0032611974 -0.0080529 0.007957283 -0.027359214 0.040371124 -0.037981868
0.0067457743 0.01108177 -0.016115025 0.021780472 0.030467484 0.029627595 0.004411254 -0.013364058
-0.0082436465 -0.019746393 0.0020156838 -0.022921797 0.009093508 -0.029647157 -0.016950166 0.032696683
0.036516283 0.010645244 -0.011852309 0.000827346 0.028954629 -0.035050016 0.01091947 0.04123428
00000000: 0573 283d febc 96bc 1007 fdbc 1be3 91bc
00000010: d4da 0dbd 5a7f 1dbd 2862 dcbb f8eb b8bc
00000020: cb51 173d 7b23 c1bc a680 53bc ae10 ddbc
00000030: 322c fb3c 147b 1bbd 0833 b43b 5b44 94bc
00000040: 7c77 00bc 3e90 99bc bb89 013d 2cd8 703c
00000050: fbea d0bc 0020 003a 80bc f8b9 a001 f03a
00000060: 3f36 26bd ec81 35bc bd7d 053d 4013 103c
00000070: 6d09 0a3d a12c 1f3d 6854 02bd 70b2 3c3b
00000080: 353d 003d 9a17 993c 2380 a9bc b02e 74bb
00000090: 9e58 0bbd aebc d13c ed05 143d c77f 16bd
000000a0: 9007 043c be4e a53c dacc ce3c d843 f7bc
000000b0: 2cc2 1c3c d82a 9d3c e669 3dbc 006c 063c
000000c0: 52eb d73c cb6c 0fbd 7cda 193c ec07 563c
000000d0: 53ac c9bc 508c 57bb ecde 7cbc eb6c b4bc
000000e0: 187e aabb e0b2 c6bc a120 023d be9f d1bc
000000f0: e258 d33c 534e f0bc 2622 55bc 9473 303c
00000100: 600e a7bb ba1f bf3c 5e52 21bd df29 17bd
00000110: cc81 443c ca8d 12bd cc3b 5ebc 30b8 043b
00000120: 10f0 9a3c b018 123b bceb 35bc dbcc b4bc
00000130: 7ba5 b3bc 6e60 1fbd 0e7f 8b3c 731f 8fbc
00000140: 604e 40bc f555 0e3d 2007 893c 2042 16bc
00000150: 73ff 243d 4bd3 223d d851 843b 91c1 243d
00000160: 7b10 123d fbed 07bd 90b5 06bd 6e7b 9e3c
00000170: 6e47 cb3c ba95 d33c 9acf f23c 8081 1cbb
00000180: 267a 7cbc b37e 26bd f693 21bd fdce 1d3d
00000190: e851 f63b eb60 8fbc ec30 743c 84a9 063c
000001a0: e2bc df3c 197e 293d 1c93 2a3c 8a9c 13bd
000001b0: 9bf7 20bd d253 17bd 2c41 573c 2091 cfbc
000001c0: 4c9d 783c d08f e3bc 8cc7 75bc 804c 51bc
000001d0: e0b5 e63b 5dbf 133d 3309 273d e2be db3c
000001e0: 8a71 f23c b6dd 843c eed5 e2bc d085 2ebc
000001f0: 706a fbbc 1817 b0bb 887d 07bd e0ff 053c
00000200: 7834 9abc bc3a 2abc 5009 3a3b d619 c6bc
00000210: 001e 80b9 de42 ee3c c0a5 03bd 8e0d dcbc
00000220: 90f9 7fbb b637 e8bc b631 6ebc 1a7a d93c
00000230: a4af 283c cc0f 00bd e066 14bc 6950 0c3d
00000240: 061f 4abc 566e c0bc eef3 fc3c a0cc 90bc
00000250: e450 05bd 66e9 cc3c f0aa 20bd ea3c f83c
00000260: 7833 c9bc 5084 0dbb 7c99 23bc 3634 c33c
00000270: 4010 7d3b fc7a 15bc 994a 203d 7081 8ebc
00000280: e07d 8fbc 16a8 2bbc 8479 763c 43ba 163d
00000290: 3cb8 1cbd 5dc2 0f3d 54eb 2b3c eea6 25bd
000002a0: a03a a53c 9650 c93c 5052 63bc 4fa1 0b3d
000002b0: 36a0 d43c 407b 183c d381 83bc a0e7 95bb
000002c0: 2344 293d 9ad9 b03c 1e72 f63c f479 24bc
000002d0: 809d efbb cbc3 223d 6cd7 203c fafe e03c
000002e0: c94f 1d3d 8089 d23b 2093 ddbb 500a 40bc
000002f0: dac1 ad3c 8006 363b ec57 42bc 6633 e1bc
00000300: 26c5 58bc 4e23 81bc f00f 61bc 0e7a b1bc
00000310: 81f6 0d3d 9c41 7f3c f4db 12bd 23e3 093d
00000320: 44f2 3e3c d027 4fbc 9c9e 7c3c 8683 d13c
00000330: e048 22bd 422b 11bd ea2e 843c 3baa 243d
00000340: 2b39 96bc b06e 5ebc 6c6e 0cbc b53c 0b3d
00000350: 0096 9bba 9ea4 c23c f469 1f3c 8081 b9ba
00000360: b0e4 d9bc 008d 633a b6ca cdbc 3e46 05bd
00000370: 18e2 efbc c4ef 5c3c cab6 d93c e085 bfbb
00000380: d9dc 073d 5ff2 073d d0b9 553b 50f0 03bc
00000390: 445f 023c 6e20 e0bc 315c 253d e092 1bbd
000003a0: a80b dd3b 5090 353c a803 84bc f66c b23c
000003b0: f296 f93c 92b5 f23c 488c 903b ecf4 5abc
000003c0: 5c10 07bc 30c3 a1bc 9019 043b 7ec6 bbbc
000003d0: f0fc 143c 98de f2bc 13db 8abc f5ec 053d
000003e0: 1992 153d 6469 2e3c 3030 42bc 40e2 583a
000003f0: 4232 ed3c 9b90 0fbd 94e7 323c 47e5 283d
