models/test1/model.pth (torch, 227178 bytes, 14 tensors)

conv_layers.0.0.conv.weight f4 [16, 10, 3, 3]
0	0x3e8617de	0.26190084
1	0x3e8ad840	0.2711811
2	0x3e88f677	0.26750538
3	0x3e8a9709	0.27068356
4	0x3e88808d	0.26660576
5	0x3e8bf61b	0.273362
6	0x3e8acd66	0.27109832
7	0x3e8e4808	0.2778933
8	0x3e889764	0.26678002
9	0x3c8568e2	0.016285364
10	0xbbfbbb3b	-0.0076822317
11	0x3c11df34	0.008903313
12	0x3b249460	0.0025112852
13	0x3c06ec66	0.008235073
14	0xbbd94904	-0.0066310186
15	0xbb712168	-0.0036793593
16	0x3c86424f	0.01638904
17	0x3be32f34	0.0069331173
18	0x3c0cf211	0.008602635
19	0x3ca96af8	0.02068089
20	0x3c376a1e	0.011194734
21	0x3c48a369	0.012245991
22	0x3c2fa5a9	0.010720649
23	0x3cb6bc8d	0.022306705
24	0x3c920d3f	0.017828582
25	0x3bf16204	0.0073664207
26	0x3c9610c7	0.018318547
27	0xbc38a4c1	-0.011269749
28	0xbbc7f631	-0.0061023463
29	0xbc893127	-0.01674707
30	0xbbd8249f	-0.0065961624
31	0xbc212007	-0.009834296
32	0xbc9685a1	-0.018374266
33	0xbc1d605b	-0.009605492
34	0xbc01b754	-0.007917244
35	0xbc952042	-0.018203858
36	0xbb447520	-0.0029977039
37	0xbb878bb4	-0.004136527
38	0xbb9ef8a9	-0.00485142
39	0xbbc3d7ee	-0.0059766686
40	0xbb482678	-0.0030540507
41	0xbc2291e8	-0.009922482
42	0xbbce1de8	-0.006290186
43	0xbc0193f2	-0.007908808
44	0xbbd977e2	-0.0066366056
45	0x3e8bfbec	0.2734064
46	0x3e8999ea	0.2687524
47	0x3e8a9f14	0.27074492
48	0x3e898405	0.26858535
49	0x3e8be353	0.27321872
50	0x3e87ff6a	0.26562053
51	0x3e8bf2ed	0.27333775
52	0x3e891a47	0.2677786
53	0x3e88afa1	0.26696494
54	0xbb30fa48	-0.0027004648
55	0xb9e79882	-0.0004417338
56	0x3b2161ad	0.002462487
57	0x3b69d482	0.0035679643
58	0x39ecb57b	0.0004514864
59	0x3a3a16bc	0.00070987246
60	0xbbea1e26	-0.0071447073
61	0xbc1c59cb	-0.009542893
62	0xbba5e5aa	-0.0050627785
63	0xbbd95450	-0.0066323653
64	0x3a786938	0.0009476128
65	0x3ae0bd96	0.0017146345
66	0x3ba5c6c6	0.005059096
67	0xba7a4b62	-0.0009547976
68	0xbadd0e00	-0.0016865134
69	0xbc08f2ec	-0.008358698
70	0xbbdc68c1	-0.006726355
71	0xbbe33bf3	-0.0069346367
72	0x3b024cf2	0.0019882289
73	0x3ab95be3	0.0014141764
74	0x3a34ba1c	0.00068941875
75	0xbb2c561c	-0.0026296442
76	0x3b4f6524	0.0031645978
77	0x3a73cb02	0.0009299965
78	0x3b36853e	0.0027850415
79	0x3b068ac9	0.00205295
80	0x3b805726	0.003916639
81	0x3b6e9062	0.0036401977
82	0xbb15a648	-0.0022834707
83	0xbb9f2f1e	-0.0048579117
84	0x3b671a01	0.0035263302
85	0x3b8c63fc	0.00428438
86	0xbb5d1810	-0.0033736266
87	0xba38cdbc	-0.00070497
88	0xbb24f43e	-0.0025169994
89	0xbb8921cb	-0.0041849366
90	0xbe47f30f	-0.19526313
91	0xbe54c8f6	-0.20779786
92	0xbe4c2eea	-0.19939771
93	0xbe505fc0	-0.20349026
94	0xbe499362	-0.19685128
95	0xbe4abe00	-0.19799042
96	0xbe4ba155	-0.19885762
97	0xbe48a5cf	-0.19594501
98	0xbe491dce	-0.19640276
99	0xbbb423f8	-0.005497452
100	0xbb72784f	-0.003699798
101	0xba9f9ce8	-0.0012177499
102	0x3c594d23	0.01326302
103	0x3bb71007	0.0055866274
104	0x3bf44bec	0.0074553397
105	0x3c3d5cae	0.011557741
106	0x3c483aa8	0.012221016
107	0x3c4fe2d6	0.012688359
108	0xbc1288a4	-0.0089437105
109	0x3c3e34d5	0.011609276
110	0x3b8d5ded	0.0043141753
111	0x3c91ba57	0.01778905
112	0xba25000d	-0.0006294258
113	0x3b917342	0.0044387886
114	0x3bcffe8a	0.006347482
115	0xbc17cde2	-0.009265395
116	0x3b4e5a32	0.0031486866
117	0x3d1b34a5	0.037892003
118	0x3d0257cb	0.031822007
119	0x3d3c689a	0.045998193
120	0x3d02e754	0.031958893
121	0x3cc7b5b5	0.024378637
122	0x3d2c65de	0.042089336
123	0x3cf1fd09	0.029539602
124	0x3cc2a4a9	0.023760157
125	0x3ceb8824	0.02875144
126	0x3d2004b9	0.039067004
127	0x3d1825f7	0.03714558
128	0x3d11651b	0.035496812
129	0x3d306907	0.043068912
130	0x3d368059	0.044555996
131	0x3d120c01	0.03565598
132	0x3d3ade63	0.04562224
133	0x3d51819d	0.051149
134	0x3d38539b	0.045001607
135	0xbe415c2e	-0.1888282
136	0xbe4907c3	-0.19631867
137	0xbe3da0ec	-0.18518418
138	0xbe4b47a2	-0.19851544
139	0xbe5105e6	-0.20412406
140	0xbe4920e6	-0.19641456
141	0xbe3e023f	-0.18555544
142	0xbe4364c3	-0.19081406
143	0xbe3bfe57	-0.18358742
144	0xbcc836ff	-0.024440287
145	0xbcff7ce9	-0.031187491
146	0xbcba4a34	-0.022740461
147	0xbce9f9b8	-0.028561458
148	0xbcef53f6	-0.02921484
149	0xbce44b6a	-0.027867991
150	0xbd0f3b47	-0.03496864
151	0xbd0594ad	-0.03261249
152	0xbcecd14e	-0.028908398
153	0xbb2caaab	-0.0026346843
154	0x3ace5bbc	0.0015743892
155	0xbc083aa7	-0.008314765
156	0xbc06f71d	-0.008237627
157	0x3b036551	0.0020049403
158	0x3b0ac8b2	0.0021176753
159	0x3a0745d0	0.0005160244
160	0x3b61a2a2	0.0034429212
161	0xbc14b398	-0.009076022
162	0x3dc97dbc	0.09838435
163	0x3db0b03f	0.08627366
164	0x3da4206b	0.08013996
165	0x3da264a2	0.079293504
166	0x3dd315fd	0.10306928
167	0x3dd8e6ff	0.10590934
168	0x3d635897	0.055504408
169	0x3da61c0d	0.08110819
170	0x3d7ab84a	0.061210908
171	0x3cc14356	0.023591679
172	0x3a8d4bf5	0.0010780083
173	0x3c96bcbc	0.018400542
174	0x3c0fef46	0.008785075
175	0xbc72f7d9	-0.014829599
176	0xbc0874da	-0.008328641
177	0xbc23371d	-0.0099618705
178	0xbcb828f0	-0.022480458
179	0x3bdb8e36	0.0067003025
180	0xbe2142a2	-0.15748075
181	0xbe2d0c6d	-0.16899271
182	0xbe285362	-0.16438058
183	0xbe2ac39b	-0.1667618
184	0xbe2eab71	-0.17057587
185	0xbe31e899	-0.17373885
186	0xbe215921	-0.15756656
187	0xbe2bf59d	-0.16792913
188	0xbe2d7831	-0.1694038
189	0x3d12b4f8	0.035817116
190	0x3cfce743	0.030871993
191	0x3cacd1c2	0.021096114
192	0x3cbd59d5	0.023114124
193	0x3d173c08	0.036922485
194	0x3d1bc66d	0.03803103
195	0x3d589a9e	0.05288183
196	0x3d4c2f8b	0.049850028
197	0x3d4be73b	0.049781065
198	0x3bd4c743	0.0064934804
199	0xbb3a3990	-0.0028415658
200	0xb8f64b80	-0.00011744257
201	0x3c3f4d0e	0.011676086
202	0x3bb15b2e	0.005412481
203	0x3b203a3a	0.0024448768
204	0x3be767c8	0.0070619322
205	0x39b5dc48	0.00034687133
206	0x39e71b38	0.00044080033
207	0x3ca92934	0.02064953
208	0x3cc81dfe	0.024428364
209	0x3d12ab97	0.035808172
210	0x3c963a07	0.018338216
211	0x3ccf430e	0.025300529
212	0x3d1583af	0.036502536
213	0x3cbc7784	0.023006208
214	0x3d033d10	0.032040656
215	0x3d0db9e0	0.034601092
216	0x3d576961	0.05259073
217	0x3d67d91e	0.056603543
218	0x3d87369e	0.06602214
219	0x3d744d67	0.05964413
220	0x3d7c9d16	0.061673246
221	0x3d839763	0.06425359
222	0x3d587331	0.05284423
223	0x3d63982e	0.05556505
224	0x3d84c381	0.06482602
225	0xbe18a0d8	-0.14905107
226	0xbe2e2e49	-0.17009844
227	0xbe220f1e	-0.15826079
228	0xbe2c6ea8	-0.16839087
229	0xbe2f17b1	-0.17098881
230	0xbe2675e6	-0.16255912
231	0xbe24f088	-0.1610738
232	0xbe2fec77	-0.17180048
233	0xbe2203f2	-0.15821818
234	0xbbe3f7a8	-0.006957013
235	0xbbb1a410	-0.005421169
236	0xbc14922a	-0.009068051
237	0xbcf6e345	-0.030137667
238	0xbd096e9e	-0.03355276
239	0xbc4057f9	-0.011739724
240	0x3acd3141	0.0015654938
241	0x3aadd437	0.0013262097
242	0xbc1e0627	-0.0096450215
243	0xbccc139d	-0.024911696
244	0xbc528a6f	-0.012850388
245	0xbc0e2a39	-0.008677059
246	0xbc3c053f	-0.01147586
247	0xbd37f992	-0.044915743
248	0xbcd5b24f	-0.026086
249	0xbc862ea5	-0.016379664
250	0xbc867596	-0.016413491
251	0xbcdbae79	-0.026816593
252	0xbd4f21ea	-0.050569452
253	0x3bf5610e	0.0074883765
254	0x3cc35a4d	0.02384677
255	0xbbf2c83c	-0.0074091237

conv_layers.0.0.conv.bias f4 [16]
0	0xbd1f5780	-0.038901806
1	0xbc920bdd	-0.017827922
2	0xbcc4d1f2	-0.024025891
3	0x3d920c63	0.07131269
4	0xbd995649	-0.07487161
5	0xbdc9b723	-0.09849384
6	0xbd137598	-0.036000818
7	0x3c92b34e	0.017907765
8	0xbc8ae047	-0.016952647
9	0xbd4dab9b	-0.050212484
10	0xbd8a31d6	-0.06747787
11	0xbd3330ac	-0.04374759
12	0xbd300d25	-0.042981286
13	0xbd97028d	-0.073735334
14	0xbb8db605	-0.004324677
15	0xbd4ccdc1	-0.05000091

conv_layers.2.0.conv.weight f4 [32, 16, 3, 3]
0	0x3d9e0ac7	0.07716899
1	0x3dc1e6bf	0.094678394
2	0x3da4140a	0.08011635
3	0x3da8d3b8	0.08243507
4	0x3dc6a94f	0.09700262
5	0x3da74171	0.08166779
6	0x3da02363	0.078192495
7	0x3dc7ef69	0.09762461
8	0x3db0acbb	0.08626696
9	0xbd0a5dd0	-0.033780873
10	0xbd92b322	-0.07163073
11	0xbd48ec80	-0.04905367
12	0xba83e288	-0.0010062018
13	0xbd3c3bb8	-0.04595539
14	0xbd0b0a1a	-0.03394518
15	0xbd863fca	-0.065551355
16	0xbd85c273	-0.06531229
17	0xbd1a30c8	-0.037644178
18	0xbd9dcf15	-0.077055134
19	0xbda42831	-0.080154784
20	0xbd32dc4a	-0.043667115
21	0xbccf61e8	-0.02531524
22	0xbda1009d	-0.07861445
23	0xbd71da3c	-0.059046015
24	0xbd969a61	-0.07353664
25	0xbd09b106	-0.03361609
26	0xbd9a962e	-0.07548176
27	0x3c87f8a4	0.016598053
28	0x3d123f95	0.035705168
29	0x3c8da18c	0.017288946
30	0xbd3408a9	-0.04395357
31	0xbcbaafdc	-0.022788934
32	0x3ae60211	0.0017548223
33	0x3d61fa48	0.055170327
34	0xbc6c73b8	-0.014431886
35	0xbd69990b	-0.05703072
36	0x3c391d47	0.011298484
37	0x3c76aedb	0.015056337
38	0x3c4cccbe	0.012499986
39	0x3c522573	0.012826311
40	0x3cfe3699	0.031031894
41	0x3c52cd76	0.0128663685
42	0x3c1262d8	0.008934699
43	0x3d26c214	0.04071243
44	0x3c11e59a	0.008904839
45	0x3d2bcf54	0.04194577
46	0x3d8f8506	0.07007794
47	0x3d02da41	0.031946424
48	0x3d9f5418	0.077797115
49	0x3c55f63d	0.013059196
50	0x3d7a748e	0.06114631
51	0x3d46afe9	0.048507605
52	0x3d40e22e	0.0470907
53	0x3d6ac9a8	0.05732122
54	0x3d84060f	0.06446468
55	0x3dbe992c	0.09306559
56	0x3dacb3d8	0.0843274
57	0x3cdafb59	0.02673118
58	0x3d3c2927	0.045937683
59	0x3d629bbc	0.0553243
60	0x3d45ff7e	0.04833936
61	0x3d951498	0.072793186
62	0x3d13bdbd	0.03606962
63	0x3ca4ce38	0.020117864
64	0x3beb43a9	0.0071796966
65	0x3d43ee42	0.047834642
66	0xbcfc280b	-0.030780813
67	0x3c8ea418	0.01741223
68	0xbd5b232a	-0.053500332
69	0xbc693c9d	-0.014235643
70	0xbcc88643	-0.024478083
71	0x3c82ea9f	0.015981017
72	0xbc9dc6ed	-0.019259894
73	0xbd550416	-0.05200585
74	0xbd623b8f	-0.05523258
75	0xbd1bb3f8	-0.03801343
76	0xbcc0a102	-0.023514275
77	0xbd0bc033	-0.034118842
78	0xbd308be2	-0.043102153
79	0xbce2c65e	-0.02768248
80	0xbd52c7bc	-0.051460013
81	0x3d1e7660	0.03868711
82	0x3d34dc40	0.04415536
83	0x3d2ae64f	0.041723546
84	0x3d280883	0.041023742
85	0x3d2bb366	0.041919135
86	0x3d2b5fbd	0.04183935
87	0x3d4ea107	0.050446536
88	0x3d498aa7	0.049204495
89	0x3d0267b9	0.0318372
90	0x3d0c07c0	0.03418708
91	0x3cb747fc	0.022373192
92	0x3c2a2c44	0.01038653
93	0x3d0c6b2d	0.0342819
94	0x3ca6eff8	0.020378098
95	0x3c2a6177	0.010399214
96	0x3ccb8b46	0.024846684
97	0x3c97e01c	0.01853948
98	0x3c464318	0.012100957
99	0xbc904afe	-0.017613884
100	0x3d9f525a	0.07779379
101	0xbc83c619	-0.016085671
102	0x3d9316de	0.07182096
103	0x3cf6727f	0.030083893
104	0x3c6bde3c	0.0143962465
105	0x3cb1f650	0.021723896
106	0x3d85a583	0.065257095
107	0x3c8feeb6	0.017569881
108	0x3db26d27	0.087122254
109	0x3d9c5fc4	0.07635453
110	0x3dcb7981	0.099352844
111	0x3da7b8f9	0.081895776
112	0x3dd2053c	0.10254905
113	0x3db0a6d3	0.08625569
114	0x3d786dc8	0.06065157
115	0x3dd79fb4	0.10528508
116	0x3d97044c	0.073738664
117	0x3d544ee7	0.05183306
118	0x3d9bbde2	0.07604577
119	0x3d15b360	0.03654802
120	0x3d5a84dd	0.053349365
121	0x3d19cca5	0.03754868
122	0x3d5d3276	0.0540032
123	0x3d8416e1	0.06449676
124	0x3d27102c	0.040786907
125	0x3d76c20f	0.060243662
126	0xbd8a72e4	-0.06760195
127	0xbd63c964	-0.055611983
128	0xbd2ec916	-0.04267224
129	0x3be21066	0.0068989275
130	0xbd768edb	-0.06019483
131	0xbd54ee42	-0.051985033
132	0x3c432097	0.0119096255
133	0xbd430af0	-0.047617853
134	0x3c14e376	0.009087434
135	0x3da3c1d3	0.079959534
136	0x3db625da	0.08893938
137	0x3da102a7	0.07861834
138	0x3da91471	0.08255852
139	0x3db7b246	0.0896955
140	0x3da3c9ea	0.079974964
141	0x3d93dde9	0.072200604
142	0x3db88e03	0.090114616
143	0x3da2f755	0.07957331
144	0x3b0b647f	0.0021269617
145	0xbbca813a	-0.006179956
146	0xbcc01480	-0.023447275
147	0x3c91b5c0	0.01778686
148	0x39d1c108	0.00040007406
149	0xbc2e7000	-0.01064682
150	0x3b33ebf4	0.0027453871
151	0x3c2d7431	0.010586784
152	0xbbf4acbd	-0.007466881
153	0xbd388e7b	-0.045057755
154	0xbd97ee50	-0.074185014
155	0x3c9fbf9a	0.019500542
156	0xbd8657f5	-0.06559745
157	0x3bcbfdec	0.006225338
158	0xbd04a950	-0.03238803
159	0x3c2f32eb	0.010693292
160	0xbd964592	-0.07337488
161	0xbc97c829	-0.018528061
162	0x3d15ebbd	0.03660177
163	0xbc888004	-0.016662605
164	0xbda661cd	-0.08124123
165	0x3c86e996	0.016468804
166	0xbdb3abfc	-0.08773038
167	0x3b917696	0.0044391854
168	0x3d12da8b	0.03585295
169	0xbdaefb64	-0.08544043
170	0x3d0188dd	0.031624664
171	0xbdc9b548	-0.0984903
172	0x3c8cc6fa	0.017184723
173	0xbdd68932	-0.10475387
174	0xbd91db63	-0.07121923
175	0xbdd08fe5	-0.10183696
176	0x3c866856	0.016407173
177	0xbda1d9f9	-0.07902903
178	0x3cda76bc	0.026667945
179	0xbd1e6065	-0.038666148
180	0x3c185c2c	0.009299319
181	0x3caf0a6d	0.021367276
182	0x3c46ad53	0.012126285
183	0x3b458322	0.0030137976
184	0xbbb16c4a	-0.0054145204
185	0x3c2934c3	0.010327521
186	0xbb21e26a	-0.0024701604
187	0xbbe44e58	-0.006967347
188	0x3aeb9bd5	0.0017975519
189	0x3d7f43b1	0.062320415
190	0xbc278b4d	-0.010226083
191	0xbc3456b6	-0.011007002
192	0x3cde3627	0.027125431
193	0x3c41fb94	0.011839766
194	0x3d338d03	0.04383565
195	0x3ce8e52e	0.028429594
196	0x3b45e5d4	0.0030196803
197	0x3d0d36d0	0.0344761
198	0xbd4170b5	-0.047226626
199	0xbc2dec31	-0.010615394
200	0xbd662bc4	-0.056194082
201	0xbcaebac5	-0.021329293
202	0xbc96c1cd	-0.018402958
203	0xbceb80a4	-0.028747864
204	0xbbd4f665	-0.006499099
205	0xbc30143e	-0.010747014
206	0xbd5551ae	-0.05207985
207	0xbcbe30a5	-0.023216555
208	0xbc2ae773	-0.010431158
209	0xbc37edce	-0.011226131
210	0xbdb08a3e	-0.086201176
211	0xbc925f29	-0.017867642
212	0xbd2c05f9	-0.041997883
213	0xbd616168	-0.055024534
214	0x3bfad597	0.0076548564
215	0xbcb1ce71	-0.021704884
216	0xbc92b980	-0.017910719
217	0x3c3416bd	0.010991749
218	0x3c4fc5ea	0.012681464
219	0xbd1b2f0e	-0.03788667
220	0x3b7d3c36	0.0038640625
221	0xbcd548dd	-0.02603572
222	0xbcef0b72	-0.029180262
223	0xbc1b6ffc	-0.009487148
224	0xbd3ca7a2	-0.046058305
225	0xbbcc1e3c	-0.00622919
226	0xbbeaec8f	-0.0071693133
227	0x3b72366a	0.0036958703
228	0xbbc187cd	-0.0059060813
229	0xbb877424	-0.004133718
230	0xbcc6c55e	-0.024264034
231	0xbc4c256b	-0.012460093
232	0xbc6c39a6	-0.014418041
233	0xbbbc7ea9	-0.0057524038
234	0x3c768717	0.015046856
235	0x3cd7bdc2	0.0263356
236	0x3c90c35b	0.017671278
237	0x3c7011da	0.014652694
238	0x3becf076	0.0072308136
239	0x3c62e76c	0.013849121
240	0x3a728ab2	0.00092522346
241	0x3c9f15cb	0.019419571
242	0x3c705453	0.014668542
243	0x39d366cc	0.00040321646
244	0x3b80dc0c	0.0039324816
245	0x3c449e58	0.012000643
246	0x3d0159c4	0.031579748
247	0xbc51c107	-0.012802369
248	0x3c901278	0.017586932
249	0xbbfa7610	-0.0076434687
250	0xbd05942e	-0.03261202
251	0x3c560c74	0.0130644925
252	0xbc243014	-0.010021228
253	0xbca5d82a	-0.020244677
254	0x3ca0db56	0.019635838
255	0x3d45b475	0.0482678

conv_layers.2.0.conv.bias f4 [32]
0	0x3c42d6b2	0.011892008
1	0x3d261ae9	0.040553007
2	0xbd3a8472	-0.045536466
3	0xbbaf94c2	-0.0053583095
4	0x3ca5168c	0.020152353
5	0xbd043c38	-0.03228399
6	0x3b48678c	0.0030579297
7	0x3d205811	0.039146487
8	0xbd300219	-0.04297075
9	0x3c2aec2b	0.010432283
10	0xbcfc923a	-0.030831445
11	0xbcada963	-0.021198934
12	0xbb04e372	-0.002027717
13	0xbcbcb302	-0.023034576
14	0x3cec31d6	0.028832357
15	0xbc31dc80	-0.010855794
16	0x3bc6ab98	0.006062936
17	0x3ca8a75e	0.02058762
18	0xbcd5b5f5	-0.02608774
19	0xbb63e52a	-0.0034774044
20	0xbd387c89	-0.04504064
21	0xbd1e3bac	-0.038631126
22	0x3bd39a7d	0.0064576254
23	0xbd03771c	-0.032096013
24	0xbc9a9827	-0.01887138
25	0x3bc2d63e	0.00594595
26	0xbd38b551	-0.04509479
27	0xbd15a0d6	-0.03653034
28	0x3c68147c	0.01416504
29	0x3d048c2c	0.03236024
30	0xbd577b23	-0.052607667
31	0xbcde6997	-0.027149959

conv_layers.4.0.conv.weight f4 [32, 32, 3, 3]
0	0x3d9c7054	0.076386124
1	0x3c44e1fe	0.012016771
2	0x3a6dea77	0.00090757705
3	0x3d7ee158	0.062226623
4	0xb78f2250	-1.7062906e-05
5	0xbba106e7	-0.004914153
6	0x3d84b3d0	0.06479609
7	0x3c5920de	0.013252465
8	0x3c1213b3	0.0089158295
9	0x3d23c021	0.03997815
10	0x3d0dd596	0.03462752
11	0x3bfda10c	0.0077401455
12	0x3c04c2b6	0.008103063
13	0x3ca69c2c	0.02033814
14	0x3ceccb88	0.028905645
15	0x3c91c016	0.017791789
16	0x3d139677	0.036032166
17	0x3d2f757c	0.04283665
18	0xbd088a6e	-0.03333514
19	0xbcd08f22	-0.025458876
20	0xbc7bd9c5	-0.0153717445
21	0xbcdcf24c	-0.026971005
22	0xbc97d8d5	-0.01853601
23	0xbc3fd685	-0.01170886
24	0xbcc75c00	-0.024335861
25	0xbc906ceb	-0.017630061
26	0xbc392c7d	-0.011302111
27	0xbb871fc5	-0.0041236603
28	0x3b0f6348	0.0021879245
29	0xbaad3308	-0.0013214061
30	0xb8bfe3c4	-9.1500144e-05
31	0x3c32fb74	0.010924209
32	0x3ba3ec71	0.0050025512
33	0x3bae2a4f	0.005315102
34	0x3ba528ea	0.0050402777
35	0x3c2dee09	0.010615834
36	0x3d79d228	0.060991436
37	0x3b7f3f3e	0.0038947607
38	0x3cde9698	0.027171418
39	0x3d7724cd	0.06033783
40	0xbc1385c3	-0.009004059
41	0x3d0178e9	0.03160945
42	0x3d3ac390	0.04559666
43	0x3ba6fca0	0.005096033
44	0x3caf08fc	0.021366589
45	0xbcb55a33	-0.022137737
46	0xbc89b212	-0.016808543
47	0xbc7f680a	-0.01558877
48	0xbc6c5302	-0.0144240875
49	0xbc444594	-0.011979479
50	0xbc361b17	-0.011114857
51	0xbc5cffb4	-0.013488699
52	0xbc34fc4e	-0.011046482
53	0xbc40e756	-0.011773905
54	0x3d79a3c0	0.06094718
55	0x3b6268c0	0.00345473
56	0x3a11f8c2	0.0005568379
57	0x3d2aeb46	0.04172828
58	0xbc2d5390	-0.010579005
59	0xbae5ad19	-0.0017522901
60	0x3d3ce61f	0.046117898
61	0x399e39d4	0.00030179194
62	0x3c425507	0.011861092
63	0x3d1cf5ff	0.038320538
64	0x3d492771	0.04910988
65	0x3bd1f060	0.0064068288
66	0x3d47531d	0.048663247
67	0x3ce194a2	0.027536694
68	0xbca03454	-0.019556202
69	0x3d3e28e1	0.046425704
70	0x3d2273e7	0.039661314
71	0xbc8df0b3	-0.017326688
72	0xbd05a536	-0.03262826
73	0xbc5c67ad	-0.013452453
74	0xbbe1145f	-0.0068688835
75	0xbce49010	-0.027900726
76	0xbc421071	-0.01184474
77	0xbc2ca437	-0.010537199
78	0xbce76b04	-0.028249271
79	0xbc036269	-0.008019068
80	0xbc6999bd	-0.0142578455
81	0x3d6b9a1d	0.05752002
82	0xbb9d559e	-0.004801466
83	0xbc3d7013	-0.011562365
84	0x3d18c8c4	0.03730084
85	0xbc8e4792	-0.017368112
86	0xbc741784	-0.014898185
87	0x3d253d59	0.04034171
88	0xbbd0be1e	-0.00637032
89	0xbc20dc68	-0.009818174
90	0xbc4fe837	-0.012689642
91	0xbb2a8119	-0.002601689
92	0xbc04279f	-0.008066087
93	0xbc3f3046	-0.011669224
94	0xbb7f9a16	-0.0039001754
95	0xbc1866bc	-0.0093018375
96	0xbc7f3de1	-0.015578718
97	0xbc0392b9	-0.008030587
98	0xbc31b1d9	-0.010845625
99	0x3da43901	0.08018685
100	0x3ce2c039	0.02767955
101	0x3c552e45	0.01301152
102	0x3da67437	0.08127635
103	0x3c7be934	0.015375424
104	0x3bc4b066	0.0060024736
105	0x3da27581	0.07932568
106	0x3d056366	0.032565497
107	0x3cb2ce71	0.021826955
108	0x3bf1a690	0.007374592
109	0x3c8acfa4	0.016944714
110	0x3c50288a	0.012704978
111	0x3c887557	0.016657514
112	0x3c81b6ab	0.015834173
113	0x3c9baf29	0.019004421
114	0x3c8d442e	0.017244425
115	0x3bfc7fd9	0.0077056703
116	0x3c7c1237	0.015385202
117	0x3d2ed697	0.042685118
118	0xbd02e70b	-0.03195862
119	0xbd46fdbe	-0.04858183
120	0x3c56e20e	0.013115419
121	0xbd0d4923	-0.034493577
122	0xbd26b335	-0.04069825
123	0x3bff958d	0.0077998103
124	0xbcba04ae	-0.02270731
125	0xbd03de85	-0.032194633
126	0x3d75daf5	0.060023267
127	0x3c2314d5	0.009953697
128	0x3bdf2730	0.0068100914
129	0x3d71d448	0.059040338
130	0x3c036d48	0.00802166
131	0x3ae53abf	0.0017488821
132	0x3d786f5f	0.060653087
133	0x3c6e56a2	0.014547022
134	0x3bf4036b	0.0074466965
135	0x3cadf59d	0.021235282
136	0x3c970997	0.01843719
137	0x3cbf7416	0.023370784
138	0x3c95e6bf	0.018298505
139	0x3cb3c4d4	0.02194444
140	0x3ca6142b	0.020273289
141	0x3cb15d12	0.021650825
142	0x3c92b21b	0.017907193
143	0x3c9fbca0	0.019499123
144	0x3b0d433c	0.0021554967
145	0x3ceaa4c5	0.028643021
146	0xbc6d69c1	-0.014490546
147	0x3c2e0f52	0.01062377
148	0x3cd3edaa	0.025870163
149	0x3bb81bdc	0.0056185555
150	0xbba497ce	-0.0050229793
151	0x3c15837f	0.009125589
152	0xbc34431e	-0.01100233
153	0x3d80a161	0.062807806
154	0xbaa5157a	-0.0012594901
155	0x3b3b5a26	0.0028587668
156	0x3d0a5e7a	0.033781506
157	0x3a9f0ce3	0.0012134578
158	0xbc5b7e0a	-0.013396749
159	0x3d41571b	0.04720221
160	0xbc0730bc	-0.008251365
161	0xbc32bfa3	-0.010909948
162	0x3d5e3263	0.05424727
163	0xbc1e5a16	-0.009665033
164	0xbc1a9431	-0.009434746
165	0x3d1b9e0d	0.037992526
166	0xbc32679f	-0.010888963
167	0xbc575b3a	-0.013144309
168	0x3d2ec548	0.04266861
169	0x3ba75583	0.0051066293
170	0x3aa7da02	0.001280606
171	0x3d25de76	0.04049536
172	0x3c63e888	0.01391042
173	0x3c8430bf	0.016136525
174	0x3d2382f0	0.039919794
175	0x3bdd9882	0.006762565
176	0x3c679859	0.014135444
177	0x3d1811b2	0.03712625
178	0x3c262c9e	0.0101424735
179	0x3c52d563	0.012868258
180	0xbca0d258	-0.01963155
181	0xbc53ccf5	-0.0129272835
182	0xbc26e57c	-0.010186549
183	0xbc883513	-0.01662687
184	0xbc521689	-0.012822756
185	0xbc09515c	-0.008381214
186	0xbc9023f3	-0.017595267
187	0xbc1f47fa	-0.00972175
188	0xbc44d2e6	-0.012013173
189	0xbd1358ae	-0.035973243
190	0xbc256f50	-0.01009734
191	0xbc059be2	-0.008154841
192	0xbd05de88	-0.032682925
193	0xbc392cb4	-0.011302162
194	0xbbd41a41	-0.0064728563
195	0xbd0d5570	-0.034505308
196	0xbc78bd63	-0.015181872
197	0xbc126219	-0.008934521
198	0x3d491a7e	0.04909753
199	0x3b9a0224	0.004699962
200	0xbc68b47e	-0.014203189
201	0x3d0c185d	0.034202922
202	0xbc274111	-0.010208384
203	0xbc10d5c3	-0.008840027
204	0x3d0fa55e	0.035069816
205	0x3bd712e6	0.006563532
206	0xbbe15577	-0.0068766433
207	0x3d288c19	0.041149233
208	0xbbbf274e	-0.005833543
209	0xbc2a7084	-0.010402802
210	0x3c887b69	0.016660409
211	0xbc90531a	-0.01761775
212	0xbc3c20a4	-0.0114823915
213	0x3c9b2897	0.018940253
214	0xbc1b4db9	-0.00947898
215	0xbbc9b28f	-0.006155319
216	0x3d97226d	0.07379613
217	0x3c420007	0.011840827
218	0xbabd058b	-0.0014421208
219	0x3d3214d3	0.04347689
220	0xbb69f7d6	-0.00357007
221	0xbc198b18	-0.009371541
222	0x3cfb9d20	0.030714571
223	0xbc84eca0	-0.016226113
224	0xbc44cfc4	-0.012012426
225	0x3d88ed6a	0.06685908
226	0x3bc6e51c	0.0060697924
227	0xbba40335	-0.005005265
228	0x3d40648b	0.046970885
229	0xbc0f435f	-0.00874409
230	0xbb97cad9	-0.0046323356
231	0x3d2e4cf3	0.042553853
232	0xba9df549	-0.001205125
233	0xbaea4070	-0.0017871987
234	0xbcca0e5a	-0.024665046
235	0xbb8d4acb	-0.0043118945
236	0x3bce89bf	0.0063030417
237	0xbd049fdb	-0.032379013
238	0xbb71acda	-0.003687671
239	0xbba01ec2	-0.004886479
240	0xbd0e727e	-0.034777157
241	0xbcb0ff9d	-0.02160626
242	0xbc257a23	-0.01009992
243	0x3d2d8f88	0.04237321
244	0x3c686b45	0.014185731
245	0xbc6e848b	-0.014557968
246	0x3d136df1	0.03599352
247	0x3bebf5fe	0.0072009554
248	0xbbc216d8	-0.0059231333
249	0x3cf41ab0	0.029797882
250	0x3bf87236	0.0075819744
251	0xbba8d678	-0.00515252
252	0x3d7266c5	0.05918004
253	0xbb52ecfb	-0.0032184708
254	0xbbcf8770	-0.006333284
255	0x3d10055e	0.03516137

conv_layers.4.0.conv.bias f4 [32]
0	0xbcd39711	-0.02582887
1	0xbbb68b12	-0.0055707777
2	0x3c5df3a7	0.013546861
3	0x3ccaeb62	0.024770442
4	0x3d5bea94	0.053690508
5	0x3b95b288	0.0045684017
6	0x3ca15f76	0.01969884
7	0x3c8fce52	0.017554436
8	0xbc1c5378	-0.009541385
9	0x3c7c2a3e	0.015390931
10	0x3d0ae62f	0.033910926
11	0xbc9b6e12	-0.018973384
12	0x3d0f5ec4	0.035002485
13	0x3d60f602	0.05492211
14	0x3ae188a4	0.001720686
15	0x3c611221	0.013737232
16	0x3c12a607	0.008950717
17	0x3c27b856	0.01023682
18	0x3d757342	0.05992437
19	0x3cacdd2d	0.021101559
20	0x3b22a6d3	0.0024818673
21	0x3c053913	0.008131283
22	0xbcbcb689	-0.023036258
23	0x3c382036	0.011238148
24	0xbc2cfdea	-0.010558585
25	0xbc216f1f	-0.0098531535
26	0x3c03ae48	0.008037157
27	0xbc46e87a	-0.012140388
28	0x3bb599fe	0.005542039
29	0x3cd0fa2d	0.025509918
30	0x3d4e8458	0.05041918
31	0xbc9e67ca	-0.0193366

conv_layers.5.0.conv.weight f4 [32, 32, 3, 3]
0	0x3d33d603	0.04390527
1	0xbc3a9b46	-0.011389559
2	0x3c2e44b2	0.010636495
3	0x3c81b1bb	0.015831819
4	0xbcabdcfa	-0.020979393
5	0x3cda22ae	0.026627865
6	0xbc6a968a	-0.014318118
7	0xba75ac81	-0.00093717134
8	0xbc7377d4	-0.014860112
9	0x3b96a15c	0.0045968723
10	0xbce672ee	-0.028130975
11	0x3cd2632d	0.025682056
12	0xbca0cd35	-0.0196291
13	0x3cf47b2c	0.02984389
14	0xbbfe89f8	-0.007767912
15	0x3c5e7a96	0.013579031
16	0xbcf585a7	-0.029970957
17	0xbad6ca5f	-0.0016387216
18	0x3ad1ff0a	0.0016021442
19	0x3c31fb09	0.010863074
20	0xbcacd908	-0.021099582
21	0xbd2da284	-0.042391315
22	0x3c800224	0.01562602
23	0x3b63cb09	0.003475847
24	0x3b9b6967	0.0047427895
25	0xbc74d729	-0.014943876
26	0xbcbef126	-0.023308348
27	0xbce1847c	-0.027528994
28	0xbc363b46	-0.01112253
29	0xbcf7238f	-0.030168323
30	0x3a3ab541	0.0007122346
31	0x3c2e0178	0.010620467
32	0xbd09ac9b	-0.033611875
33	0x3c882d58	0.016623184
34	0xbba19842	-0.0049314806
35	0xbcddef69	-0.027091699
36	0xbd6dfc5e	-0.058102004
37	0xbd1a4123	-0.037659775
38	0xbd52c2f1	-0.05145544
39	0xbd8c8efe	-0.06863211
40	0xbd509959	-0.050927494
41	0xbd6fc7eb	-0.058540266
42	0xbd225a6f	-0.039637025
43	0xbd5775d1	-0.052602593
44	0xbd8e6b56	-0.069540665
45	0x3c8cb722	0.017177168
46	0x3ac6453b	0.0015126833
47	0x3c3d67ca	0.01156039
48	0xbbd54696	-0.0065086586
49	0x3a3e2597	0.0007253526
50	0x3cc4c8e0	0.024021566
51	0xbbb1ecc4	-0.005429836
52	0xba4313aa	-0.000744159
53	0xbc10fb98	-0.008849047
54	0xbc22760d	-0.009915841
55	0x3d80a6b8	0.06281799
56	0x3d7cfeca	0.061766423
57	0x3d14c975	0.036324937
58	0x3c295efd	0.010337588
59	0x3cf1d535	0.02952061
60	0xbbdbe4ac	-0.0067106094
61	0x3d2c151a	0.04201231
62	0x3c56335e	0.01307377
63	0x3d1e6303	0.038668644
64	0x3d7249c7	0.05915239
65	0xbce48afd	-0.027898306
66	0x3cb7cc36	0.022436243
67	0xbd0432dc	-0.032275066
68	0xbb8919a0	-0.004183963
69	0x3b878cf9	0.0041366783
70	0x3c5a5d36	0.013327887
71	0xbd39b1d8	-0.04533562
72	0xbcf20b67	-0.029546453
73	0xbd26b66a	-0.040701307
74	0x3bfa83e8	0.007645119
75	0xbd00c779	-0.031440232
76	0x3b00be2f	0.0019644608
77	0xbd02ec6c	-0.03196375
78	0x3c1b3854	0.009473879
79	0x3ca5ca1b	0.020237973
80	0x3d068765	0.032843966
81	0x3d0bb72e	0.03411024
82	0x3c78f646	0.015195435
83	0xbb79b436	-0.00381018
84	0xbb7dc8af	-0.0038724353
85	0x3ced849c	0.028993897
86	0x3c909a58	0.017651722
87	0x3d3abeca	0.045592107
88	0x3d09f817	0.033683863
89	0x3cb6bdc0	0.022307277
90	0xbd334227	-0.04376426
91	0xbd436928	-0.047707707
92	0xbc35fc0d	-0.011107457
93	0xbd6e4678	-0.058172673
94	0xbce58d4e	-0.02802148
95	0xbb9c0a38	-0.0047619604
96	0xbd359833	-0.0443346
97	0xbc8faea2	-0.017539326
98	0xbd15e64d	-0.036596585
99	0xbcf282bc	-0.029603355
100	0xbcc1f1e5	-0.023674915
101	0xbba50f21	-0.005037204
102	0xbce251b2	-0.027626846
103	0xbcbec678	-0.023287997
104	0xbbd446c8	-0.0064781643
105	0x3cd4b9b3	0.025967455
106	0xbcde176e	-0.027110782
107	0xbc26ecbf	-0.010188281
108	0x3abad153	0.0014253057
109	0x3cd4ee61	0.025992574
110	0x3ca369f4	0.019947983
111	0xbcc8fa75	-0.02453349
112	0x3cb185fd	0.021670336
113	0xbd0e5e9a	-0.034758188
114	0xbcfe7003	-0.03105927
115	0xbb12551b	-0.002232856
116	0xba1ff838	-0.0006102356
117	0xbc86e553	-0.016466772
118	0xbd578b41	-0.052623037
119	0xbd4574d0	-0.048207104
120	0xbd96d0d0	-0.073640466
121	0xbc4427b5	-0.0119723575
122	0xbd868947	-0.06569152
123	0xbd20ebb4	-0.039287284
124	0xbd82f63a	-0.0639462
125	0xbd22f8ea	-0.039788164
126	0xbb05cf5d	-0.0020417788
127	0x3c9d96a8	0.019236878
128	0xbc6e9ea5	-0.014564191
129	0x3c00a36c	0.007851463
130	0x3cab6fd5	0.02092735
131	0xbcce7eff	-0.02520704
132	0x3c8df25d	0.017327482
133	0xbbabc67e	-0.005242168
134	0x3cafa4d1	0.021440895
135	0xbbd5b0a7	-0.0065213027
136	0x3a8cebf0	0.0010751467
137	0x3d03fc7d	0.032223213
138	0x3b0a83cb	0.0021135684
139	0x3c6cae9c	0.014445927
140	0xbc17aed4	-0.009257991
141	0xbc6e6696	-0.014550826
142	0x3d3e3d2b	0.046445053
143	0x3d59239a	0.053012468
144	0x3c4cc7fb	0.012498851
145	0xba58603a	-0.0008254085
146	0xbd002065	-0.031280894
147	0x3b2364ac	0.0024931831
148	0x3b69eae5	0.0035692987
149	0xbc85c247	-0.01632799
150	0x3d3a9e4a	0.045561112
151	0x3c344f79	0.011005276
152	0xbc932c20	-0.017965376
153	0x397db4fa	0.00024195379
154	0xbba8f751	-0.0051564355
155	0xbc2fc295	-0.010727544
156	0x3b27f3bb	0.0025627452
157	0xbcf65198	-0.030068204
158	0xbcc08052	-0.023498688
159	0xbd2e3523	-0.042531144
160	0xbcb6a5b0	-0.022295803
161	0x3beb4a27	0.0071804705
162	0xb9e71b9c	-0.00044080324
163	0x3d12cdb5	0.03584071
164	0x3c02cdfa	0.007983679
165	0xbc5eee15	-0.013606568
166	0xbd56963e	-0.052389376
167	0xbc0e97b0	-0.008703157
168	0x3bf7fa71	0.0075676967
169	0x3cc7ee2b	0.02440556
170	0xbd40709e	-0.0469824
171	0xba731fd0	-0.0009274455
172	0xbd0f54e2	-0.03499306
173	0xbcb39a6d	-0.021924222
174	0xbd3ad97b	-0.04561756
175	0xbd5d7736	-0.054068767
176	0xbc97ba64	-0.018521495
177	0xbd3a7272	-0.0455193
178	0xbcb2a445	-0.021806845
179	0xbd38d7ca	-0.045127667
180	0x3cc5ec0d	0.02416041
181	0xbcfe1875	-0.031017521
182	0xbd027487	-0.03184941
183	0xbce78287	-0.028260482
184	0xbc184a54	-0.009295065
185	0x3c0148e4	0.007890914
186	0x3ba1ce98	0.004937958
187	0xbd0adcaa	-0.033901848
188	0xbca6bff1	-0.020355197
189	0x3cd2f3f5	0.025751093
190	0x380c4a90	3.3448043e-05
191	0x3d18eb4f	0.037333783
192	0x3aceca6c	0.0015776879
193	0x3d08d799	0.033408735
194	0x3d2c8a07	0.04212382
195	0xbc7fb675	-0.015607466
196	0x3c2256f6	0.009908428
197	0xbabc9c42	-0.001438983
198	0x3c85d526	0.016336989
199	0xbcf4703c	-0.029838674
200	0xbc927469	-0.017877774
201	0xbd06c59b	-0.032903295
202	0xbd30a9bf	-0.043130632
203	0x3c95e028	0.018295363
204	0x3c5c1bdb	0.013434376
205	0xbd22bc50	-0.03973037
206	0xbcc26c71	-0.02373335
207	0x3d23cc5e	0.03998982
208	0x393c6749	0.00017967554
209	0xbd03d366	-0.032184027
210	0xbc703c16	-0.014662763
211	0x3a8907f0	0.0010454636
212	0xbc048ca6	-0.008090174
213	0x3d85bf23	0.06530597
214	0xbcf5bd7f	-0.029997585
215	0xbbfcbca0	-0.0077129155
216	0xbb18c2e0	-0.0023309514
217	0x3d01d034	0.0316927
218	0x3c96574b	0.018352171
219	0x3c5b733f	0.013394176
220	0xbbe8444e	-0.0070882207
221	0x3d009a4a	0.03139714
222	0xbc943504	-0.018091686
223	0x3d2c569a	0.042074777
224	0x3c9dcc7b	0.019262543
225	0x3cc39604	0.023875244
226	0xbaafe286	-0.001341895
227	0x3bff3562	0.007788346
228	0xbc79b9da	-0.015242064
229	0xbb127dae	-0.0022352743
230	0xbca7bcac	-0.020475708
231	0xbc5a8ede	-0.013339726
232	0xbb1c2d4a	-0.0023830705
233	0x3c1adc73	0.009451973
234	0xb9830a05	-0.00024993732
235	0xbc197509	-0.009366282
236	0x3d4e6899	0.05039272
237	0xbc3c4693	-0.011491436
238	0x3d3f5b97	0.046718206
239	0xbbce793b	-0.006301073
240	0x3cc39631	0.023875328
241	0x3cb5f767	0.022212697
242	0xbd0530ee	-0.032517366
243	0x3bec3c44	0.0072093327
244	0xbc4348f1	-0.011919246
245	0x3c4e96af	0.012609168
246	0x3d089e8d	0.03335433
247	0xbc1dbb2a	-0.009627143
248	0x3c8f9ecb	0.017531773
249	0x3c808f11	0.01569322
250	0xbc5c9812	-0.013463991
251	0xbc018b94	-0.007906813
252	0x3c7ce7ab	0.015436093
253	0xbce451fc	-0.027871124
254	0x3c60515c	0.013691273
255	0x3d23b240	0.039964914

conv_layers.5.0.conv.bias f4 [32]
0	0x3d326c4f	0.043560322
1	0x3cdcfb2e	0.02697524
2	0x3d9ec4a2	0.077523485
3	0xbbfa19f1	-0.007632487
4	0x3bb24abb	0.0054410375
5	0x3d35de05	0.044401187
6	0x3d998ad5	0.07497183
7	0x3ab12f45	0.0013518116
8	0x3d6024f6	0.05472275
9	0x3d74588f	0.05965477
10	0x3cdfff0e	0.0273433
11	0x3bdcbab0	0.006736122
12	0xbc748b3a	-0.014925772
13	0x3d0e0320	0.03467095
14	0x3d3bfe51	0.045896832
15	0x3d62919b	0.05531464
16	0x3d5fddec	0.054655
17	0x3c51210e	0.0127642285
18	0x3daeb8a2	0.0853131
19	0x3d634f1c	0.055495366
20	0xbd3b7f79	-0.045775864
21	0x3b7a3151	0.0038176368
22	0x3d310f88	0.043227702
23	0xbb76fa96	-0.0037685982
24	0x3d1ce247	0.038301732
25	0xbbdeeb04	-0.0068029184
26	0x3d31b5e0	0.04338634
27	0x3d3410a8	0.043961197
28	0x3c6c96e0	0.014440268
29	0xbd1b4d93	-0.037915777
30	0x3d9639db	0.07335254
31	0xbbba1066	-0.0056782244

conv_layers.7.0.conv.weight f4 [16, 32, 3, 3]
0	0xbd283a45	-0.041071195
1	0xbdb76e00	-0.08956528
2	0xbd2409e6	-0.040048502
3	0x3c37c1ec	0.011215668
4	0xbcd17de8	-0.025572732
5	0x3a6c761c	0.0009020285
6	0xbd15a6df	-0.036536094
7	0xbd4a8693	-0.049444746
8	0xbd8ae227	-0.067814164
9	0xbc16a37f	-0.009194254
10	0x3bd92623	0.0066268607
11	0x3c08fd42	0.008361163
12	0xbca7a9a2	-0.02046663
13	0xbc0aa509	-0.008462199
14	0xbd633729	-0.055472527
15	0x3d4f196a	0.050561346
16	0xbd09694d	-0.03354769
17	0x3d1c52e5	0.038164992
18	0x3caa18c0	0.020763755
19	0x3cf86193	0.030319965
20	0xbd515c08	-0.05111316
21	0x3d06ab65	0.0328783
22	0x3ca08860	0.019596279
23	0x39bb75b4	0.00035755115
24	0xbcb849a3	-0.02249605
25	0xbd2970a5	-0.04136719
26	0xbcf278a3	-0.02959854
27	0xbc825fd0	-0.015914828
28	0x3cae169a	0.021251012
29	0x3d05de48	0.032682687
30	0xbd062ccb	-0.03275756
31	0x3ac57869	0.0015065792
32	0xbd01f522	-0.031727917
33	0xbc93ad9e	-0.018027123
34	0x3d307df6	0.043088876
35	0x3d3139bc	0.04326795
36	0xbd4a9711	-0.049460474
37	0xbcea5b5d	-0.028608019
38	0x3bb90a54	0.005646983
39	0x3d0867ba	0.033302046
40	0x3d1584c1	0.036503557
41	0x3c7edf6a	0.015556196
42	0xbd0ad328	-0.03389278
43	0xbbf0bdb7	-0.0073468345
44	0xbcaab7e3	-0.020839637
45	0xbd633082	-0.055466183
46	0x3bf08e4d	0.0073411823
47	0x3c3e7cd3	0.01162644
48	0x3c89ffb9	0.01684557
49	0x3d17d122	0.03706468
50	0xbd1686b1	-0.036749545
51	0x3b938c57	0.004502814
52	0x3c9ff292	0.019524846
53	0xbc8d7720	-0.017268717
54	0xbd544a94	-0.051828936
55	0x3c78c1df	0.015182941
56	0xbd798241	-0.060915235
57	0x3cb7b14f	0.022423415
58	0xbc7d4097	-0.015457294
59	0xbd7f45f8	-0.062322587
60	0x3ca39b78	0.019971594
61	0x3d3775dc	0.044790134
62	0xbd15d594	-0.036580637
63	0xbc0fffa6	-0.008788979
64	0x3c637c65	0.013884638
65	0x3b2abc25	0.0026052084
66	0x3c9b0d8e	0.018927362
67	0xbc8bef74	-0.017081954
68	0xbcc564ec	-0.024095975
69	0x3ab89726	0.0014083132
70	0x3d1212d0	0.035662472
71	0x3cb511f3	0.022103285
72	0xbd0eb582	-0.034841068
73	0x3d1bd18c	0.038041636
74	0x3cdc8375	0.026918152
75	0x3cdb3fa5	0.026763747
76	0x3ce20551	0.027590426
77	0xbb2aecca	-0.0026081079
78	0xbd0d8bea	-0.03455726
79	0xbb2d96b2	-0.0026487526
80	0x3cae9834	0.02131281
81	0xbd6f42ff	-0.0584135
82	0xbd1d1b57	-0.03835615
83	0xbd1469cc	-0.03623371
84	0x3cf3a950	0.02974382
85	0xbcb667c9	-0.022266285
86	0x3d411118	0.047135442
87	0xbd1c91f6	-0.038225137
88	0xbd47b26e	-0.04875415
89	0xbcd06e3c	-0.025443189
90	0x3cbf875a	0.02337997
91	0x3d61fcab	0.055172604
92	0x3d521339	0.051287863
93	0xbc96ab46	-0.018392216
94	0xbd3c97e7	-0.046043303
95	0xbc10e716	-0.008844158
96	0xbd165f11	-0.036711756
97	0xbd4b973f	-0.049704786
98	0xbc8c5db5	-0.017134527
99	0xbcc0a292	-0.02351502
100	0xbd55b110	-0.052170813
101	0xbd20602b	-0.039154213
102	0xbc3ee78d	-0.011651886
103	0x3c5a607a	0.013328666
104	0x3ce65948	0.028118744
105	0xbc8fcd86	-0.017554056
106	0xbb44b3c7	-0.0030014382
107	0xbd204f5a	-0.039138176
108	0xbd22f9a9	-0.039788876
109	0x3c7532aa	0.014965693
110	0x3c4e8356	0.012604555
111	0x3ce8b24e	0.028405335
112	0x3d478ad3	0.048716377
113	0x3d39de37	0.045377936
114	0xbce3fb61	-0.027829828
115	0x3c4e84fb	0.012604947
116	0x3c7b52e9	0.015339592
117	0xbcbe111b	-0.023201516
118	0x3c17d699	0.009267473
119	0xbd083b66	-0.03325977
120	0x3c78aca5	0.01517788
121	0x3d04bb71	0.03240532
122	0x3d37dc8d	0.044888068
123	0xbcb8d8ac	-0.022564255
124	0x3bf8f8c1	0.007598013
125	0x3b29764e	0.0025857869
126	0xbd3bd753	-0.045859646
127	0x3cca03f9	0.024660097
128	0x3c3ad2ea	0.011402825
129	0xbcad854e	-0.021181729
130	0xbd1c565d	-0.0381683
131	0xbd8cfb19	-0.068838306
132	0xbb6efcd3	-0.0036466613
133	0xbcc7bf72	-0.02438328
134	0x3c916aab	0.017751059
135	0xbc98bd07	-0.018644823
136	0x3cdde812	0.027088199
137	0xbd815883	-0.063157104
138	0xbb5a185e	-0.0033278684
139	0x3c9ac43d	0.018892402
140	0x3bf5a028	0.0074958988
141	0x3cccb080	0.024986506
142	0x3d1605b3	0.03662653
143	0x3c0d420a	0.008621702
144	0xbca7a08e	-0.0204623
145	0x3bbc763a	0.0057513984
146	0xbd58fc69	-0.052975092
147	0x3cfb2790	0.030658513
148	0xbd45d5f2	-0.048299737
149	0xbbf0a963	-0.007344411
150	0xbcaf53a8	-0.021402195
151	0x3b0f1aa1	0.002183594
152	0xbd2bd7b5	-0.04195376
153	0xbc213bb1	-0.009840892
154	0xbd595719	-0.05306158
155	0x3c29b38e	0.010357751
156	0x3c4f9b7f	0.0126713505
157	0xbd0a2dca	-0.033735074
158	0x3d42acf6	0.04752823
159	0x3be7de6f	0.0070760767
160	0x3cfee4ea	0.031115014
161	0xbc45e835	-0.012079288
162	0x3d8a46fc	0.067518204
163	0xba95c2f4	-0.0011425898
164	0xbcc812cf	-0.024423031
165	0xbd8bf9a9	-0.06834728
166	0xbbb9145e	-0.00564818
167	0x3b558142	0.0032578264
168	0x3c3b5aa9	0.011435189
169	0xbd745ede	-0.059660785
170	0xbce43c34	-0.027860738
171	0xbadba998	-0.0016758917
172	0x3d187df7	0.037229504
173	0x3cdb0838	0.026737317
174	0xbbae42ae	-0.0053180074
175	0xbd192865	-0.03739204
176	0xbda76657	-0.08173817
177	0xbcd095b3	-0.025462007
178	0xbd370e3a	-0.044691302
179	0x3d38f1bd	0.045152415
180	0xbca0f64b	-0.019648692
181	0xbce3b2b2	-0.02779517
182	0xbc07e068	-0.008293249
183	0xbc08ee3e	-0.008357583
184	0x3d0c9379	0.03432033
185	0xbd75866e	-0.059942655
186	0x3c448784	0.0119952
187	0xbd1519fc	-0.036401734
188	0x3ce236e6	0.027614068
189	0x3d93866e	0.07203375
190	0x3d645829	0.05574814
191	0x39eb182d	0.00044840705
192	0x3d5ea182	0.054353245
193	0xbd3816a7	-0.044943478
194	0xbceb6f44	-0.028739579
195	0xbbf86961	-0.0075809215
196	0x3c1be4e3	0.00951502
197	0x3d15cb10	0.03657061
198	0x3d841061	0.064484365
199	0xbc037ea0	-0.008025795
200	0x3d3a1408	0.04542926
201	0x3d47a075	0.048737008
202	0xbd4f3d7c	-0.050595745
203	0x3b5cdf70	0.0033702515
204	0x3c98d1bc	0.018654697
205	0x3d445789	0.047935043
206	0x3d589843	0.052879583
207	0xbb017464	-0.0019753212
208	0xbcfa61a2	-0.030564133
209	0x3ba04476	0.0048909737
210	0x3d16165a	0.03664241
211	0xbca18f68	-0.019721702
212	0x3d3cb70b	0.046073
213	0xbc07d75c	-0.008291092
214	0xbd59aa08	-0.05314067
215	0xbca2c47f	-0.019869087
216	0x3b8f2070	0.0043678805
217	0xbd59b35f	-0.053149577
218	0x3c83ba6b	0.016080102
219	0xbd3a13b2	-0.04542894
220	0xbc898916	-0.016789
221	0xbd1d56d2	-0.038412876
222	0xbd0dd5cf	-0.034627732
223	0xbabcf3cb	-0.0014415918
224	0xbd9ed135	-0.07754747
225	0xbd874d7f	-0.06606578
226	0xbd48ebca	-0.04905299
227	0x3ce95cf6	0.02848671
228	0xbb2e4674	-0.0026592286
229	0x3d1439a1	0.03618777
230	0xbce45d81	-0.027876617
231	0xbd60164b	-0.05470876
232	0xbd099a41	-0.033594374
233	0xbd63f3af	-0.055652317
234	0xbd04b72c	-0.03240125
235	0x3ca6a157	0.020340605
236	0xbcc61660	-0.024180591
237	0xbc96b9c0	-0.01839912
238	0xbd8e39ee	-0.06944643
239	0xbd0a02dc	-0.033694133
240	0xbc0e79fc	-0.0086960755
241	0x3d0e2b98	0.034709543
242	0xbcfd3fb8	-0.030914173
243	0x3d10caee	0.03534978
244	0x3d11e312	0.03561694
245	0x3c7bab8d	0.015360725
246	0x3cb4f88b	0.02209117
247	0x3cecdbff	0.028913496
248	0xbbb16ec4	-0.0054148156
249	0xbcd4b72b	-0.025966248
250	0x3d29424a	0.041322984
251	0xbbb6e225	-0.0055811577
252	0x3d40b2a6	0.047045372
253	0x3d1491e5	0.03627195
254	0xbc2cd738	-0.010549359
255	0x3ca09607	0.019602789

conv_layers.7.0.conv.bias f4 [16]
0	0x3d09f5fc	0.033681855
1	0x3b9a5952	0.004710355
2	0x3b7a0635	0.0038150672
3	0x3c1039dc	0.008802857
4	0x3d30662d	0.043066192
5	0x3cc2341f	0.023706494
6	0x3d4e1be8	0.050319582
7	0x3c11e854	0.008905489
8	0x3d916d6a	0.07100947
9	0xbd2a50ae	-0.04158085
10	0x3c798c6a	0.015231231
11	0x3c272a8c	0.010203015
12	0x3d25e8ef	0.040505346
13	0x3d04e96a	0.032449163
14	0x3cf90a59	0.030400442
15	0x3d197cb7	0.037472453

linear_layers.0.weight f4 [64, 400]
0	0xb9a4a8f1	-0.0003140639
1	0xbbc84ee8	-0.006112922
2	0xbc931638	-0.01795493
3	0x3c8f0d27	0.017462326
4	0xbd4cedae	-0.050031357
5	0x3cfa1d1b	0.030531457
6	0x3b1b06d8	0.0023655202
7	0x3b5435d4	0.0032380717
8	0xbca6dae9	-0.020368056
9	0xbd4b0aca	-0.049570836
10	0xbcc624e4	-0.024187513
11	0x3bcbaa1d	0.0062153474
12	0x3cfbd521	0.030741276
13	0xbc4488cf	-0.011995508
14	0x3c4fd3b9	0.012684756
15	0x3c356edc	0.011073794
16	0xbc375a1c	-0.011190917
17	0xbd1d33be	-0.038379423
18	0xbd5c13e2	-0.0537299
19	0xbcdfc702	-0.027316574
20	0xbcb0ecbf	-0.021597264
21	0xbc84ae9f	-0.016196547
22	0xbae2cb04	-0.0017302935
23	0xbd4577be	-0.0482099
24	0x3d4e8a86	0.050425075
25	0xbc385ab8	-0.011252098
26	0xbbf557bc	-0.0074872654
27	0x3c48bcae	0.012252016
28	0xbc4ab1ed	-0.012371522
29	0xbc336af4	-0.010950793
30	0xbc9ee1b0	-0.019394726
31	0xbac682c3	-0.0015145171
32	0x3bd92d4a	0.0066277133
33	0xbc74fb00	-0.014952421
34	0xbcd185d4	-0.02557651
35	0x3c31b75f	0.010846942
36	0x3aca2d40	0.0015424863
37	0xbc248a6f	-0.010042771
38	0xbb90d0df	-0.0044194306
39	0xbcce3421	-0.025171341
40	0x3c9e68fc	0.01933717
41	0x3af5a31b	0.0018740626
42	0xbc618287	-0.01376403
43	0xbcb5cc29	-0.022192078
44	0xbcd46aa7	-0.025929762
45	0x3c81e396	0.015855592
46	0x3bc16afe	0.005902647
47	0x3b14a2fb	0.0022680152
48	0xbb30eac3	-0.0026995398
49	0xbcafc8d3	-0.021458065
50	0xbc84da6f	-0.016217439
51	0x3b9b35ea	0.0047366517
52	0xbd1d2026	-0.038360737
53	0xbcf37556	-0.029719036
54	0x3c0820cf	0.008308603
55	0xbd437b73	-0.047725152
56	0xbbae34de	-0.005316361
57	0xbd4a8580	-0.04944372
58	0xbc951af5	-0.01820133
59	0xbbed10b1	-0.007234656
60	0xbd141d13	-0.03616054
61	0x38f38dc0	0.00011613546
62	0xbb71acfa	-0.0036876784
63	0x3b1171f8	0.0022193175
64	0x3cf28222	0.029603068
65	0xbd1ba55a	-0.03799949
66	0x3c715eb0	0.014732048
67	0xbca534f5	-0.020166853
68	0xbd240c56	-0.040050827
69	0x3c2b67f6	0.010461798
70	0xbd434d9b	-0.047681432
71	0x3d1a3508	0.03764823
72	0xbc9e830f	-0.019349603
73	0xbd1074ce	-0.035267644
74	0x3ce3c318	0.027802989
75	0xbca86057	-0.02055375
76	0x3d01fe2f	0.03173655
77	0xbc87dc5d	-0.01658457
78	0x3ca9408c	0.020660661
79	0x3c97c8e7	0.018528415
80	0xbd1b8bb7	-0.03797504
81	0x3ce8d0ce	0.028419878
82	0xbd0c2a38	-0.03421995
83	0xbccfe18b	-0.025376102
84	0x3d062b6d	0.032756258
85	0xbd94a8e1	-0.072587736
86	0xbc10c4ce	-0.008835984
87	0xbca78d2f	-0.020453064
88	0xbca50011	-0.020141633
89	0x3c288685	0.010285978
90	0xbdbf6222	-0.09344889
91	0x3d625092	0.05525262
92	0xbd1a0823	-0.037605416
93	0xbd3bae87	-0.04582074
94	0xbbbe72cd	-0.005812025
95	0xbd909f18	-0.07061595
96	0x3d3dc82b	0.046333473
97	0xbd6aa943	-0.057290327
98	0xbcf6e8bb	-0.030140271
99	0x3cc94169	0.024567323
100	0xba41e1ce	-0.0007396013
101	0x3b42dcc0	0.0029733628
102	0xbcb27234	-0.021782972
103	0xbd741b7f	-0.059596535
104	0x3c50981c	0.012731578
105	0xbd0e9646	-0.03481128
106	0xbb8d3f41	-0.004310519
107	0x3c009f95	0.007850547
108	0xbd00ed1b	-0.03147612
109	0xbb4d9dd6	-0.0031374595
110	0xbc0d205f	-0.008613675
111	0xbcc30d53	-0.023810064
112	0xbca54e6c	-0.020178996
113	0xbcc9af0e	-0.024619605
114	0x3c69ac44	0.014262263
115	0xbc9f5d8f	-0.019453792
116	0x3c20a493	0.009804863
117	0xbbfaa4e4	-0.007649051
118	0xbd09dfe5	-0.033660788
119	0x3c6ae37a	0.014336461
120	0x3d0b1ca7	0.033962872
121	0x3ba37923	0.004988806
122	0x3bc88623	0.006119506
123	0xbb8a2d18	-0.0042168014
124	0xbd3f8c49	-0.046764646
125	0x3d04538a	0.03230623
126	0x38e5cd88	0.00010957854
127	0x3bbbe051	0.0057335277
128	0x3ca2be49	0.019866126
129	0x3b151436	0.0022747642
130	0x3c8a4f14	0.01688341
131	0x3c14b170	0.0090755075
132	0x3c447c57	0.011992536
133	0x3d2dcf07	0.042433765
134	0x3b78f907	0.0037990229
135	0x3c415e43	0.011802259
136	0xbc3bfe61	-0.011474223
137	0x3c82f232	0.015984628
138	0x3d362521	0.044469003
139	0xbcdd611d	-0.027023846
140	0x3cd30b9a	0.025762368
141	0x3ca5bbf7	0.02023123
142	0x3cf5f878	0.030025706
143	0x3d474dfa	0.04865835
144	0xbc938c75	-0.018011311
145	0x3cddd2f9	0.027078139
146	0x3c47b6c4	0.012189571
147	0x3c97aa85	0.018513927
148	0x3d3acf00	0.045607567
149	0x3c028c15	0.0079679685
150	0x3d6f6df2	0.05845446
151	0x3d4743c7	0.048648622
152	0x3d21346f	0.039356645
153	0x3ced64e8	0.02897878
154	0xbce9d7e5	-0.02854533
155	0x3ac8b1fa	0.001531183
156	0x3c41a7cc	0.011819791
157	0xbc07d024	-0.008289371
158	0x3d16dc9a	0.036831476
159	0x3caeaa89	0.021321552
160	0x3b499730	0.003076028
161	0xbc5a9bb4	-0.013342787
162	0xbb9bf732	-0.0047596926
163	0x3da32428	0.07965881
164	0xbd0c0c96	-0.03419169
165	0x3c1d8a22	0.009615453
166	0xbcf05c59	-0.02934091
167	0x3cceffc4	0.025268443
168	0x3d87f52b	0.06638559
169	0xbd029ed7	-0.031889763
170	0xbcfb7168	-0.030693725
171	0x3d2e7eb0	0.042601287
172	0x3d02dc5a	0.031948425
173	0x3cd99167	0.026558591
174	0xbd2e36ab	-0.042532604
175	0x3d475469	0.048664484
176	0x3cf3c236	0.029755693
177	0xbaa20dbc	-0.0012363712
178	0x3bc1bea1	0.0059126173
179	0x3bb0ff35	0.005401517
180	0x3cc620f5	0.024185637
181	0xbb542aae	-0.0032374072
182	0x3c12b950	0.008955315
183	0x3c9471a8	0.018120602
184	0x3ae9b476	0.0017830271
185	0x3c2df0b5	0.010616471
186	0xbd15554b	-0.036458295
187	0x3c596da2	0.013270767
188	0x3cc35c01	0.023847582
189	0xbcd9292b	-0.026508888
190	0x3c639823	0.013891253
191	0xbcfa33a2	-0.030542199
192	0x3cdf443b	0.027254215
193	0x3d15f5b8	0.03661129
194	0xbc27443a	-0.010209138
195	0x3c5b0836	0.013368657
196	0xbcb15ced	-0.021650756
197	0x3c8da6b4	0.017291404
198	0x3ca91fbc	0.020645015
199	0xbc99c99e	-0.018772896
200	0x3c39b578	0.011334769
201	0xbc0d2549	-0.0086148465
202	0xbd0270a4	-0.031845704
203	0xbc32f41c	-0.010922458
204	0xbc1fb1c5	-0.009746973
205	0x3c569b1c	0.013098504
206	0x3ca475dc	0.020075731
207	0x3b77b33f	0.0037796048
208	0x3ca8e851	0.02061859
209	0x3c149ac3	0.009070101
210	0xbd36f255	-0.0446647
211	0x3c894128	0.016754702
212	0x3c84a412	0.016191516
213	0x3d16243c	0.03665565
214	0xbc035332	-0.008015441
215	0xbdb64500	-0.088998795
216	0x3cd2a6b2	0.025714252
217	0x3c6cc92e	0.014452262
218	0x3d2a1ec8	0.04153326
219	0x3c21bc59	0.009871566
220	0x3ba678ea	0.005080332
221	0x3cd20df6	0.025641423
222	0x3c80bd43	0.015715247
223	0xbc8d5a55	-0.017254988
224	0x3cb4350d	0.021997953
225	0xbcf05228	-0.02933605
226	0x3b51d07d	0.0032015138
227	0xbcc19074	-0.02362845
228	0x3b06d2d3	0.0020572438
229	0xbc2bad54	-0.010478336
230	0xbd961878	-0.07328886
231	0x3c700540	0.014649689
232	0xbcb3cb2e	-0.02194747
233	0xbc3f9bca	-0.011694858
234	0x3c9b5382	0.018960718
235	0xbdb8fb03	-0.09032252
236	0x3bd11b34	0.0063814167
237	0xbca7a4ed	-0.020464385
238	0x3c192d6f	0.009349211
239	0xbc41cd59	-0.011828744
240	0xbd3ca45c	-0.046055183
241	0x3b806ba8	0.0039190836
242	0xbd3fac3c	-0.046795115
243	0x3bfac776	0.007653172
244	0x3b4e7328	0.0031501744
245	0xbd120b96	-0.03565558
246	0x3cf3dbf4	0.029767968
247	0xbce1bee5	-0.027556846
248	0xbb7a7366	-0.0038215755
249	0xbbaa3997	-0.0051948535
250	0x3c8a648d	0.01689365
251	0xbbb0de19	-0.00539757
252	0xbba87e34	-0.0051419977
253	0x3c63fb29	0.013914862
254	0x3cd7c7da	0.026340414
255	0xbcbfa989	-0.02339627

linear_layers.0.bias f4 [64]
0	0xbb8d45fd	-0.004311322
1	0xbcf8b342	-0.030358914
2	0x3c9dd62f	0.01926717
3	0x3ca5b2a1	0.020226778
4	0x3d0894de	0.033345096
5	0x3d9cab71	0.07649887
6	0x3c8abfad	0.016937101
7	0x3aeb776f	0.0017964671
8	0x3d8ad9e1	0.06779838
9	0x3d77f457	0.060535755
10	0x3d84f16f	0.06491362
11	0x3da87430	0.08225286
12	0x3d27b914	0.04094799
13	0x3d767470	0.060169637
14	0x3c514074	0.0127717145
15	0x3c9c7de5	0.019103
16	0x3d1b4359	0.037906025
17	0x3d54466e	0.05182498
18	0xbc71d5ed	-0.014760477
19	0x3c22a289	0.009926447
20	0xbc4bd5f1	-0.012441144
21	0x3c97e208	0.018540397
22	0xbd48d81e	-0.04903423
23	0x3c3b4697	0.011430404
24	0x3cd55f3b	0.026046386
25	0x3c9a86fb	0.018863192
26	0xbc258cf1	-0.010104404
27	0xbb88e201	-0.0041773324
28	0x3c4a045f	0.012330144
29	0x3cf79c41	0.030225875
30	0xbc60d84e	-0.013723446
31	0x3cdc77f3	0.026912665
32	0x3dac1622	0.08402659
33	0xbd320fac	-0.043471977
34	0x3cb69af5	0.022290686
35	0xbcd5bbb9	-0.02609049
36	0x3d20ee75	0.03928991
37	0xbc2d10fa	-0.01056313
38	0x3c80e191	0.015732558
39	0xbc1a4204	-0.009415153
40	0x3d0d65e9	0.034521017
41	0x3dac68c9	0.08418424
42	0x3cb3f6df	0.021968303
43	0x3ca7cead	0.020484293
44	0x3c97e514	0.01854185
45	0xbaf80364	-0.0018921909
46	0x3d2d19dd	0.042260993
47	0xbc25601b	-0.010093714
48	0xbc8a5d1e	-0.016890105
49	0x3d2fdca4	0.04293503
50	0x3c18c69a	0.009324694
51	0x3d308dd6	0.043104015
52	0xbc9333ba	-0.017969001
53	0x3d166427	0.036716606
54	0xbc4b4c85	-0.01240838
55	0xba33ee7d	-0.00068638456
56	0x3d9157a0	0.07096791
57	0x3c0cb4e1	0.008588047
58	0x3d51a27c	0.051180348
59	0x3d265b92	0.040614672
60	0xbc89452c	-0.016756617
61	0x3ce9fb2f	0.028562156
62	0x3d845a31	0.06462515
63	0x3d550aa0	0.052012086
