models/model_1727100679658/model.pth (torch, 227178 bytes, 14 tensors)

conv_layers.0.0.conv.weight f4 [16, 10, 3, 3]
0.25235257 0.2574382 0.2589645 0.2656512 0.2733427 0.2587267 0.26120314 0.26253688
0.25079376 -0.00999914 0.0032659585 0.015463166 0.0034870282 0.018279128 -0.01234982 0.0029598214
0.013191692 0.0050967988 0.011330179 0.005248909 0.015053721 0.011314016 0.017606424 0.01961875
0.01056053 -0.0022100755 0.015314766 -0.002719145 0.010238824 -0.007441149 -0.0019684117 0.0039893445
-0.005920371 0.012350393 0.004996641 -0.003725496 0.0120072365 0.012989997 0.005971393 0.0010696629
-0.013737868 -0.01089686 -0.015261155 0.008648217 5.8329606e-05 0.25077492 0.2585228 0.236097
0.25674006 0.25615394 0.26330012 0.2563706 0.25660154 0.26195493 -0.00851877 -0.01895622
-0.01543655 -0.025786512 -0.025935607 -0.016219351 -0.04138959 -0.03422728 -0.025154827 -0.01957142
-0.047786582 -0.015511709 -0.03322052 -0.03174902 -0.007431052 -0.04080578 -0.035099957 -0.031240616
-0.00038602983 1.0177027e-06 -0.0056947893 -0.0012727007 -0.0047891177 -0.010726028 -0.007783072 -0.007487836
-0.006730956 -0.0037004566 -0.0023721189 -0.0012145315 -0.0049173436 0.0055402294 0.0013887995 0.009099224
0.0128719155 0.0037522558 0.2704914 0.25146797 0.24787445 0.2587851 0.24666435 0.27189207
0.25680172 0.2691473 0.2481847 0.010086464 0.01624254 0.014584159 0.013823288 0.0157558
0.01757566 0.011669291 0.00525106 0.018387303 0.008443507 0.004332845 0.008673162 0.0003555235
-0.0066288705 0.0034419636 0.0021916698 0.0017229756 0.0004635798 -0.021555768 -0.006944609 -0.014186579
-0.009263557 -0.008211801 -0.015663842 -0.01866267 -0.011027323 -0.01263963 0.0039113318 -0.00092825916
-0.0012728086 0.005157669 0.013723239 0.001738468 0.0024728486 0.004087878 -0.0015727702 0.24310644
0.24215752 0.2753394 0.25725204 0.27539632 0.24259444 0.26949918 0.26765853 0.26588276
-0.020222483 -0.016184608 -0.014874194 -0.020901652 -0.017961897 -0.018500483 -0.026732907 -0.015281047
-0.00065483194 -0.014901239 -0.020009896 -0.010387326 -0.025148993 -0.017300477 -0.01377846 -0.022922717
-0.017066153 -0.011430127 0.0046533626 0.004925418 -0.0030784868 0.0085337525 0.0062027187 7.0136157e-06
0.00023686921 0.0052308463 0.0016785744 0.000910294 -0.00066670263 -0.00090180704 -0.00296732 -0.0003955302
0.0026959733 0.011910811 0.0037843508 0.0073189354 0.25757703 0.25455734 0.25505802 0.24507958
0.23759077 0.26152456 0.24609926 0.24697874 0.25766563 0.00675409 0.016552534 0.03100505
0.019827148 -0.01174821 0.012186388 0.0048742113 0.019463463 0.009531075 0.008850599 0.0064728763
0.0035902797 0.00024546878 0.005828873 0.004459688 0.004191983 0.002151041 0.0036230749 0.006486091
-0.0010376221 -0.008092663 -0.0036039287 -0.0058619026 -0.007921761 -0.0014220004 -0.011358262 -0.0059739863
-0.020087272 -0.012172151 -0.0144470725 -0.012017877 -0.009480332 -0.011228741 -0.012051382 -0.009135781
-0.014860599 0.2604622 0.26084572 0.25704378 0.25842535 0.25983343 0.26716328 0.24854633
0.25815296 0.25526652 -0.046656307 -0.041271567 -0.022829318 -0.02511118 -0.045043588 -0.023850502
-0.05280283 -0.037809443 -0.048691146 -0.053996116 -0.048960965 -0.047825865 -0.057842016 -0.0521463
-0.049914096 -0.052452933 -0.018686518 -0.05044183 -8.130072e-05 -0.004416897 -0.005506883 0.010267554
00000000: 5b34 813e f1ce 833e ff96 843e 6f03 883e
00000010: 93f3 8b3e d377 843e 6bbc 853e 3c6b 863e
00000020: 0a68 803e 6fd3 23bc b109 563b 3859 7d3c
00000030: a086 643b 1cbe 953c e656 4abc 90f9 413b
00000040: f721 583c 0c03 a73b 37a2 393c 0aff ab3b
00000050: e2a3 763c 6c5e 393c 593b 903c 80b7 a03c
00000060: 1306 2d3c ead6 10bb c9ea 7a3c af33 32bb
00000070: bec0 273c e2d4 f3bb 7800 01bb 0cb9 823b
00000080: acff c1bb 4e59 4a3c ddba a33b 7327 74bb
00000090: 00ba 443c ffd3 543c adab c33b ee33 8c3a
000000a0: cb14 61bc be88 32bc ec09 7abc 40b1 0d3c
000000b0: f0a6 7438 9265 803e 1a5d 843e 69c3 713e
000000c0: 6f73 833e 9c26 833e 46cf 863e 0243 833e
000000d0: 4761 833e f51e 863e 5092 0bbc 134a 9bbc
000000e0: 95e9 7cbc 3c3e d3bc e976 d4bc 72de 84bc
000000f0: 2188 29bd e831 0cbd 7f11 cebc 3e54 a0bc
00000100: ddbb 43bd d324 7ebc 3d12 08bd 430b 02bd
00000110: 2f80 f3bb f623 27bd f9c4 0fbd 52ec ffbc
00000120: 0c64 cab9 0098 8835 5b9b babb c0d0 a6ba
00000130: 08ee 9cbb 39bc 2fbc 2409 ffbb 855c f5bb
00000140: 5a8f dcbb 5c83 72bb 8d75 1bbb ea30 9fba
00000150: ab21 a1bb d08a b53b 6108 b63a e914 153c
00000160: bae4 523c 68e8 753b d97d 8a3e 69c0 803e
00000170: cdd2 7d3e 7b7f 843e 9495 7c3e 7035 8b3e
00000180: 847b 833e adcd 893e 2124 7e3e b241 253c
00000190: 130f 853c 65f2 6e3c 127b 623c 4f12 813c
000001a0: d5fa 8f3c 8e30 3f3c 1511 ac3b f8a0 963c
000001b0: a356 0a3c 8afa 8d3b e119 0e3c 8e65 ba39
000001c0: ff36 d9bb 9192 613b 1ea2 0f3b 78d5 e13a
000001d0: a10c f339 b995 b0bc 9a8f e3bb d36e 68bc
000001e0: 2dc6 17bc ca8a 06bc 7551 80bc 75e2 98bc
000001f0: f2ab 34bc 7316 4fbc a12a 803b 6b56 73ba
00000200: 5fd4 a6ba aa01 a93b 70d7 603c 4edd e33a
00000210: 840f 223b 9bf3 853b 6925 ceba e5f0 783e
00000220: 24f8 773e 49f9 8c3e 8ab6 833e bf00 8d3e
00000230: ad6a 783e ccfb 893e 8a0a 893e c921 883e
00000240: 9fa9 a5bc 9595 84bc e4b2 73bc f139 abbc
00000250: d424 93bc 538e 97bc f8fe dabc 5b5d 7abc
00000260: 07a9 2bba 5424 74bc cbeb a3bc 9a2f 2abc
00000270: 4305 cebc bbb9 8dbc 0dbf 61bc 6cc8 bbbc
00000280: 51ce 8bbc 6d45 3bbc 3c7b 983b 6765 a13b
00000290: 70c0 49bb 27d1 0b3c 2d40 cb3b 8056 eb36
000002a0: 1860 7839 8567 ab3b 9c03 dc3a cca0 6e3a
000002b0: a8c5 2eba 3f67 6cba 5e77 42bb 2a5f cfb9
000002c0: edae 303b 9025 433c df02 783b aed3 ef3b
000002d0: 23e1 833e 5755 823e f796 823e 24f6 7a3e
000002e0: ff4a 733e 8ce6 853e 7201 7c3e ffe7 7c3e
000002f0: c0ec 833e 6a51 dd3b 2e99 873c 4dfe fd3c
00000300: 8b6c a23c 907b 40bc 6aa9 473c d9b7 9f3b
00000310: d771 9f3c 3a28 1c3c 1a02 113c 6c1a d43b
00000320: e64a 6b3b 43b2 8039 2100 bf3b 9322 923b
00000330: e75c 893b 7bf8 0c3b 1c71 6d3b 4689 d43b
00000340: d200 88ba 1797 04bc e42f 6cbb 3415 c0bb
00000350: 46ca 01bc 6a62 baba 0118 3abc 6ec1 c3bb
00000360: 108e a4bc b46d 47bc 6ab3 6cbc a1e6 44bc
00000370: 6553 1bbc c1f8 37bc 2973 45bc 3eae 15bc
00000380: df79 73bc 4d5b 853e 928d 853e 3e9b 833e
00000390: 5450 843e e308 853e a0c9 883e ee82 7e3e
000003a0: a02c 843e 4bb2 823e af1a 3fbd 600c 29bd
000003b0: 8d04 bbbc f6b5 cdbc a07f 38bd 2162 c3bc
000003c0: c847 58bd 13de 1abd 5e70 47bd 082b 5dbd
000003d0: 4b8b 48bd 0ee5 43bd c0eb 6cbd 5c97 55bd
000003e0: b972 4cbd e3d8 56bd 7814 99bc 189c 4ebd
000003f0: fe7f aab8 9ebb 90bb 1573 b4bb 3e39 283c

conv_layers.0.0.conv.bias f4 [16]
-0.02595398 -0.06692345 -0.015498774 -0.040562887 -0.03141283 0.030991148 -0.07527283 -0.004260404
0.015134525 -0.04064713 -0.04178653 -0.04818403 0.050040375 0.027423637 -0.042891033 0.009558792
00000000: 719d d4bc 290f 89bd 92ee 7dbc 4525 26bd
00000010: bdaa 00bd 26e1 fd3c a428 9abd dc9a 8bbb
00000020: ccf6 773c 9b7d 26bd 5a28 2bbd 9e5c 45bd
00000030: 23f7 4c3d 89a7 e03c 82ae 2fbd 7b9c 1c3c

conv_layers.2.0.conv.weight f4 [32, 16, 3, 3]
0.024695339 0.058168527 0.036510937 0.032542247 0.0265977 0.048362736 0.040509332 0.058674134
0.030681105 0.05786374 0.059885535 0.052968852 0.0551687 0.06010942 0.049078237 0.06333504
0.066200495 0.04977456 0.0029246383 0.0022263895 0.016891295 0.052781455 -0.007649299 0.021808015
0.038929366 0.030037152 0.028143585 0.07617341 0.09258306 0.09272142 0.09222367 0.0967077
0.0857372 0.08499016 0.10271503 0.089062996 0.11412269 0.12332831 0.111348875 0.112163045
0.12747802 0.11935762 0.10385803 0.11675417 0.10970039 0.046852723 0.06623324 0.002572505
0.061985657 0.04372855 0.059117287 -0.014382624 0.059738975 0.06208692 0.049544945 0.05095779
0.04469488 0.055889215 0.05295431 0.051315747 0.058168508 0.061590273 0.050103206 0.009937099
0.01737935 -0.057834398 -0.035774402 0.008074301 -0.042420965 -0.056518197 -0.020242093 -0.01906511
0.012816179 0.007854092 0.008520274 0.023270115 0.001843786 0.009992617 0.025285402 0.007060625
0.028253779 0.08111247 0.05900929 0.06749804 0.07272581 0.06782682 0.09093833 0.07972899
0.077924356 0.07429119 0.04594675 0.0488943 0.026501436 0.04032834 0.053268123 0.042929724
0.039739884 0.05925187 0.047750693 0.093194745 0.108238675 0.09872583 0.09801034 0.1059075
0.09947364 0.104284085 0.10187177 0.09212478 -0.027155666 -0.020530328 0.0100540025 0.008947267
-0.0043148687 -0.02178568 -0.01330122 0.045035593 -0.03763449 0.037650462 0.03397403 0.023178576
0.025107993 0.018447185 0.045530878 0.051165093 0.01337781 0.009258687 0.070120186 0.082951784
0.07111826 0.07180003 0.08062311 0.078380406 0.07095236 0.07749136 0.07951253 0.03625285
-0.04324153 0.0151568325 0.02463888 -0.0006522507 0.013160737 0.03651693 0.0032930796 -0.013206352
-0.016804213 -0.008419026 -0.021101153 -0.023768215 -0.011688159 -0.015011056 -0.03802603 -0.02583816
-0.027089337 -0.03407666 -0.029899735 -0.030589478 -0.027768033 -0.034735754 -0.034871574 -0.034667432
-0.03190648 -0.032026537 -0.03588904 -0.049558256 -0.053304292 -0.056456935 -0.054836366 -0.03239149
-0.032370444 -0.05098379 -0.042346664 -0.01947388 -0.02702063 -0.024743106 -0.020364605 -0.027171683
-0.0317032 -0.019616924 -0.027895087 -0.022902692 -0.034716487 -0.049187254 -0.051611014 -0.03890583
-0.047920603 -0.051383555 -0.029100059 -0.038774177 -0.03778054 0.0028264674 -0.05641593 -0.0418137
-0.017869364 -0.0049969773 1.2264121e-05 -0.04292243 -0.03903972 -0.009349124 -0.04190441 -0.03194466
-0.026953258 -0.036368124 -0.04247998 -0.041554213 -0.026366383 -0.03307321 -0.03973196 -0.0130658
-0.03585874 -0.0206416 -0.02883561 0.024754964 -0.011934646 0.014301382 -0.03597728 -0.04303705
-0.03432035 -0.017339855 -0.02384393 -0.026165817 -0.037662238 -0.03277918 -0.022379799 -0.034301568
-0.037294928 -0.018670954 -0.009995203 -0.016131528 -0.0007868501 -0.019533684 -0.014525627 -0.0071542556
-0.023175497 -0.015706928 -0.026400369 -0.028736528 -0.021834126 -0.022560645 -0.025829162 -0.025423761
-0.023753503 -0.02737066 -0.025848815 -0.013524123 -0.01726073 -0.01989201 -0.014941991 -0.018310172
-0.019443082 -0.012864953 -0.0150696775 -0.015556172 0.01517935 -0.0069654323 -0.024280451 -0.03855526
00000000: e14d ca3c 1f42 6e3d 7e8c 153d 054b 053d
00000010: 6be3 d93c 0118 463d 1ded 253d 4a54 703d
00000020: f156 fb3c 8702 6d3d 894a 753d def5 583d
00000030: 93f8 613d 4c35 763d 4306 493d cdb5 813d
00000040: 2094 873d 69e0 4b3d 4aab 3f3b 9ee8 113b
00000050: 9d5f 8a3c 5e31 583d f9a6 fabb b9a6 b23c
00000060: 6674 1f3d 7910 f63c 608d e63c ce00 9c3d
00000070: 309c bd3d bae4 bd3d c3df bc3d b00e c63d
00000080: fc96 af3d 520f ae3d 425c d23d a966 b63d
00000090: 28b9 e93d 8e93 fc3d e10a e43d bdb5 e53d
000000a0: 9989 023e c571 f43d 85b3 d43d cf1c ef3d
000000b0: 99aa e03d a4e8 3f3d 4ba5 873d 7997 283b
000000c0: ace4 7d3d b51c 333d f824 723d 19a5 6bbc
000000d0: dbb0 743d db4e 7e3d a4ef 4a3d 1eb9 503d
000000e0: fa11 373d 17ec 643d 9ee6 583d 7630 523d
000000f0: 1a42 6e3d 1546 7c3d 0539 4d3d 37cf 223c
00000100: 235f 8e3c c3e3 6cbd 2e88 12bd 134a 043c
00000110: 9bc1 2dbd a07f 67bd bfd2 a5bc 6f2e 9cbc
00000120: f3fa 513c 73ae 003c 9f98 0b3c f8a0 be3c
00000130: 31ab f13a 13b8 233c 5523 cf3c d15c e73b
00000140: 7874 e73c 4b1e a63d bab3 713d 6a3c 8a3d
00000150: 45f1 943d cae8 8a3d e03d ba3d f448 a33d
00000160: ce96 9f3d fb25 983d a932 3c3d 6445 483d
00000170: 8a19 d93c 542f 253d ad2f 5a3d 14d7 2f3d
00000180: 4ac6 223d 17b2 723d 3b96 433d e3dc be3d
00000190: 3dac dd3d c530 ca3d a5b9 c83d 08e6 d83d
000001a0: d6b8 cb3d e592 d53d 26a2 d03d ebab bc3d
000001b0: 8f75 debc 382f a8bc 8bb9 243c 8f97 123c
000001c0: be63 8dbb e277 b2bc 5ced 59bc 3e77 383d
000001d0: 9f26 1abd 5f37 1a3d 5a28 0b3d ffe0 bd3c
000001e0: 47af cd3c 8d1e 973c 967e 3a3d 7d92 513d
000001f0: 9a2e 5b3c bfb1 173c 2c9b 8f3d a0e2 a93d
00000200: 73a6 913d e50b 933d bb1d a53d e885 a03d
00000210: 794f 913d cab3 9e3d 77d7 a23d de7d 143d
00000220: 081e 31bd 5d54 783c 7ad7 c93c cefb 2aba
00000230: 22a0 573c c792 153d b5d0 573b 745f 58bc
00000240: fda8 89bc f4ef 09bc 53dc acbc 8fb5 c2bc
00000250: b17f 3fbc eff0 75bc 2fc1 1bbd 8daa d3bc
00000260: 75ea ddbc f893 0bbd 4af0 f4bc c996 fabc
00000270: c979 e3bc 1447 0ebd 7fd5 0ebd 70ff 0dbd
00000280: 5fb0 02bd 422e 03bd 6300 13bd 99fd 4abd
00000290: 9a55 5abd 633f 67bd 199c 60bd f0ac 04bd
000002a0: df96 04bd 61d4 50bd b273 2dbd b087 9fbc
000002b0: 5e5a ddbc 0eb2 cabc acd3 a6bc 2697 debc
000002c0: 37db 01bd acb3 a0bc 3d84 e4bc 6d9e bbbc
000002d0: e032 0ebd 9378 49bd 1266 53bd b85b 1fbd
000002e0: 6548 44bd 9077 52bd 3f63 eebc acd1 1ebd
000002f0: c4bf 1abd 413c 393b 6414 67bd d844 2bbd
00000300: c662 92bc afbd a3bb 00c2 4d37 6ecf 2fbd
00000310: 1de8 1fbd 112d 19bc f5a3 2bbd 67d8 02bd
00000320: 14cd dcbc bef6 14bd 7dff 2dbd c034 2abd
00000330: 50fe d7bc c677 07bd fbbd 22bd f011 56bc
00000340: 9de0 12bd 9318 a9bc a838 ecbc ecca ca3c
00000350: 8989 43bc 5850 6a3c ea5c 13bd 9e47 30bd
00000360: 7f93 0cbd 500c 8ebc 5854 c3bc b259 d6bc
00000370: b843 1abd 7643 06bd d755 b7bc cd7f 0cbd
00000380: 91c2 18bd d4f3 98bc ecc2 23bc 4426 84bc
00000390: 9e44 4eba 1b05 a0bc e5fc 6dbc 3f6e eabb
000003a0: 8ada bdbc d1ab 80bc 9645 d8bc de68 ebbc
000003b0: 7bdd b2bc 1ad1 b8bc ae97 d3bc 7e45 d0bc
000003c0: b596 c2bc 6f38 e0bc e5c0 d3bc 4894 5dbc
000003d0: 6066 8dbc 92f4 a2bc 41cf 74bc 37ff 95bc
000003e0: 1947 9fbc 86c7 52bc cfe6 76bc 50df 7ebc
000003f0: cfb2 783c 483e e4bb cce7 c6bc 1fec 1dbd

conv_layers.2.0.conv.bias f4 [32]
-0.042967495 -0.020797143 0.013211558 0.025246283 0.051338714 -0.009430169 -0.024385259 -0.013143791
0.046746567 -0.009397494 0.051746387 0.027144039 0.017541163 -0.0017588577 -0.029606327 -0.029300211
0.01200997 -0.04234269 0.058800384 0.031000772 0.006941953 -0.047974497 -0.012822004 -0.034423184
-0.022932911 -0.03736436 -0.030029317 -0.0037659232 -0.010324066 0.050360832 -0.050690204 -0.019594708
00000000: affe 2fbd c55e aabc 4a75 583c 4bd1 ce3c
00000010: 8b48 523d ff80 1abc 98c3 c7bc 0e59 57bc
00000020: 5479 3f3d f2f7 19bc 05f4 533d 2d5d de3c
00000030: 7cb2 8f3c 7989 e6ba f888 f2bc ff06 f0bc
00000040: 77c5 443c 876f 2dbd acd8 703d 55f5 fd3c
00000050: 5379 e33b e880 44bd 6213 52bc 53ff 0cbd
00000060: cddd bbbc 5f0b 19bd 0b00 f6bc b5cd 76bb
00000070: 4526 29bc 2947 4e3d 88a0 4fbd 1585 a0bc

conv_layers.4.0.conv.weight f4 [32, 32, 3, 3]
-0.02159824 -0.022365412 -0.023537496 -0.0151575385 -0.022531597 -0.017854251 -0.016865859 -0.021596858
-0.020828817 -0.01904279 -0.012408906 -0.007645929 -0.021940682 -0.013764999 -0.009561992 -0.022884829
-0.016832894 -0.008894133 0.00046301022 0.0031778938 0.0038310436 0.0002676074 0.0022211499 0.002127691
-0.00037455087 0.0021673504 0.0029389074 0.0043736827 -0.01074358 0.0036428634 0.014070677 0.004895293
-0.02546072 0.0019220047 -0.0023751997 0.011402072 0.0030041444 0.0053441236 0.009425605 -0.00084982545
0.013651047 -0.0020514366 -0.008631865 -0.001356912 -0.0058030942 -0.008044485 -0.013665153 -0.016158579
-0.0026198179 -0.012089627 -0.013685677 -0.0053816773 -0.014621357 -0.020171888 0.0033869196 0.0045320946
0.0017229153 0.0032935315 0.0036569992 0.0028607359 0.0019769568 0.002860861 0.0023708038 -0.0035059915
-0.00910619 -0.009482383 -0.0043194736 -0.007876089 -0.0040518637 -0.00015817437 0.0030118804 0.00023912691
0.011615312 -0.010575723 0.019969333 0.026481852 0.011882232 0.009893303 0.0020332057 0.02833999
-0.0026812016 -0.012453026 -0.0093543185 -0.008977936 -0.016374733 -0.011950272 -0.010899861 -0.019016212
-0.014217021 -0.010649608 -0.014586394 0.0014419929 -0.014639179 -0.018170556 0.0028543386 0.010757472
-0.011217624 -0.013460916 0.015857372 0.0007457627 0.00080432283 -0.0026994937 -0.002776907 0.00086754275
0.0011798425 0.00090339116 0.0005188303 0.0018179454 -0.015735524 -0.0051181503 -0.0072920998 -0.027109914
-0.0014077709 0.01257598 -0.016474731 0.0043060957 0.005613229 -0.0072508384 -0.006114361 -0.004924946
0.0024694803 -0.009331115 -0.010163153 -0.0051179794 -0.0072781355 -0.007708123 -0.009433382 -0.012434579
-0.01190159 -0.006751805 -0.01200773 -0.010587861 -0.009996288 -0.016012153 -0.017201975 -0.033975556
-0.03906933 -0.035525568 -0.029259603 -0.033500213 -0.03262293 -0.028743071 -0.03086741 -0.033770885
-0.011234709 -0.0069491593 -0.0074523934 -0.014098633 -0.009301168 -0.008016228 -0.017445726 -0.01384604
-0.00972495 -0.0033913287 -0.0033333267 -0.007153288 -0.0050903317 -0.0061252336 -0.008752403 -0.004626841
-0.0070807887 -0.008118449 0.0078037293 0.0058678016 0.0051280623 0.015439412 0.0072308304 0.005965672
0.00031382882 0.0063682413 0.017331682 0.0017115488 0.021079483 0.006115139 0.010392946 -0.00916663
0.031928044 0.0092882365 0.00389149 0.006807529 0.0010933983 0.004604578 0.0042763907 -0.0027727154
0.0021115711 0.0027268983 -0.0052723237 -0.0022319672 -8.0953716e-05 -0.018764256 -0.02188214 -0.018737905
-0.010572372 -0.017054042 -0.0143665625 -0.012549123 -0.017100077 -0.019453408 -0.009568146 -0.012637657
-0.011735942 -0.010464881 -0.012943232 -0.011231844 -0.014301701 -0.014228491 -0.012112626 -0.009271503
-0.012498946 -0.012439924 0.0005173862 -0.007976246 -0.007010354 0.0006794807 -0.004680055 -0.012110142
-0.022154126 -0.025904078 -0.022466829 -0.019718299 -0.024361094 -0.020642355 -0.022285217 -0.026383514
-0.024898613 0.0006920353 0.004069015 -0.0033340857 -0.0016903274 -0.004416392 -0.00024786513 0.0015071983
-0.009520834 -0.008115135 -0.009333107 -0.012927066 -0.013070662 -0.002008133 -0.010165681 -0.010471667
-0.002416318 -0.007442776 -0.01023342 -0.035507914 -0.029609852 -0.01809953 -0.041382156 -0.01993461
-0.017152205 -0.039731853 -0.020588081 -0.009779789 -0.040111974 -0.045042973 -0.04108619 -0.03424314
00000000: cbee b0bc ab37 b7bc b5d1 c0bc 5357 78bc
00000010: 2f94 b8bc 1443 92bc 452a 8abc e5eb b0bc
00000020: 32a1 aabc a0ff 9bbc b94e 4bbc b48a fabb
00000030: f2bc b3bc 9786 61bc e7a9 1cbc f778 bbbc
00000040: 23e5 89bc b3b8 11bc 2ec0 f239 3644 503b
00000050: 3f12 7b3b a84d 8c39 b690 113b bb70 0b3b
00000060: 5e5f c4b9 1b0a 0e3b af9a 403b 1c51 8f3b
00000070: d705 30bc 1bbd 6e3b b288 663c b268 a03b
00000080: 0093 d0bc c7eb fb3a 3da9 1bbb c2cf 3a3c
00000090: 2ee1 443b c21d af3b da6d 1a3c d2c6 5eba
000000a0: a4a8 5f3c 6571 06bb aa6c 0dbc 69da b1ba
000000b0: e227 bebb 04cd 03bc cee3 5fbc ff5e 84bc
000000c0: 40b1 2bbb 9213 46bc e439 60bc c858 b0bb
000000d0: 6b8e 6fbc 843f a5bc 15f7 5d3b f781 943b
000000e0: 72d3 e13a 4ad8 573b 44aa 6f3b 2f7b 3b3b
000000f0: d58f 013b 487d 3b3b 7d5f 1b3b c7c4 65bb
00000100: 2132 15bc ff5b 1bbc 5f8a 8dbb b60a 01bc
00000110: 7fc5 84bb 9cdb 25b9 f862 453b 24be 7a39
00000120: 264e 3e3c cc45 2dbc ba96 a33c 78f0 d83c
00000130: b1ad 423c 8517 223c 883f 053b 4429 e83c
00000140: 19b7 2fbb c707 4cbc db42 19bc 3118 13bc
00000150: 4e24 86bc 13cb 43bc 5595 32bc e3c7 9bbc
00000160: 82ee 68bc b27b 2ebc c5fb 6ebc 4101 bd3a
00000170: 2bd9 6fbc 6bda 94bc db0f 3b3b 1c40 303c
00000180: 20ca 37bc 2c8b 5cbc 52e7 813c 4a7f 433a
00000190: 31d9 523a fde9 30bb c5fc 35bb cf6b 633a
000001a0: f2a4 9a3a 8ed1 6c3a 1d02 083a 2048 ee3a
000001b0: c9e7 80bc 28b6 a7bb 91f2 eebb 9c15 debc
000001c0: f484 b8ba 7c0b 4e3c 04f6 86bc 261a 8d3b
000001d0: 2def b73b 7198 edbb fa5a c8bb 7161 a1bb
000001e0: 01d7 213b 88e1 18bc 5a83 26bc b9b4 a7bb
000001f0: 6d7d eebb 6c94 fcbb 798e 1abc 68ba 4bbc
00000200: e3fe 42bc 3f3e ddbb 12bc 44bc b578 2dbc
00000210: 79c7 23bc eb2b 83bc 28eb 8cbc f429 0bbd
00000220: 2907 20bd 4283 11bd d6b1 efbc 8537 09bd
00000230: 9f9f 05bd 9776 ebbc a7dd fcbc 5753 0abd
00000240: c911 38bc c6b5 e3bb 3533 f4bb f4fd 66bc
00000250: ed63 18bc 7f56 03bc 57ea 8ebc 80da 62bc
00000260: 6655 1fbc 0e41 5ebb f173 5abb 2166 eabb
00000270: cccc a6bb 2fb6 c8bb 3d66 0fbc c19c 97bb
00000280: f605 e8bb 3e03 05bc 6db6 ff3b b046 c03b
00000290: 4e09 a83b 96f5 7c3c 9af0 ec3b af7b c33b
000002a0: 6489 a439 aeac d03b 2cfb 8d3c 0c56 e03a
000002b0: e1ae ac3c 8161 c83b 2d47 2a3c a22f 16bc
000002c0: fbc6 023d b02d 183c 5e08 7f3b b111 df3b
000002d0: 5c50 8f3a 00e2 963b f720 8c3b 72b6 35bb
000002e0: 4962 0a3b c3b5 323b 75c3 acbb 3246 12bb
000002f0: b2c5 a9b8 7fb7 99bc 2c42 b3bc 3c80 99bc
00000300: be37 2dbc ebb4 8bbc bb61 6bbc d69a 4dbc
00000310: 7615 8cbc c15c 9fbc b7c3 1cbc 2d0e 4fbc
00000320: 1c48 40bc e474 2bbc da0f 54bc c505 38bc
00000330: af51 6abc 9e1e 69bc 0974 46bc 81e7 17bc
00000340: 61c8 4cbc d3d0 4bbc 33a1 073a cdae 02bc
00000350: 1db7 e5bb 2e1f 323a 265b 99bb 9e69 46bc
00000360: 927c b5bc ca34 d4bc 5b0c b8bc 4588 a1bc
00000370: eb90 c7bc 281a a9bc 7d8f b6bc 3d22 d8bc
00000380: 2df8 cbbc b469 353a 5f55 853b ad80 5abb
00000390: fa8d ddba 62b7 90bb e5f3 81b9 2f8d c53a
000003a0: 46fd 1bbc 58f5 04bc e3e9 18bc 0bcc 53bc
000003b0: 5426 56bc e29a 03bb f58d 26bc 5b91 2bbc
000003c0: 175b 1ebb 88e2 f3bb 13aa 27bc bf70 11bd
000003d0: 5c90 f2bc 7745 94bc 5680 29bd e84d a3bc
000003e0: c882 8cbc debd 22bd 56a8 a8bc 683b 20bc
000003f0: 744c 24bd fb7e 38bd fe49 28bd 8942 0cbd

conv_layers.4.0.conv.bias f4 [32]
-0.028848032 -0.06770161 -0.04468143 0.02719539 -0.014782234 -0.054438256 -0.014825262 2.575593e-05
-0.006075138 0.044240247 0.034612086 -0.021222502 0.064598896 0.012970779 0.00936188 0.016368566
0.033034988 0.03281809 0.038010232 -0.012638326 0.033901125 0.019415565 -0.015896022 -0.0666011
-0.014817395 -0.056871857 -0.009888818 0.05778548 0.038195968 0.007896614 -0.069777705 0.02260406
00000000: b552 ecbc 24a7 8abd e003 37bd dec8 de3c
00000010: 2f31 72bc a6fa 5ebd a8e5 72bc 700e d837
00000020: f411 c7bb 4335 353d 67c5 0d3d d0da adbc
00000030: 6d4c 843d 6483 543c 9262 193c 5f17 863c
00000040: b24f 073d 436c 063d 9eb0 1b3d fb10 4fbc
00000050: e8db 0a3d 640d 9f3c 6038 82bc 2866 88bd
00000060: a9c4 72bc 77f2 68bd b504 22bc 78b0 6c3d
00000070: 6073 1c3d cd60 013c 9de7 8ebd 262c b93c

conv_layers.5.0.conv.weight f4 [32, 32, 3, 3]
-0.016462633 0.010366448 0.008304865 0.0038153348 -0.013197225 0.020587236 -0.0017162608 0.006242219
-0.010828725 0.037745252 0.01573758 0.009233672 0.037874088 -0.005681673 0.028317621 0.049173966
0.026554175 -0.00028595567 0.025685947 0.0046648774 0.013451821 0.0268446 0.0021043324 -0.0016517875
0.017236564 0.014254968 0.011464799 0.02297778 0.00736266 0.03923394 0.017950788 -0.01588711
-0.028466271 0.030555442 0.02083264 0.030939983 0.015184287 -0.013014223 -0.017278442 -0.0065053273
0.020951504 0.012162098 0.010067117 0.011855956 0.008494412 0.027362144 0.021540426 0.038434867
0.02710631 0.03417831 0.0131389545 0.02727734 0.00022626469 0.037063465 0.036439948 0.0215249
-0.023780707 0.0025539717 -0.023703655 0.022225201 -0.0052073696 0.00046656755 0.003323801 -0.0034307535
-0.026430825 -0.03146849 -7.9754216e-05 -0.024858745 -0.0049408455 -0.043086536 -0.018210089 -0.03211862
0.029827768 0.04314434 0.029492138 0.031140985 0.00056699384 0.03346675 0.04010843 0.020315267
0.01966762 0.010834333 -0.029098324 -0.039126378 0.012902311 -0.02842249 -0.009057475 0.02291145
-0.018414538 -0.039857972 0.041979183 0.044236958 0.035871107 0.048000854 0.029395962 0.029846003
0.046033725 0.02537737 0.01584099 0.072177745 0.042761248 0.036381003 0.04605518 0.057443254
0.02907383 0.06799946 0.06057344 0.069816194 -0.06195097 -0.01508607 0.007192653 -0.004842653
-0.007081334 -0.05848027 -0.058015965 -0.046995595 0.0058119595 0.019016868 0.05104357 0.02154948
0.024320371 0.017225262 0.04268597 0.033817068 0.026958406 0.0014264798 -0.021577055 -0.04309034
-0.03447588 -0.033219766 -0.030600075 -0.025051147 -0.02289063 -0.020540731 -0.017935803 -0.0033821934
0.046889592 0.035836097 0.016260508 0.03729964 0.01653805 0.02570622 0.0032064028 0.01566078
0.020982966 0.017948793 0.021204425 -0.003011151 0.026527273 -0.017324919 0.00075592037 -0.0005880613
-0.024387004 -0.03869057 -0.008327651 -0.04813858 -0.0016102607 -0.01973045 -0.023955477 0.010053173
-0.015227427 0.0012079736 0.025646824 -0.025395913 0.047849648 -0.025004048 0.043994803 0.038996093
-0.036596667 0.0019870908 0.011060714 0.0064234813 0.0066665206 0.028013261 0.007876957 -0.00029256183
0.041336305 0.025772288 0.016505718 0.029342197 0.042390995 0.06175276 0.04739507 0.0148606505
0.00033438468 0.038465254 0.037797883 0.03640693 -0.046780195 0.013694721 -0.0036632628 -0.004445496
0.009419509 -0.013850137 -0.027183706 0.03991815 -0.0027671694 -0.0054071066 0.022425689 0.00030556845
0.02012385 0.015196826 -0.016375046 -0.0033547878 0.011580288 0.018874723 -0.0019527691 0.02239555
0.042107612 0.04599973 0.0111564575 0.040399063 0.039208487 0.045888487 0.060301155 0.056170806
-0.022636335 -0.024703998 -0.017745929 -0.0021622842 -0.02382627 -0.007535299 -0.006507789 -0.031536385
0.003821144 0.021370944 0.030552987 0.03798264 0.044381518 0.0037010293 0.012400841 0.02439813
0.043428816 0.045241743 0.0038999072 -0.03737856 -0.030742358 0.018872673 -0.032163016 0.03035426
-0.011043966 0.007274469 -0.022575429 -0.017253408 -0.06270416 -0.045796283 -0.04040004 -0.030072428
-0.03741038 -0.04538907 -0.04519672 -0.039606784 0.033003297 -0.024556268 -0.011521098 -0.0056015886
00000000: a5dc 86bc 09d8 293c 2111 083c b20a 7a3b
00000010: 2c39 58bc 90a6 a83c 28f4 e0ba 878b cc3b
00000020: f76a 31bc c49a 1a3d 19ec 803c d448 173c
00000030: dc21 1b3d 542d babb 5bfa e73c a46a 493d
00000040: 2488 d93c 52ec 95b9 566b d23c d4db 983b
00000050: 0765 5c3c 35e9 db3c d7e8 093b cb80 d8ba
00000060: b233 8d3c ab8d 693c dad6 3b3c e63b bc3c
00000070: 7842 f13b c5b3 203d 880d 933c af25 82bc
00000080: 1932 e9bc 684f fa3c 36a9 aa3c d975 fd3c
00000090: 84c7 783c 9c39 55bc 858b 8dbc a42a d5bb
000000a0: 7da2 ab3c 8943 473c 8df0 243c 7c3f 423c
000000b0: 252c 0b3c 9326 e03c 8c75 b03c e16d 1d3d
000000c0: 0d0e de3c 8efe 0b3d c544 573c ba74 df3c
000000d0: 7741 6d39 dccf 173d 0e42 153d fd54 b03c
000000e0: c2cf c2bc 8960 273b 2b2e c2bc a011 b63c
000000f0: 95a2 aabb a39d f439 21d4 593b 7ed6 60bb
00000100: 7585 d8bc 1ae5 00bd b841 a7b8 91a4 cbbc
00000110: d1e6 a1bb 827b 30bd 532d 95bc d08e 03bd
00000120: 5d59 f43c 1fb8 303d 7f99 f13c 611b ff3c
00000130: 50a2 143a 6e14 093d bd48 243d 346c a63c
00000140: fd1d a13c 7c82 313c 9c5f eebc fb42 20bd
00000150: 3764 533c 48d6 e8bc ce65 14bc cbb0 bb3c
00000160: 16da 96bc 1d42 23bd 5df2 2b3d d031 353d
00000170: 95ed 123d 8b9c 443d cdcf f03c 9b7f f43c
00000180: dc8d 3c3d 34e4 cf3c f7c4 813c edd1 933d
00000190: 6b26 2f3d 3f04 153d 5ba4 3c3d 9e49 6b3d
000001a0: 3e2c ee3c 4d43 8b3d db1b 783d cbfb 8e3d
000001b0: 4dc0 7dbd 902b 77bc 59b0 eb3b 1eaf 9ebb
000001c0: 890a e8bb 0289 6fbd 26a2 6dbd 747e 40bd
000001d0: 4072 be3b 43c9 9b3c 1013 513d 8988 b03c
000001e0: 843b c73c fe1b 8d3c 7cd7 2e3d c483 0a3d
000001f0: e0d7 dc3c b8f8 ba3a 5dc2 b0bc 7f7f 30bd
00000200: 9536 0dbd 7311 08bd 02ad fabc 1038 cdbc
00000210: 2185 bbbc 0945 a8bc 1bee 92bc caa7 5dbb
00000220: 4d0f 403d dfc8 123d c234 853c 82c7 183d
00000230: ce7a 873c da95 d23c 8322 523b 094b 803c
00000240: 78e4 ab3c 5909 933c e7b4 ad3c bb56 45bb
00000250: b94f d93c fdec 8dbc f528 463a 2028 1aba
00000260: 41c7 c7bc 017a 1ebd b370 08bc f62c 45bd
00000270: 620f d3ba c1a1 a1bc 473e c4bc 10b6 243c
00000280: 757c 79bc de54 9e3a 4a19 d23c 170b d0bc
00000290: fefd 433d 4ad5 ccbc e533 343d 5eba 1f3d
000002a0: 63e6 15bd da39 023b ff37 353c 117c d23b
000002b0: d472 da3b 117c e53c 5a0e 013c fc62 99b9
000002c0: 4250 293d 6820 d33c 0037 873c 0c5f f03c
000002d0: 2ea2 2d3d 76f0 7c3d 5521 423d 167a 733c
000002e0: 5a50 af39 be8d 1d3d f4d1 1a3d 6f1f 153d
000002f0: 979c 3fbd d35f 603c 5a13 70bb 86ab 91bb
00000300: 4954 1a3c afeb 62bc 5db0 debc 3781 233d
00000310: 6659 35bb 192e b1bb 14b6 b73c b434 a039
00000320: c6da a43c 1cfc 783c f624 86bc 00dc 5bbb
00000330: 40bb 3d3c 2a9f 9a3c 0ff4 ffba df76 b73c
00000340: 0879 2c3d 366a 3c3d 93c9 363c 7d79 253d
00000350: 1499 203d 91f5 3b3d 58fe 763d 5c13 663d
00000360: d66f b9bc 0a60 cabc e95f 91bc 1cb5 0dbb
00000370: 4f2f c3bc abea f6bb 4a3f d5bb 4c2c 01bd
00000380: 296c 7a3b 1e12 af3c 424a fa3c af93 1b3d
00000390: 65c9 353d f88c 723b e62c 4b3c 96de c73c
000003a0: 6ae2 313d 684f 393d 9695 7f3b 431a 19bd
000003b0: 66d7 fbbc dd9a 9a3c 5ebd 03bd 7fa9 f83c
000003c0: c0f1 34bc ab5e ee3b 1bf0 b8bc 0557 8dbc
000003d0: 0a6b 80bd e294 3bbd 837a 25bd 745a f6bc
000003e0: a03b 19bd e4e9 39bd 3220 39bd b93a 22bd
000003f0: 772e 073d 3a2a c9bc fdc2 3cbc 888d b7bb

conv_layers.5.0.conv.bias f4 [32]
-0.0034664331 -0.019277764 -0.034939013 0.028465278 0.01341057 0.037414335 0.012616016 0.011298701
0.041266933 -0.07452037 -0.016953766 0.019415863 -0.028581854 -0.046575278 -0.0175036 -0.036741942
0.02913406 0.012933304 0.07161287 -0.046447728 -0.021985041 -0.02388624 0.0524249 0.045887876
0.012473091 -0.057378627 0.0011436187 -0.012413571 0.0036444578 0.035246503 -0.00017843914 0.0584908
00000000: 192d 63bb 67ec 9dbc 361c 0fbd 0430 e93c
00000010: 02b8 5b3c c63f 193d 68b3 4e3c 301e 393c
00000020: 8407 293d 239e 98bd a0e2 8abc 040e 9f3c
00000030: 7e24 eabc b8c5 3ebd b663 8fbc b87e 16bd
00000040: 8daa ee3c 35e6 533c c5a9 923d f93f 3ebd
00000050: f919 b4bc 13ad c3bc 7ebb 563d edf4 3b3d
00000060: ef5b 4c3c da05 6bbd 7ae5 953a 4a62 4bbc
00000070: dbd7 6e3b a35e 103d 641b 3bb9 0d94 6f3d

conv_layers.7.0.conv.weight f4 [16, 32, 3, 3]
0.013834173 -0.013748572 -0.02020002 -0.0016898047 -0.037873086 -0.0037310077 0.029475477 0.002354985
-0.01764154 -0.007856201 -0.01816757 -0.009956053 -0.006899135 -0.082648754 -0.084369615 -0.0048994394
-0.038858276 -0.06385726 -0.04269741 -0.05953607 -0.087791935 0.0019250484 -0.031761643 -0.044281904
0.026058031 -0.039955396 -0.07137553 -0.0034670942 0.030971931 -0.019525759 0.0011319397 0.05788629
0.016558008 0.031394582 -0.024820624 -0.039393846 0.035833694 0.06429485 0.014807772 0.02109559
0.021165786 0.04762504 0.0043359012 0.02509713 0.009490577 0.0649519 0.048942387 0.005999184
0.021528454 0.04333314 0.07673833 0.011756355 0.026770337 0.04066499 -0.04209183 -0.00600757
0.012537019 -0.053498544 -0.01978141 -0.080678694 -0.03351622 -0.021272913 -0.05547517 -0.028490465
-0.08713567 -0.011000545 -0.05288696 -0.12327999 -0.05419878 0.014557872 -0.08117983 -0.09986602
0.0329113 0.053586673 -0.02909248 0.06810614 0.07616269 -0.0021949876 -0.029938972 0.05966881
-0.004064717 0.009560808 -0.038483825 -0.03285554 -0.051818546 -0.042609215 -0.017283132 0.0022474795
0.0010429925 0.026330538 -0.06534454 -0.09291698 -0.06710984 -0.009493093 -0.088717096 -0.017643102
-0.0011146636 -0.092320025 -0.0602962 -0.0063226447 -0.023299009 -0.01023918 -0.0069061387 -0.009946333
-0.0091747865 0.016558109 -0.012287365 -0.01606289 -0.010158456 -0.0209349 -0.03299622 -0.013664343
-0.04573262 -0.0043185605 -0.06305009 -0.06470022 -0.08014622 -0.0693618 -0.042597856 -0.054755658
-0.040810637 -0.07729631 -0.05777957 -0.00977069 -0.070950866 -0.0003538794 -0.05809573 -0.046217356
-0.063065484 -0.02073497 -0.022880163 -0.056488715 -0.03410319 -0.09412788 -0.026521305 -0.009383798
-0.036469284 -0.001512296 -0.03292526 -0.069653496 -0.022280488 0.017904809 -0.04838146 -0.037338085
-0.019597355 0.033114906 0.039086785 0.05721474 0.053858396 0.054594275 -0.027954577 0.045584638
-0.020252153 -0.0071904315 0.025965245 -0.001648647 -0.0033236046 -0.031701826 -0.018199906 0.0035237086
0.021733223 -0.0041914037 0.004592805 0.032836296 0.032805264 0.033640474 0.04447732 0.057221957
-0.017537197 0.039628413 0.053769305 -0.0023089247 -0.033811036 0.017024359 -0.04472673 -0.036864586
-0.05517073 -0.05378154 -0.043808278 -0.0755633 -0.028078062 -0.02256226 0.014962706 -0.059604872
-0.015162407 -0.005554197 -0.052160308 -0.031432457 -0.03353454 -0.037164982 0.027019849 -0.031705018
0.018250532 -0.0056124115 -0.008747572 -0.01761932 0.009853545 0.014508316 0.037388775 0.04387632
-0.012705622 0.08778825 0.044357903 0.09148655 -0.012144427 0.021751828 -0.00895953 -0.016218971
-0.009959876 -0.014706835 -0.010461451 0.004772697 -0.03710256 0.013303099 0.016087921 0.024935469
0.008199909 -0.08380262 0.007526161 -0.04213636 -0.049881406 -0.065374516 -0.037517674 -0.053782575
-0.06904064 -0.050718576 -0.09163938 -0.0050336383 -0.01326311 -0.04889236 -0.040385064 -0.06768668
-0.036698613 0.011638384 -0.010588313 -0.04359565 -0.060658 -0.08229404 -0.051163185 -0.013113705
-0.033637576 -0.037989423 -0.02983392 -0.012674601 -0.07340516 -0.043599296 -0.04271796 -0.056016967
-0.032134965 -0.061173882 -0.06836495 -0.06259744 -0.035229865 -0.10127354 -0.04446017 -0.05604921
00000000: baa8 623c b141 61bc 837a a5bc 707c ddba
00000010: cf20 1bbd ec83 74bb 8e76 f13c 1856 1a3b
00000020: fe84 90bc 4cb7 00bc 28d4 94bc b71e 23bc
00000030: 2412 e2bb c043 a9bd fac9 acbd 7a8b a0bb
00000040: db29 1fbd 98c7 82bd 7be3 2ebd 18dc 73bd
00000050: 42cc b3bd e851 fc3a 7f18 02bd f160 35bd
00000060: a777 d53c 45a8 23bd 552d 92bd 3038 63bb
00000070: d9b8 fd3c 7cf4 9fbc 985d 943a 2d1a 6d3d
00000080: a9a4 873c 9b97 003d 9f54 cbbc 715b 21bd
00000090: 5ac6 123d 05ad 833d 4c9c 723c a9d0 ac3c
000000a0: df63 ad3c 7912 433d 2d14 8e3b 7f98 cd3c
000000b0: 5d7e 1b3c 8005 853d d077 483d ce94 c43b
000000c0: 715c b03c 177e 313d fc28 9d3d ba9d 403c
000000d0: 774d db3c 5590 263d 7c68 2cbd 26db c4bb
000000e0: 1268 4d3c 4a21 5bbd a00c a2bc df3a a5bd
000000f0: 4e48 09bd 8844 aebc ef39 63bd d664 e9bc
00000100: 3074 b2bd a13b 34bc ff9f 58bd 387a fcbd
00000110: 8aff 5dbd 2484 6e3c 9c41 a6bd 8e86 ccbd
00000120: 00ce 063d b37d 5b3d 5a53 eebc 3b7b 8b3d
00000130: 2ffb 9b3d c8d9 0fbb 9342 f5bc 4867 743d
00000140: 5131 85bb efa4 1c3c 37a1 1dbd 8893 06bd
00000150: af3f 54bd 0087 2ebd 5b95 8dbc 734a 133b
00000160: 05b5 883a 24b3 d73c 5cd3 85bd 424b bebd
00000170: e270 89bd eb88 1bbc 4fb1 b5bd 4488 90bc
00000180: e719 92ba 4812 bdbd 26f9 76bd 302e cfbb
00000190: 90dd bebc 3cc2 27bc e44c e2bb f2f5 22bc
000001a0: d851 16bc dfa4 873c f250 49bc 5296 83bc
000001b0: a76f 26bc ab7f abbc 0b27 07bd 69e0 5fbc
000001c0: 2152 3bbd b682 8dbb 6820 81bd 8d81 84bd
000001d0: b423 a4bd 8f0d 8ebd 177b 2ebd 7847 60bd
000001e0: 0e29 27bd 874d 9ebd 45aa 6cbd 3f15 20bc
000001f0: b04e 91bd e488 b9b9 caf5 6dbd 694e 3dbd
00000200: 7a28 81bd 62dc a9bc 2e6f bbbc b660 67bd
00000210: c9af 0bbd 1ec6 c0bd 3543 d9bc 80be 19bc
00000220: d160 15bd 3c38 c6ba a3dc 06bd 7ea6 8ebd
00000230: 9285 b6bc 1bad 923c a32b 46bd d2ef 18bd
00000240: a28a a0bc 7fa3 073d 7719 203d 015a 6a3d
00000250: 9f9a 5c3d 3f9e 5f3d ff00 e5bc f5b6 3a3d
00000260: d8e7 a5bc b69d ebbb 11b5 d43c 6a17 d8ba
00000270: d5d0 59bb c6d9 01bd f817 95bc 05ee 663b
00000280: df09 b23c 0b58 89bb 3e7f 963b 5a7f 063d
00000290: d05e 063d 98ca 093d da2d 363d 9261 6a3d
000002a0: 2baa 8fbc 6751 223d 343d 5c3d 5451 17bb
000002b0: 717d 0abd ab76 8b3c 6033 37bd 52ff 16bd
000002c0: b4fa 61bd 084a 5cbd 4f70 33bd eec0 9abd
000002d0: f703 e6bc 7dd4 b8bc 2326 753c 3d24 74bd
000002e0: bf6b 78bc fbff b5bb 0ca6 55bd 52bf 00bd
000002f0: 845b 09bd 4f3a 18bd bb58 dd3c 1fdd 01bd
00000300: 2482 953c 52e8 b7bb fa51 0fbc 6456 90bc
00000310: c370 213c 4ab4 6d3c f924 193d a8b7 333d
00000320: 3e2b 50bc 53ca b33d a2b0 353d 4d5d bb3d
00000330: 6bf9 46bc e430 b23c feca 12bc a6dd 84bc
00000340: bf2e 23bc f0f4 70bc 8166 2bbc 4964 9c3b
00000350: dbf8 17bd 3ef5 593c d1ca 833c 7845 cc3c
00000360: e958 063c b5a0 abbd 049e f63b 2d97 2cbd
00000370: 7250 4cbd 13e3 85bd 22ac 19bd 1e4b 5cbd
00000380: 2e65 8dbd 48be 4fbd 6dad bbbd 38f1 a4bb
00000390: 844d 59bc 5b43 48bd cf6a 25bd 509f 8abd
000003a0: 4951 16bd ecae 3e3c 9b7a 2dbc 5a91 32bd
000003b0: 8674 78bd c789 a8bd 7d90 51bd deda 56bc
000003c0: 8ec7 09bd cc9a 1bbd 4466 f4bc 21a9 4fbc
000003d0: 7255 96bd 2d95 32bd 07f9 2ebd 0c72 65bd
000003e0: f49f 03bd 7791 7abd ec02 8cbd 1633 80bd
000003f0: 314d 10bd 8068 cfbd de1b 36bd db93 65bd

conv_layers.7.0.conv.bias f4 [16]
0.06339514 0.046179388 -0.005575444 -0.021478297 -0.0056215674 0.05170404 0.04786809 -0.01720234
0.010968947 -0.017666576 0.081943676 0.05511974 0.032762386 0.05754206 -0.012021902 -0.0002853127
00000000: 50d5 813d 9926 3d3d 37b2 b6bb 41f3 afbc
00000010: 2035 b8bb 9ec7 533d 5511 443d eceb 8cbc
00000020: 19b7 333c 7fb9 90bc 16d2 a73d 3dc5 613d
00000030: da31 063d 39b1 6b3d 83f7 44bc 0696 95b9

linear_layers.0.weight f4 [64, 400]
0.022324923 0.00602137 -0.025319643 0.008825337 0.065657035 0.030143235 0.06611183 0.051424816
0.018907417 0.011294025 0.03447376 0.041526884 0.03632135 -0.015669828 -0.028149923 0.010764733
0.052006338 -0.0011944752 0.008197188 0.008684039 0.033537224 0.06725409 0.044833243 0.0043168995
-0.02325392 -0.014361379 -0.045450415 -0.021439984 -0.028589018 -0.0066219363 -0.0011764026 0.018550552
-0.011461614 -0.008654619 0.023999332 0.0065335874 0.031451948 -0.00263012 0.018957086 0.0076008234
-0.012327959 -0.010536563 0.033672426 -0.0069045057 0.07885496 -0.06721979 0.020885028 0.049130045
-0.026387542 0.0569559 -0.0013251869 0.0122577725 -0.033198092 -0.0013614733 -0.015479866 0.010807971
0.010485823 0.031276744 0.019740531 -0.008541397 0.013647782 -0.025829475 -0.0021558942 -0.00024929468
-0.0053300713 -0.047438465 0.03308912 0.024357274 -0.0036701714 -0.035497557 -0.022996295 0.0030923479
-0.009851908 -0.04072682 -0.01302837 -0.015864803 -0.02875228 0.024121908 -0.0066856546 -0.0061915317
-0.033043317 -0.019635083 0.030345226 -0.031040352 0.023841482 -0.005887246 0.061727915 -0.007784583
0.01938717 0.031314865 -0.02541984 0.04374725 0.05125492 -0.021383073 0.03141077 -0.011920101
-0.010835511 -0.007020967 -0.042946972 0.0141495615 0.036108114 -0.04724187 -0.034900993 -0.04179535
-0.04651445 0.03361 0.023292417 0.010049182 0.011072533 0.006850651 -0.027652629 0.0017590716
-0.039060682 -0.013005989 0.023031536 0.0049592447 -0.055830054 0.03176507 -0.0418801 -0.036338672
-0.03693441 -0.05061379 0.016343756 -0.012609748 -0.039178703 -0.0049365284 0.051090762 0.031841327
-0.036135428 0.0069059115 -0.0125337 -0.0075438037 0.019202901 -0.017856572 0.020450462 0.0417204
0.0153446775 0.021845013 -0.08869128 -0.004837401 -0.016624782 -0.019493196 0.006731085 -0.02609936
0.042993825 -0.04967746 -0.036996327 0.002274371 -0.007026411 0.026287686 0.052530818 -0.0042609475
-0.010207065 -0.0659938 -0.009507863 -0.021862028 -0.025443366 -0.0108538065 -0.05151634 -0.029386867
0.0012237463 -0.0063716536 0.012177929 -0.026051942 0.03237662 0.0107353255 0.022069305 0.0021465593
0.004863508 0.04108176 0.017650997 0.019931996 -0.03008661 0.045204636 0.021843445 -0.01652311
-0.035016775 -0.0075844554 0.001832626 -0.023588454 0.0012915623 -0.021633644 -0.0042706593 0.005463503
-0.031429905 0.036830205 -0.02232916 0.01655826 -0.006405515 -0.059911404 0.015392876 -0.014658542
0.0041832686 -0.00415957 -0.032089524 -0.029631307 -0.025316382 0.0019232917 0.03380493 -1.2899836e-05
-0.006862233 -0.022382805 -0.055569354 -0.00011619213 0.0041664606 -0.0017219088 -0.014123336 0.009611161
-0.007250134 -0.034046795 -0.018745622 0.016551621 0.030787202 -0.0056019654 -0.042832963 -0.018022723
-0.01705896 -0.04913948 -0.026496112 -2.8672584e-05 -0.063095465 -0.0385087 -0.020072833 0.0040105204
-0.037376128 0.025594158 -0.0026437694 0.00052414497 -0.038655885 0.00076834083 0.03295322 -0.00608052
0.04238582 -0.029854374 0.019054716 0.020476878 -0.0283058 -0.00020711162 0.02082535 -0.0066757607
-0.017590918 0.012078084 0.003513439 0.0013631921 0.03739208 0.01747478 -0.0035375166 0.004096916
-0.011351701 0.025039047 0.051028356 0.033954754 0.043153755 -0.032768164 0.043206993 -0.00311043
00000000: c2e2 b63c ea4e c53b 246b cfbc 2598 103c
00000010: 3277 863d f2ee f63c a465 873d d4a2 523d
00000020: bae3 9a3c 930a 393c 5b34 0d3d 1818 2a3d
00000030: b2c5 143d 035e 80bc ab9a e6bc 905e 303c
00000040: 9904 553d f08f 9cba 804d 063c 8047 0e3c
00000050: 545e 093d 83bc 893d 10a3 373d c774 8d3b
00000060: 017f bebc fd4b 6bbc 372a 3abd e8a2 afbc
00000070: 8433 eabc d4fc d8bb 8531 9aba 54f7 973c
00000080: 7ec9 3bbc 1acc 0dbc 3f9a c43c b417 d63b
00000090: c2d3 003d 175e 2cbb e44b 9b3c 5410 f93b
000000a0: 35fb 49bc 8ca1 2cbc 19ec 093d 313f e2bb
000000b0: b67e a13d 87aa 89bd 1417 ab3c 963c 493d
000000c0: b02a d8bc 974a 693d e5b1 adba d3d4 483c
000000d0: b9fa 07bd 7773 b2ba 449f 7dbc ea13 313c
000000e0: bbcc 2b3c 0b1c 003d e5b6 a13c 37f1 0bbc
000000f0: f29a 5f3c 5698 d3bc e749 0dbb c4b3 82b9
00000100: e1a7 aebb d64e 42bd 7588 073d e888 c73c
00000110: 4287 70bb e365 11bd ba62 bcbc fda8 4a3b
00000120: e669 21bc 2ad1 26bd f274 55bc e7f6 81bc
00000130: e789 ebbc 4f9b c53c 5613 dbbb 55e2 cabb
00000140: 6e58 07bd c1d9 a0bc 8d96 f83c 5648 febc
00000150: 364f c33c cde9 c0bb 69d6 7c3d d115 ffbb
00000160: d8d1 9e3c 0444 003d 453d d0bc 5130 333d
00000170: aef0 513d 8e2b afbc 94a8 003d 874c 43bc
00000180: 6d87 31bc 2410 e6bb 2ae9 2fbd 90d3 673c
00000190: 1ae6 133d b180 41bd 58f4 0ebd 9a31 2bbd
000001a0: f085 3ebd a4aa 093d bdcf be3c 53a5 243c
000001b0: 9269 353c 6d7b e03b c487 e2bc a690 e63a
000001c0: 18fe 1fbd 1217 55bc a2ac bc3c 2981 a23b
000001d0: 0eae 64bd 171c 023d 788a 2bbd dcd7 14bd
000001e0: 8948 17bd 6850 4fbd 57e3 853c 1e99 4ebc
000001f0: d979 20bd 9ac2 a1bb 8c44 513d 0d6c 023d
00000200: be02 14bd fc4a e23b 265a 4dbc 0332 f7bb
00000210: 674f 9d3c f247 92bc ba87 a73c 03e3 2a3d
00000220: 3e68 7b3c 50f4 b23c c6a3 b5bd 1083 9ebb
00000230: b230 88bc 32b0 9fbc 6f90 dc3b 53ce d5bc
00000240: 4b1a 303d 987a 4bbd 7689 17bd 9d0d 153b
00000250: cf3d e6bb 4659 d73c 8e2a 573d 6b9f 8bbb
00000260: 893b 27bc c227 87bd dec6 1bbc ff17 b3bc
00000270: 9b6e d0bc 2ad4 31bc cc02 53bd babc f0bc
00000280: 1d66 a03a 4ec9 d0bb f085 473c e26a d5bc
00000290: 599d 043d 38e3 2f3c b0ca b43c 4aad 0c3b
000002a0: 105e 9f3b 5945 283d d398 903c 6d48 a33c
000002b0: 3278 f6bc 7f28 393d 06f1 b23c 795b 87bc
000002c0: c06d 0fbd 0687 f8bb b934 f03a 933c c1bc
000002d0: a449 a93a 0a39 b1bc e3f0 8bbb 2f07 b33b
000002e0: a5bc 00bd 45db 163d a4eb b6bc 30a5 873c
000002f0: 5be5 d1bb a965 75bd 6732 7c3c 622a 70bc
00000300: cd13 893b 014d 88bb 4e70 03bd 5bbd f2bc
00000310: 4d64 cfbc f616 fc3a 0a77 0a3d 606c 58b7
00000320: 95dc e0bb 255c b7bc b19c 63bd 2dac f3b8
00000330: ce86 883b acb1 e1ba 9165 67bc 2278 1d3c
00000340: 8892 edbb a774 0bbd 6b90 99bc 4497 873c
00000350: 7135 fc3c b190 b7bb 9e71 2fbd 64a4 93bc
00000360: 3bbf 8bbc 7b46 49bd 600e d9bc e885 f0b7
00000370: 3238 81bd 4cbb 1dbd c86f a4bc af6a 833b
00000380: b617 19bd d7aa d13c 1743 2dbb c666 093a
00000390: a255 1ebd 7b6a 493a f5f9 063d 193f c7bb
000003a0: c19c 2d3d 2991 f4bc a318 9c3c 20bf a73c
000003b0: 91e1 e7bc 1a2c 59b9 ed99 aa3c 57c0 dabb
000003c0: d41a 90bc 28e3 453c ba41 663b 23ad b23a
000003d0: 7028 193d 4527 8f3c aed5 67bb 6c3f 863b
000003e0: 7cfc 39bc b01e cd3c 1c03 513d 2414 0b3d
000003f0: fec1 303d e937 06bd d1f9 303d 5bd8 4bbb

linear_layers.0.bias f4 [64]
0.034613468 0.044279434 0.025833301 0.090117365 -0.0082849655 0.023512255 -0.0027371866 0.026493482
0.071893275 0.0071527287 0.0018676776 0.03994723 0.031665627 0.01924707 -0.015708677 0.03315788
0.011436736 -0.012389862 0.029107993 -0.07385914 0.0012738359 0.05036991 0.028686171 -0.030508699
-0.039002974 -0.0016175102 0.0450005 0.051262513 -0.083839215 -0.018167011 -0.005333254 0.064569265
0.02495451 0.021683116 0.018965041 -0.019639181 -0.04527566 -0.008729719 -0.02103724 -0.0026152018
0.030488616 -0.014218267 0.05238938 -0.0039303405 -0.0050016907 0.05171863 0.05131759 0.034358498
0.010681158 0.068815105 0.047333404 -0.0012540933 -0.017918704 0.07535824 -0.00611498 0.031691518
-0.010568773 0.028689507 0.054137275 -0.0066085192 -0.054404505 0.003504151 0.06492044 0.07932959
00000000: dac6 0d3d 5a5e 353d 5ca0 d33c 748f b83d
00000010: aabd 07bc c69c c03c 5f62 33bb dc08 d93c
00000020: c83c 933d 7061 ea3b dccc f43a b59f 233d
00000030: d1b3 013d 08ac 9d3c 7caf 80bc 8fd0 073d
00000040: 2661 3b3c d9fe 4abc e373 ee3c 7643 97bd
00000050: d7f6 a63a ae50 4e3d 43ff ea3c 61ed f9bc
00000060: 95c1 1fbd a302 d4ba 7252 383d a4f8 513d
00000070: e5b3 abbd fcd2 94bc 94c2 aebb e43c 843d
00000080: 676d cc3c caa0 b13c 935c 9b3c 59e2 a0bc
00000090: f872 39bd 1807 0fbc 4a56 acbc ce63 2bbb
000000a0: 43c3 f93c bcf3 68bc 3f96 563d 16ca 80bb
000000b0: 39e5 a3bb ead6 533d 6532 523d 7fbb 0c3d
000000c0: 0600 2f3c efee 8c3d ace0 413d 6360 a4ba
000000d0: 3fca 92bc 6c55 9a3d 2c60 c8bb f7ce 013d
000000e0: a628 2dbc 4206 eb3c 0cbf 5d3d 478c d8bb
000000f0: 42d7 5ebd e6a5 653b 02f5 843d 8d77 a23d

linear_layers.3.weight f4 [4, 64]
-0.005118624 -0.073698446 -0.048307717 0.016650047 0.12664059 0.051127717 -0.0070413644 -0.10198591
-0.028707061 0.13199717 0.07175277 -0.02916472 0.062840566 -0.13388236 0.06546183 -0.111394964
0.13775867 -0.00885612 0.020737657 0.09659415 -0.02516397 0.09418909 0.05016078 -0.062340446
0.03919694 -0.074725434 -0.13102472 -0.064062305 0.059428852 -0.06271979 0.11705458 -0.012289636
-0.02230728 0.13320589 0.085243165 0.012314395 0.028515933 0.13139342 -0.06395865 -0.06372489
-0.04806194 0.025471974 -0.09478637 0.14012086 0.013647151 -0.10180626 0.060545616 0.09896594
0.017953232 0.040614657 -0.043547228 -0.032117613 0.08528017 -0.011385396 0.028288824 -0.028994516
0.022288768 -0.037373845 -0.13449301 0.06819566 0.047594234 -0.023527354 -0.073341206 -0.12988047
-0.005579568 -0.033554833 -0.088309206 0.02117158 -0.12229294 0.04813531 -0.09538329 -0.09941579
0.07112152 -0.022178397 -0.046443924 -0.05260544 -0.01487553 -0.039294414 -0.011705095 -0.066222444
-0.09913795 -0.083787546 -0.06374263 0.010350296 -0.06734683 0.050913304 0.03290637 0.039908145
-0.111949466 0.09222146 -0.055661436 0.124865025 0.02904466 -0.050910532 -0.05023517 -0.12318486
-0.10703848 0.0944843 -0.0061795847 -0.0013420146 -0.034174923 0.03565873 -0.061393645 0.017073
0.06271388 0.030320467 0.06801092 0.064331345 0.06980694 -0.016284125 0.07121959 0.010052164
-0.0078066057 -0.0822167 0.032680187 -0.028703524 -0.067332305 0.10214042 -0.09527579 -0.022554677
0.09753163 -0.028792705 0.063440934 0.056163542 -0.039345883 0.0022516667 0.021598298 0.1194055
0.012116071 0.07416093 -0.065896265 0.05397183 0.02083412 0.074832104 0.084023714 -0.04112353
0.0019432793 0.07855492 -0.011527301 -0.115230635 0.07740923 -0.06751868 0.0427032 -0.089403376
0.124094136 -0.111701794 0.06094354 -0.10934163 0.118158765 0.012614695 0.10513269 -0.010572567
-0.020970158 -0.09467184 -0.017807925 -0.0023161732 -0.10094751 0.051999647 0.008362091 0.08090381
-0.035454396 0.04733035 0.10387736 0.0070657306 -0.09059815 0.09080457 0.07475078 -0.06569331
0.040110614 0.024884371 -0.08259073 0.09309593 0.08553827 -0.08975299 0.049820125 0.06776941
0.070617855 0.11986388 -0.12492214 0.025130982 -0.07940614 -0.056047704 -0.02911862 -0.08014126
0.06398544 -0.028542465 -0.121384636 -0.029140841 -0.11320227 -0.013499423 0.043966897 -0.0856505
0.093141966 -0.113691166 -0.013552533 0.063794315 -0.0024765239 0.07377236 -0.039610263 0.04191415
0.08813624 -0.0026460628 -0.06371309 -0.07824527 -0.06395665 0.077507414 -0.048439074 0.015252701
0.0012064179 0.049951505 -0.06896493 -0.015771061 -0.09290287 0.1006425 0.054469153 0.022659017
-0.13618714 -0.0711927 -0.09699168 0.11338416 -0.033472132 0.06261302 -0.020361204 0.06472264
-0.029347403 -0.08095035 0.02901228 -0.018904613 0.047595162 0.07756525 0.043478284 -0.11938036
0.05062929 -0.0035540604 0.12088141 -0.02698819 -0.017703295 -0.008952387 0.10446104 0.07370692
0.061858628 0.045842756 0.02299008 0.011518558 0.036324754 0.06651978 0.010577506 -0.058489364
0.024698295 -0.09390431 0.023372801 0.033785913 -0.013416703 -0.019354554 0.07651755 0.07678971
00000000: 21ba a7bb 36ef 96bd 50de 45bd ae65 883c
00000010: 12ae 013e 4c6b 513d 3fbb e6bb fddd d0bd
00000020: 122b ebbc 442a 073e 1ef3 923d daea eebc
00000030: 8eb2 803d 7518 09be da10 863d 0b23 e4bd
00000040: 9c10 0d3e 4219 11bc 05e2 a93c 27d3 c53d
00000050: ac24 cebc 36e6 c03d 6475 4d3d b258 7fbd
00000060: f88c 203d a609 99bd 582b 06be 1933 83bd
00000070: ab6b 733d 3c73 80bd 50ba ef3d 785a 49bc
00000080: c2bd b6bc 2067 083e f893 ae3d 51c2 493c
00000090: 3f9a e93c ff8b 063e c1fc 82bd 3282 82bd
000000a0: 99dc 44bd 9aaa d03c 5b1f c2bd d87b 0f3e
000000b0: 4d98 5f3c cd7f d0bd aefe 773d a8ae ca3d
000000c0: a812 933c 8e5b 263d 945e 32bd c28d 03bd
000000d0: 5fa7 ae3d d089 3abc f7bd e73c e885 edbc
000000e0: ef96 b63c 5115 19bd 89b8 09be 2baa 8b3d
000000f0: 2cf2 423d 70bc c0bc ea33 96bd 63ff 04be
00000100: cfd4 b6bb cb70 09bd 75db b4bd 0570 ad3c
00000110: b974 fabd 8829 453d 5058 c3bd 819a cbbd
00000120: 29a8 913d 78af b5bc fc3b 3ebd cd78 57bd
00000130: 7fb8 73bc 2ef3 20bd bac6 3fbc a29f 87bd
00000140: d608 cbbd ce98 abbd 7f8b 82bd 4a94 293c
00000150: 23ed 89bd 788a 503d d4c8 063d b976 233d
00000160: c345 e5bd 9bde bc3d 3ffd 63bd 3cb9 ff3d
00000170: 11ef ed3c 9087 50bd 65c3 4dbd 5848 fcbd
00000180: fe36 dbbd fc80 c13d 1d7e cabb 8ae6 afba
00000190: 01fb 0bbd e30e 123d e777 7bbd addc 8b3c
000001a0: 2270 803d a162 f83c 4f49 8b3d 27c0 833d
000001b0: f1f6 8e3d 4966 85bc 94db 913d d5b1 243c
000001c0: 8ece ffbb 3b61 a8bd a9db 053d a723 ebbc
000001d0: 85e5 89bd ff2e d13d f41f c3bd 96c4 b8bc
000001e0: aabe c73d aede ebbc 52ed 813d be0b 663d
000001f0: 2629 21bd b390 133b eaee b03c df8a f43d
00000200: 7c82 463c b0e1 973d 9ff4 86bd 9111 5d3d
00000210: 51ac aa3c 9341 993d a014 ac3d 2671 28bd
00000220: a2b5 fe3a 67e1 a03d 01dd 3cbc 0afe ebbd
00000230: bb88 9e3d 3c47 8abd 8de9 2e3d 1e19 b7bd
00000240: 1125 fe3d e9c3 e4bd ef9f 793d 81ee dfbd
00000250: 39fd f13d dead 4e3c cf4f d73d 8f38 2dbc
00000260: 9cc9 abbc 4fe3 c1bd ede1 91bc f0ca 17bb
00000270: 91bd cebd 95fd 543d 2701 093c e6b0 a53d
00000280: a138 11bd 78dd 413d a7bd d43d a587 e73b
00000290: 868b b9bd bff7 b93d f016 993d 378a 86bd
000002a0: 074b 243d 4fda cb3c 5425 a9bd 14a9 be3d
000002b0: b02e af3d 6ad0 b7bd 3010 4c3d b0ca 8a3d
000002c0: 18a0 903d 327b f53d 2ed7 ffbd 7ddf cd3c
000002d0: b09f a2bd 4792 65bd 2c8a eebc 1a21 a4bd
000002e0: cc0a 833d e3d1 e9bc 8298 f8bd c6b8 eebc
000002f0: 97d6 e7bd af2c 5dbc a216 343d 8869 afbd
00000300: 37c1 be3d ead6 e8bd 720b 5ebc 98a6 823d
00000310: 2d4d 22bb f715 973d 5f3e 22bd 2cae 2b3d
00000320: c680 b43d 9169 2dbb 027c 82bd 0e3f a0bd
00000330: b4fb 82bd 35bc 9e3d 0d68 46bd 77e6 793c
00000340: ab20 9e3a f399 4c3d 7c3d 8dbd 5032 81bc
00000350: dc43 bebd a81d ce3d 0c1b 5f3d 679f b93c
00000360: a474 0bbe 7acd 91bd 93a3 c6bd f435 e83d
00000370: 131a 09bd 413b 803d 8acc a6bc 4e8d 843d
00000380: f769 f0bc 4cc9 a5bd 29ab ed3c d9dd 9abc
00000390: 25f3 423d 88da 9e3d 4916 323d b17d f4bd
000003a0: a960 4f3d 3deb 68bb ac90 f73d 5616 ddbc
000003b0: 8006 91bc 08ad 12bc abef d53d a7f3 963d
000003c0: 795f 7d3d 9dc5 3b3d b155 bc3c 55b8 3c3c
000003d0: 44c9 143d 863b 883d 474d 2d3c 8b92 6fbd
000003e0: 1454 ca3c e750 c0bd 5178 bf3c 1963 0a3d
000003f0: bbd1 5bbc 718d 9ebc 3cb5 9c3d ec43 9d3d

linear_layers.3.bias f4 [4]
0.066468045 -0.060780827 -0.017344456 -0.06416659
00000000: 6620 883d 51f5 78bd f615 8ebc c669 83bd
