models/model_1726147502412/model.pth (torch, 227178 bytes, 14 tensors)

conv_layers.0.0.conv.weight f4 [16, 10, 3, 3]
0	0x349f9d25	2.9730396e-07
1	0xb2610a63	-1.3099085e-08
2	0xb3155f1a	-3.477826e-08
3	0x2e4f9744	4.72007e-11
4	0xb3110832	-3.3767897e-08
5	0xb2390c1c	-1.0771171e-08
6	0x35bb232c	1.3942822e-06
7	0xb7a59bd8	-1.9742103e-05
8	0x332438c2	3.8235846e-08
9	0x31c10a2d	5.618196e-09
10	0x38278fac	3.9949708e-05
11	0x3792af5b	1.7486213e-05
12	0xb3d4ef7e	-9.915583e-08
13	0xb4d435fd	-3.952736e-07
14	0x3622a92a	2.4238348e-06
15	0xb5f9b88b	-1.8605655e-06
16	0xb40c6efb	-1.307889e-07
17	0xafbeacd0	-3.468359e-10
18	0xb11c1c02	-2.2716908e-09
19	0xaf8df4e4	-2.5821756e-10
20	0x38c05cee	9.172583e-05
21	0xb2bb9106	-2.1835614e-08
22	0x3387c9ae	6.323113e-08
23	0xb3ed324c	-1.10453215e-07
24	0xb735ee9e	-1.0843998e-05
25	0x34871a26	2.5164735e-07
26	0x341ed546	1.4792485e-07
27	0x33907202	6.7262604e-08
28	0x36592517	3.235711e-06
29	0x33897541	6.400888e-08
30	0x32d608a2	2.4916805e-08
31	0xb7a5f239	-1.9782326e-05
32	0xb765a9d0	-1.3689001e-05
33	0x38037754	3.1343967e-05
34	0xb81707b6	-3.6008387e-05
35	0x35f15c94	1.7982843e-06
36	0x381878ba	3.635206e-05
37	0x30241cf9	5.9704025e-10
38	0x336fa443	5.579592e-08
39	0xb2e5a6ff	-2.673505e-08
40	0x34d09e27	3.885809e-07
41	0x31456aa2	2.8727887e-09
42	0xb4ddb180	-4.1293606e-07
43	0xb15084a1	-3.0343374e-09
44	0x32db8928	2.5557327e-08
45	0x381a7634	3.6826546e-05
46	0xb2c9bde6	-2.3485835e-08
47	0x3850d36e	4.9787974e-05
48	0xb37aa972	-5.836177e-08
49	0xb2f8c7ae	-2.8961804e-08
50	0xb5b39e65	-1.3382638e-06
51	0xb3f09eb7	-1.1204741e-07
52	0xb490e99f	-2.6992072e-07
53	0xb257b08a	-1.2554787e-08
54	0x32be59e2	2.2159785e-08
55	0x3720190b	9.542574e-06
56	0x3549ce22	7.51783e-07
57	0xb3b964b1	-8.6330495e-08
58	0xb2966b5f	-1.7511125e-08
59	0xb2317d1a	-1.0331201e-08
60	0x38a19bf6	7.706128e-05
61	0x2ff4ba81	4.451586e-10
62	0x34cef0a4	3.854558e-07
63	0xb7dbccfe	-2.6202291e-05
64	0xb38176bd	-6.028629e-08
65	0x32ca1220	2.3524137e-08
66	0xb11e7aeb	-2.3061897e-09
67	0xb9053c65	-0.00012706367
68	0xb2c1a262	-2.2542e-08
69	0xb6293977	-2.5216411e-06
70	0x32660765	1.3389443e-08
71	0xafefe856	-4.363893e-10
72	0x31db149c	6.376082e-09
73	0x35e2a789	1.6887071e-06
74	0x35863cdd	1.0001492e-06
75	0x33c4b275	9.1594224e-08
76	0x34a0977f	2.991255e-07
77	0x390b887e	0.0001330692
78	0x30a477d7	1.1966631e-09
79	0x31534e7c	3.0749154e-09
80	0x3718211e	9.067617e-06
81	0x34f6ce04	4.5970967e-07
82	0x34c1d66b	3.610506e-07
83	0xb315e6d2	-3.4901696e-08
84	0x3825881c	3.9465827e-05
85	0xb2f4f89c	-2.8518393e-08
86	0xb131467d	-2.5796958e-09
87	0xb190cd4e	-4.214292e-09
88	0x3220e0d9	9.36435e-09
89	0x386c58a7	5.634935e-05
90	0x3628dde6	2.5163113e-06
91	0x32ae4595	2.0287908e-08
92	0x335fa75b	5.2073442e-08
93	0x3113032e	2.1393123e-09
94	0xb32c09f9	-4.005594e-08
95	0x3312eb73	3.4207414e-08
96	0x305e457c	8.086187e-10
97	0x334bbdf6	4.743739e-08
98	0x340bace9	1.3008288e-07
99	0x390bdee6	0.00013339109
100	0x3331a523	4.1361215e-08
101	0x313bc228	2.7322447e-09
102	0x33885016	6.347561e-08
103	0xb094b9ce	-1.0821226e-09
104	0x33e5cb90	1.0700671e-07
105	0x32b80328	2.1421855e-08
106	0x321f8bcc	9.286804e-09
107	0xaf9d0468	-2.8561264e-10
108	0x3658edad	3.2324854e-06
109	0xb22367ee	-9.51148e-09
110	0x31a7a393	4.878936e-09
111	0x33f3ae8f	1.1347321e-07
112	0x36891bd5	4.0861582e-06
113	0xaf51ba08	-1.9074531e-10
114	0x30887392	9.928149e-10
115	0x3783a592	1.5693517e-05
116	0x3223be9a	9.5311865e-09
117	0x32ae063d	2.0259103e-08
118	0x39134702	0.00014045465
119	0xb08c971e	-1.0229291e-09
120	0x339008e2	6.707138e-08
121	0x34006851	1.1958879e-07
122	0x3614edf2	2.219222e-06
123	0xb22c68ae	-1.0035519e-08
124	0x3580b762	9.590115e-07
125	0x30a52df1	1.2018387e-09
126	0xb19fb6e8	-4.648303e-09
127	0x327bc7c0	1.4655541e-08
128	0xb3fca80d	-1.1765233e-07
129	0xb3252128	-3.844721e-08
130	0x2ff56d52	4.4642917e-10
131	0x30ff1081	1.8558383e-09
132	0xb3b3c2d3	-8.3707754e-08
133	0xb364ad10	-5.3242786e-08
134	0x38a5a4fc	7.898544e-05
135	0xb327ed70	-3.9098666e-08
136	0x2f035338	1.1943946e-10
137	0xb3ecce54	-1.1027137e-07
138	0xb5332f4e	-6.6751534e-07
139	0xb2fc5317	-2.9374446e-08
140	0x33fda5ab	1.18113654e-07
141	0x33a2c3c8	7.579325e-08
142	0xb221b814	-9.413288e-09
143	0x3385715f	6.213917e-08
144	0xb60b5656	-2.0762868e-06
145	0xb2b84f86	-2.1456582e-08
146	0x33235c41	3.80353e-08
147	0xb8d79c0d	-0.000102810656
148	0xb61d6f07	-2.345945e-06
149	0x361b7888	2.3166958e-06
150	0xb25f22f1	-1.2988253e-08
151	0x324df252	1.1987668e-08
152	0x36248fa6	2.4521519e-06
153	0x31f82230	7.2216366e-09
154	0x38a5b989	7.902372e-05
155	0xb5520064	-7.8231665e-07
156	0x35254b9f	6.1577333e-07
157	0x30fef064	1.8549255e-09
158	0x344eac4f	1.924793e-07
159	0xb30c8222	-3.2714645e-08
160	0xb11327d8	-2.1413964e-09
161	0x31fe01eb	7.392591e-09
162	0xb1f71490	-7.190984e-09
163	0xb2c5aec1	-2.3013287e-08
164	0x37a9977c	2.021691e-05
165	0x3829bc9f	4.0468407e-05
166	0xaf0147f6	-1.1758047e-10
167	0x30e436e0	1.660478e-09
168	0xacf5f900	-6.9909634e-12
169	0x349b395c	2.8912734e-07
170	0x389ff7c6	7.627862e-05
171	0x34c3b862	3.6455737e-07
172	0x355fedc1	8.341995e-07
173	0x32efd163	2.791848e-08
174	0x30026f5e	4.7451987e-10
175	0x2fdc032c	4.002002e-10
176	0xb18abf7b	-4.0380974e-09
177	0x31604831	3.2637326e-09
178	0x320b9864	8.1255145e-09
179	0xb3311e28	-4.123845e-08
180	0x322f7f4e	1.0215286e-08
181	0x2f021148	1.182957e-10
182	0xb16b53ff	-3.4244747e-09
183	0xb182baa7	-3.804718e-09
184	0x35ab26ab	1.2751747e-06
185	0xb3120bd8	-3.4004046e-08
186	0x34c8b5f9	3.7385306e-07
187	0x3626f8e3	2.4880799e-06
188	0xb40b84c4	-1.2993684e-07
189	0xb226cf44	-9.7095985e-09
190	0xb2393d60	-1.0782372e-08
191	0x33d38564	9.849717e-08
192	0x315c41fa	3.2051717e-09
193	0xb109d03f	-2.0054498e-09
194	0x3305d148	3.1156816e-08
195	0x3159d586	3.169903e-09
196	0x33d5cdf0	9.956045e-08
197	0xb3c2322e	-9.0429566e-08
198	0xb298ac53	-1.7773493e-08
199	0x31d65f07	6.239023e-09
200	0xb5a8d6f3	-1.2579534e-06
201	0xb269de3d	-1.3612916e-08
202	0xb0f8361f	-1.8059757e-09
203	0x32a206d4	1.8862387e-08
204	0x33efe14e	1.11702875e-07
205	0xb0451fc2	-7.1713313e-10
206	0xb32b3213	-3.9859582e-08
207	0x388f9a1f	6.847479e-05
208	0xb105516c	-1.940033e-09
209	0xb7d1c886	-2.5008118e-05
210	0x36200fed	2.3851128e-06
211	0xb24c5ab3	-1.1894985e-08
212	0x380bf4cf	3.336818e-05
213	0xb2d841ca	-2.5175627e-08
214	0x31e8ebc3	6.7788917e-09
215	0x3270e805	1.4022594e-08
216	0xb6cf675a	-6.1811124e-06
217	0xb40fa973	-1.3379558e-07
218	0xb3b80f42	-8.570943e-08
219	0xb1e38d34	-6.6226225e-09
220	0xb710d3eb	-8.63241e-06
221	0x35ebaf01	1.7559797e-06
222	0xb2790562	-1.44949315e-08
223	0xb41f425c	-1.483217e-07
224	0x3442be13	1.8136807e-07
225	0x3250d616	1.2155871e-08
226	0x34123648	1.3617057e-07
227	0xb627c8bb	-2.500178e-06
228	0x317f03cd	3.7109544e-09
229	0x319b906c	4.5275126e-09
230	0x3027145e	6.078319e-10
231	0xb2f215dd	-2.818245e-08
232	0x311369ab	2.145138e-09
233	0xb4d1836d	-3.9024908e-07
234	0xb1810a2a	-3.7555496e-09
235	0x2f942fd3	2.6955024e-10
236	0xb3ab9f46	-7.99178e-08
237	0xb4d9979b	-4.0529707e-07
238	0x317d391d	3.684881e-09
239	0x303bdfe0	6.834835e-10
240	0xb05a2878	-7.936545e-10
241	0xb270e0ea	-1.4020978e-08
242	0x3316d1a1	3.5115253e-08
243	0x308e3000	1.0345502e-09
244	0x38a9b94f	8.0930644e-05
245	0xb5fe05b2	-1.8926132e-06
246	0xb62c8466	-2.5707063e-06
247	0x321d27b9	9.147635e-09
248	0x34322a89	1.6593016e-07
249	0x32878dda	1.5780575e-08
250	0xb01a6556	-5.616888e-10
251	0x32e6c604	2.6865571e-08
252	0x32c535a8	2.2958218e-08
253	0x379841c8	1.8150444e-05
254	0x32b1f438	2.071657e-08
255	0xb1d4dc1b	-6.195035e-09

conv_layers.0.0.conv.bias f4 [16]
0	0x3365b948	5.348673e-08
1	0xb22c2e1a	-1.00222e-08
2	0xb284a677	-1.5442522e-08
3	0x312b063e	2.4887323e-09
4	0xb2f9d4f5	-2.9084257e-08
5	0x34a680db	3.1013664e-07
6	0x362698fd	2.4824978e-06
7	0x2f0097c2	1.1695447e-10
8	0xb24a98df	-1.1792706e-08
9	0x312ba286	2.497616e-09
10	0x331e651d	3.6879204e-08
11	0x336ac247	5.4659065e-08
12	0xb5d20620	-1.5648002e-06
13	0xb6b4dfb7	-5.390462e-06
14	0x383019cb	4.198569e-05
15	0x35b55168	1.3509243e-06

conv_layers.2.0.conv.weight f4 [32, 16, 3, 3]
0	0x3231ace8	1.034207e-08
1	0xb0a2be7e	-1.1841192e-09
2	0xb331414a	-4.1270404e-08
3	0x34a4773c	3.0634135e-07
4	0x332a24d6	3.961471e-08
5	0xb1b9abd1	-5.403742e-09
6	0x331c5cd2	3.6406e-08
7	0x332c2ed3	4.0089457e-08
8	0x34db284e	4.0821254e-07
9	0x327d889d	1.47576005e-08
10	0x31776074	3.5998058e-09
11	0x324d08e0	1.1934588e-08
12	0x3389fb56	6.4252774e-08
13	0xb58e51b0	-1.0603599e-06
14	0xb524453c	-6.119551e-07
15	0x320ae9e6	8.0858396e-09
16	0xb58099f4	-9.581549e-07
17	0x3490f227	2.699828e-07
18	0x3183d51f	3.836831e-09
19	0xb10e1e44	-2.0680924e-09
20	0xb20d43b2	-8.222672e-09
21	0xb413ac8e	-1.3753217e-07
22	0x30ad5c90	1.2613715e-09
23	0xb13f6b5c	-2.7855185e-09
24	0xb0bcb0fa	-1.37291e-09
25	0xb4891404	-2.5532802e-07
26	0xb3e2dc5e	-1.056403e-07
27	0x36022333	1.9391998e-06
28	0x32b88d75	2.1484746e-08
29	0xb1a2bc3e	-4.736221e-09
30	0xafcf4f26	-3.770932e-10
31	0xb2061867	-7.805375e-09
32	0x3055fc0e	7.784714e-10
33	0x33b55de8	8.445551e-08
34	0x32ab6ebf	1.9957382e-08
35	0x3284130c	1.5375484e-08
36	0xb4848fdb	-2.4691585e-07
37	0x34cf1a2c	3.8575797e-07
38	0x360fe05e	2.143926e-06
39	0xb10352d1	-1.9110085e-09
40	0x31155798	2.1732145e-09
41	0x34dc6942	4.1054778e-07
42	0x332a3c8c	3.9636276e-08
43	0x3298cbd0	1.7787812e-08
44	0xb0d8659a	-1.5744945e-09
45	0xb1830d33	-3.8141024e-09
46	0x337b3848	5.849168e-08
47	0xb3c36915	-9.0995094e-08
48	0x317f340a	3.7136965e-09
49	0xb10608b0	-1.9504505e-09
50	0x31e69f35	6.7119807e-09
51	0x36071695	2.0129712e-06
52	0x3409991f	1.2814824e-07
53	0xb1371455	-2.6641562e-09
54	0x301c0aab	5.676763e-10
55	0xb497cb68	-2.827394e-07
56	0xb611fbd0	-2.1753258e-06
57	0xb1e2df5d	-6.602859e-09
58	0xb3fb7b64	-1.1710543e-07
59	0xafa41a28	-2.985001e-10
60	0xb3a6aed9	-7.761782e-08
61	0x35f9de33	1.8616614e-06
62	0x2f5548f0	1.939815e-10
63	0x31fd0e54	7.364898e-09
64	0x31fdde8c	7.3885698e-09
65	0xb3cfaed5	-9.6709904e-08
66	0xafc4ba46	-3.5784548e-10
67	0x303f8087	6.9668044e-10
68	0x31872954	3.9337156e-09
69	0xb2267293	-9.688523e-09
70	0xb2341ce5	-1.0483949e-08
71	0x32f9fb93	2.9101818e-08
72	0xb2f7c919	-2.8846033e-08
73	0xb4e67f5a	-4.29335e-07
74	0xb271fae5	-1.4085093e-08
75	0xb28ce361	-1.6401545e-08
76	0xb2744d93	-1.4220308e-08
77	0x33e90cf5	1.0852265e-07
78	0x312ee3d2	2.5449833e-09
79	0x341df321	1.4710214e-07
80	0xb1bfb57d	-5.5794644e-09
81	0xb5d6ab1d	-1.5994043e-06
82	0xb12c484f	-2.5070397e-09
83	0xb3907668	-6.7270605e-08
84	0x310d272e	2.0540472e-09
85	0x33199a63	3.5763502e-08
86	0x31bf7328	5.5719234e-09
87	0xb38566ee	-6.212018e-08
88	0x33e2d43a	1.0562549e-07
89	0xb3907617	-6.727003e-08
90	0xb2a3c981	-1.906733e-08
91	0x3111b702	2.1204305e-09
92	0x33b2e814	8.330986e-08
93	0xb43c1bd1	-1.7518984e-07
94	0xb20e0be3	-8.268191e-09
95	0x30082848	4.9533755e-10
96	0x32d07ded	2.4271651e-08
97	0xb538a944	-6.8791655e-07
98	0x339dc05d	7.345873e-08
99	0x33a11000	7.500057e-08
100	0xb4113abe	-1.3525548e-07
101	0xb22c59e4	-1.0032156e-08
102	0x326897d9	1.35387035e-08
103	0x2f85d046	2.4340546e-10
104	0xb338491c	-4.290733e-08
105	0x338cde30	6.559674e-08
106	0xb0d265ef	-1.5308482e-09
107	0x307b0720	9.1323393e-10
108	0xb2051425	-7.746199e-09
109	0x34c5b3d9	3.6824966e-07
110	0x348a0a6d	2.571209e-07
111	0xb18f066d	-4.1625783e-09
112	0xb324a2cf	-3.83323e-08
113	0xb2f8cf80	-2.896536e-08
114	0xb12cf759	-2.5169895e-09
115	0x2ede48d0	1.0108325e-10
116	0xb38f4b26	-6.672626e-08
117	0xb4d67eea	-3.9952948e-07
118	0xb5a00a3f	-1.1923911e-06
119	0xb28e8c6d	-1.6594834e-08
120	0xb492d665	-2.7350612e-07
121	0x31de4e70	6.4699677e-09
122	0x329d7244	1.8329168e-08
123	0xb1c99fa4	-5.868019e-09
124	0x33e97b63	1.0872352e-07
125	0x32919d2c	1.6951695e-08
126	0x32d80938	2.5149902e-08
127	0x32c47b09	2.2873353e-08
128	0x31026e99	1.8980357e-09
129	0x34bb1b46	3.4851308e-07
130	0xb1e198f0	-6.565749e-09
131	0x34ddfaad	4.1346848e-07
132	0xafbf7606	-3.4826558e-10
133	0x34b78b80	3.4187906e-07
134	0x3453735c	1.9692874e-07
135	0xb20091a2	-7.483694e-09
136	0x30edc664	1.7300406e-09
137	0xaf902e56	-2.622637e-10
138	0x307f2b7b	9.283025e-10
139	0xb48f8d3c	-2.6738587e-07
140	0x31c6971e	5.7797385e-09
141	0xb2637e3a	-1.324184e-08
142	0xb38ed390	-6.650873e-08
143	0x32a37822	1.9030328e-08
144	0x3203af30	7.665037e-09
145	0x31100afc	2.0961002e-09
146	0xae756880	-5.5799365e-11
147	0x35b21bba	1.3270103e-06
148	0xb41158e0	-1.353651e-07
149	0x3320d932	3.745044e-08
150	0x3198ab53	4.4432595e-09
151	0x31ac3ae0	5.012552e-09
152	0x360a4b3f	2.0607401e-06
153	0xb2970dab	-1.7584929e-08
154	0x30d5dfea	1.556143e-09
155	0xb12fbf7e	-2.5574702e-09
156	0xb298efee	-1.7804236e-08
157	0xb192cbc2	-4.272324e-09
158	0xb107a651	-1.9739625e-09
159	0xb2e01298	-2.6085488e-08
160	0xb3af215d	-8.155141e-08
161	0x3254651a	1.2363012e-08
162	0xb290ca1f	-1.685572e-08
163	0x31973b32	4.401408e-09
164	0x31b0e9d7	5.1488587e-09
165	0xb1489862	-2.919045e-09
166	0xb2e7274f	-2.6909815e-08
167	0x2f81376c	2.3504343e-10
168	0x34019c2b	1.2070875e-07
169	0x3267b81e	1.3487833e-08
170	0xb18c75ed	-4.087943e-09
171	0x314cdfc0	2.9813094e-09
172	0xb615a610	-2.2299391e-06
173	0xb0bf9693	-1.3939875e-09
174	0xb2ad6939	-2.01877e-08
175	0x2fc6796f	3.6102274e-10
176	0x31cd9ab1	5.9838716e-09
177	0xb22d09a4	-1.0072117e-08
178	0xb5d1d8e7	-1.563484e-06
179	0x35c88249	1.4939079e-06
180	0x336f1fed	5.567556e-08
181	0xb22c8b4a	-1.0043388e-08
182	0xb59cc429	-1.1679996e-06
183	0xb0538f64	-7.6965123e-10
184	0xb271110b	-1.4031921e-08
185	0xb23a8007	-1.0855735e-08
186	0x32b746da	2.1336223e-08
187	0x3413a6b8	1.3751094e-07
188	0x302092bc	5.8416183e-10
189	0x3133d079	2.6166431e-09
190	0x2f52fd40	1.9189361e-10
191	0xb3c398e8	-9.1082086e-08
192	0x30e76a50	1.6837678e-09
193	0xb4e7547b	-4.308857e-07
194	0x31582535	3.1453287e-09
195	0x34c2b1b1	3.6264603e-07
196	0x338afa7c	6.4716886e-08
197	0x34022955	1.212223e-07
198	0xb3b4515a	-8.396701e-08
199	0x32858d47	1.5547483e-08
200	0xb3be19d4	-8.8522626e-08
201	0xb35f3367	-5.1967984e-08
202	0x320e084d	8.267375e-09
203	0x3329530c	3.942391e-08
204	0xb15d9a8d	-3.2247585e-09
205	0x31d1fc49	6.111382e-09
206	0x349836c5	2.8352056e-07
207	0x3027ee20	6.109264e-10
208	0x35c3ca62	1.4587533e-06
209	0xb1910fa8	-4.2218353e-09
210	0xb3fec712	-1.18640074e-07
211	0xb237bd3b	-1.0695028e-08
212	0xb3bc2d2d	-8.7626496e-08
213	0xb2b0e585	-2.059347e-08
214	0x34139b07	1.374684e-07
215	0xb28fd0c2	-1.6742323e-08
216	0xb362ffa8	-5.2852243e-08
217	0x349a4704	2.8736406e-07
218	0x2f6aae4a	2.1344096e-10
219	0xb34d16ff	-4.7751197e-08
220	0x3203ab53	7.664158e-09
221	0x31fcdfd7	7.359613e-09
222	0x32b4f353	2.1065409e-08
223	0x32954612	1.7377747e-08
224	0xb3a4345e	-7.646371e-08
225	0xb24df62e	-1.1988545e-08
226	0x329f2204	1.8525505e-08
227	0xb1c00ddb	-5.5895106e-09
228	0xb1024a96	-1.8959887e-09
229	0x31be6b1a	5.541904e-09
230	0xb37daeac	-5.9065016e-08
231	0xb025ed10	-6.0363536e-10
232	0x34a96fd3	3.1560066e-07
233	0x344192e2	1.8027961e-07
234	0xb012f18c	-5.345775e-10
235	0xb2871f72	-1.5730368e-08
236	0xb61265f7	-2.1815047e-06
237	0x32abb9ac	1.9991454e-08
238	0x30138a4c	5.367482e-10
239	0xb327b035	-3.9042977e-08
240	0xb30e3d3e	-3.311765e-08
241	0x33cc75d2	9.520922e-08
242	0x3189c226	4.009297e-09
243	0x32a52e18	1.922949e-08
244	0xb5df854b	-1.6653588e-06
245	0xb06fc310	-8.7224894e-10
246	0xb3ca1be0	-9.4114284e-08
247	0x3271ed31	1.4081977e-08
248	0xb40dbc02	-1.3200045e-07
249	0xb49d09b4	-2.925059e-07
250	0x361229ee	2.1780102e-06
251	0xb5b925b5	-1.3794548e-06
252	0x32992e76	1.7832672e-08
253	0xb2200eb9	-9.316573e-09
254	0xb318eac4	-3.5603776e-08
255	0xb2053c23	-7.755292e-09

conv_layers.2.0.conv.bias f4 [32]
0	0x31990c0f	4.454257e-09
1	0x31630db4	3.3040637e-09
2	0xb090caba	-1.0534997e-09
3	0x3143f75b	2.851684e-09
4	0x3078ab2c	9.0465124e-10
5	0x308150f8	9.408998e-10
6	0x2e48db58	4.566955e-11
7	0xb0c12ca8	-1.405529e-09
8	0xb05cd610	-8.0339735e-10
9	0x32bc1102	2.1893815e-08
10	0x32757895	1.4288294e-08
11	0xb14798c7	-2.9045155e-09
12	0xb1a01fa5	-4.6602104e-09
13	0x34b9a463	3.4578542e-07
14	0x3158b50a	3.1535046e-09
15	0x33702aa2	5.591813e-08
16	0xb19ddaab	-4.594161e-09
17	0x3161056e	3.2744896e-09
18	0x30c355c9	1.4212499e-09
19	0x318005c6	3.7259467e-09
20	0x31a18306	4.7006123e-09
21	0xb092456c	-1.0642629e-09
22	0xb027aed0	-6.100267e-10
23	0x329d905b	1.834285e-08
24	0xb23b4ae4	-1.0901861e-08
25	0x339066e8	6.724241e-08
26	0xb28868d6	-1.5880158e-08
27	0x3238984d	1.0744839e-08
28	0x312a6197	2.479373e-09
29	0x33706338	5.5969593e-08
30	0x35e0560e	1.6714346e-06
31	0x31c911a2	5.8518745e-09

conv_layers.4.0.conv.weight f4 [32, 32, 3, 3]
0	0xb1dd9cd4	-6.449776e-09
1	0x328bd79a	1.6279774e-08
2	0xb240f5e5	-1.1231781e-08
3	0xb1171da2	-2.1990236e-09
4	0xb2f9b304	-2.9068822e-08
5	0xb19d9988	-4.586756e-09
6	0x3046e05c	7.2350814e-10
7	0xb04e6636	-7.5087614e-10
8	0x32561c10	1.246282e-08
9	0x32f503ec	2.8523537e-08
10	0x32b8c44f	2.150969e-08
11	0x32636cda	1.3237889e-08
12	0x338150a5	6.0217e-08
13	0xb2e3751f	-2.6479539e-08
14	0x3181f5ed	3.7823527e-09
15	0xb308b789	-3.1831892e-08
16	0xb166724c	-3.3534375e-09
17	0x323dc38c	1.104571e-08
18	0xb30bf798	-3.2588645e-08
19	0x318b147f	4.0477626e-09
20	0xb30a62ad	-3.2220374e-08
21	0x32f657d1	2.8678103e-08
22	0x30241732	5.9695815e-10
23	0x32454c83	1.1484306e-08
24	0xb3449b8a	-4.5776268e-08
25	0x31cb5b75	5.918475e-09
26	0xb052bcb8	-7.666574e-10
27	0xb20754a7	-7.877282e-09
28	0xb2491314	-1.1704078e-08
29	0xb11e411e	-2.302904e-09
30	0xb3207d9e	-3.736715e-08
31	0xb1298718	-2.4669529e-09
32	0x335e4eff	5.176025e-08
33	0x326d25b3	1.38037874e-08
34	0xb280c6c3	-1.4991548e-08
35	0x338a0b35	6.428164e-08
36	0xb2c1e0d4	-2.2570397e-08
37	0x2f236985	1.4862252e-10
38	0x338fd259	6.6972184e-08
39	0x313eb525	2.7751608e-09
40	0x3192062d	4.2498614e-09
41	0x33906de5	6.725512e-08
42	0x331f6468	3.711139e-08
43	0xb0ff58ae	-1.8578896e-09
44	0xb21cffdc	-9.138571e-09
45	0x31364bf2	2.6527656e-09
46	0xb16595b7	-3.340899e-09
47	0x3289f921	1.606219e-08
48	0x328bf63a	1.62937e-08
49	0x32153be6	8.686561e-09
50	0xaf92545c	-2.6617186e-10
51	0xb2be58d3	-2.2159304e-08
52	0x3380b877	5.9940184e-08
53	0x32beb17f	2.2199627e-08
54	0x339019f6	6.710245e-08
55	0xb111b04e	-2.1200495e-09
56	0x338feac9	6.7016636e-08
57	0xb2303b08	-1.02579705e-08
58	0x2f1f3790	1.4480706e-10
59	0x339051b7	6.7203864e-08
60	0x318dd346	4.127659e-09
61	0x3270bbe5	1.4012561e-08
62	0x31558114	3.1068952e-09
63	0xb1a4ceee	-4.7965534e-09
64	0x2dfba160	2.8607061e-11
65	0xb278896d	-1.4466747e-08
66	0xb1c7686f	-5.803535e-09
67	0xb16710c8	-3.3624463e-09
68	0x3225208c	9.611664e-09
69	0x3256a409	1.2493737e-08
70	0x2f0df0e8	1.2909462e-10
71	0x323f73a3	1.1143956e-08
72	0xb32c47d0	-4.0112184e-08
73	0xb251a539	-1.2202968e-08
74	0xb28ad291	-1.6161069e-08
75	0xb1bc43d2	-5.4792304e-09
76	0x32f5ee72	2.8630186e-08
77	0xb150ece4	-3.040264e-09
78	0x31bb49fc	5.4508273e-09
79	0xb2738c97	-1.4176428e-08
80	0xb316b8bc	-3.509261e-08
81	0xb253a472	-1.2319207e-08
82	0x31bf3950	5.5653473e-09
83	0x338edb52	6.6522844e-08
84	0xb1121033	-2.1255004e-09
85	0xb2b925e6	-2.1554069e-08
86	0xb2213a5b	-9.384702e-09
87	0x31aa022b	4.9478976e-09
88	0xb2351bf2	-1.0541941e-08
89	0x322985d8	9.867527e-09
90	0xb2b13cac	-2.0633102e-08
91	0xb14a2636	-2.941659e-09
92	0xb38eed44	-6.655549e-08
93	0x32004aec	7.467616e-09
94	0x327dd1b4	1.4774219e-08
95	0xb371e5a1	-5.632103e-08
96	0xafb02b04	-3.2044778e-10
97	0x333d4db4	4.4075662e-08
98	0xb07b7fec	-9.1495056e-10
99	0x31ed2438	6.9017254e-09
100	0x3201946b	7.542535e-09
101	0x320250ce	7.585369e-09
102	0x2e3a8880	4.241274e-11
103	0x33851a24	6.19805e-08
104	0x326b419d	1.3693719e-08
105	0x31fa1a38	7.2789383e-09
106	0x309f88ac	1.1607617e-09
107	0xb3305e3a	-4.1063892e-08
108	0x3271939a	1.4061607e-08
109	0xafcd3648	-3.7327852e-10
110	0xaf49c1b8	-1.8349666e-10
111	0x32133c7f	8.570281e-09
112	0x31e05ef1	6.5300516e-09
113	0x31240fd2	2.3874134e-09
114	0x32f77d3f	2.881154e-08
115	0xb154c8c2	-3.0964178e-09
116	0xb285dc10	-1.558331e-08
117	0x322571aa	9.630108e-09
118	0x325daf9a	1.290382e-08
119	0xb2864068	-1.5628942e-08
120	0xb1093077	-1.9963673e-09
121	0xb380b7c7	-5.9938934e-08
122	0x31ab1628	4.979274e-09
123	0xb2fb9dbf	-2.929198e-08
124	0xb2bd82eb	-2.206203e-08
125	0x31b8d781	5.3796048e-09
126	0x32d48e6d	2.4744816e-08
127	0x3115849c	2.1757733e-09
128	0x32935fc8	1.7156609e-08
129	0xb29e4c4d	-1.8428318e-08
130	0xb293aaa2	-1.7190647e-08
131	0xb382dd84	-6.09389e-08
132	0x324b4de8	1.1833869e-08
133	0x31b417ff	5.2414175e-09
134	0x330baf55	3.2522923e-08
135	0xaf465270	-1.8037283e-10
136	0x322d9835	1.0104533e-08
137	0xb331a616	-4.1362078e-08
138	0x33620962	5.262826e-08
139	0xb0d6e0a7	-1.5634399e-09
140	0xb2ee03e2	-2.7708612e-08
141	0xb20bb9df	-8.133127e-09
142	0x32023091	7.578039e-09
143	0x2f1c5dee	1.4221488e-10
144	0x32038cdc	7.657231e-09
145	0x324aec10	1.1811622e-08
146	0xb100e06b	-1.8754018e-09
147	0xaf4f2704	-1.8840401e-10
148	0x33084a5b	3.1732593e-08
149	0xafea51e4	-4.262254e-10
150	0xb3894d55	-6.393626e-08
151	0x31c61938	5.7654255e-09
152	0xb2b337ca	-2.0863713e-08
153	0x31e0160c	6.5217645e-09
154	0xb0869be0	-9.794086e-10
155	0x311769d9	2.203356e-09
156	0xb0ae01ae	-1.2660644e-09
157	0x31791f12	3.625193e-09
158	0xb2089dba	-7.952105e-09
159	0xb36b10ea	-5.4730585e-08
160	0x3182ca28	3.8064805e-09
161	0x3074ddf9	8.9082125e-10
162	0x32b73dd0	2.1332113e-08
163	0xb21c54d9	-9.099687e-09
164	0xb17b3012	-3.6552632e-09
165	0x2fa98b39	3.0839845e-10
166	0x30c2ae39	1.4164875e-09
167	0xb12ccf3b	-2.514709e-09
168	0xb29b3158	-1.8066814e-08
169	0xb153b5b4	-3.0807827e-09
170	0x332deeda	4.0496936e-08
171	0x32b39202	2.090474e-08
172	0x3109a250	2.0028388e-09
173	0x332e2804	4.0548926e-08
174	0x327a8b80	1.4583634e-08
175	0xb19c9a34	-4.5577284e-09
176	0x32142031	8.622053e-09
177	0xb1cd8296	-5.981131e-09
178	0x32166340	8.753716e-09
179	0xb10e5c00	-2.0716016e-09
180	0xb3140347	-3.4461916e-08
181	0xb21e92af	-9.230162e-09
182	0x3219d9b0	8.9552685e-09
183	0x323542d6	1.0550783e-08
184	0xb1d09c3b	-6.071358e-09
185	0x32a4089a	1.9096024e-08
186	0x31209fbf	2.337387e-09
187	0x309e5b11	1.1521896e-09
188	0x324477f8	1.1435979e-08
189	0x2fbe3c70	3.4603742e-10
190	0xaf432960	-1.7749846e-10
191	0xb2adf0e7	-2.02494e-08
192	0xb336b5ad	-4.254041e-08
193	0x32fe7b62	2.96256e-08
194	0x331e9a39	3.6927506e-08
195	0x2e927c98	6.6614436e-11
196	0xb08def6d	-1.0327149e-09
197	0x2fb24560	3.2427305e-10
198	0x32b3b9d2	2.0922844e-08
199	0xb0bef042	-1.3892605e-09
200	0x330c106e	3.2611233e-08
201	0x325d37ec	1.2876608e-08
202	0xb2ba3886	-2.1678954e-08
203	0xb28fb749	-1.673074e-08
204	0x332c8145	4.016444e-08
205	0xb2eaa596	-2.7316485e-08
206	0x32bce7ad	2.1991434e-08
207	0x3124976b	2.3951212e-09
208	0xb35bd836	-5.1186554e-08
209	0x338ce2af	6.5604915e-08
210	0x328dbfb8	1.6501744e-08
211	0xb1900fda	-4.1927537e-09
212	0x3254509f	1.2358355e-08
213	0xb17b4531	-3.6564638e-09
214	0xb2973ec3	-1.7607254e-08
215	0xb2977f61	-1.7636639e-08
216	0x31033b5a	1.9096746e-09
217	0x33551cc1	4.961908e-08
218	0x32d2a688	2.4522947e-08
219	0x327b9361	1.4643633e-08
220	0xb383d42b	-6.138756e-08
221	0xb320d195	-3.7443517e-08
222	0x3336cfca	4.256416e-08
223	0xb2266a66	-9.686664e-09
224	0xb095ea0e	-1.0907699e-09
225	0x30d4c072	1.5479726e-09
226	0x325231fc	1.2234974e-08
227	0xb1664ab5	-3.351187e-09
228	0xb071bdb6	-8.7944885e-10
229	0xb3746399	-5.690126e-08
230	0x32dfd314	2.6056604e-08
231	0xb32f02ac	-4.0747793e-08
232	0xb2292c25	-9.847132e-09
233	0xb121f859	-2.3569753e-09
234	0xaf2f4e26	-1.5943921e-10
235	0xb22b4fed	-9.971683e-09
236	0x31cbb5c1	5.9287406e-09
237	0xb2fb9348	-2.9287222e-08
238	0xb2448266	-1.1438351e-08
239	0x315b0d96	3.1876417e-09
240	0xb2f8c358	-2.8959832e-08
241	0xb1236716	-2.377822e-09
242	0xb208ceed	-7.963291e-09
243	0x3120dc05	2.340813e-09
244	0x311b00ee	2.2555997e-09
245	0xb15ed666	-3.2427123e-09
246	0xb1bb6381	-5.4537286e-09
247	0x31a51e14	4.8055515e-09
248	0x31ccae6d	5.9570113e-09
249	0x332e409c	4.0571294e-08
250	0xb1177d07	-2.2044462e-09
251	0xb03e0860	-6.91335e-10
252	0x2f7bb296	2.2891763e-10
253	0xb1ce1087	-5.997268e-09
254	0xb21305c9	-8.5578415e-09
255	0x318bd8e6	4.070091e-09

conv_layers.4.0.conv.bias f4 [32]
0	0xb021bf6e	-5.8843497e-10
1	0xb33063a2	-4.106881e-08
2	0xb184cd24	-3.8650274e-09
3	0x308d185a	1.0266021e-09
4	0x32818d27	1.5081765e-08
5	0xb08d8f84	-1.029989e-09
6	0xb2ace11d	-2.0125805e-08
7	0x325914ba	1.2635775e-08
8	0xafe43c48	-4.151579e-10
9	0xb00e1e92	-5.170274e-10
10	0xb1fb63b2	-7.3163955e-09
11	0xb3261687	-3.8670375e-08
12	0x3296cdf8	1.7555962e-08
13	0xb27d88e6	-1.4757665e-08
14	0x3127f666	2.444176e-09
15	0x31e370eb	6.619407e-09
16	0xb32c7194	-4.015017e-08
17	0x30a9f806	1.2366861e-09
18	0xb0f6f872	-1.7969468e-09
19	0xb2d1048e	-2.4332873e-08
20	0x3153d7b4	3.0827154e-09
21	0xb294508d	-1.7266098e-08
22	0xb02a617a	-6.198416e-10
23	0xb1fedf39	-7.4177504e-09
24	0xb2b01309	-2.0497753e-08
25	0xb380a0a6	-5.989686e-08
26	0xaf0671e8	-1.2227697e-10
27	0xb21f69ca	-9.279072e-09
28	0x320c7e23	8.177753e-09
29	0x337700bc	5.7509837e-08
30	0x332d77c2	4.038862e-08
31	0x338e8dd6	6.63819e-08

conv_layers.5.0.conv.weight f4 [32, 32, 3, 3]
0	0x3292ca1a	1.7088542e-08
1	0xb18295c6	-3.8005252e-09
2	0x32566281	1.2478837e-08
3	0x32a07201	1.8678294e-08
4	0x2f7c32d0	2.2937319e-10
5	0x321bb19f	9.062574e-09
6	0xb241e1f8	-1.1285458e-08
7	0xb31820a2	-3.5419937e-08
8	0xb28853a8	-1.5870526e-08
9	0x2dc00340	2.1829316e-11
10	0x328ed771	1.6628947e-08
11	0xb189d62e	-4.011574e-09
12	0xb3228966	-3.7843527e-08
13	0xb1e30993	-6.607658e-09
14	0x31f354b2	7.0818595e-09
15	0xb31ce160	-3.6526558e-08
16	0xb184ff99	-3.8707637e-09
17	0xb2fe56c1	-2.9608943e-08
18	0x301aa4ff	5.6259347e-10
19	0xb1c0b252	-5.608208e-09
20	0x2f2bc6b0	1.5622947e-10
21	0x318572ad	3.8838466e-09
22	0xad145da0	-8.433615e-12
23	0x322a5b75	9.916097e-09
24	0xb0e23ec9	-1.6461509e-09
25	0xb21ff0f2	-9.309803e-09
26	0x2ffd5df8	4.60872e-10
27	0xb1e33fac	-6.613808e-09
28	0xb1385d54	-2.6828575e-09
29	0x30e980bb	1.6989569e-09
30	0xb28db386	-1.6496198e-08
31	0xb138f1f4	-2.6913058e-09
32	0x3094827f	1.0805506e-09
33	0xb383ff9e	-6.1466594e-08
34	0x31afffe9	5.122264e-09
35	0x30e54ffe	1.6684678e-09
36	0x3361715d	5.2489998e-08
37	0xb2d2df71	-2.4548827e-08
38	0x32d68fc8	2.4978263e-08
39	0x307beab6	9.164681e-10
40	0xb08041ad	-9.331892e-10
41	0xb13f7199	-2.785873e-09
42	0xb1b8f1a5	-5.3825766e-09
43	0x3221616e	9.393586e-09
44	0xb1297ff2	-2.4665465e-09
45	0x32a06768	1.8673475e-08
46	0x32168437	8.761211e-09
47	0x3346f878	4.632645e-08
48	0xb1e61e8f	-6.697355e-09
49	0xb2d77f1c	-2.5087097e-08
50	0x317d9893	3.6903074e-09
51	0xb2d1a78b	-2.4406992e-08
52	0xb2bc3f08	-2.1914744e-08
53	0xb268e9fa	-1.3557377e-08
54	0xb25688ad	-1.2487516e-08
55	0x332a5680	3.965988e-08
56	0x30c4bc98	1.4314478e-09
57	0x31b10579	5.152e-09
58	0xb23676b2	-1.06207825e-08
59	0xb12067d4	-2.3342084e-09
60	0x3282fa7f	1.5247904e-08
61	0x333fcd33	4.465728e-08
62	0x323993d3	1.0802029e-08
63	0x30d94296	1.5807753e-09
64	0x2e860200	6.09397e-11
65	0x30bbad84	1.3655357e-09
66	0x32530901	1.2283864e-08
67	0xb02e8c9f	-6.3500666e-10
68	0xb22cb09a	-1.0051872e-08
69	0xafc4c7b8	-3.57941e-10
70	0xb35d6f6c	-5.155691e-08
71	0xaf358168	-1.6507828e-10
72	0x338e29de	6.620006e-08
73	0x32370061	1.0652088e-08
74	0xb293d77d	-1.7211045e-08
75	0x32807280	1.495323e-08
76	0xb1a53f55	-4.809332e-09
77	0xb255c480	-1.2442911e-08
78	0x331d6392	3.664497e-08
79	0xb2ae32d2	-2.0279376e-08
80	0xb35a7cda	-5.0870632e-08
81	0xb26f9c14	-1.3947119e-08
82	0xb236e09e	-1.0644866e-08
83	0x2f9ff6ce	2.9097297e-10
84	0x32bbc2c0	2.1858227e-08
85	0xb300f00b	-3.002064e-08
86	0x30edaabc	1.7292545e-09
87	0xb0ea6ea0	-1.7057182e-09
88	0x32660cdc	1.3390686e-08
89	0xb20b6d6c	-8.1157445e-09
90	0xb32ec6f8	-4.0693493e-08
91	0x332567f2	3.8511594e-08
92	0x317fea3e	3.7240535e-09
93	0x3101e963	1.8904636e-09
94	0x32e07d6c	2.6134067e-08
95	0xb2857630	-1.5536983e-08
96	0x3243002c	1.1350533e-08
97	0xb190c0b5	-4.21286e-09
98	0x2faf0e7a	3.18426e-10
99	0xb200dcb5	-7.500764e-09
100	0xafc7852d	-3.6292516e-10
101	0xb1612fd0	-3.2768988e-09
102	0x30bdd745	1.3812743e-09
103	0xb18d9876	-4.120973e-09
104	0xb1e75ce8	-6.733547e-09
105	0xb33186fb	-4.1333788e-08
106	0x33853bd4	6.204178e-08
107	0xb09f4c50	-1.1590462e-09
108	0xb27d44e3	-1.4742201e-08
109	0xb240db99	-1.1225802e-08
110	0x318b7d3b	4.0596695e-09
111	0xb29750e4	-1.7615498e-08
112	0x329dbc74	1.8362904e-08
113	0x304e7bd2	7.511832e-10
114	0x310bc7fc	2.034084e-09
115	0x32186fcf	8.872987e-09
116	0xb27d66fa	-1.4749952e-08
117	0xb152ca06	-3.067386e-09
118	0x31b145e9	5.159326e-09
119	0x32aac478	1.9879948e-08
120	0x2fb1de68	3.2354142e-10
121	0xb3819f21	-6.035976e-08
122	0xb2564af9	-1.2473486e-08
123	0xb0f78895	-1.8010434e-09
124	0x310eb05d	2.076397e-09
125	0x32a37086	1.9026867e-08
126	0xb2489bdf	-1.1676973e-08
127	0xb17a3b2a	-3.641342e-09
128	0xb284d786	-1.5464831e-08
129	0xb217cd38	-8.836018e-09
130	0x3331aaf8	4.136652e-08
131	0x326d1868	1.3800765e-08
132	0x32a8403d	1.9586986e-08
133	0x3132e273	2.603113e-09
134	0x3240bd15	1.1218863e-08
135	0x32466447	1.1547917e-08
136	0x30904fc7	1.0500053e-09
137	0x339069d7	6.724775e-08
138	0x3278a12f	1.4472149e-08
139	0xb2229508	-9.463527e-09
140	0xb0c1b724	-1.409465e-09
141	0xb1fdb889	-7.3842483e-09
142	0x3154d3d9	3.0970482e-09
143	0x3256d66f	1.2505196e-08
144	0xb1fb34d5	-7.3110678e-09
145	0xb2321e9c	-1.0367923e-08
146	0xb1a7eeb4	-4.887477e-09
147	0xb317635a	-3.5247787e-08
148	0xb21c015f	-9.080707e-09
149	0x324d628b	1.1954977e-08
150	0xb2610f32	-1.3100179e-08
151	0x2f7119a0	2.1927926e-10
152	0xadfbbde0	-2.8619718e-11
153	0x32772736	1.4386208e-08
154	0x32dff39c	2.6071397e-08
155	0xb2f703e3	-2.8756352e-08
156	0x324eeb1d	1.2044237e-08
157	0xb10a8514	-2.015729e-09
158	0x2fb6c8fe	3.324842e-10
159	0xb3309b4a	-4.1119428e-08
160	0x327b7472	1.46365995e-08
161	0xb17c7c6c	-3.6741552e-09
162	0xb297e34e	-1.768208e-08
163	0x32916d08	1.6929803e-08
164	0xb0dabdbb	-1.5915512e-09
165	0xb1a7b20a	-4.8805804e-09
166	0x3363ab2c	5.3008236e-08
167	0xb25eb6b8	-1.2963646e-08
168	0x3243b82d	1.1392371e-08
169	0xb1835637	-3.8224033e-09
170	0x316a01c0	3.4052476e-09
171	0xb2c90d09	-2.3405407e-08
172	0xb10a5833	-2.0131778e-09
173	0x31f45e8d	7.112084e-09
174	0x31a07c55	4.670748e-09
175	0xb1c79ed8	-5.8097207e-09
176	0xb2d36660	-2.4610188e-08
177	0xae588546	-4.9231084e-11
178	0xb1e97abd	-6.7951462e-09
179	0x30dac2be	1.5916937e-09
180	0x31ad6b08	5.0471307e-09
181	0xb1163ad4	-2.1861313e-09
182	0x3299c026	1.7898923e-08
183	0x3328b585	3.928064e-08
184	0xb22235ef	-9.441904e-09
185	0xb22ffeba	-1.0244259e-08
186	0xb325e251	-3.862289e-08
187	0x31da87b0	6.360061e-09
188	0x32570a7b	1.251703e-08
189	0x327b1da8	1.4616866e-08
190	0x3238bc92	1.07530855e-08
191	0x328ecebc	1.6624988e-08
192	0x3118e2f0	2.224791e-09
193	0x319a1dd0	4.485379e-09
194	0xb18b01a4	-4.045619e-09
195	0xaf7fc9dc	-2.326383e-10
196	0xb23966e2	-1.079181e-08
197	0xb2a66be2	-1.9374003e-08
198	0xb2104b7c	-8.399066e-09
199	0xb0a7efd7	-1.2219016e-09
200	0x3086a1cc	9.795769e-10
201	0xaffcf461	-4.6012175e-10
202	0xb2be19cd	-2.2130644e-08
203	0xaeec7a09	-1.0753715e-10
204	0x3230ee85	1.0298781e-08
205	0x32a8c9b0	1.9649491e-08
206	0xb0d95e28	-1.5815589e-09
207	0x328adf65	1.6166902e-08
208	0x32790c08	1.4496443e-08
209	0xb147c583	-2.9070584e-09
210	0xb291df61	-1.6981803e-08
211	0x339030c6	6.7143944e-08
212	0x3198c3aa	4.4460267e-09
213	0x327aed04	1.4605806e-08
214	0x33885df4	6.3500835e-08
215	0x3316f18d	3.5144286e-08
216	0x30a8d816	1.2285024e-09
217	0x30dd1915	1.6086995e-09
218	0x31cf75f9	6.037905e-09
219	0x3201a3c5	7.546025e-09
220	0xb2f9167a	-2.8997636e-08
221	0x31189f70	2.220954e-09
222	0x32562132	1.2463987e-08
223	0x32610446	1.3097695e-08
224	0xb2144e78	-8.6325755e-09
225	0xb1906010	-4.2018726e-09
226	0x328cc5d4	1.6388107e-08
227	0x32adab08	2.0217627e-08
228	0x32846a51	1.541517e-08
229	0xb2d82c3c	-2.5165825e-08
230	0x31db4c30	6.3824004e-09
231	0x304bee30	7.4189455e-10
232	0xb20128eb	-7.518092e-09
233	0xb2fcf447	-2.9447746e-08
234	0x2ede0a4e	1.0097222e-10
235	0x312bb954	2.4989122e-09
236	0x3057b332	7.8471196e-10
237	0x327c8ba1	1.47000785e-08
238	0x30166262	5.470949e-10
239	0x3147b697	2.9062102e-09
240	0xb2dc6d36	-2.5661034e-08
241	0xb25830d2	-1.2583955e-08
242	0xb225ba20	-9.646584e-09
243	0x321d0315	9.1393035e-09
244	0x31971e8d	4.3981516e-09
245	0xb36931c0	-5.4294787e-08
246	0xb2d3aca5	-2.4642143e-08
247	0x324c5d85	1.1895627e-08
248	0xb21d70aa	-9.16422e-09
249	0x318f3d52	4.168819e-09
250	0x324f4c0c	1.2066277e-08
251	0x326814d8	1.3508917e-08
252	0x32977ec2	1.7636356e-08
253	0xb22dfdda	-1.01276445e-08
254	0x329881ab	1.7754095e-08
255	0x30d93664	1.5804287e-09

conv_layers.5.0.conv.bias f4 [32]
0	0xb2dc2159	-2.5626536e-08
1	0x31a25cf2	4.725387e-09
2	0xb1ef9694	-6.9729342e-09
3	0xb389b593	-6.412588e-08
4	0xb11fb01e	-2.3237656e-09
5	0xaff8ce40	-4.5257487e-10
6	0x31b42ce3	5.2437925e-09
7	0x319045e0	4.1988955e-09
8	0xb1eb39b2	-6.8459594e-09
9	0x31e2db00	6.602363e-09
10	0x30a94179	1.2314977e-09
11	0xb2ac04be	-2.0025592e-08
12	0xb380c0e9	-5.9955546e-08
13	0xb0a41352	-1.1938062e-09
14	0x3073ad4e	8.8649166e-10
15	0xb1b9ec06	-5.4110414e-09
16	0xb375cf01	-5.7231777e-08
17	0x318070da	3.73812e-09
18	0x314dd626	2.9953156e-09
19	0x3290b327	1.6845275e-08
20	0xb31e2073	-3.6816754e-08
21	0xb2a2aa66	-1.893677e-08
22	0x3276767a	1.4346023e-08
23	0xb27a4e06	-1.4569656e-08
24	0x3306a13f	3.134596e-08
25	0xb2b38ed4	-2.0903293e-08
26	0xb0c129a6	-1.4054435e-09
27	0xb2d28693	-2.4508415e-08
28	0xb1200518	-2.328596e-09
29	0xb2843e5f	-1.5395186e-08
30	0x32a746ad	1.9473498e-08
31	0x309d845a	1.146087e-09

conv_layers.7.0.conv.weight f4 [16, 32, 3, 3]
0	0xb38e5360	-6.627556e-08
1	0x304ec919	7.522814e-10
2	0xb3035088	-3.0574057e-08
3	0xb331a717	-4.136299e-08
4	0xb2b2f6b4	-2.0834115e-08
5	0x32bd638f	2.204777e-08
6	0x32243b99	9.559607e-09
7	0x3128dd3f	2.4572981e-09
8	0x32ec368e	2.7498825e-08
9	0xb2cb2dc0	-2.3653115e-08
10	0xb24e4ac8	-1.2007781e-08
11	0x32b16ca6	2.065492e-08
12	0x31fcd08e	7.357875e-09
13	0xaf3c4778	-1.7123891e-10
14	0x326dae98	1.3834914e-08
15	0x33258b1e	3.8543583e-08
16	0x310af343	2.0219921e-09
17	0x308f78eb	1.0438986e-09
18	0x2fa314a9	2.9664207e-10
19	0x321a4f12	8.981958e-09
20	0x33114096	3.3819184e-08
21	0xb224b9a5	-9.588267e-09
22	0xb22b32c4	-9.965053e-09
23	0xb2ee7dfe	-2.7764141e-08
24	0x31a738c4	4.866793e-09
25	0xb298b5c4	-1.7777786e-08
26	0x333114cf	4.122995e-08
27	0xb202cf21	-7.614092e-09
28	0xb25bdc50	-1.2797571e-08
29	0xae83e138	-5.997197e-11
30	0x319f9b7a	4.6451847e-09
31	0x3280507f	1.4937767e-08
32	0xb1d71178	-6.2593095e-09
33	0xb2b95548	-2.1575616e-08
34	0x30c2b72b	1.4167417e-09
35	0x32a7d0f0	1.9536373e-08
36	0x3305cdac	3.1153533e-08
37	0x30b3045c	1.3025203e-09
38	0xafbfd5b6	-3.4894548e-10
39	0xb3079565	-3.156801e-08
40	0x31ab407e	4.984087e-09
41	0x30f620e0	1.7908199e-09
42	0x313c0156	2.735836e-09
43	0xb13fdba8	-2.7919018e-09
44	0x321fcef6	9.3020756e-09
45	0x32f905f0	2.8990115e-08
46	0x32b74c28	2.1338636e-08
47	0xb20c4715	-8.165235e-09
48	0xb38dbb87	-6.599935e-08
49	0xb10017ed	-1.8640052e-09
50	0x31a77c9f	4.8745075e-09
51	0x32c87b26	2.3339066e-08
52	0x32be9d42	2.2190424e-08
53	0xb12a6e01	-2.4800786e-09
54	0xb3310ecd	-4.1224485e-08
55	0x32b35429	2.0876614e-08
56	0xae91de20	-6.633294e-11
57	0xb379f68a	-5.8199056e-08
58	0x32ac8ecb	2.008837e-08
59	0xb2724628	-1.4102206e-08
60	0xb247e53f	-1.1635449e-08
61	0xb38fe1aa	-6.7000045e-08
62	0x2ff4a0d8	4.4497628e-10
63	0xb2beb02c	-2.2199025e-08
64	0xb3793441	-5.8022355e-08
65	0x32286ad7	9.80318e-09
66	0xb2062184	-7.807447e-09
67	0xb331204b	-4.1240394e-08
68	0xb03bf1b4	-6.8373684e-10
69	0x2ebfe004	8.7254676e-11
70	0x3369842b	5.4369746e-08
71	0x323c518f	1.09615845e-08
72	0x336db931	5.5349293e-08
73	0xb2301823	-1.0250036e-08
74	0x3357d10a	5.024871e-08
75	0x2f43dfd0	1.7814661e-10
76	0xb3107735	-3.363603e-08
77	0xb3096abf	-3.1994883e-08
78	0xb27e818a	-1.48142e-08
79	0xb213716e	-8.582317e-09
80	0xb2ba962e	-2.1721544e-08
81	0x31ab0c29	4.9781375e-09
82	0xb1b4b2a1	-5.2589972e-09
83	0xb323ed71	-3.8167347e-08
84	0x331ac938	3.6038927e-08
85	0xb23873bb	-1.0736524e-08
86	0xb05591e9	-7.76963e-10
87	0x327d19ef	1.4732435e-08
88	0xb1879533	-3.945979e-09
89	0xb20ef275	-8.320616e-09
90	0xb3103679	-3.3577155e-08
91	0xb23694b0	-1.0627602e-08
92	0x3148fb0d	2.9246536e-09
93	0x2f7db141	2.3073189e-10
94	0x2facded7	3.1444955e-10
95	0x31b428a3	5.2433093e-09
96	0x32c38df5	2.2765542e-08
97	0xb0e83532	-1.6895341e-09
98	0x31f20207	7.0433575e-09
99	0x31c40461	5.7048486e-09
100	0xb2d7b440	-2.5111262e-08
101	0xb2394031	-1.0783013e-08
102	0x2e8f6990	6.521639e-11
103	0xb296a835	-1.753879e-08
104	0x2f98fb10	2.782703e-10
105	0x315c20d0	3.2032865e-09
106	0x32319b86	1.0338118e-08
107	0xb1770bbf	-3.5949907e-09
108	0xb1c32c2b	-5.6802683e-09
109	0x31c5e7c4	5.7598033e-09
110	0xb33bfb36	-4.3767805e-08
111	0xb2f780ee	-2.8813215e-08
112	0xb0922a0c	-1.0634849e-09
113	0xb2b82bba	-2.1440304e-08
114	0xb22c4cfe	-1.0029224e-08
115	0xb2bb197c	-2.1781254e-08
116	0xb101692a	-1.883175e-09
117	0x30b4003f	1.3096794e-09
118	0xb363429c	-5.2913137e-08
119	0x3386550f	6.255333e-08
120	0xb2192bc4	-8.915723e-09
121	0x325d6a30	1.2888037e-08
122	0xb38cf37f	-6.56355e-08
123	0x32bd591c	2.2043018e-08
124	0x3198d804	4.4483404e-09
125	0xb1ccc7fa	-5.959916e-09
126	0x3150d12d	3.0386886e-09
127	0xb399a726	-7.155022e-08
128	0x32e41a04	2.6554524e-08
129	0xb07ee27b	-9.272651e-10
130	0xb256eea6	-1.2510702e-08
131	0xb2b90a31	-2.1541469e-08
132	0xb315deb6	-3.489432e-08
133	0x31053c18	1.9388207e-09
134	0xb16b794c	-3.426595e-09
135	0xb3291a80	-3.937248e-08
136	0x328dc2a4	1.6503073e-08
137	0x32f653f0	2.867634e-08
138	0xb2f373fe	-2.834167e-08
139	0xb11a6b31	-2.247088e-09
140	0x3112ea99	2.137915e-09
141	0xb25b8263	-1.2777124e-08
142	0x328550bf	1.5519957e-08
143	0x2f589280	1.9697133e-10
144	0x321cac11	9.1195185e-09
145	0xb0100b6e	-5.240314e-10
146	0x31029bef	1.9006128e-09
147	0xb0019b64	-4.715075e-10
148	0xadb39670	-2.0416752e-11
149	0xb1f3ec75	-7.099113e-09
150	0x331dbdf6	3.672718e-08
151	0xb0fa04b7	-1.8191234e-09
152	0xb209a9be	-8.0130445e-09
153	0xb036d934	-6.651988e-10
154	0xb0043712	-4.809958e-10
155	0xae806580	-5.838796e-11
156	0xb325f3cf	-3.86388e-08
157	0xb247f935	-1.1639988e-08
158	0xb10d5c00	-2.0570496e-09
159	0x3329c1c9	3.9524625e-08
160	0xb256898a	-1.2487712e-08
161	0x310fe344	2.0938424e-09
162	0x3053fcb6	7.7120477e-10
163	0xafd382f2	-3.847372e-10
164	0xb1129d12	-2.133508e-09
165	0xb38d70e4	-6.586359e-08
166	0xb2494159	-1.1714598e-08
167	0xb3506622	-4.8521663e-08
168	0x313de2c8	2.763203e-09
169	0x319e475c	4.606518e-09
170	0xb1c0f406	-5.6156777e-09
171	0xb11cf8e8	-2.2842475e-09
172	0xb06f5282	-8.7064944e-10
173	0x309976b6	1.1165955e-09
174	0x3109a002	2.0027078e-09
175	0xb22b51be	-9.972096e-09
176	0xb32f7e42	-4.0860193e-08
177	0xb231b72c	-1.03444044e-08
178	0xaefeb0e0	-1.1582002e-10
179	0x31d8ef82	6.3136563e-09
180	0x32873186	1.5738589e-08
181	0xb32d91d8	-4.0412345e-08
182	0xb2c998fa	-2.3469045e-08
183	0x317a46ba	3.6419991e-09
184	0x30aac510	1.2425136e-09
185	0xb2390292	-1.0769002e-08
186	0xb244113a	-1.1412618e-08
187	0x32b5a7c8	2.1147471e-08
188	0xb2c89de1	-2.335486e-08
189	0x30b5e364	1.3234112e-09
190	0xb0ac71b7	-1.2546967e-09
191	0xb2b960f6	-2.1580927e-08
192	0x30a85d22	1.2250079e-09
193	0x3144ce45	2.8639005e-09
194	0xb137cc84	-2.6746259e-09
195	0xb38ca07f	-6.548452e-08
196	0xb38f0b64	-6.661028e-08
197	0xb2a2b458	-1.8941293e-08
198	0x32a4b5f1	1.917485e-08
199	0xb12b13f0	-2.4895108e-09
200	0x32c8cf19	2.3377241e-08
201	0xb1adbaab	-5.0561844e-09
202	0x31b19412	5.1682116e-09
203	0x32541d24	1.234665e-08
204	0x325dc7f5	1.2909358e-08
205	0xb3880edd	-6.335697e-08
206	0x333c88dc	4.3896634e-08
207	0xb19da821	-4.5884154e-09
208	0x314d1bde	2.9847267e-09
209	0x3170f968	3.5066368e-09
210	0xb301f792	-3.0260317e-08
211	0xb1d111a0	-6.0847043e-09
212	0x31ea4cb3	6.819016e-09
213	0x3312ae07	3.415155e-08
214	0xb33183fe	-4.133107e-08
215	0xb28cb77a	-1.638158e-08
216	0xb0b10073	-1.2878573e-09
217	0xb2dd60f9	-2.5771884e-08
218	0xb32e27a1	-4.0548574e-08
219	0xb097e9b1	-1.1053115e-09
220	0xb369b84e	-5.4417164e-08
221	0x3261f968	1.3153432e-08
222	0x33867a8c	6.2621524e-08
223	0xaebe40b8	-8.651696e-11
224	0xb2cdd556	-2.3962155e-08
225	0x2f8dc434	2.578716e-10
226	0x33903f20	6.717005e-08
227	0xb1f13eb4	-7.0211517e-09
228	0xb2ad9186	-2.0206027e-08
229	0xb331a93d	-4.1364945e-08
230	0x3291423a	1.6910338e-08
231	0x302b81cd	6.2393896e-10
232	0xb2627a36	-1.3182719e-08
233	0x3209cbfd	8.020831e-09
234	0xb2f6abe5	-2.8716338e-08
235	0x320506d7	7.743174e-09
236	0xb3907a45	-6.727763e-08
237	0xb1f1e532	-7.0400796e-09
238	0x31b0512c	5.1315023e-09
239	0x30849ddf	9.649134e-10
240	0x319b9b56	4.5287534e-09
241	0x3266d668	1.3436512e-08
242	0xb1f9e56f	-7.2729374e-09
243	0xb2569658	-1.2490624e-08
244	0x3315a750	3.4843936e-08
245	0x30328e22	6.4958006e-10
246	0xb133a5f6	-2.6142266e-09
247	0x318143d9	3.7621075e-09
248	0x323b732a	1.0911018e-08
249	0x3329493b	3.941498e-08
250	0xb1be12b9	-5.5318563e-09
251	0xb183a9e9	-3.8319183e-09
252	0x32be75cc	2.2172479e-08
253	0x3225c406	9.648835e-09
254	0x3281670c	1.5064437e-08
255	0xb19e2e5e	-4.6036766e-09

conv_layers.7.0.conv.bias f4 [16]
0	0xb3681eef	-5.4044843e-08
1	0xb0774c06	-8.996611e-10
2	0x31c63f05	5.769723e-09
3	0xb198f52a	-4.451654e-09
4	0x2e52c8d4	4.7926843e-11
5	0xb103ce8b	-1.9180415e-09
6	0x32153cc2	8.686756e-09
7	0xb220c366	-9.357654e-09
8	0xb2922bb8	-1.7016518e-08
9	0xb2db8ca3	-2.555891e-08
10	0x33238f12	3.8081517e-08
11	0x31df7d91	6.5044294e-09
12	0x32e23162	2.633232e-08
13	0xadc8fad0	-2.284875e-11
14	0x313b2294	2.7231737e-09
15	0x33054ee1	3.1038216e-08

linear_layers.0.weight f4 [64, 400]
0	0x30756afe	8.9282526e-10
1	0x32a9df8d	1.9775849e-08
2	0x3154774e	3.0917877e-09
3	0x320262f6	7.589497e-09
4	0x2f91dd5e	2.6532637e-10
5	0xb1fa8416	-7.290974e-09
6	0x33307352	4.1083076e-08
7	0x32604125	1.3053328e-08
8	0xb311cac0	-3.3944843e-08
9	0xb020a026	-5.8435246e-10
10	0xaef9e60c	-1.13640736e-10
11	0xafc9af28	-3.6686143e-10
12	0xb17b3a05	-3.6558288e-09
13	0x31cc75e9	5.9505862e-09
14	0xb021122e	-5.8597294e-10
15	0xb255deb2	-1.2448867e-08
16	0xb1fede98	-7.417679e-09
17	0x320f327d	8.335175e-09
18	0xb0da8135	-1.589831e-09
19	0x2fb348ce	3.261164e-10
20	0xb084a784	-9.651875e-10
21	0xb1bedbf9	-5.554736e-09
22	0xb0e0c24c	-1.6353368e-09
23	0x3182a4bc	3.802226e-09
24	0x32433525	1.13625775e-08
25	0xac1b9200	-2.2107871e-12
26	0xb2ec5028	-2.7510467e-08
27	0x31e4a17d	6.6540324e-09
28	0x305471f1	7.728707e-10
29	0xb1ec2bdf	-6.8734916e-09
30	0xb331a0bf	-4.135722e-08
31	0x329b86bf	1.810565e-08
32	0x2f8c2e91	2.549894e-10
33	0xaf62b28b	-2.0618011e-10
34	0xb21ba0cd	-9.058749e-09
35	0x3331aa67	4.1366004e-08
36	0xb2121e16	-8.505159e-09
37	0x315f7352	3.2516323e-09
38	0xb2cf80c3	-2.4156526e-08
39	0x326dee3b	1.3849383e-08
40	0xb1d0de88	-6.0788956e-09
41	0x31a7c90f	4.8831974e-09
42	0x31313377	2.5786144e-09
43	0xb19f995b	-4.6449435e-09
44	0xb2d8294d	-2.5164491e-08
45	0x32397546	1.0795082e-08
46	0x30801282	9.318486e-10
47	0xb1c70481	-5.7921743e-09
48	0xb222973a	-9.464026e-09
49	0x321a7244	8.989961e-09
50	0x32beb2b8	2.2200183e-08
51	0xaff6c901	-4.488996e-10
52	0xb2334009	-1.0433731e-08
53	0xb2f60cc8	-2.8643981e-08
54	0x32f89650	2.8939354e-08
55	0xb135b9c3	-2.644456e-09
56	0x2e732196	5.5281633e-11
57	0xb21bb47f	-9.0632275e-09
58	0x31bd7671	5.514089e-09
59	0xb0fa24c0	-1.8200339e-09
60	0xb027261e	-6.0808414e-10
61	0x30b37016	1.3055821e-09
62	0xb21d1f7a	-9.14576e-09
63	0xb331a635	-4.136219e-08
64	0x31e0abc1	6.538784e-09
65	0x3331921e	4.1343917e-08
66	0x325c50ba	1.28240405e-08
67	0x328c5257	1.6335589e-08
68	0x31266aa3	2.4216795e-09
69	0xb2664692	-1.3403808e-08
70	0xb136e7ba	-2.6616207e-09
71	0xb116d07d	-2.1946385e-09
72	0xb2a364f3	-1.9021604e-08
73	0x323510b2	1.0539383e-08
74	0x30e7cf5c	1.6866397e-09
75	0xb113854c	-2.1467086e-09
76	0x31323db9	2.5937494e-09
77	0x319d5b66	4.579692e-09
78	0x33006410	2.989333e-08
79	0xaea5d92c	-7.541909e-11
80	0x327bade2	1.4649659e-08
81	0xb0dc85cb	-1.6045133e-09
82	0xb16d3504	-3.4518175e-09
83	0x315fb006	3.2550829e-09
84	0x3155a272	3.108792e-09
85	0x32a2a2ec	1.893337e-08
86	0x3273543a	1.41636125e-08
87	0x31842108	3.845461e-09
88	0xb1ea27bb	-6.814813e-09
89	0xb2247cc6	-9.574427e-09
90	0x2fc20dd8	3.529823e-10
91	0xb10c7db1	-2.0444129e-09
92	0x3195075d	4.337308e-09
93	0xb219d984	-8.9552294e-09
94	0xb1a9a56b	-4.937353e-09
95	0x30a8118c	1.2228596e-09
96	0xb298175a	-1.7705748e-08
97	0xb1cbd633	-5.932429e-09
98	0x32bea3ad	2.2193342e-08
99	0x30d51c6c	1.5505868e-09
100	0x32489acc	1.1676729e-08
101	0xb2be5efd	-2.2162107e-08
102	0x2f316878	1.6135171e-10
103	0xb2637a0a	-1.32408875e-08
104	0x31c81125	5.822715e-09
105	0xb3219ab8	-3.762645e-08
106	0x2f3dcaf2	1.726155e-10
107	0xb1d25720	-6.1217094e-09
108	0x31a2979b	4.732056e-09
109	0xb1a25c70	-4.7253295e-09
110	0xb28b0567	-1.6184186e-08
111	0xb31e44d9	-3.684986e-08
112	0xb2679eb0	-1.3482051e-08
113	0x31050051	1.9354227e-09
114	0xb10f6c60	-2.0870843e-09
115	0x32a81e06	1.9571427e-08
116	0x32a8f637	1.966974e-08
117	0xb155d946	-3.1119085e-09
118	0xb1d4294c	-6.174707e-09
119	0xb1f82e98	-7.223047e-09
120	0x306dd4b9	8.6522395e-10
121	0xb1b091cd	-5.13885e-09
122	0xb298af53	-1.7774857e-08
123	0x3256b479	1.2497474e-08
124	0x2f04717a	1.2045645e-10
125	0xb0feb602	-1.8532662e-09
126	0x32b6e41f	2.1291326e-08
127	0xb2566798	-1.2479994e-08
128	0x31426237	2.8286544e-09
129	0x3208d951	7.965654e-09
130	0xb2e9b90f	-2.7208925e-08
131	0x33311bce	4.1236312e-08
132	0xb206f14d	-7.854692e-09
133	0x31c66e56	5.775102e-09
134	0xb13cf938	-2.7499265e-09
135	0xb118d470	-2.2239668e-09
136	0xb255e45b	-1.2450154e-08
137	0xb21c0071	-9.0804955e-09
138	0x329cb0a3	1.8241115e-08
139	0x32524928	1.2240243e-08
140	0x31d3c021	6.1627508e-09
141	0xb31b2fbe	-3.613217e-08
142	0x31a6c66b	4.8537934e-09
143	0xb2988d2b	-1.7759325e-08
144	0x332cb814	4.021429e-08
145	0xb03df864	-6.9110784e-10
146	0xb21a492e	-8.980619e-09
147	0x3331955d	4.134687e-08
148	0xb2dbfd18	-2.561005e-08
149	0xb2192980	-8.915208e-09
150	0x32121aa1	8.504373e-09
151	0xb1542bf6	-3.087505e-09
152	0x3115d292	2.180205e-09
153	0xb0af9ad6	-1.2776933e-09
154	0xb10b745b	-2.0293303e-09
155	0x2ee8392b	1.05602936e-10
156	0xb2809159	-1.4967258e-08
157	0xb220d4e8	-9.361635e-09
158	0xb13069b6	-2.567146e-09
159	0x32043dd2	7.6974676e-09
160	0x2fc50c5d	3.5842876e-10
161	0x32d6de26	2.50139e-08
162	0xb2a524e1	-1.9225299e-08
163	0xb115c517	-2.1794386e-09
164	0x3267015b	1.3446278e-08
165	0xb1057380	-1.9419701e-09
166	0xb27a3ba9	-1.456548e-08
167	0x31acf008	5.0331472e-09
168	0x32a0b6c9	1.8709573e-08
169	0x31360e1e	2.649251e-09
170	0xb19dcd2e	-4.5926276e-09
171	0x30dd1e82	1.6088537e-09
172	0xb1131e66	-2.1408595e-09
173	0xb04dc380	-7.485639e-10
174	0x315c7dcf	3.2085727e-09
175	0x326725a2	1.3454526e-08
176	0xb01b5e82	-5.6522975e-10
177	0x3101fee7	1.8916866e-09
178	0x3182cef2	3.807025e-09
179	0x31870146	3.929162e-09
180	0x307312ec	8.8429775e-10
181	0xb118fe7d	-2.226357e-09
182	0xb1bc1cab	-5.4747793e-09
183	0x32be7fd1	2.2177035e-08
184	0xb21caefc	-9.120182e-09
185	0x30e2ceaa	1.6502402e-09
186	0xb1a3eb5c	-4.7706816e-09
187	0xb1d73462	-6.263279e-09
188	0xb2d33557	-2.4587889e-08
189	0xb26db86a	-1.38371465e-08
190	0x3199565f	4.4627053e-09
191	0x31d19852	6.1000174e-09
192	0xb277955b	-1.4411252e-08
193	0x325d1a39	1.2869855e-08
194	0xb2218505	-9.4016785e-09
195	0xb05255a0	-7.6519235e-10
196	0x3190fbef	4.219593e-09
197	0xb1f31296	-7.0743438e-09
198	0x3223a0a5	9.524375e-09
199	0x31e90deb	6.782775e-09
200	0x312c8ee6	2.5110523e-09
201	0xb18faab8	-4.1812562e-09
202	0xb206387c	-7.81267e-09
203	0x2fd14482	3.8065556e-10
204	0xb2b12b05	-2.0625075e-08
205	0x314d8b1e	2.9910505e-09
206	0x3125f476	2.414962e-09
207	0xb22a0943	-9.897408e-09
208	0xb2bea471	-2.219369e-08
209	0x31944ffb	4.3164596e-09
210	0x30df003d	1.6225453e-09
211	0x2f0e387a	1.2934889e-10
212	0xb1f56e74	-7.1429955e-09
213	0xb197f35c	-4.422345e-09
214	0x31a777e1	4.8739683e-09
215	0xb1f150d6	-7.023213e-09
216	0x31915f6e	4.2309045e-09
217	0x33295202	3.9422964e-08
218	0x2fdc6cf8	4.0095194e-10
219	0x2f89329a	2.495611e-10
220	0xb31cb10b	-3.64826e-08
221	0x30010aec	4.694545e-10
222	0x32eee35f	2.7810243e-08
223	0x3132535a	2.594979e-09
224	0x328e3372	1.655437e-08
225	0xb1af7d0e	-5.1073874e-09
226	0xb0d06040	-1.5161348e-09
227	0x2fa26bc4	2.95442e-10
228	0xb11a71b0	-2.2474573e-09
229	0x31c71e48	5.795105e-09
230	0xb3313cd1	-4.1266336e-08
231	0x32205942	9.333521e-09
232	0x31ea4794	6.818434e-09
233	0xb288d608	-1.5929814e-08
234	0xb0a5b31e	-1.2056238e-09
235	0x32077097	7.883634e-09
236	0xb1d92e60	-6.3208034e-09
237	0x31288e4a	2.45281e-09
238	0x3231521a	1.0321424e-08
239	0x31509aa1	3.035588e-09
240	0x2f885540	2.479883e-10
241	0x302c16b8	6.260552e-10
242	0xb2da1927	-2.5389978e-08
243	0xb0f9d085	-1.8176399e-09
244	0xb08f648a	-1.0433194e-09
245	0xb25abbc2	-1.2731961e-08
246	0xb0a2627a	-1.181504e-09
247	0x32b08555	2.0549729e-08
248	0xb239f86f	-1.08249045e-08
249	0x31dbb0a0	6.393819e-09
250	0x318f7d54	4.176096e-09
251	0x31f2d00a	7.0667783e-09
252	0xb2792f88	-1.4504515e-08
253	0xb27c4792	-1.4684604e-08
254	0xb07c3ae0	-9.176073e-10
255	0x312dd83f	2.5297735e-09

linear_layers.0.bias f4 [64]
0	0xb1ccc2a7	-5.959311e-09
1	0x317760f6	3.5998347e-09
2	0x31965cb5	4.376114e-09
3	0xb11c0711	-2.2705005e-09
4	0x32ba2a36	2.1672445e-08
5	0x31efbc44	6.977219e-09
6	0x318c82e8	4.0894186e-09
7	0x3223cd75	9.534564e-09
8	0x32cb7954	2.3687484e-08
9	0xb228c0f0	-9.822756e-09
10	0xaebda5e0	-8.62419e-11
11	0xb149e586	-2.9379819e-09
12	0xb2495d81	-1.1721e-08
13	0xb211ad08	-8.479454e-09
14	0x32d8102e	2.5153067e-08
15	0x325730b9	1.2525725e-08
16	0x3105985a	1.944065e-09
17	0x32477401	1.1609701e-08
18	0xb248afba	-1.1681488e-08
19	0x3231f0da	1.0357519e-08
20	0xaf91f62a	-2.6550256e-10
21	0xb183b34a	-3.8329846e-09
22	0x31dcadbe	6.422595e-09
23	0xb0c35740	-1.4212915e-09
24	0xaed4cca2	-9.676994e-11
25	0x31368cfd	2.6564628e-09
26	0xb2ed890d	-2.7652755e-08
27	0x32f3524a	2.8326344e-08
28	0xa8180000	-8.437695e-15
29	0xb14d167d	-2.984421e-09
30	0x3185d9a4	3.8955523e-09
31	0x332db9d0	4.0448697e-08
32	0x3256367d	1.2468829e-08
33	0xb1054135	-1.9391113e-09
34	0xb150d8d0	-3.0391227e-09
35	0x3305939d	3.110073e-08
36	0xb1e925a8	-6.7854735e-09
37	0xb22f01ec	-1.0186778e-08
38	0x3135d609	2.6460631e-09
39	0xb32fb6d7	-4.0911655e-08
40	0xb013a5e0	-5.371401e-10
41	0x3183996f	3.830045e-09
42	0x321a54f2	8.983294e-09
43	0x32f8979a	2.893994e-08
44	0xb13030fb	-2.5639213e-09
45	0xb200c734	-7.495874e-09
46	0x310b684d	2.028645e-09
47	0x32610ed0	1.3100092e-08
48	0xb00937c9	-4.9919585e-10
49	0xb15cee32	-3.2149612e-09
50	0x2f89a098	2.5034264e-10
51	0x31d5f722	6.2272116e-09
52	0xb235365e	-1.0547948e-08
53	0x32b77fe1	2.1362156e-08
54	0xb1565a6b	-3.1192495e-09
55	0xb2e664fb	-2.6821445e-08
56	0xb0ad8793	-1.2625939e-09
57	0xb24807c4	-1.1643298e-08
58	0xb297c3ba	-1.766772e-08
59	0xb1bae50d	-5.4393525e-09
60	0xb042c0d4	-7.0850814e-10
61	0x32931207	1.712125e-08
62	0xb1619e1e	-3.2831688e-09
63	0xb2d74f79	-2.5065434e-08
