models/model_1726050350336/model.pth (torch, 227178 bytes, 14 tensors)

conv_layers.0.0.conv.weight f4 [16, 10, 3, 3]
0	0x3e57806e	0.21045086
1	0x3e6a27c4	0.22866732
2	0x3e56c592	0.20973805
3	0x3e5b638a	0.2142469
4	0x3e6f2f3a	0.23357859
5	0x3e6ac1c4	0.22925478
6	0x3e46736e	0.1937997
7	0x3e611826	0.21981868
8	0x3e4a37b7	0.19747816
9	0xbc410461	-0.011780829
10	0x3c1eb53a	0.0096867625
11	0xbcc8ce50	-0.02451244
12	0x3cdbf8ee	0.026852097
13	0x3cc35c86	0.02384783
14	0x3cebc1be	0.028778907
15	0x3c4c1fbd	0.012458739
16	0x3b754045	0.003742234
17	0xbac37828	-0.0014913129
18	0x3baf2c32	0.0053458447
19	0xbb8a0611	-0.004212149
20	0x3bc75706	0.006083372
21	0xbbeb6a2d	-0.007184288
22	0xbc115ba8	-0.00887195
23	0xbc007090	-0.007839337
24	0x3bb296d5	0.0054501095
25	0xbb226f88	-0.0024785716
26	0x3be954fa	0.0071207257
27	0xbce545d6	-0.027987402
28	0xbca7fbaa	-0.020505745
29	0xbaf9143a	-0.001900322
30	0xbcdd8691	-0.027041705
31	0xbc810180	-0.015747786
32	0xbcd55a7c	-0.026044123
33	0xbca0f24d	-0.019646788
34	0x3a0a2a7f	0.00052706146
35	0xbc3870a7	-0.011257327
36	0xbbc446e5	-0.0059898966
37	0xbba3a688	-0.0049942173
38	0xbc564207	-0.013077266
39	0x3c313245	0.010815208
40	0xba14eb33	-0.00056807994
41	0x3ba93926	0.0051642833
42	0xbc7314a2	-0.014836462
43	0xbc700397	-0.014649293
44	0xbc7e171c	-0.015508439
45	0x3e361a0e	0.17783377
46	0x3e521894	0.20517188
47	0x3e39cf4a	0.18145481
48	0x3e3053d1	0.17219473
49	0x3e1e2313	0.15443067
50	0x3e3b3846	0.18283185
51	0x3e326521	0.1742139
52	0x3e3abf3c	0.18237013
53	0x3e38d267	0.18049012
54	0x3ccc771e	0.024959143
55	0x3c691391	0.014225856
56	0xbbadf633	-0.0053088902
57	0xbba0879b	-0.004898978
58	0xbc591be6	-0.01325128
59	0xbbfdc159	-0.007743996
60	0xbc828126	-0.015930723
61	0xbc971992	-0.01844481
62	0xbc732a4c	-0.014841627
63	0x3d0a918a	0.033830203
64	0xbc271f95	-0.010200401
65	0xbc441fbb	-0.011970456
66	0x3c6d734b	0.01449282
67	0xbcb00a8e	-0.021489408
68	0xbc4afce2	-0.0123893935
69	0xbcf88b6f	-0.030339925
70	0xbce7ccc6	-0.028295886
71	0xbbc0e50c	-0.0058866795
72	0xbc03ceba	-0.008044893
73	0xbbb63dc1	-0.005561561
74	0x3bb9054a	0.0056463825
75	0x3b63c789	0.0034756383
76	0xb965f0ec	-0.00021928892
77	0x3ca0db7c	0.019635908
78	0xbc5f6e26	-0.013637101
79	0x3bfb84a5	0.0076757246
80	0xbb8ac657	-0.0042350697
81	0xba1f3484	-0.0006073194
82	0x3a401f99	0.0007328927
83	0xbca58e34	-0.02020941
84	0x3bd8d858	0.006617587
85	0x3a4af7b4	0.0007742599
86	0xbc499e46	-0.012305802
87	0xbc317fca	-0.01083369
88	0xbb87f18f	-0.004148669
89	0xbb40f97b	-0.0029445577
90	0x3e87098d	0.26374474
91	0x3e8c9e6d	0.2746462
92	0x3e883a42	0.26606947
93	0x3e8c8207	0.27442953
94	0x3e917c71	0.28415254
95	0x3e8ec371	0.27883485
96	0x3e856527	0.26053736
97	0x3e8fba81	0.2807198
98	0x3e846ca8	0.25864148
99	0x3ca75bc7	0.020429505
100	0x3be75d1e	0.007060661
101	0x3c116a3f	0.008875429
102	0x3c5965d1	0.013268904
103	0x3c4c0d10	0.012454286
104	0x3bd82146	0.0065957634
105	0xbac85c82	-0.0015286359
106	0x3c1edbe9	0.009695985
107	0xbc792af8	-0.015207998
108	0x3b88bd7f	0.0041729803
109	0x3bd50458	0.006500762
110	0x3bda7587	0.0066668424
111	0x3c057956	0.0081466045
112	0x3bce75a0	0.006300643
113	0x3c335c6e	0.01094733
114	0x3c9c88f6	0.019108277
115	0x3bc05812	0.005869874
116	0x3c923608	0.01784803
117	0xbc802a81	-0.015645267
118	0xbc76b807	-0.015058524
119	0xbcce09d3	-0.025151169
120	0xbc54cb7d	-0.0129879685
121	0xbc98b86c	-0.018642627
122	0xbc5af87c	-0.013364907
123	0x3b8654d7	0.004099469
124	0xbc2009b0	-0.009767935
125	0xbc8c0108	-0.017090335
126	0xbb5f2ce3	-0.0034053854
127	0x3bcf3062	0.0063229064
128	0x3bb6dd50	0.0055805817
129	0x3ad17986	0.0015981651
130	0x3c10c650	0.008836344
131	0x3b3d344e	0.0028870287
132	0xbd21c859	-0.039497707
133	0xbb1607dc	-0.0022892868
134	0xbc33db75	-0.010977616
135	0x3e7cee5c	0.24700302
136	0x3e808125	0.2509853
137	0x3e79e779	0.24404706
138	0x3e7974ca	0.24360958
139	0x3e77defc	0.24206156
140	0x3e88aa8c	0.26692617
141	0x3e6f503b	0.23370449
142	0x3e7f59cb	0.24936597
143	0x3e7d6dfb	0.24748985
144	0xbb938c20	-0.004502788
145	0xba3ef598	-0.0007284521
146	0xbb8c11fb	-0.0042746044
147	0xbcaeb0df	-0.021324573
148	0xbccaf314	-0.024774112
149	0xbb806a9c	-0.003918959
150	0xbc484c90	-0.012225285
151	0x3c0f4675	0.008744826
152	0xbb3102ea	-0.0027009794
153	0xbc82ba7c	-0.015958063
154	0xbca49aa7	-0.020093275
155	0xbc57e771	-0.0131777385
156	0xbb9a4a62	-0.004708574
157	0xbcb2abef	-0.0218105
158	0xbc77061f	-0.015077143
159	0xbcfc10e9	-0.030769782
160	0x3c2fa981	0.010721565
161	0xbbcd8495	-0.0062719085
162	0x3bb10898	0.005402636
163	0x3c1e60c6	0.009666627
164	0x3bc14eaf	0.0058992724
165	0x3b2cd7fb	0.0026373852
166	0x3bff8f86	0.0077990917
167	0x3c0475fe	0.008084772
168	0x3c46d453	0.012135583
169	0x3b822b72	0.0039724642
170	0x3b295364	0.0025837058
171	0xbb20a70c	-0.002451363
172	0xbb0e9215	-0.0021754552
173	0xbb8f0481	-0.0043645506
174	0x3b0cb8ff	0.002147257
175	0xbb850110	-0.0040589646
176	0xbb7ba15e	-0.0038395743
177	0xbb106ebc	-0.002203866
178	0x3bbc3d85	0.0057446384
179	0xbb896aec	-0.0041936543
180	0x3e6ca2c4	0.23108965
181	0x3e8d7634	0.27629244
182	0x3e89b6a9	0.2689717
183	0x3e8beea2	0.273305
184	0x3e92e640	0.28691292
185	0x3e9304ac	0.28714502
186	0x3e865bbf	0.26241872
187	0x3e969506	0.2941057
188	0x3e92e9ee	0.286941
189	0xbc80d94f	-0.01572862
190	0xbb8878c2	-0.004164786
191	0xbaf26971	-0.0018494559
192	0xbbb97158	-0.0056592636
193	0x3a1b4234	0.0005922646
194	0xba45f672	-0.0007551677
195	0xbb241c4c	-0.002504128
196	0xbb081084	-0.0020761797
197	0xbac44df0	-0.001497684
198	0x3ce829de	0.028340276
199	0x3cb65f24	0.022262163
200	0x3c9ce039	0.019149886
201	0x3cbce1de	0.02305692
202	0x3c76d44a	0.015065262
203	0x3c87d404	0.01658059
204	0x3c932e7b	0.0179665
205	0x3c83ab04	0.016072758
206	0x3c822ffc	0.015892021
207	0xbd1aebc5	-0.037822504
208	0xbcd6e90f	-0.026234178
209	0xbce1745c	-0.027521305
210	0xbd0add13	-0.03390224
211	0xbcac682c	-0.021045767
212	0xbcbdab4c	-0.02315297
213	0xbcdf8d87	-0.027289165
214	0xbce8b3d6	-0.028406065
215	0xbd08204d	-0.03323393
216	0xbd79edda	-0.06101785
217	0x39f48806	0.00046640652
218	0x3a8475be	0.0010105891
219	0x3b01b25d	0.001979015
220	0x3b9ac12c	0.004722735
221	0x3ae07ffa	0.0017127984
222	0xb6d1e980	-6.2558684e-06
223	0x3bc2e564	0.0059477556
224	0x3a820d7a	0.0009922229
225	0x3e317724	0.17330605
226	0x3e6d74d8	0.23189104
227	0x3e7ef209	0.24897017
228	0x3e508959	0.20364894
229	0x3e7f945a	0.24958935
230	0x3e7a5bd1	0.24449088
231	0x3e6e1d5b	0.23253386
232	0x3e7ac90d	0.24490757
233	0x3e809b24	0.25118363
234	0x3bbc0c9b	0.0057388074
235	0x3bdff537	0.006834652
236	0x3ba2e8c8	0.0049715973
237	0x3bdadda3	0.006679253
238	0x3b56df68	0.003278697
239	0x3bc6814d	0.0060578943
240	0x3b80e05b	0.0039329953
241	0x3afc3790	0.0019242633
242	0x3b34cd1e	0.002758808
243	0x3b089e38	0.002084626
244	0x3ae767e3	0.0017654862
245	0x3b923f61	0.0044631218
246	0x3baa3f67	0.0051955464
247	0x3b8715fb	0.0041224933
248	0x3bb43aba	0.005500165
249	0x3ba7ba72	0.0051186616
250	0x3b5e383c	0.003390803
251	0x3bb056e2	0.005381451
252	0x3bca9c72	0.0061832005
253	0x3c2a0dee	0.010379298
254	0x3c0eaab6	0.008707693
255	0x3c1c1d3b	0.009528453

conv_layers.0.0.conv.bias f4 [16]
0	0x3d55908c	0.052139804
1	0xbd800bcb	-0.06252249
2	0xbd5823ce	-0.05276852
3	0xbd6d9519	-0.05800352
4	0xbd927c6a	-0.07152636
5	0xbd0c8965	-0.034310717
6	0xbd576f21	-0.052596215
7	0xbd4e03d1	-0.05029661
8	0x3d0812c5	0.033221025
9	0xbd5881d5	-0.052858192
10	0xbd640840	-0.05567193
11	0x3cf7adad	0.030234182
12	0x3ca5d161	0.020241441
13	0x3d11cc24	0.035595074
14	0x3c24f3ce	0.010067893
15	0xbd4b5cf3	-0.04964919

conv_layers.2.0.conv.weight f4 [32, 16, 3, 3]
0	0xbd1ba531	-0.037999336
1	0x3cee92e8	0.029122785
2	0x3d5af40f	0.05345541
3	0x3d1aa199	0.037751768
4	0x3cb7495f	0.022373853
5	0x3cbdf21a	0.023186732
6	0xbcaeab86	-0.021322023
7	0x3b773f6e	0.0037727016
8	0xbbf18309	-0.007370357
9	0xbcdc5011	-0.026893647
10	0x3d023e1a	0.031797506
11	0x3ce7c6fc	0.028293125
12	0xbce81ef8	-0.02833508
13	0x3d1667b4	0.036719993
14	0x3cf4171f	0.029796181
15	0xbcf1e478	-0.029527888
16	0x3d0a24d6	0.033726536
17	0x3cc4fd12	0.024046455
18	0xbd0f6803	-0.035011303
19	0x3dc259bb	0.09489771
20	0x3dc600fc	0.096681565
21	0xbd621966	-0.055200003
22	0x3db450dc	0.08804485
23	0x3db72436	0.089424536
24	0xbd8121b0	-0.063052535
25	0x3dc3109e	0.09524654
26	0x3db6fa74	0.08934489
27	0xbd4dd941	-0.050256018
28	0xbc920038	-0.01782237
29	0x3c495ce8	0.012290217
30	0xbd55747b	-0.052113038
31	0x3c5aa55c	0.013345089
32	0x3ba35d1f	0.004985466
33	0xbd660278	-0.056154698
34	0x3c4b3cb3	0.012404609
35	0x3b919d5e	0.0044438085
36	0xbccb6a55	-0.024830977
37	0x3d1bbf9d	0.038024534
38	0x3d487a74	0.048944905
39	0xbd142163	-0.036164653
40	0x3d270ac6	0.04078176
41	0x3d35ec8e	0.04441505
42	0xbd87fe2c	-0.06640276
43	0x3d091763	0.03346957
44	0x3d03a254	0.03213723
45	0xbd57e23f	-0.052706
46	0xbd83989a	-0.06425591
47	0xbd3f2b0e	-0.04667192
48	0xbd4fd11f	-0.050736543
49	0xbd56e80f	-0.052467402
50	0xbd43eabb	-0.04783128
51	0xbce155de	-0.027506765
52	0xbd5d4a3c	-0.054025874
53	0xbd438ee5	-0.047743697
54	0xbd0d0e0f	-0.034437235
55	0x3d649e1d	0.05581485
56	0x3d72fbd4	0.059322193
57	0xbcf79161	-0.03022069
58	0x3d799c9c	0.06094037
59	0x3d794e11	0.060865466
60	0xbd3199b0	-0.04335946
61	0x3d4bc9f0	0.04975313
62	0x3d51d746	0.05123069
63	0xbcb41058	-0.02198045
64	0x3d829646	0.06376319
65	0x3d706875	0.058693368
66	0xbcd2771a	-0.025691558
67	0x3d9059f0	0.07048404
68	0x3d2d1990	0.042260706
69	0xbd6401a8	-0.055665642
70	0x3d7ef262	0.062242873
71	0x3d428414	0.04748924
72	0x3bfb2198	0.007663917
73	0x3cd87b77	0.02642606
74	0x3d1c8f73	0.03822274
75	0xbc151741	-0.009099782
76	0x3bc06795	0.005871723
77	0x3c8625cf	0.01637545
78	0xbc80ec83	-0.015737778
79	0x3c7add89	0.015311607
80	0x3c1b193c	0.009466466
81	0xbd026a21	-0.031839494
82	0x3d370e5c	0.04469143
83	0x3d198594	0.037480906
84	0xbcbf011b	-0.023315957
85	0x3d4b1903	0.0495844
86	0x3d2efd32	0.042721935
87	0xbd7d0339	-0.06177065
88	0x3d0baee6	0.034102343
89	0x3d2aa313	0.041659426
90	0xbd14fa09	-0.036371265
91	0x3dd66580	0.10468578
92	0x3ddabe45	0.10680822
93	0xbd13a398	-0.036044687
94	0x3dc8d8dc	0.09806988
95	0x3dbe7ead	0.09301505
96	0xbd2f24bd	-0.042759646
97	0x3dac0acd	0.084004976
98	0x3dc04721	0.09388567
99	0xbd26d409	-0.040729556
100	0xbc32fc74	-0.010924447
101	0x3a15b18c	0.00057103555
102	0xbd10006c	-0.035156652
103	0x3c380336	0.011231234
104	0x3d0748b5	0.033028323
105	0xbd0acfc3	-0.033889543
106	0x3d3a9671	0.04555363
107	0x3d345b63	0.044032466
108	0xbcc4c27a	-0.024018515
109	0x3ce25c76	0.02763198
110	0x3d22590d	0.039635707
111	0x3c615b15	0.013754626
112	0xbb12f9aa	-0.0022426643
113	0x3bdf6c66	0.006818342
114	0xbd140356	-0.036135994
115	0x3c5320d4	0.012886245
116	0xb8287780	-4.0165614e-05
117	0x3c654ff1	0.01399611
118	0x3cf9ce29	0.030493813
119	0x3d1bf522	0.038075574
120	0xbcf0f35d	-0.02941292
121	0xbc8bd35a	-0.017068554
122	0xbac1307a	-0.0014739179
123	0xbcfed391	-0.031106742
124	0x3d3503eb	0.04419319
125	0x3d04a89d	0.032387365
126	0xbd207848	-0.03917721
127	0x3cae87f2	0.021305058
128	0x3ccd43a7	0.025056673
129	0xbd2fbbed	-0.04290383
130	0x3d1ceab9	0.038309786
131	0x3ce0371b	0.027370026
132	0xbd5563de	-0.052097194
133	0x3cb76156	0.02238528
134	0x3d01ce30	0.031690776
135	0xbcfb5a2a	-0.030682642
136	0x3d5217d6	0.051292263
137	0x3d766470	0.06015438
138	0xbd4d9321	-0.05018914
139	0x3d592936	0.053017817
140	0x3d64dbd8	0.05587372
141	0xbcecbc74	-0.028898455
142	0x3d57c31e	0.052676313
143	0x3d4962b0	0.04916638
144	0xb9725e61	-0.00023114077
145	0x3d1d4eeb	0.03840534
146	0xbc65707c	-0.014003869
147	0x3d60d587	0.054891136
148	0x3d8ee52a	0.06977303
149	0x3b0d290b	0.0021539356
150	0x3d193b9a	0.037410356
151	0x3d527a2c	0.051386043
152	0xba3337ea	-0.000683664
153	0x3cc535c3	0.024073487
154	0x3ca6d050	0.020363003
155	0xbce85c74	-0.028364398
156	0x3d2cc8e9	0.04218379
157	0x3d05ba5d	0.032648433
158	0x3d078f3c	0.033095583
159	0x3cc08554	0.023501076
160	0x3d335742	0.043784387
161	0x3ca0dcd2	0.019636545
162	0x3dc9642c	0.098335594
163	0x3d256d32	0.04038734
164	0xbd385875	-0.045006234
165	0x3d52a398	0.051425546
166	0x3d9eb40b	0.07749184
167	0x3d4d9329	0.05018917
168	0x3d87aa40	0.066242695
169	0x3dd084bf	0.10181569
170	0x3dab2a6f	0.08357703
171	0x3d06b607	0.03288844
172	0x3cffda2c	0.031231962
173	0xbd2cb6c5	-0.04216649
174	0x3d0df265	0.034654994
175	0x3d26bea8	0.040709168
176	0x3d1294ff	0.035786625
177	0x3cdd8199	0.027039336
178	0x3c1083fa	0.008820528
179	0x3c8de9f4	0.017323472
180	0x3d2125ba	0.03934262
181	0x3d0030cf	0.031296548
182	0xbd4ea7ec	-0.05045311
183	0x3d3e00be	0.046387427
184	0x3d8bbe61	0.06823421
185	0x3d47f026	0.048813008
186	0x3d18f4ac	0.037342712
187	0x3d83a220	0.06427407
188	0x3c05b3a6	0.008160507
189	0xbdec6ac1	-0.11543799
190	0xbce74cc1	-0.028234841
191	0xbdb735a0	-0.08945775
192	0xbd3a136a	-0.04542867
193	0xbd939b59	-0.072073646
194	0xbdabdb59	-0.083914466
195	0xbcfc925b	-0.030831506
196	0xbd4ad68b	-0.04952101
197	0xbd87c123	-0.06628635
198	0x3d6e1dd1	0.058133904
199	0x3d603260	0.05473554
200	0xbc2d6cc3	-0.010585013
201	0x3d1cc540	0.03827405
202	0x3d951d85	0.07281021
203	0x3d1e7970	0.03869003
204	0x3d4990f3	0.0492105
205	0x3d6c48ee	0.05768674
206	0x3d273a89	0.040827308
207	0x3d1aca50	0.037790596
208	0x3cd8dcae	0.026472416
209	0xbd174486	-0.036930583
210	0x3d208720	0.039191365
211	0x3da61da6	0.08111124
212	0x3c388f46	0.011264628
213	0x3d34a85a	0.044105865
214	0x3d399130	0.045304477
215	0x3c994eaf	0.018714277
216	0x3d6fe68b	0.058569472
217	0x3d16825c	0.036745414
218	0xbd9156a4	-0.070966035
219	0xbd4667ae	-0.04843872
220	0x3cb6ca93	0.022313392
221	0x3d6f01bc	0.058351263
222	0xbd308796	-0.043098055
223	0x3da00aec	0.07814583
224	0x3d9a3783	0.07530119
225	0x3d88e1ee	0.06683718
226	0x3d025190	0.031816065
227	0xba9bcfe4	-0.0011887518
228	0x3c19d89a	0.009390021
229	0x3cd5b58a	0.026087541
230	0x3d5a404e	0.053283982
231	0x3d178701	0.036993984
232	0x3d176ae2	0.036967166
233	0x3d11d9cb	0.035608094
234	0x3d91854a	0.07105501
235	0x3db69869	0.08915789
236	0xbc99793e	-0.01873457
237	0x3d50746e	0.050892286
238	0x3dabef2d	0.083952285
239	0x3c90afff	0.017662046
240	0x3c9c3b16	0.019071143
241	0x3dbf6ef3	0.09347334
242	0x3cfd0442	0.03088582
243	0x3d874901	0.06605721
244	0x3d159f56	0.036528908
245	0xbda3615c	-0.07977554
246	0x3d754dd8	0.05988869
247	0xbd3c0d21	-0.04591096
248	0xbd5d10b2	-0.053971
249	0x3d13f8bf	0.036125895
250	0x3d8f3aa6	0.06993608
251	0x3ca42c0e	0.020040538
252	0x3be14b28	0.0068754144
253	0x3c4f14bc	0.012639221
254	0xbd99973e	-0.0749955
255	0x3d95936d	0.0730351

conv_layers.2.0.conv.bias f4 [32]
0	0xbcb5f983	-0.022213703
1	0xbd41d2bb	-0.04732011
2	0x3d160034	0.036621287
3	0xbd197be4	-0.037471667
4	0xbc4261cb	-0.011864136
5	0xbd43e0a5	-0.04782166
6	0xbd3563c9	-0.044284616
7	0x3d2c17b2	0.042014785
8	0xbb69050c	-0.0035555987
9	0xbc8dc16b	-0.017304143
10	0xbc370ee4	-0.011172984
11	0x3d11c435	0.03558751
12	0xbc97a97b	-0.018513432
13	0xbcc74331	-0.024324032
14	0x3c0ef155	0.00872453
15	0xbc9f6b77	-0.019460423
16	0xbd81782f	-0.06321751
17	0x3d5fef7b	0.054671746
18	0xbc40e387	-0.011772997
19	0xbd1b1a8b	-0.03786711
20	0xbc88f103	-0.016716486
21	0x3b93a745	0.004506024
22	0xbc480ef5	-0.012210597
23	0xbcab5894	-0.02091626
24	0xbd3f1b3e	-0.04665684
25	0xbce64553	-0.028109228
26	0xbc03c2dd	-0.0080420645
27	0x3d0c7f4b	0.034301084
28	0x3cbdf820	0.023189604
29	0xbce1d808	-0.027568832
30	0x3b9705c1	0.00460884
31	0x3c3565d4	0.011071641

conv_layers.4.0.conv.weight f4 [32, 32, 3, 3]
0	0xbcc42ef2	-0.023948167
1	0xbce54ff1	-0.02799222
2	0xbd142b68	-0.036174208
3	0xbbcea35b	-0.0063060946
4	0xbc4c5950	-0.012472466
5	0xbcd06153	-0.025437033
6	0xbc9b7adc	-0.018979482
7	0xbc874812	-0.016513858
8	0xbccd9bdc	-0.025098734
9	0xbcec9ead	-0.028884256
10	0xbcc180e3	-0.023621028
11	0xbce201c5	-0.027588734
12	0xbc9e5f74	-0.019332625
13	0xbc608481	-0.013703466
14	0xbcad2347	-0.021134986
15	0xbccb93d5	-0.024850765
16	0xbcb9844a	-0.022646088
17	0xbcd1cf72	-0.025611613
18	0x3cbf8c68	0.02338238
19	0x3cc580b3	0.02410922
20	0x3d0490a3	0.0323645
21	0x3cc0d6fe	0.023540016
22	0x3cb30d11	0.021856816
23	0x3cc8852c	0.024477564
24	0x3cb92d96	0.022604745
25	0x3cb477f4	0.022029854
26	0x3cea696c	0.028614722
27	0xbd05bcab	-0.03265063
28	0xbcc4584a	-0.02396788
29	0xbca679d0	-0.020321757
30	0xbc3eccf7	-0.011645547
31	0xbc973c91	-0.018461498
32	0xbcaa7b96	-0.020810883
33	0xbcde3b9b	-0.027128031
34	0xbce6ddf7	-0.028182013
35	0xbd0e008b	-0.034668487
36	0xbd0bc47d	-0.034122933
37	0xbcdc029f	-0.026856719
38	0xbd00399e	-0.031304948
39	0xbca8d32c	-0.020608507
40	0xbc925385	-0.01786209
41	0xbcd08673	-0.025454735
42	0xbcc65646	-0.02421106
43	0xbcd0d249	-0.025490897
44	0xbd0cfdc4	-0.034421697
45	0xbce075bf	-0.027399896
46	0xbcc99b0b	-0.024610063
47	0xbcf50d02	-0.02991343
48	0xbcba6f87	-0.022758259
49	0xbc5b1195	-0.013370891
50	0xbcb6ef62	-0.022330943
51	0xbd0948a1	-0.03351653
52	0xbcdd2126	-0.026993345
53	0xbd0185a4	-0.03162159
54	0xbca265a0	-0.01982385
55	0xbcceb6df	-0.025233684
56	0xbcde62a6	-0.027146649
57	0xbc9ffdc5	-0.019530186
58	0xbca8ee61	-0.02062148
59	0xbcc5db8b	-0.024152538
60	0xbce7a83d	-0.028278464
61	0xbcde54b7	-0.027140005
62	0xbd0addbd	-0.033902872
63	0xbbe1bfd5	-0.0068893232
64	0x3b36fb75	0.0027920876
65	0xbd0299b9	-0.031884883
66	0xbaf67e87	-0.0018806019
67	0xbc28fe1a	-0.010314489
68	0xbbeb6e42	-0.0071847746
69	0x3cf6b3e3	0.030115074
70	0x3d276bee	0.040874414
71	0xbca9e205	-0.020737657
72	0xbd04e972	-0.032449193
73	0xbcddce18	-0.027075812
74	0xbcc63fbc	-0.024200313
75	0xbcd894d9	-0.026438164
76	0xbc9a2b94	-0.018819608
77	0xbc8652fa	-0.016396988
78	0xbcabef7c	-0.020988218
79	0xbc7ae9f0	-0.015314564
80	0xbc09a8bc	-0.008402046
81	0xbc12e27f	-0.008965134
82	0xbad76802	-0.0016434195
83	0xbc768b94	-0.015047926
84	0xbb24cfb4	-0.0025148215
85	0xb745e178	-1.1794611e-05
86	0xbbb93f36	-0.0056532873
87	0xbc48b370	-0.0122498125
88	0xbc14d84b	-0.009084771
89	0xbc298746	-0.010347193
90	0x3d073b48	0.03301552
91	0xba5fe9d8	-0.00085416203
92	0xbc53cd2c	-0.012927335
93	0x3ce44116	0.027863067
94	0x3d14e38c	0.036349818
95	0x3d2044ee	0.039128236
96	0xbc407e23	-0.011748823
97	0xbc84423b	-0.016144862
98	0x3bcc40fd	0.006233333
99	0x3cc65a60	0.024213016
100	0x3cf4173a	0.029796232
101	0xbc0cc3c0	-0.008591592
102	0x3c56dc6b	0.013114075
103	0x3ca81983	0.020519977
104	0x3c96a94a	0.01839127
105	0x3c966b41	0.01836169
106	0x3c5d0a35	0.013491203
107	0x3c8fc8a8	0.017551735
108	0xbc154316	-0.009110233
109	0xbb25580c	-0.0025229482
110	0xbb0d122a	-0.002152572
111	0xbc444394	-0.0119790025
112	0xbb7ea370	-0.003885474
113	0xbb374f31	-0.0027970786
114	0xbbe1a2fb	-0.006885884
115	0xbb9d8308	-0.00480688
116	0x3b578a57	0.0032888853
117	0xbd5409f8	-0.05176732
118	0xbd514eda	-0.05110059
119	0xbd526f9a	-0.051375963
120	0xbd4a5599	-0.04939804
121	0xbd4be68a	-0.049780406
122	0xbd442cbe	-0.047894232
123	0xbd35c723	-0.044379365
124	0xbd410af7	-0.047129598
125	0xbd360949	-0.04444245
126	0x3c92bdec	0.017912827
127	0x3ca9ea15	0.020741502
128	0x3cdb7e23	0.026793545
129	0x3c127275	0.0089384215
130	0x3caba365	0.020951936
131	0x3ccf413a	0.025299657
132	0x3c592d12	0.0132553745
133	0x3c8be565	0.017077157
134	0x3cba5aac	0.022748314
135	0xbd2f5347	-0.04280403
136	0xbccbe4e0	-0.02488941
137	0xbcf66285	-0.030076275
138	0xbcf8b7e4	-0.030361123
139	0xbceeb760	-0.029140174
140	0xbc9b9fb6	-0.018997055
141	0xbd11f054	-0.035629585
142	0xbcf02772	-0.029315684
143	0xbcac534a	-0.02103581
144	0xbc9f23b7	-0.01942621
145	0xbca80dda	-0.020514417
146	0xbc97f809	-0.01855089
147	0xbcbfaf40	-0.023398995
148	0xbcc0fa7d	-0.023556942
149	0xbc3ca99f	-0.01151505
150	0xbc9cadee	-0.019125905
151	0xbcafa27b	-0.021439781
152	0xbc63279e	-0.013864426
153	0x3c817d6e	0.01580688
154	0x3c55b917	0.013044617
155	0x3c6fad09	0.014628657
156	0x3c8451b0	0.016152233
157	0x3bb1f604	0.0054309387
158	0x3cb10975	0.021610955
159	0x3bbe89f6	0.005814786
160	0x3c864eac	0.016394936
161	0x3c6acb3d	0.014330682
162	0x3b295a50	0.0025841184
163	0x3c9b5367	0.018960668
164	0x3c16e8b2	0.009210752
165	0x3c089ba7	0.008337892
166	0x3c8f1576	0.017466288
167	0x3c0f51ac	0.008747499
168	0x3bc279bf	0.0059349234
169	0x3c4fc826	0.012681996
170	0x3c3d8f78	0.01156985
171	0xbc903b63	-0.017606443
172	0xbc6b91af	-0.014377995
173	0xbcadb9a9	-0.021206694
174	0xbc224c56	-0.009905895
175	0xbc720c77	-0.01477348
176	0xbc9beb48	-0.01903309
177	0xbcad6190	-0.021164685
178	0xbcc30bd1	-0.023809345
179	0xbd14ba14	-0.03631027
180	0xbd32b75f	-0.043631908
181	0xbd09793c	-0.033562884
182	0xbd44d395	-0.048053343
183	0xbc9250cf	-0.017860798
184	0xbce30efc	-0.027717106
185	0xbd254d34	-0.04035683
186	0xbd05aa6e	-0.032633238
187	0xbd13d2d7	-0.036089744
188	0xbd48de5b	-0.04904018
189	0xbc955983	-0.01823116
190	0xbc426dee	-0.01186703
191	0xbcb16c44	-0.02165807
192	0x3c328e58	0.010898195
193	0xbadb9c52	-0.0016754961
194	0xbc4896bd	-0.01224297
195	0xbc97b7bb	-0.018520227
196	0xba463d86	-0.00075622683
197	0xbcb9373d	-0.022609347
198	0xbc9739af	-0.018460123
199	0xbd1bcefd	-0.038039196
200	0xbd0de31c	-0.034640417
201	0xbc83b6c0	-0.016078353
202	0xbb9707b1	-0.004609071
203	0xbd0faba0	-0.035075784
204	0xbc06c689	-0.008226045
205	0xbcc04291	-0.023469241
206	0xbd5becd1	-0.053692643
207	0xbca28aaa	-0.01984151
208	0xbc81f91c	-0.015865855
209	0xbc14cc65	-0.009081935
210	0xbcb0facf	-0.02160397
211	0xbc5291c8	-0.01285214
212	0xbc377c73	-0.011199105
213	0xbcb6af84	-0.02230049
214	0xbc97de66	-0.018538665
215	0xbc709db9	-0.0146860415
216	0xbcc1faa9	-0.023679094
217	0xbc8ee129	-0.01744135
218	0xbcf49ee3	-0.02986092
219	0xbb2eaea9	-0.0026654399
220	0xbc6dbd31	-0.014510439
221	0xbcc7ecf7	-0.024404986
222	0xbcd0d1e9	-0.025490718
223	0xbcd180e4	-0.025574155
224	0xbd291229	-0.041277084
225	0xbd5b644e	-0.053562455
226	0xbd5d31c9	-0.054002557
227	0xbd39c4ca	-0.04535369
228	0xbd79776e	-0.060904913
229	0xbd591418	-0.05299768
230	0xbd2c8185	-0.042115707
231	0xbd6e2e02	-0.058149345
232	0xbd5acfe9	-0.053420935
233	0xbd109a08	-0.035303146
234	0xbd15d7bd	-0.036582697
235	0xbcae8382	-0.021302942
236	0xbcdd00bb	-0.026977887
237	0xbcd2d7e7	-0.025737716
238	0xbc943a5a	-0.01809423
239	0xbcc9fe9a	-0.024657536
240	0xbd143232	-0.036180682
241	0xbcc8ae9b	-0.02449732
242	0xbc914890	-0.017734796
243	0x3d2a90ad	0.04164188
244	0x3c8df45c	0.017328434
245	0x3d5ec179	0.05438373
246	0x3ceae497	0.028673453
247	0x3cc27570	0.02373764
248	0x3d125b09	0.03573135
249	0x3c7bfedd	0.015380588
250	0x3d7ac5fb	0.061223965
251	0x3d2820f7	0.041047063
252	0xbcd3cf87	-0.025855793
253	0xbc0918e9	-0.008367755
254	0x3d018615	0.03162201
255	0xbc18caed	-0.009325725

conv_layers.4.0.conv.bias f4 [32]
0	0x3c7e2494	0.015511651
1	0x3d209624	0.039205685
2	0x3d1175d7	0.03551277
3	0x3b895110	0.0041905716
4	0x3b08ffe8	0.0020904485
5	0x3d6d4212	0.057924338
6	0x3b890c31	0.0041823615
7	0xbb044eaa	-0.002018849
8	0x3b022b9b	0.0019862417
9	0xbc3c4c08	-0.011492737
10	0x3bee7088	0.0072765984
11	0x3ad03fef	0.0015888194
12	0x3d5976b5	0.053091723
13	0x3d64afe3	0.0558318
14	0xbc6aa6bf	-0.014321982
15	0x3c9873b8	0.018609866
16	0x3d6e7f87	0.05822709
17	0xbc1099ee	-0.008825762
18	0x3ce67c01	0.028135302
19	0xbbab3fed	-0.0052261264
20	0x3d472e84	0.048628345
21	0x3d37fd80	0.04491949
22	0x3c438771	0.011934147
23	0xbd74002a	-0.05957047
24	0xbd4615cb	-0.048360627
25	0x3d191038	0.037368983
26	0xbb76f4e6	-0.0037682592
27	0xbc46c389	-0.01213158
28	0xbca6523c	-0.020302884
29	0x3d64e026	0.055877827
30	0xbd07adf6	-0.033124886
31	0xbbc6f635	-0.0060718306

conv_layers.5.0.conv.weight f4 [32, 32, 3, 3]
0	0xbc7f2c7d	-0.015574572
1	0x3bf2eefb	0.0074137426
2	0xbbdce416	-0.006741057
3	0xbc55b84b	-0.013044427
4	0xbbcee5f8	-0.0063140355
5	0xbb9a9c49	-0.0047183377
6	0xbd063ccc	-0.032772824
7	0xbd8aff17	-0.06786936
8	0xbd3213c9	-0.0434759
9	0xbc29f330	-0.010372922
10	0xbb5bfc4c	-0.0033567129
11	0xbd04811c	-0.03234969
12	0xbd3bf18c	-0.045884654
13	0xbd1e17df	-0.038596984
14	0xbcc53397	-0.024072452
15	0xbbb47210	-0.0055067614
16	0xbae967de	-0.0017807444
17	0xbbfad7c1	-0.0076551144
18	0xbaa2a452	-0.001240859
19	0x3d6b4ef2	0.057448335
20	0x3ce42409	0.027849214
21	0x3d904f93	0.070464276
22	0x3d19cdf1	0.037549917
23	0x3d6b96df	0.05751693
24	0x3bb59cf5	0.0055423924
25	0x3c86680b	0.016407033
26	0x3d968094	0.07348743
27	0x3baf7b1a	0.005355251
28	0x3c1e06a2	0.009645136
29	0x3c205a71	0.009787188
30	0x3d05abfc	0.03263472
31	0x3d08f0d7	0.033432808
32	0x3ce7795f	0.028256116
33	0x3d49b975	0.04924913
34	0x3d5ac5c3	0.053411257
35	0x3d386896	0.045021616
36	0xbbbebcc0	-0.0058208406
37	0x3cb4ad7f	0.022055386
38	0x3c03234f	0.008004024
39	0x3cc7cfbb	0.024391046
40	0x3d041484	0.032246128
41	0x3c9b10fa	0.018928993
42	0x3d19b0cf	0.037522133
43	0x3d334a22	0.04377187
44	0x3d49963f	0.04921555
45	0x3b89d620	0.004206434
46	0x3c6934e6	0.014233803
47	0x3d2bee53	0.04197533
48	0xbcf1b2ad	-0.029504145
49	0x3b809c2e	0.003924868
50	0x3cb7de25	0.022444794
51	0x3ba434cb	0.005011176
52	0xbcd482ac	-0.025941215
53	0xbc248b5e	-0.010042993
54	0x3cc25935	0.023724178
55	0x3ceab905	0.028652677
56	0x3c7695a6	0.015050327
57	0x3d4279ed	0.04747956
58	0x3d32bca6	0.04363694
59	0x3cd24c3e	0.02567112
60	0x3d69a049	0.057037625
61	0x3d65504d	0.055984784
62	0x3d0a703a	0.033798434
63	0x3d2116e1	0.03932846
64	0x3cf2ce44	0.02963937
65	0x3baedb0e	0.005336172
66	0x3d09f3da	0.03367982
67	0x3cbe2562	0.023211185
68	0x3c2b86e4	0.010469172
69	0x3d393f17	0.045226183
70	0x3d798d18	0.060925573
71	0x3d0f11fe	0.034929268
72	0x3c8960bc	0.01676976
73	0x3b830841	0.0039987867
74	0x3d0e588e	0.03475242
75	0x3cee26f5	0.02907131
76	0x3d74a9df	0.059732314
77	0x3c8065d0	0.015673548
78	0x3cdd93e0	0.027048051
79	0x3d335252	0.04377968
80	0x3d56cb79	0.05244014
81	0x3b9bb720	0.004752055
82	0x3cab104a	0.02088179
83	0x3c76122f	0.015018984
84	0x3c92bf85	0.01791359
85	0x3d227f52	0.039672203
86	0x3d201347	0.039080884
87	0x3d2fa26b	0.042879503
88	0x3d47539b	0.048663717
89	0x3d0c97eb	0.034324568
90	0x3d1e5686	0.038656734
91	0x3c4f113c	0.012638386
92	0x3c971f44	0.018447526
93	0x3d3373a1	0.043811444
94	0x3d6e42e3	0.058169257
95	0x3cbb3185	0.022850761
96	0x3ce66d09	0.028128164
97	0x3d44cae8	0.04804507
98	0x3d80b778	0.06284994
99	0x3c9c0b07	0.019048227
100	0x3cd1d392	0.02561358
101	0x3ca62f7e	0.020286318
102	0x3d014728	0.031562
103	0x3d16775d	0.036734927
104	0x3d3b2843	0.045692693
105	0x3d41495a	0.047189094
106	0x3d52aa4e	0.051431946
107	0x3d2b0291	0.041750494
108	0x3b4b44d9	0.0031016378
109	0xbcba3737	-0.022731407
110	0x3c4f3cf3	0.012648809
111	0xbc687ccf	-0.014189913
112	0x3ce2e7e6	0.027698468
113	0x3ca5af69	0.020225244
114	0x3d6dfd32	0.058102794
115	0x3c0b29af	0.008493825
116	0x3d019aa5	0.03164162
117	0x3d221345	0.039569158
118	0xba9d2d07	-0.0011991569
119	0xbcd80f0a	-0.026374359
120	0x3bfa74d1	0.00764332
121	0x3c2db6e0	0.010602683
122	0x3d3a54b2	0.045490928
123	0x3da6a22a	0.08136399
124	0x3d992c5a	0.074791625
125	0x3c10124e	0.008793427
126	0x3b03039c	0.0019991165
127	0xbb99d861	-0.004694984
128	0x3c2bcb70	0.010485515
129	0xba9a81f5	-0.0011787998
130	0x3ccc0ef8	0.024909481
131	0x3d293235	0.041307647
132	0x3d433dc1	0.047666315
133	0x3d6f918b	0.05848841
134	0x3cc13f8d	0.023589874
135	0x3d4b22e2	0.049593814
136	0x3d5267bd	0.051368464
137	0x3cc166ec	0.023608647
138	0x3d9ac2fb	0.07556721
139	0x3caed3ea	0.021341283
140	0xbcae20e1	-0.021255912
141	0x3d9a9b5b	0.07549163
142	0x3d04b982	0.032403477
143	0x3d1364b2	0.035984702
144	0x3d0bd31d	0.03413688
145	0x3b1a00be	0.0023498978
146	0xbc2ff348	-0.010739155
147	0xbcd792ba	-0.026315082
148	0x3b242525	0.0025046554
149	0xbd0315eb	-0.032003324
150	0xbd0f6497	-0.03500804
151	0xbd101344	-0.035174623
152	0xbc42eda7	-0.011897481
153	0xbaaa56e2	-0.0012995864
154	0x3c4603ad	0.012085837
155	0x3c3c4628	0.011491336
156	0x3c8947f2	0.016757939
157	0x3cea6176	0.028610926
158	0x3d08096d	0.033212114
159	0x3d1e2380	0.038608074
160	0x3d05f969	0.03270856
161	0x3cd083e9	0.025453525
162	0x3d594ca0	0.05305159
163	0xbc2645c0	-0.010148466
164	0x3d32357b	0.043508034
165	0x3c1b7e9e	0.009490637
166	0x3d014c4c	0.031566903
167	0x3d153b9a	0.036433794
168	0x3cd91c13	0.026502645
169	0x3d862a86	0.065510795
170	0x3cfe8ad6	0.031072062
171	0xbc8e9208	-0.017403618
172	0xbbc6f6de	-0.0060719093
173	0xbb7a279c	-0.0038170582
174	0x3b0ba6ca	0.002130913
175	0x3c41616d	0.011803013
176	0x3c492917	0.012277863
177	0x3c915b5a	0.017743755
178	0x3cf8c197	0.030365748
179	0x3d0b8ece	0.034071736
180	0x3ac84be4	0.0015281406
181	0x3c77b58d	0.015118969
182	0xba9642d5	-0.0011464009
183	0x3c8efba9	0.017453985
184	0x3be81045	0.0070820176
185	0xbccba867	-0.024860574
186	0x3c94d8bb	0.018169751
187	0x3c5cb076	0.013469806
188	0xbc117d4f	-0.008879974
189	0x3cdabb1e	0.026700553
190	0x3c4df83d	0.012571392
191	0x3c54ccac	0.012988251
192	0x3d3b3952	0.04570896
193	0x3cf0aa0f	0.029377965
194	0xbcb15821	-0.021648468
195	0x3d60536a	0.05476705
196	0x3cb2c45f	0.021822153
197	0x3d0ceca1	0.034405354
198	0x3c7b4bd3	0.015337902
199	0x3d78f277	0.060778107
200	0x3d4a20c4	0.049347654
201	0x3c5a2065	0.0133133875
202	0x3d992867	0.07478409
203	0x3d8c17b0	0.068404555
204	0x3c8a2795	0.016864577
205	0x3cd0cfe1	0.02548975
206	0x3d2f928e	0.042864375
207	0xba595552	-0.0008290607
208	0xbcaf6450	-0.021410137
209	0xbbba2b5e	-0.0056814393
210	0xbc08d71b	-0.008352066
211	0xbcb1440a	-0.021638889
212	0xbc630634	-0.013856459
213	0xbc84bf52	-0.01620451
214	0xbd47d79a	-0.048789598
215	0xbd44b4e8	-0.04802409
216	0xbbd7f27e	-0.0065901866
217	0xbc210279	-0.00982725
218	0x3bb397f6	0.0054807616
219	0xbb301b78	-0.0026871841
220	0xbc99f9fa	-0.018795956
221	0xbb9f4afd	-0.004861234
222	0xbc96c63a	-0.018405069
223	0xbd047c71	-0.03234524
224	0xbbbc9135	-0.0057546147
225	0x3a6a791d	0.0008944439
226	0xbc340aee	-0.010988934
227	0xbb5800c3	-0.0032959438
228	0xbc3f245e	-0.011666385
229	0xbcbc969c	-0.023021035
230	0xbb0ad528	-0.002118418
231	0xbca0255a	-0.01954906
232	0xbcf81c69	-0.030286985
233	0xbc2f161e	-0.0106864255
234	0x3d004099	0.031311605
235	0x3bfdaf70	0.007741861
236	0x3c0ac354	0.008469421
237	0x3cfb07f9	0.03064345
238	0x3ce40c93	0.027838027
239	0x3a172032	0.00057649903
240	0x3d39a835	0.04532643
241	0x3cb6eb13	0.022328889
242	0x3be019ca	0.006839012
243	0x3c1ba923	0.009500775
244	0x3cc70f93	0.024299419
245	0x3cb93425	0.022607872
246	0x3d108106	0.035279296
247	0x3d0f3d66	0.034970663
248	0x3c9a6c52	0.01885048
249	0x3d5719a6	0.052514695
250	0x3d5e179c	0.054221734
251	0x3d21d289	0.039507423
252	0x3d9eb6fb	0.077497445
253	0x3b97d098	0.0046330206
254	0xbd5b17fc	-0.05348967
255	0x3d993214	0.07480255

conv_layers.5.0.conv.bias f4 [32]
0	0xbcb9856c	-0.022646628
1	0xbd8a2ac4	-0.06746438
2	0x3db303c1	0.087409504
3	0x3c9eaef1	0.019370528
4	0x3d0743fc	0.03302382
5	0xb9df64ec	-0.00042609067
6	0xbbf249f6	-0.0073940707
7	0x3d7ce105	0.061738033
8	0x3c1b1eb6	0.009467771
9	0x3db1ddae	0.0868486
10	0xbc3b251b	-0.011422421
11	0xbd8ee866	-0.0697792
12	0x3d16addf	0.03678691
13	0x3d16dbb2	0.03683061
14	0xbcf50845	-0.02991117
15	0xbbe38651	-0.006943502
16	0x3d30444c	0.043033883
17	0x3d860e46	0.06545691
18	0x3db29807	0.08720403
19	0x3dc0b1e5	0.09408931
20	0x3d0105d0	0.031499684
21	0xbcc202fc	-0.023683064
22	0x3d792251	0.060823742
23	0xbc39ae61	-0.011333079
24	0x3cb2fa17	0.021847768
25	0x3d06e08b	0.032928985
26	0x3d88cbe4	0.06679514
27	0xbbee0349	-0.007263575
28	0xbd0cbe15	-0.034360964
29	0xbd8ab018	-0.067718685
30	0xbcebb9d9	-0.028775143
31	0x3d6cd2bd	0.057818163

conv_layers.7.0.conv.weight f4 [16, 32, 3, 3]
0	0xbd193e99	-0.037413213
1	0xbd3a5744	-0.04549338
2	0xbd0228f3	-0.031777333
3	0xbdaa3672	-0.08311166
4	0xbd965da5	-0.0734208
5	0xbddcac3c	-0.107750386
6	0xbdb91311	-0.0903684
7	0xbda30c97	-0.07961386
8	0xbdc1afa6	-0.094573304
9	0xbbb9b443	-0.005667241
10	0x3b11cd51	0.0022247622
11	0xbc0bf3bc	-0.0085419975
12	0xbc233c44	-0.009963099
13	0x3c322d29	0.010875025
14	0xbd007706	-0.03136351
15	0xbd9bb0a6	-0.076020524
16	0xbc733372	-0.0148438085
17	0xbd0db991	-0.034600798
18	0x3d88449b	0.066537105
19	0xbce64f46	-0.028113972
20	0xbce3e95a	-0.027821232
21	0x3dae03f1	0.084968455
22	0x3d1751fe	0.03694343
23	0x3ceb4fa4	0.028724499
24	0x3cada614	0.021197356
25	0x3cc4e9d4	0.02403728
26	0x3d4c3c59	0.04986224
27	0xbd02510d	-0.031815577
28	0xbc556455	-0.013024409
29	0xbd84cd4f	-0.06484472
30	0xbda37628	-0.07981521
31	0xbdc2b467	-0.09507065
32	0xbdb79192	-0.08963312
33	0xbd735649	-0.05940846
34	0xbdc50782	-0.096205726
35	0xbda26866	-0.07930069
36	0x3d4186b9	0.047247622
37	0xbcbc380d	-0.022975946
38	0x3c0aa3f1	0.008461938
39	0x3c49c127	0.0123141175
40	0x3d352e17	0.044233408
41	0x3d4e0b48	0.050303727
42	0x3cffc169	0.031220155
43	0xbc087cdf	-0.008330553
44	0x3cfaf41d	0.03063398
45	0x3ba8f2e9	0.0051559103
46	0x3c4f69fc	0.012659546
47	0xbcfbd116	-0.030739348
48	0xbccf4c88	-0.025305048
49	0xbbf13cdc	-0.0073619913
50	0xbcb0b15d	-0.021568948
51	0x3c9cd71a	0.019145537
52	0x3b2d6c5c	0.0026462292
53	0x3cadf322	0.021234099
54	0xbbd6e9d9	-0.0065586385
55	0xbd027a08	-0.03185466
56	0xbcba016a	-0.022705752
57	0x3bbaf24e	0.0057051545
58	0xbd45a984	-0.048257366
59	0xbd73154c	-0.059346482
60	0x3a3ba94e	0.0007158712
61	0xbd91e416	-0.07123582
62	0xbc80a4d3	-0.015703594
63	0x3cb239ce	0.021756079
64	0x3b0daf08	0.002161922
65	0x3d026751	0.03183681
66	0x3d9b6698	0.075879276
67	0x3dc57dd3	0.0964314
68	0x3d1402c3	0.036135446
69	0x3c8dec4d	0.017324591
70	0x3d8d5ba9	0.069022484
71	0x3d8e4cf0	0.069482684
72	0x3d6b2e55	0.057417233
73	0x3d26107e	0.040543072
74	0x3cb48194	0.022034444
75	0x3cba79e2	0.022763196
76	0xbbea7b69	-0.007155825
77	0x3cf739ba	0.030178893
78	0x3d20062a	0.03906838
79	0x3c3927de	0.011301009
80	0xbc9ac364	-0.018891998
81	0x3d873405	0.06601719
82	0xbb34d0e6	-0.0027590333
83	0x3d8aa174	0.06769076
84	0x3dc2db2f	0.09514462
85	0x3da5bb3c	0.08092353
86	0x3d82206b	0.063538395
87	0x3d3ffdea	0.04687301
88	0x3cc714ae	0.024301853
89	0x3d80b5d7	0.06284683
90	0x3cda82fa	0.026673783
91	0x3c8b8c11	0.017034562
92	0x3cf07165	0.029350946
93	0x3c8f76e1	0.01751274
94	0x3d36be7c	0.044615254
95	0x3d1bb69f	0.038015958
96	0x3d4b8818	0.049690336
97	0x3c8d0126	0.017212462
98	0x3d6958ca	0.05696944
99	0xbc9774a0	-0.018488228
100	0xbd26697d	-0.040627945
101	0xbb3c28b5	-0.0028710787
102	0x3d2141c2	0.039369352
103	0xbcb189c8	-0.021672145
104	0xbcb82e5f	-0.022483049
105	0xbcfce090	-0.030868798
106	0xbcac9e5a	-0.021071602
107	0xbd5112ad	-0.0510432
108	0xbd7b3655	-0.061331112
109	0x3c9b81b9	0.018982755
110	0xbd32b108	-0.04362586
111	0xbd43c01b	-0.047790628
112	0xbd9c63df	-0.076362364
113	0xbdc1e071	-0.09466637
114	0xbd9ab1c9	-0.07553441
115	0xbd0cb59c	-0.034352884
116	0xbcbbc8d8	-0.022922918
117	0x3bc6ac67	0.0060630324
118	0xbcb9f9ff	-0.022702215
119	0xbd525560	-0.05135095
120	0xbdb89e58	-0.09014577
121	0xbd876a11	-0.066120274
122	0xbda025e3	-0.07819726
123	0x3c4db0f4	0.012554396
124	0xbd7eb176	-0.06218096
125	0xbd84b6e4	-0.06480196
126	0xbc97b3ad	-0.018518293
127	0xbd0e4ae8	-0.034739405
128	0xbcacad08	-0.021078601
129	0x3d859d9c	0.06524202
130	0x3c9895d0	0.018626124
131	0x3d346d22	0.04404939
132	0x3da5693c	0.080767125
133	0x3d03c3fc	0.032169327
134	0xbd335457	-0.043781605
135	0xbda8cbfe	-0.082420334
136	0xbc87f066	-0.016594123
137	0xbd33e201	-0.043916706
138	0xbdc44ab3	-0.0958456
139	0xbdacbc37	-0.08434337
140	0xbde158c4	-0.11003259
141	0xbdcecf48	-0.100981295
142	0xbd41ace4	-0.047284022
143	0xbd89af9b	-0.06722947
144	0x3a9caffe	0.0011954305
145	0x3c8546a2	0.016269032
146	0xbc1a5f75	-0.009422173
147	0x3dbe1458	0.09281224
148	0x3d8d8fec	0.069122165
149	0x3d252d92	0.040326662
150	0x3dd78fdb	0.10525485
151	0x3d7a1907	0.061059024
152	0x3d0752a4	0.033037797
153	0xbb40d8d4	-0.0029426115
154	0xbc3964bd	-0.011315522
155	0xbbfdb174	-0.0077421013
156	0x3abc9ed6	0.0014390599
157	0x3da5dd42	0.08098842
158	0x3d648ebe	0.055800192
159	0x3d226592	0.039647646
160	0xbb1d0888	-0.0023961384
161	0x3da5737c	0.080786675
162	0x3ccdd573	0.025126195
163	0xbc4597d6	-0.012060126
164	0x3d54bbd7	0.05193695
165	0x3dafa0b4	0.085755736
166	0x3cee0f0b	0.029059907
167	0x3d109a55	0.035303432
168	0x3d33abca	0.043865003
169	0x3d0adf52	0.03390438
170	0x3c15951c	0.009129789
171	0x3cc93035	0.02455912
172	0xbc93978b	-0.018016597
173	0xbcc086f6	-0.023501854
174	0x3d0da44c	0.034580514
175	0x3daca589	0.08430011
176	0x3db7506c	0.08950886
177	0x3da2400a	0.07922371
178	0x3d8d4afd	0.068990685
179	0x3b9716c4	0.004610868
180	0xba489fdc	-0.00076532154
181	0x3b7a6824	0.0038209045
182	0x3d037bf4	0.032100633
183	0x3d12f741	0.03588033
184	0xbcb05ae2	-0.021527711
185	0x3d1b00e6	0.037842654
186	0x3c9e6bbd	0.019338483
187	0x3c131486	0.008977061
188	0xbc9f96b7	-0.019481046
189	0xbd967803	-0.07347109
190	0xbd35ba8a	-0.04436735
191	0xbd51e791	-0.05124623
192	0xbd6db97c	-0.05803822
193	0xbda1e16d	-0.07904325
194	0xbdb32e22	-0.087490335
195	0xbd87e5f3	-0.06635656
196	0xbd1ee702	-0.038794525
197	0xbd3abae3	-0.045588385
198	0x3d064d3e	0.032788508
199	0x3c09f0bd	0.008419213
200	0x3c7f84ad	0.015595597
201	0x3cdd7ce3	0.02703709
202	0x3d81d485	0.06339363
203	0x3d85fc02	0.06542207
204	0x3cd658f8	0.02616547
205	0x3ad28ae7	0.0016063125
206	0x3d047830	0.032341182
207	0xbcee828e	-0.029114988
208	0xbcf199d8	-0.029492304
209	0xbd355a5b	-0.044275623
210	0xbd9b8f52	-0.075956956
211	0xbdc34b44	-0.0953584
212	0xbe046540	-0.12929249
213	0xbd89c443	-0.06726887
214	0xbd150923	-0.036385667
215	0xbdd77276	-0.105198786
216	0x3c842d11	0.01613477
217	0xbc9834e1	-0.018579902
218	0xbd1697c8	-0.036765844
219	0xbc8a3e93	-0.01687554
220	0xbbde55e6	-0.0067851422
221	0xbdbf17a0	-0.09330678
222	0xbd274544	-0.04083754
223	0xbca3e419	-0.020006226
224	0xbd59d81a	-0.053184606
225	0xbd3b9c1e	-0.04580318
226	0x3c8ffc8c	0.017576478
227	0x3c1647e6	0.009172415
228	0xbd22f846	-0.039787553
229	0xbd053486	-0.032520793
230	0xbd181a5f	-0.037134524
231	0xbd793be2	-0.060848124
232	0xbcfea136	-0.03108273
233	0xbd50a352	-0.050937004
234	0x3cd45c59	0.025922941
235	0xbbb40f4b	-0.005494987
236	0xbb097f0e	-0.0020980272
237	0x3db58bc0	0.08864546
238	0x3dd6a28d	0.10480223
239	0x3dd00af3	0.101583384
240	0x3d3e3578	0.04643771
241	0x3bb6572b	0.0055645905
242	0x3c3f61c9	0.011681029
243	0xbd37371f	-0.044730302
244	0x3b3ec027	0.002910623
245	0xbd88bcda	-0.066766456
246	0xbd0ffa89	-0.03515104
247	0xbdf1c6e7	-0.11805516
248	0xbe068329	-0.13135971
249	0xbd8ad799	-0.06779403
250	0xbd4573ff	-0.048206326
251	0xbceeeb59	-0.029164957
252	0x3b41083f	0.0029454378
253	0x3be4295c	0.0069629382
254	0xbd5418f5	-0.051781613
255	0xbd285b56	-0.04110273

conv_layers.7.0.conv.bias f4 [16]
0	0x3d82947a	0.06375976
1	0xbdcc4659	-0.09974355
2	0xbbafeb34	-0.0053686146
3	0x3d329579	0.04359958
4	0x3cb9a14f	0.022659926
5	0xbaf2df15	-0.0018529618
6	0x3c65f821	0.014036209
7	0xbc9c024d	-0.019044066
8	0x3c937a1f	0.018002568
9	0xbcda920a	-0.026680965
10	0x3da068a1	0.078324564
11	0x3bf78082	0.007553161
12	0xbdba4210	-0.09094632
13	0x3d8e7f67	0.06957894
14	0xbc73affd	-0.014873502
15	0x3ca0e35e	0.019639667

linear_layers.0.weight f4 [64, 400]
0	0x3cc37e8b	0.023864051
1	0x3c32c8e4	0.010912154
2	0x3cf95d8e	0.030440118
3	0x3cf176f0	0.02947566
4	0x3c2f9a7e	0.010717986
5	0x3c4c7bfc	0.012480732
6	0x3c51cf62	0.012805792
7	0x3ca2db93	0.019880092
8	0x3cdcd6c8	0.026957884
9	0x3be6875a	0.007035178
10	0x3bcb937e	0.006212651
11	0xbbd3362a	-0.006445666
12	0x3caf5328	0.021401957
13	0x3c155883	0.009115341
14	0x3c2fb1f5	0.010723581
15	0xbc3625d2	-0.0111174155
16	0xbc4c992d	-0.012487692
17	0x3c070070	0.00823985
18	0xbd10076e	-0.035163336
19	0xbd07a68e	-0.033117823
20	0xbce4fb1a	-0.027951766
21	0xbd1e089e	-0.038582437
22	0xbd1112f7	-0.035418477
23	0xbd48fc53	-0.04906876
24	0xbd8a13d3	-0.067420624
25	0x3ca07df1	0.019591304
26	0xbcb62093	-0.02223233
27	0xbcd3c245	-0.02584947
28	0x3c9043ac	0.017610393
29	0xbbe5dd13	-0.0070148795
30	0x3ccee0d3	0.025253689
31	0xbc9e18ab	-0.019298872
32	0x3c987c75	0.018614033
33	0xb96cc094	-0.00022578455
34	0x3c980d19	0.018560933
35	0xbcd9d9aa	-0.026593048
36	0xbd7fcb46	-0.062449716
37	0xbd2a8354	-0.04162915
38	0x3be6ff17	0.007049452
39	0x3cb3af42	0.021934155
40	0xbbef2aae	-0.007298789
41	0xbd12474c	-0.035712525
42	0xbc683920	-0.014173776
43	0xbc8068b4	-0.015674926
44	0xbd045868	-0.032310873
45	0xbd36f72c	-0.044669315
46	0xbd207b8c	-0.039180323
47	0xbd8739db	-0.06602832
48	0xbd2feb35	-0.04294892
49	0xbd84af64	-0.064787656
50	0xbc9b34f9	-0.018946158
51	0xbc7c5108	-0.015400179
52	0x3c18cef7	0.009326688
53	0xbc1cfb80	-0.009581447
54	0xbc0510d3	-0.008121687
55	0xbc5bb9d7	-0.013411007
56	0xbb0e9184	-0.0021754215
57	0x3c0656d8	0.008199416
58	0x3b2aaf21	0.0026044326
59	0xbc0fd483	-0.008778694
60	0xbc4b5661	-0.012410731
61	0x3ad1c9a0	0.0016005524
62	0xbcca77bc	-0.024715297
63	0x3c2ef797	0.010679147
64	0xbc854ff3	-0.016273474
65	0xbbb634f1	-0.0055605103
66	0xbc84e53f	-0.016222594
67	0x3bbe8cc2	0.0058151195
68	0x3b5e25ae	0.003389697
69	0x3c9fb65a	0.019496132
70	0x3c589d05	0.01322103
71	0x3bf5c214	0.0074999426
72	0xbbe5ad05	-0.007009151
73	0x3ccdea52	0.025136147
74	0x3ccf1fee	0.02528378
75	0xbd1900b3	-0.037354182
76	0xbcffa1d5	-0.031205097
77	0x3c7e0960	0.015505165
78	0xbcbcd9c5	-0.02305306
79	0xbcc1d8ef	-0.023663012
80	0xbd1ee87b	-0.03879593
81	0xbcd71fc2	-0.02626026
82	0xbca1962c	-0.019724928
83	0x3bdd688b	0.0067568473
84	0xbcf82cc7	-0.030294789
85	0xbcba3f43	-0.022735244
86	0x3c10a7bb	0.008829053
87	0x3cb55cf3	0.022139048
88	0x3cac0e61	0.02100295
89	0x3c7b170a	0.015325317
90	0xbbdf054c	-0.0068060514
91	0x3c3ecc86	0.011645442
92	0xbc999b4f	-0.018750815
93	0xbc7f6701	-0.015588523
94	0xbbb322a8	-0.005466778
95	0x3d230798	0.039802164
96	0xbb472dc4	-0.0030392269
97	0xbd05b3d7	-0.03264221
98	0x3d658d85	0.056043167
99	0x3d18f965	0.037347216
100	0xbd48f4da	-0.049061634
101	0xbc1abc94	-0.009444375
102	0x3c51d8de	0.012808053
103	0xbcdeb66e	-0.027186599
104	0x3c025690	0.007955208
105	0xbd46ff8a	-0.048583545
106	0xbd4040aa	-0.04693667
107	0x3ca473a8	0.02007468
108	0x3c951ddb	0.018202713
109	0x3c1e154e	0.009648634
110	0xbd408e2a	-0.04701058
111	0x3c06bf30	0.008224294
112	0x3b922c6f	0.0044608633
113	0x3d2557fb	0.040367108
114	0x3c185c9f	0.009299426
115	0x3c9b4f77	0.01895879
116	0x3c21400e	0.009841932
117	0xbc2b34aa	-0.010449568
118	0x3cc03e8f	0.02346733
119	0x3d2bd485	0.04195072
120	0x3c8230cf	0.015892414
121	0x3cd11cf0	0.025526494
122	0xbd18938b	-0.037250083
123	0xbc8c6944	-0.017140038
124	0x3ca23b84	0.01980377
125	0xbd2c0a8e	-0.042002253
126	0xbc876db3	-0.0165318
127	0xbc94228f	-0.018082885
128	0xbbf5e6c8	-0.007504318
129	0x3bb5e366	0.0055507896
130	0xbd230198	-0.03979644
131	0xbc2e0699	-0.01062169
132	0xbb9b6344	-0.004742058
133	0xbcd5c3da	-0.026094366
134	0xb9bd77ac	-0.00036138052
135	0xbd0f974a	-0.03505639
136	0xbc5f3cfd	-0.013625381
137	0xbb6014a9	-0.0034192002
138	0x3c20eb05	0.009821658
139	0x3985db0f	0.00025530948
140	0x3b3cdd2f	0.002881836
141	0xbcd30cad	-0.02576288
142	0xbc9e9152	-0.019356403
143	0x3bd1415c	0.0063859653
144	0x3b9b8a3e	0.0047467044
145	0x3b0ad1b2	0.0021182117
146	0x3ccc9759	0.024974512
147	0x3b104af7	0.0022017339
148	0x3c78bcbd	0.015181717
149	0xbc8d50c8	-0.017250434
150	0xbcb20304	-0.021729954
151	0xbc82b423	-0.015955037
152	0xbc7357b9	-0.014852458
153	0xbca07285	-0.019585857
154	0xbcc52213	-0.0240641
155	0xbc274d80	-0.0102113485
156	0xbcc7c9a1	-0.024388136
157	0xbc53abd7	-0.012919388
158	0xbcbcabee	-0.023031201
159	0xbcd2a8fd	-0.025715346
160	0xbbcda4d2	-0.0062757516
161	0xbcadfb9e	-0.021238144
162	0xbc0c4dbf	-0.008563458
163	0xbbe082a2	-0.00685151
164	0xbc47355a	-0.012158716
165	0x3ccb0ea3	0.024787253
166	0x3c06a61b	0.008218314
167	0xbb3e8b5f	-0.002907477
168	0xbbba4b46	-0.005685243
169	0x3b81982e	0.003954909
170	0x3c54108f	0.012943401
171	0x3c94c2ce	0.018159296
172	0xbba3a355	-0.004993836
173	0x3c4cdd54	0.012503941
174	0xbbc30b54	-0.005952278
175	0xbd355a5e	-0.044275634
176	0xbcadbf23	-0.021209305
177	0xbcc34cab	-0.02384027
178	0xbc611372	-0.013737546
179	0x3bb49b8a	0.0055117058
180	0x3aa94983	0.0012915585
181	0xbcfa0fe3	-0.030525154
182	0xbcbe7153	-0.023247397
183	0xbc7c727d	-0.0154081555
184	0xbc855e11	-0.016280206
185	0x3c143092	0.009044783
186	0x3bb3b535	0.005484248
187	0xbcf0f03c	-0.029411428
188	0x39cbc8eb	0.00038868873
189	0xbc0f6680	-0.008752465
190	0x3b362b80	0.0027796924
191	0x3bc03273	0.005865389
192	0xbd06d6fa	-0.03291986
193	0xbc8b6f4a	-0.01702084
194	0x3be16425	0.0068783932
195	0x3cecfcf1	0.028929206
196	0xbc9a4ac1	-0.018834474
197	0x3c97c503	0.01852656
198	0xbab3654e	-0.0013686807
199	0x3c94dcba	0.018171657
200	0xbd2f7d85	-0.042844314
201	0xbcc6c6a5	-0.024264643
202	0xbb17072d	-0.0023045049
203	0xbc03d1d8	-0.008045636
204	0xbc8b24bf	-0.016985295
205	0xbc767255	-0.015041907
206	0x3c4d41c8	0.0125278905
207	0xbc9b79c5	-0.018978963
208	0xbbcf1f04	-0.006320836
209	0xbb479659	-0.0030454604
210	0x3cd3c65e	0.025851425
211	0x3c52b61f	0.012860804
212	0x3cdb3cc7	0.02676238
213	0xb8e378b5	-0.00010846687
214	0x3bc7a19f	0.006092265
215	0x3c8d8ad5	0.017278114
216	0x3cb4550e	0.022013213
217	0xbc8603bc	-0.016359203
218	0xbc9058d5	-0.017620483
219	0x3c4624eb	0.012093763
220	0xbcaec44d	-0.021333838
221	0x3d4740c2	0.048645742
222	0xbcc43f4b	-0.023955962
223	0x3d263fe8	0.04058829
224	0x3cdc96a1	0.026927294
225	0x3b07076e	0.0020603794
226	0x3cab6659	0.020922827
227	0xbbff335f	-0.0077881063
228	0x3c6e3d75	0.01454102
229	0x3c8f2aaf	0.017476408
230	0xbca339df	-0.019925056
231	0x3b911378	0.0044273697
232	0x3b7ef8dd	0.0038905658
233	0x3d14f18f	0.03636318
234	0xba864e6f	-0.0010246764
235	0x3bda87ea	0.0066690343
236	0xbc6c357a	-0.014417047
237	0xbaff516a	-0.0019479219
238	0x3cb14e99	0.021643924
239	0x3a1740cf	0.000576985
240	0xbb9f28b2	-0.004857146
241	0xbcb97aab	-0.0226415
242	0xbc918ffd	-0.017768854
243	0x3c98a7c2	0.01863468
244	0x3c6a9766	0.014318323
245	0xbc6a87fa	-0.014314646
246	0x3b9e9037	0.004838969
247	0xbce35e44	-0.02775491
248	0x3a03de9a	0.00050304236
249	0x3c4eaedf	0.012614935
250	0x3c67bcd6	0.014144143
251	0x3ba32c4d	0.0049796463
252	0x3d042023	0.03225721
253	0x3d047d98	0.032346338
254	0x3b00dab0	0.0019661598
255	0x3d048d5b	0.03236137

linear_layers.0.bias f4 [64]
0	0xb894a938	-7.0887094e-05
1	0x3d4d03b6	0.050052367
2	0x3cb4ba1c	0.0220614
3	0xbba98279	-0.0051730243
4	0x3cacc7d1	0.021091374
5	0x3d320d8c	0.04346995
6	0x3c5b65ff	0.013391017
7	0x3d1981a0	0.037477136
8	0x3d4c9fd1	0.0499571
9	0x3d94a5b0	0.07258165
10	0x3c9a30ef	0.018822161
11	0xbd39b25a	-0.045336105
12	0xbcf9050b	-0.030397912
13	0x3d589f50	0.052886307
14	0x3c758d11	0.014987246
15	0x3d7da59b	0.06192551
16	0x3d4fd1a1	0.050737027
17	0x3d109aa1	0.035303716
18	0xbc7dea6d	-0.015497786
19	0x3d26014e	0.040528588
20	0x3d95a830	0.0730747
21	0xbbc5c0de	-0.0060349545
22	0x3d6aea2b	0.057352226
23	0x3d53b867	0.05168953
24	0x3c178b40	0.009249508
25	0x3b9c60e0	0.0047722906
26	0x3cc4b32e	0.02401122
27	0x3d2e29c3	0.042520296
28	0x3c712878	0.014719121
29	0x3cc16991	0.023609908
30	0x3d8a6cac	0.06759009
31	0xbc06b2ec	-0.008221369
32	0x3c4e1faa	0.0125807915
33	0x3c89da7c	0.016827814
34	0x3da15acd	0.07878647
35	0x3d1b0f61	0.037856463
36	0xbd334041	-0.04376245
37	0xbc42dd46	-0.011893576
38	0x3d4d9a48	0.050195962
39	0x3d3000ea	0.04296962
40	0x3d5dd12d	0.054154564
41	0x3d43a26b	0.047762316
42	0x3d0f91bc	0.035051093
43	0x3d1e2e6b	0.038618486
44	0x3d290621	0.04126561
45	0x3d8282d3	0.06372609
46	0x3b7a3203	0.0038176782
47	0x3c4c2029	0.012458839
48	0x3d2871fb	0.041124325
49	0x3d3a70f6	0.045517884
50	0x3d11ec5d	0.035625804
51	0x3d8c9d71	0.06865967
52	0x3ce120fc	0.027481548
53	0x3d6c3c9e	0.057674997
54	0x3bb0115e	0.005373164
55	0xbbfa4260	-0.007637307
56	0x3d2acc00	0.041698456
57	0x3d69cd16	0.05708035
58	0x3ce1f59e	0.02758294
59	0xbd4db123	-0.05021776
60	0x3cbb1102	0.022835258
61	0x3c4afea7	0.012389815
62	0xbc15dbdf	-0.00914666
63	0x3d4cc8bb	0.04999612
