models/model_1722160525998/model.pth (torch, 189305 bytes, 12 tensors)

conv_layers.0.0.conv.weight f4 [16, 10, 3, 3]
0.61500305 0.72042954 0.4630431 0.692276 0.7620193 0.61911 0.56828445 0.73464435
0.5190747 -0.013859272 -0.026813583 0.016006485 -0.016739735 0.01228585 -0.015661325 0.012912227
-0.005450473 -0.011829949 0.0011092937 0.022961378 -0.0024296497 0.012047511 0.023399714 0.004913583
0.0055292277 0.0044264332 -0.009405091 -0.008618444 -0.007765219 -0.0009282987 -0.015483828 0.009234629
-0.007207304 -0.0017824494 -0.0030578254 0.018771967 0.025541991 -0.0049790917 -0.00094745355 0.0046957145
0.009397305 0.0060677836 0.0032517167 0.0016959313 0.009262273 0.2717545 0.33848384 0.12536867
0.07935734 0.22846092 0.13336161 0.2997961 0.36670938 0.26202723 0.05887296 0.02586459
0.017776754 -0.023699168 -0.03530741 -0.017981632 0.07771418 -0.007340359 0.08602477 -0.006651356
0.0073165386 -0.02128516 0.016915547 0.0010356826 0.012723204 0.0034095754 -0.01606845 0.004195707
0.012784106 0.0023510193 -0.06998171 -0.0054272152 0.013514764 -0.011901535 0.00981344 0.020829646
-0.12895143 -0.02243004 -0.003499174 -0.025693845 -0.016130855 0.002611361 -0.0037851902 -0.0019524854
-0.0016599298 0.0056755748 0.7260313 0.7569185 0.49872458 0.74967164 0.7595938 0.5091483
0.6303858 0.7088924 0.5177558 0.020127067 -0.002315277 -0.034576688 -0.022591189 0.0072444817
-0.026023153 -0.0034699203 -0.0037410958 -0.031200105 -0.01513708 -0.0013319541 0.032468725 -7.256439e-05
-0.006937378 0.0073641054 0.010274969 -0.006457623 0.0083299335 -0.0028820136 0.008729626 0.0032817042
-0.008113168 -0.009898049 0.01621543 0.0010971152 0.017560553 0.009280051 -0.002984265 -0.007916375
-0.0008798165 -0.0014574474 0.006651495 0.0013317424 -0.0040251827 -0.0017083636 0.011006101 0.13352537
0.19271153 0.15064998 0.15679726 0.2210014 0.12162467 0.14972512 0.43301523 0.20436113
-0.016907798 -0.06451911 -0.01288634 -0.0015232024 0.0098201195 0.017540175 0.001521409 0.021808943
0.007968271 0.014266287 0.0015744193 -0.00084159814 0.000745747 -0.01664743 -0.026652906 -0.0010382889
0.030864809 0.022577446 0.027190061 0.04403622 0.018419087 0.025758065 0.017958213 0.024848862
-0.002596383 0.007306054 0.013587107 0.001915583 0.005399979 0.013158277 0.0017671608 -0.0020339524
-0.00056789047 -0.0109613035 0.0047164024 -0.0015324993 0.27644023 0.55435324 0.41390654 0.48543888
0.6196249 0.54231435 0.46722054 0.6424041 0.45414585 0.16895354 0.060211435 0.091620885
-0.031990808 0.06612361 0.014747213 -0.05890644 -0.0044671753 0.10018617 -0.013361915 -0.014035839
-0.018322084 -0.00042920077 -0.011675585 -0.002206824 0.029096432 0.0013355454 -0.026066976 -0.03300036
-0.009821776 -0.0025967837 -0.012430298 -0.0075992416 -0.007911109 0.058228638 0.015674185 0.0108464565
0.009494199 0.013740821 0.0053350725 0.009859594 0.0143844215 0.009513297 0.01531749 0.008170421
-0.010634082 0.15854561 0.40767315 0.35824442 0.16785507 0.31598046 0.06613144 0.15203534
0.13503066 0.075345956 0.03152036 0.060619283 0.061031286 -0.059712995 -0.016206168 -0.040504377
0.04096786 -0.082197286 -0.03536668 -0.0007844181 0.0052341344 0.0046591214 0.07969095 0.064452305
0.016655812 0.01622432 -0.013756851 0.028212281 -0.031067515 0.07767374 -0.027857892 -0.03312516
00000000: d770 1d3f 126e 383f fc13 ed3e 0039 313f
00000010: b213 433f fe7d 1e3f 177b 113f a711 3c3f
00000020: 14e2 043f 0012 63bc 29a8 dbbc 0820 833c
00000030: c521 89bc 974a 493c 2e4c 80bc ce8d 533c
00000040: e299 b2bb 67d2 41bc b865 913a 8019 bc3c
00000050: c23a 1fbb ec62 453c c2b0 bf3c 1f02 a13b
00000060: 862e b53b 9d0b 913b d017 1abc 6034 0dbc
00000070: 6173 febb 1259 73ba e2af 7dbc d74c 173c
00000080: 3f2b ecbb 14a1 e9ba cc65 48bb abc7 993c
00000090: 703d d13c a627 a3bb 885e 78ba 82de 993b
000000a0: 27f7 193c 42d4 c63b c11a 553b 034a de3a
000000b0: cac0 173c 6823 8b3e c14d ad3e a560 003e
000000c0: 1a86 a23d a9f1 693e f28f 083e e07e 993e
000000d0: 55c1 bb3e 6f28 863e c624 713d fae1 d33c
000000e0: 8ea0 913c c224 c2bc 819e 10bd 374e 93bc
000000f0: 9d28 9f3d 6587 f0bb c12d b03d 9ef3 d9bb
00000100: 93bf ef3b 375e aebc 7992 8a3c bebf 873a
00000110: fc74 503c 2f73 5f3b fba1 83bc 247c 893b
00000120: 6d74 513c 8f13 1a3b 9252 8fbd c8d6 b1bb
00000130: 076d 5d3c a8fe 42bc 8dc8 203c efa2 aa3c
00000140: d80b 04be 34bf b7bc 6652 65bb e67b d2bc
00000150: db24 84bc 5e23 2b3b f410 78bb 8aea ffba
00000160: 0092 d9ba 2cfa b93b 30dd 393f 69c5 413f
00000170: d458 ff3e 7bea 3f3f bd74 423f 8b57 023f
00000180: f760 213f f979 353f a58b 043f 85e1 a43c
00000190: e7bb 17bb 49a0 0dbd 2811 b9bc 1e63 ed3b
000001a0: 822e d5bc 9a67 63bb 2c2d 75bb 5d97 ffbc
000001b0: 8401 78bc f794 aeba edfd 043d b62d 98b8
000001c0: f252 e3bb 984e f13b 5858 283c 789a d3bb
000001d0: 467a 083c 2ae0 3cbb b506 0f3c dc11 573b
000001e0: 18ed 04bc 6d2b 22bc 39d6 843c 14cd 8f3a
000001f0: 26db 8f3c 5b0b 183c a993 43bb afb3 01bc
00000200: 7ca3 66ba d207 bfba c9f4 d93b dc8d ae3a
00000210: aee5 83bb 2ceb dfba ef52 343c e0ba 083e
00000220: 2c56 453e fd43 1a3e 768f 203e 314e 623e
00000230: 5b16 f93d 8b51 193e 2cb4 dd3e 0b44 513e
00000240: 3982 8abc 9822 84bd 3a21 53bc 31a6 c7ba
00000250: 91e4 203c 6ab0 8f3c 046a c73a aba8 b23c
00000260: 5a8d 023c 25bd 693c bf5c ce3a b29e 5cba
00000270: 3c7e 433a 3160 88bc 3257 dabc 3217 88ba
00000280: 32d8 fc3c 56f4 b83c b1bd de3c 535f 343d
00000290: a0e3 963c 9402 d33c 1a1d 933c d78f cb3c
000002a0: 1428 2abb 9f67 ef3b 759c 5e3c 4d14 fb3a
000002b0: 4ff2 b03b d095 573c 14a0 e73a 0f4c 05bb
000002c0: 7cde 14ba 0a97 33bc 0d8c 9a3b 25de c8ba
000002d0: 9389 8d3e 18ea 0d3f 8feb d33e 728b f83e
000002e0: bd9f 1e3f 1dd5 0a3f 8837 ef3e 9874 243f
000002f0: ce85 e83e 2802 2d3e 44a0 763d bba3 bb3d
00000300: cb08 03bd d16b 873d 4b9e 713c e147 71bd
00000310: 6261 92bb 682e cd3d efeb 5abc 93f6 65bc
00000320: 3218 96bc 5a06 e1b9 f44a 3fbc 5da0 10bb
00000330: a45b ee3c 780d af3a 698a d5bc 632b 07bd
00000340: 84eb 20bc cd2e 2abb 73a8 4bbc 0f03 f9bb
00000350: 999d 01bc 2781 6e3d 2667 803c 56b5 313c
00000360: 8f8d 1b3c 2e21 613c d5d1 ae3b 228a 213c
00000370: a3ac 6b3c a9dd 1b3c 36f6 7a3c 3bdd 053c
00000380: 933a 2ebc c859 223e 89ba d03e d06b b73e
00000390: 33e2 2b3e 31c8 a13e ec6f 873d 27af 1b3e
000003a0: 7a45 0a3e fb4e 9a3d 7e1b 013d ed4b 783d
000003b0: f1fb 793d 9d95 74bd ccc2 84bc ebe7 25bd
000003c0: eacd 273d 0d57 a8bd a7dc 10bd 68a1 4dba
000003d0: 1a83 ab3b 8bab 983b 0235 a33d 92ff 833d
000003e0: c571 883c dde8 843c 6a64 61bc 711d e73c
000003f0: 4d81 febc 6913 9f3d 3c36 e4bc 3fae 07bd

conv_layers.0.0.conv.bias f4 [16]
-0.020625347 -0.029475389 -0.11345313 -0.010890446 -0.0024675692 -0.13242427 -0.0032594188 -0.14946185
-0.008491262 -0.17031936 -0.005191769 -0.010238171 -0.13852522 -0.06055671 -0.16675316 -0.055333782
00000000: 7df6 a8bc 5f76 f1bc 1d5a e8bd d76d 32bc
00000010: f1b6 21bb 3a9a 07be f99b 55bb 870c 19be
00000020: ef1e 0bbc 3368 2ebe b71f aabb 00be 27bc
00000030: 8ed9 0dbe 500a 78bd 57c1 2abe ada5 62bd

conv_layers.2.0.conv.weight f4 [32, 16, 3, 3]
-0.059575774 0.009644192 0.005791583 0.045060918 0.09063996 0.019285815 -0.09902905 -0.0703698
-0.034453023 -0.119635954 0.06683142 -0.024370985 0.11772158 0.039190136 0.04731599 -0.007393336
-0.00308695 0.02046629 -0.08349093 -0.04846498 -0.07121773 -0.04942246 0.048809256 -8.471374e-05
-0.029777931 -0.0447057 -0.07019131 -0.085538775 -0.030866418 -0.08363027 0.10261215 0.057468187
0.0118385395 -0.04896709 -0.10590413 0.0037171678 -0.053385988 -0.017896468 0.005583046 0.047800288
0.14337535 0.018917898 -0.0859882 -0.08155588 -0.04315008 0.039904624 -0.11281836 -0.10624574
-0.032049425 -0.20835662 -0.04439336 0.031774472 -0.18540412 -0.12771426 -0.16619848 -0.0013207496
-0.041852955 0.122034915 0.17523673 -0.0058502504 -0.06659788 -0.04398936 -0.02219874 -0.035488304
-0.060582466 -0.023913594 0.08867288 0.09734648 -0.028657958 -0.08474726 -0.075971015 -0.027735738
-0.105245404 0.045822244 -0.0074436544 0.08346542 0.11961226 -0.10783572 -0.05737278 0.01555196
-0.021372981 0.039592747 -0.028638737 -0.072934024 -0.012558066 -0.10648272 -0.06924294 -0.16210775
-0.15889221 -0.08747825 -0.04007958 -0.020098316 0.017304957 0.11528366 0.06772002 0.057099964
-0.068869635 -0.121699035 -0.108680405 -0.13288917 -0.04921404 -0.10457826 0.12498349 0.1682301
0.03234834 -0.07667809 -0.15716788 -0.014288355 -0.012188827 -0.07446863 -0.044240825 0.019010413
-0.11911091 -0.10257779 0.023769375 -0.06644595 -0.08958942 -0.02020796 0.12332142 0.0033650193
0.25602242 0.21132013 0.10419739 -0.05045591 -0.018637132 0.04026279 -0.028811987 -0.059571568
-0.15727259 0.123201564 -0.06512534 0.040796105 0.06578419 -0.11111715 -0.101891555 -0.038593628
0.14005952 0.020973874 0.12836328 0.14371651 0.025864864 -0.12484191 7.055877e-05 0.05989272
0.12792672 0.026405536 -0.11581825 -0.111167826 -0.0055001243 0.05523907 -0.2600579 0.04202428
0.069129 0.13829239 0.14391233 -0.07041861 -0.10854818 0.08649139 0.06643628 -0.27554518
-0.02494682 0.038617596 0.004164654 0.06150569 -0.08613993 -0.07165997 0.0031685992 -0.014921925
-0.18164736 0.06917593 0.013727481 0.0339926 -0.04130892 -0.19195719 -0.11259381 -0.07165956
0.011434705 -0.28245237 0.05200663 0.05387683 0.13492215 0.028894383 -0.14710268 -0.111119404
0.05652699 0.008659704 -0.2812163 -0.042489864 -0.06313028 -0.008787243 -0.03662781 0.001749197
0.050579645 -0.07709942 -0.0533604 0.1389863 0.025322193 -0.058865525 0.1546956 -0.029828532
-0.29476032 -0.23280816 0.019663326 -0.024168143 -0.34902698 -0.009319821 0.09504431 0.15084073
0.033303756 -0.10011841 0.031618204 0.0071439147 0.0002722665 -0.13760537 0.09656171 0.026983347
0.08100107 0.008604299 -0.15338357 -0.14189857 -0.03514184 0.018627297 -0.14388704 0.006591855
0.076008044 -0.061612442 0.015449459 0.020697853 -0.03156818 0.027814412 -0.030799624 0.039441574
-0.06661888 -0.13957275 0.13213792 -0.0590981 -0.11207132 -0.15364361 0.02445805 0.029178848
-0.24978025 -0.0048076487 0.0069558504 0.07732112 0.006118963 -0.12107927 -0.21674442 -0.07039875
0.019940922 -0.29980582 0.062156882 0.0025363234 0.10059629 -0.14053223 -0.08417565 -0.0121890735
00000000: ba05 74bd ac02 1e3c 52c7 bd3b cc91 383d
00000010: 71a1 b93d 49fd 9d3c becf cabd 0b1e 90bd
00000020: 9d1e 0dbd b203 f5bd e9de 883d a9a5 c7bc
00000030: 0318 f13d d685 203d 69ce 413d cc43 f2bb
00000040: 6d4e 4abb eca8 a73c 4bfd aabd 3783 46bd
00000050: 9ada 91bd 356f 4abd 37ec 473d 58a8 b1b8
00000060: d9f0 f3bc 531d 37bd 76c0 8fbd f42e afbd
00000070: 92db fcbc 5946 abbd 5226 d23d c363 6b3d
00000080: 6ff6 413c b791 48bd 44e4 d8bd ba9b 733b
00000090: 44ab 5abd 9d9b 92bc fcf1 b63b 3cca 433d
000000a0: fdd0 123e b5f9 9a3c 951a b0bd c506 a7bd
000000b0: 23be 30bd 0873 233d 500d e7bd 5e97 d9bd
000000c0: 4246 03bd 705b 55be d0d5 35bd f325 023d
000000d0: 94da 3dbe 87c7 02be ef2f 2abe 011d adba
000000e0: 016e 2bbd 71ed f93d 4271 333e 75b3 bfbb
000000f0: 7864 88bd 302e 34bd 22da b5bc 2f5c 11bd
00000100: 5225 78bd 71e6 c3bc 209a b53d 975d c73d
00000110: 18c4 eabc f98f adbd b196 9bbd 0f36 e3bc
00000120: e78a d7bd 1bb0 3b3d e6e9 f3bb ebef aa3d
00000130: 46f7 f43d f9d8 dcbd b8ff 6abd a6cd 7e3c
00000140: 6416 afbc 012c 223d c99b eabc 6f5e 95bd
00000150: 59c0 4dbc 9d13 dabd 3ecf 8dbd 93ff 25be
00000160: a4b4 22be cc27 b3bd 7c2a 24bd 39a5 a4bc
00000170: 20c3 8d3c d719 ec3d cbb0 8a3d a7e1 693d
00000180: 860b 8dbd 583d f9bd d593 debd 1914 08be
00000190: a994 49bd 202d d6bd 58f7 ff3d 8344 2c3e
000001a0: b17f 043d 6709 9dbd 9ef0 20be b419 6abc
000001b0: a5b3 47bc 0283 98bd de35 35bd babb 9b3c
000001c0: 6cf0 f3bd 4e14 d2bd feb7 c23c d014 88bd
000001d0: a87a b7bd 2a8b a5bc f18f fc3d a887 5c3b
000001e0: 5f15 833e 4e64 583e 7165 d53d dbaa 4ebd
000001f0: e6ac 98bc 98ea 243d 1e07 ecbc 5101 74bd
00000200: 110c 21be 1a51 fc3d 6f60 85bd d119 273d
00000210: ddb9 863d 6391 e3bd 85ac d0bd 5a14 1ebd
00000220: c36b 0f3e 67d1 ab3c aa71 033e 6c2a 133e
00000230: 8de2 d33c 1ead ffbd f4f8 9338 1252 753d
00000240: 39ff 023e 6c50 d83c 1e32 edbd f5ab e3bd
00000250: 633a b4bb 5d42 623d 4f26 85be a721 2c3d
00000260: 8193 8d3d 859c 0d3e c15d 133e a237 90bd
00000270: 824e debd 6622 b13d bf0f 883d 4214 8dbe
00000280: 465d ccbc 7c2d 1e3d a677 883b 64ed 7b3d
00000290: 226a b0bd 76c2 92bd 46a8 4f3b 177b 74bc
000002a0: c401 3abe 1cac 8d3d 3ae9 603c d33b 0b3d
000002b0: 8b33 29bd 6d90 44be 9597 e6bd 3fc2 92bd
000002c0: a158 3b3c 999d 90be e704 553d f3ad 5c3d
000002d0: 0829 0a3e eab3 ec3c 16a2 16be 9292 e3bd
000002e0: d888 673d 6ee1 0d3c 95fb 8fbe da09 2ebd
000002f0: 734a 81bd 5ef8 0fbc 0b07 16bd 5045 e53a
00000300: 9a2c 4f3d 4de6 9dbd 6f90 5abd 6d52 0e3e
00000310: 7d70 cf3c fa1c 71bd 8668 1e3e f75a f4bc
00000320: d3ea 96be 4365 6ebe fc14 a13c 45fc c5bc
00000330: aab3 b2be 2ab2 18bc 97a6 c23d fe75 1a3e
00000340: 8569 083d e20a cdbd 1782 013d 8017 ea3b
00000350: febe 8e39 6ce8 0cbe 25c2 c53d 2e0c dd3c
00000360: e4e3 a53d 0cf9 0c3c 9510 1dbe dc4d 11be
00000370: e4f0 0fbd 4698 983c 2057 13be 7d00 d83b
00000380: 1baa 9b3d 545d 7cbd ba1f 7d3c 8b8e a93c
00000390: a34d 01bd 0ddb e33c 7e4f fcbc 7d8d 213d
000003a0: 7b6f 88bd 29ec 0ebe 2a4f 073e d910 72bd
000003b0: a685 e5bd c054 1dbe 405c c83c 7b08 ef3c
000003c0: 65c6 7fbe 7b89 9dbb e7ed e33b 895a 9e3d
000003d0: 9581 c83b 69f8 f7bd 40f2 5dbe 382d 90bd
000003e0: 255b a33c 2680 99be 3798 7e3d 7238 263b
000003f0: 6d05 ce3d aee7 0fbe 4864 acbd aeb4 47bc

conv_layers.2.0.conv.bias f4 [32]
-0.040464804 0.0003749209 -0.014047164 -0.020738674 -0.41282165 -0.033954833 -0.015493124 -0.02669857
0.013447233 -0.0015091887 -0.121440105 -0.31654355 -0.02127054 -0.010137291 -0.007486314 0.003570029
-0.020434787 0.00894207 -0.3535282 -0.010768232 -0.023962408 0.038670063 -0.33596036 -0.023734337
0.049528312 -0.025117753 0.0029360617 0.00853863 -0.04167456 -0.10182643 -0.009103874 -0.0101605635
00000000: 6cbe 25bd 0891 c439 1326 66bc 27e4 a9bc
00000010: 5c5d d3be 3914 0bbd dfd6 7dbc f6b6 dabc
00000020: c851 5c3c f8cf c5ba 97b5 f8bd ff11 a2be
00000030: 8e3f aebc e116 26bc c14f f5bb 26f7 693b
00000040: db66 a7bc c381 123c a601 b5be 3d6d 30bc
00000050: d04c c4bc 8064 1e3d ff02 acbe 836e c2bc
00000060: 33de 4a3d bfc3 cdbc f16a 403b 9ce5 0b3c
00000070: f2b2 2abd 608a d0bd 6a28 15bc 7e78 26bc

conv_layers.4.0.conv.weight f4 [32, 32, 3, 3]
0.18483654 0.087294295 0.016733976 0.10593122 0.07505132 0.060658604 0.14735028 0.12372931
0.09421614 0.101953596 0.103054956 0.12490618 0.111455634 0.08295215 0.11142529 0.10062202
0.16910875 0.06873483 0.09652863 0.21185693 0.015237462 0.078096226 0.15539853 0.017969767
0.07230328 0.18128121 0.051550474 0.14362267 0.15277101 0.0144031895 0.14448944 0.1955259
0.048437845 0.15484765 0.19843413 0.0649363 -0.22000548 -0.20553567 -0.16298446 -0.21171796
-0.25916386 -0.16390784 -0.1809705 -0.24143972 -0.18995297 0.2719693 0.31829947 0.21089385
0.15305646 0.21678546 0.1701409 0.17378518 0.29190922 0.17655613 0.05785099 0.2037556
0.096417755 0.09242156 0.16491224 0.059221424 0.0723529 0.18548328 0.05932592 0.053276934
0.048969172 -0.031086246 -0.041490313 0.019593429 -0.021546058 0.04099779 0.06011877 -0.00631059
-0.08454707 -0.06688286 -0.06887454 -0.040557876 0.02284067 0.025287446 -0.0144045865 0.010918064
0.032229546 0.023556188 -0.03777843 0.007928295 -0.027465826 -0.009086157 -0.07315662 0.012253763
-0.015629621 0.00078544754 -0.00064781046 -0.02883939 0.052358076 -0.046998013 -0.015685549 -0.026674666
-0.009140297 -0.023372758 0.033451367 -0.19940966 -0.17905623 -0.1453653 -0.21305348 -0.27282813
-0.17116778 -0.21086805 -0.21187587 -0.2142505 0.0656713 0.035688683 -0.021958036 0.012823725
-0.00048630626 -0.020965984 0.027838977 0.02918037 -0.014692266 0.1281202 0.2529811 0.10735636
0.08222767 0.17029364 0.080481134 0.0912015 0.19941153 0.095777415 0.13616583 0.22688998
0.08991786 0.10103859 0.17327645 0.14118981 0.049302004 0.21533892 0.032539804 0.22600268
0.09603735 0.17911533 0.2228828 0.14327423 0.123898305 0.21768019 0.11541199 0.13325706
0.06440191 0.12182055 0.08707191 0.005393874 0.064395115 0.016907366 0.037484184 0.07615896
-0.025596444 -0.029590521 -0.101826765 -0.00870361 -0.027717775 -0.024518678 -0.0042218254 -0.09062122
-0.09914015 -0.03033865 -0.2384613 -0.27772647 -0.14347011 -0.22742307 -0.34449375 -0.20871082
-0.1702781 -0.3242101 -0.23414119 0.12271925 0.16438356 0.09830137 0.09794396 0.21017388
0.11437678 0.114782214 0.16704385 0.025910892 -0.005937753 -0.01346009 0.024596322 0.028900119
-0.0041566496 0.020432463 0.0051171305 -0.010024303 0.010765287 -0.0720995 -0.05524548 0.013756721
-0.07346589 -0.013934857 -0.0074216453 -0.0027733394 -0.06208523 0.026124425 -0.2120598 -0.29867455
-0.14523 -0.26769418 -0.30267993 -0.19200124 -0.19043712 -0.3144756 -0.18688989 0.019978207
-0.006853493 -0.025659712 -0.019845244 -0.047006864 0.012449555 0.064004116 0.0062563154 -0.018045545
-0.02337373 -0.058885768 0.00783401 -0.038520988 -0.028341597 0.03317922 -0.009545482 -0.08478394
-0.010568231 0.17803958 0.18279953 0.03237537 0.13683349 0.15227878 0.0325995 0.19505556
0.24424405 0.11100591 0.00578622 -0.009351793 0.00950667 -0.005355578 -0.017543439 0.031442344
-0.050345134 -0.03149052 -0.023123218 0.03306678 0.07511194 -0.005698994 0.03160097 0.11400464
-0.026992446 0.045115218 0.17788711 -0.022004228 -0.017591741 0.0142156 0.03439911 -0.04578353
00000000: ca45 3d3e 5ac7 b23d b115 893c 78f2 d83d
00000010: 82b4 993d 2875 783d fee2 163e cb65 fd3d
00000020: 64f4 c03d 0ccd d03d 7a0e d33d d0ce ff3d
00000030: da42 e43d d1e2 a93d f132 e43d eb12 ce3d
00000040: d82a 2d3e d9c4 8c3d cdb0 c53d 06f1 583e
00000050: 8ca6 793c eaf0 9f3d cb20 1f3e 5535 933c
00000060: be13 943d c8a1 393e 9726 533d d211 133e
00000070: 0170 1c3e 5bfb 6b3c 0af5 133e f137 483e
00000080: c366 463d 6290 1e3e 5132 4b3e 53fd 843d
00000090: 1e49 61be f177 52be 66e5 26be 98cc 58be
000000a0: 20b1 84be 75d7 27be 5550 39be f93b 77be
000000b0: 0883 42be 8f3f 8b3e 26f8 a23e 8ff4 573e
000000c0: d5ba 1c3e 02fd 5d3e 6b39 2e3e bef4 313e
000000d0: 2075 953e 21cb 343e 29f5 6c3d 4fa5 503e
000000e0: ac76 c53d 8447 bd3d c1de 283e 2a92 723d
000000f0: c22d 943d 54ef 3d3e bcff 723d ea38 5a3d
00000100: e693 483d 95a8 febc bff1 29bd 6682 a03c
00000110: 5c81 b0bc 4ced 273d 193f 763d 11c9 cebb
00000120: 0427 adbd e2f9 88bd 180e 8dbd 0420 26bd
00000130: 5b1c bb3c 9e27 cf3c 3701 6cbc aee1 323c
00000140: 2103 043d e8f8 c03c 8ebd 1abd aee5 013c
00000150: 0300 e1bc 1bde 14bc 23d3 95bd 02c4 483c
00000160: b109 80bc 7ee6 4d3a d3d1 29ba 9640 ecbc
00000170: 6c75 563d fd80 40bd fb7e 80bc d484 dabc
00000180: 2fc1 15bc 3a78 bfbc 4d04 093d 0c32 4cbe
00000190: 845a 37be a4da 14be b12a 5abe 21b0 8bbe
000001a0: 9b46 2fbe cbed 57be fdf5 58be 7c64 5bbe
000001b0: ad7e 863d 4c2e 123d 57e1 b3bc 9a1a 523c
000001c0: ecf6 feb9 dbc0 abbc 910e e43c ac0b ef3c
000001d0: d4b7 70bc f131 033e bd86 813e a7dd db3d
000001e0: fb66 a83d 7561 2e3e 4bd3 a43d dac7 ba3d
000001f0: 8932 4c3e f326 c43d 0e6f 0b3e d955 683e
00000200: db26 b83d 52ed ce3d 626f 313e 1094 103e
00000210: e6f0 493d ce81 5c3e 7548 053d 3f6d 673e
00000220: 3baf c43d 026a 373e 643b 643e 7bb6 123e
00000230: 65be fd3d 8ee7 5e3e 1f5d ec3d 8a74 083e
00000240: 26e5 833d 0d7d f93d c252 b23d 18bf b03b
00000250: 96e1 833d 5181 8a3c 0489 193d 3bf9 9b3d
00000260: a2af d1bc d267 f2bc 8d8a d0bd 9699 0ebc
00000270: 6310 e3bc 65db c8bc 3d57 8abb 9e97 b9bd
00000280: fe09 cbbd c388 f8bc 332f 74be 2a32 8ebe
00000290: d4e9 12be 98e1 68be 7c61 b0be 4ab8 55be
000002a0: 625d 2ebe defe a5be b5c2 6fbe 3b54 fb3d
000002b0: 2a54 283e 3b52 c93d d896 c83d d237 573e
000002c0: 603e ea3d f012 eb3d 8b0d 2b3e 1443 d43c
000002d0: 7b91 c2bb b687 5cbc 3a7e c93c f1bf ec3c
000002e0: 8134 88bb fb61 a73c 9aad a73b f93c 24bc
000002f0: e360 303c e7a8 93bd 1649 62bd df63 613c
00000300: 4975 96bd 074f 64bc 4631 f3bb eac0 35bb
00000310: 154d 7ebd e402 d63c 3426 59be dfeb 98be
00000320: 2cb7 14be 360f 89be ddf8 9abe f99b 44be
00000330: f301 43be f202 a1be 1060 3fbe 56a9 a33c
00000340: 4493 e0bb 5134 d2bc 7e92 a2bc 458a 40bd
00000350: 38f9 4b3c 9714 833d c701 cd3b 40d4 93bc
00000360: 447a bfbc 3432 71bd 385a 003c 2fc8 1dbd
00000370: a32c e8bc efe6 073d a764 1cbc 34a3 adbd
00000380: 6026 2dbc 0250 363e cd2f 3b3e 099c 043d
00000390: 141e 0c3e f8ee 1b3e 0e87 053d a5bc 473e
000003a0: 1d1b 7a3e 1157 e33d 559a bd3b 4338 19bc
000003b0: ddc1 1b3c d87d afbb 42b7 8fbc b0c9 003d
000003c0: b336 4ebd 34fc 00bd e76c bdbc 0871 073d
000003d0: 4ad4 993d a0be babb 0570 013d 447b e93d
000003e0: 431f ddbc bcca 383d 0a28 363e 3642 b4bc
000003f0: 8e1c 90bc 8ce8 683c 15e6 0c3d 8387 3bbd

conv_layers.4.0.conv.bias f4 [32]
-0.052281052 0.017036023 0.078106046 0.074152015 0.044654682 -0.05224236 0.032970194 -0.06284517
-0.08454131 -0.029318951 0.02639993 -0.054585736 -0.05895617 -0.04421408 -0.05978314 -0.05118844
-0.058290686 -0.06162873 -0.05106102 0.008198774 -0.011471145 0.06799518 -0.04307712 -0.032800492
-0.037388884 -0.045681924 -0.11332255 0.06423814 -0.05960191 -0.18522641 -0.056220595 -0.04231031
00000000: a824 56bd 218f 8b3c 10f6 9f3d 03dd 973d
00000010: d4e7 363d 16fc 55bd c10b 073d f8b4 80bd
00000020: ff23 adbd 4c2e f0bc aa44 d83c 4b95 5fbd
00000030: 067c 71bd d319 35bd 2adf 74bd f8aa 51bd
00000040: 37c2 6ebd 686e 7cbd 5c25 51bd 2754 063c
00000050: 78f1 3bbc 0f41 8b3d a271 30bd cf59 06bd
00000060: 1625 19bd f81c 3bbd a715 e8bd 498f 833d
00000070: 2221 74bd feab 3dbe 9147 66bd 934d 2dbd

conv_layers.6.0.conv.weight f4 [16, 32, 3, 3]
-0.063990965 0.11533142 0.09247313 -0.13225485 0.122210674 0.15839191 -0.07270865 -0.041058354
0.12366209 -0.15614896 -0.0041235723 0.061302185 -0.11861435 0.053212896 0.08706649 -0.11867643
-0.1022265 0.016258735 -0.04190918 -0.11416947 -0.05354302 0.0057114745 -0.097193204 0.056250427
0.024242241 0.02277632 0.034966707 0.00073349226 -0.011046982 -0.08843059 0.022300512 0.004480395
-0.086315006 0.05348182 -0.037971422 -0.026074974 0.024612427 -0.047826324 -0.021101387 0.00060790597
-0.021426454 -0.046196815 0.05551229 -0.0024012248 -0.05247376 -0.09674173 0.14505748 0.15052882
-0.1519245 0.11941637 0.16679676 -0.1414394 -0.024745906 0.056480926 -0.13261181 0.054282293
0.0345517 -0.12980774 0.052659042 0.08374602 -0.10532832 -0.14274488 0.0073857307 -0.069729045
0.10614208 0.11952105 -0.19282563 0.13478494 0.087142445 -0.14139134 -0.0875258 0.034678906
-0.017533394 -0.07483565 -0.09837315 0.03633881 -0.092985444 0.02864121 -0.0285019 -0.074930675
0.00765589 -0.14937676 0.085853525 0.051451724 -0.17279881 0.05425565 0.025780061 -0.12415721
-0.11453216 0.040446807 -0.06242984 -0.051420033 -0.04682265 0.05732834 -0.03121447 0.014145242
0.049973503 0.03462946 -0.028227901 -0.087082095 0.097343974 0.11157868 -0.1356856 0.1451697
0.1565898 -0.091924734 -0.09713429 0.04544762 -0.034901787 0.14180021 0.08712789 -0.11832586
0.08592821 0.15606494 -0.102388114 -0.09651079 0.105758615 -0.0615845 0.14721973 0.121515945
-0.095484406 0.09312607 0.1342094 -0.047446046 -0.077751495 0.062041905 -0.05404513 0.11322346
0.10770368 -0.10236842 0.05023427 0.097442746 -0.0808217 -0.07425589 0.11078593 -0.0874716
0.087186165 0.1299083 -0.13033047 0.13297096 0.15976009 -0.12293616 -0.11116219 0.021394862
-0.13571307 0.10313051 0.10492984 -0.07529019 0.073116496 0.12517521 -0.09819726 -0.08732914
0.10604559 -0.16547287 0.04745802 -0.00089028024 -0.21311998 0.14093377 0.10762275 -0.18009439
-0.08656615 0.039823126 -0.040920023 0.13766976 0.15673001 -0.13322797 0.18407674 0.13225704
-0.044531215 -0.053764805 0.10716382 -0.14818007 0.04751208 -0.00851811 -0.13512145 -0.007376002
0.03405465 -0.103228725 -0.13574728 0.06000611 -0.08961658 -0.01254963 0.014609647 -0.18408476
0.04272145 0.087009646 -0.1592292 -0.15152189 0.047802184 0.008964593 -0.06178303 -0.08958126
0.04492072 -0.001344354 -0.07338376 0.036609437 -0.011869378 -0.06686903 -0.098112434 0.027244853
-0.01560371 -0.1672757 0.09745382 0.08026457 -0.15802051 -0.13388455 0.022360886 -0.11836063
0.051972307 0.12618652 -0.10665429 0.071245536 0.0961285 -0.048245005 -0.04166943 0.08965361
-0.041899137 -0.059165716 -0.02971654 0.019221975 -0.07661864 0.07380118 -0.007320743 -0.043688018
0.16020337 -0.1638528 0.07432749 0.08823378 -0.1767987 0.1015414 0.09742383 -0.12914638
-0.11984742 0.013158251 -0.04194262 0.03779288 0.014100251 0.013879393 0.087090746 0.21025853
0.017761735 0.063557856 0.16402234 -0.04233662 -0.03337537 -0.04897042 -0.0017200224 -0.0700491
-0.040703945 -0.0055377036 -0.009119114 -0.08901298 -0.08868565 0.021640241 0.07647256 -0.14828007
00000000: b20d 83bd e132 ec3d 8d62 bd3d d16d 07be
00000010: 9749 fa3d 7d31 223e 46e8 94bd ce2c 28bd
00000020: 8d42 fd3d 83e5 1fbe 081f 87bb 0018 7b3d
00000030: 15ec f2bd c4f5 593d ea4f b23d a10c f3bd
00000040: 215c d1bd 0a31 853c f6a8 2bbd afd1 e9bd
00000050: ed4f 5bbd 5227 bb3b 3b0d c7bd d966 663d
00000060: aa97 c63c 6895 ba3c 4039 0f3d d547 403a
00000070: 67fe 34bc 191b b5bd 90af b63c 47d0 923b
00000080: ecc5 b0bd c10f 5b3d ec87 1bbd 2f9b d5bc
00000090: 00a0 c93c 89e5 43bd d1dc acbc e15b 1f3a
000000a0: 8886 afbc df38 3dbd db60 633d de5d 1dbb
000000b0: baee 56bd 8720 c6bd f389 143e 3a24 1a3e
000000c0: 1992 1bbe 9290 f43d c5cc 2a3e 7dd5 10be
000000d0: edb7 cabc 8b58 673d 64cb 07be 1c57 5e3d
000000e0: 1586 0d3d 52ec 04be 02b1 573d 0983 ab3d
000000f0: 60b6 d7bd b72b 12be 0004 f23b 1ace 8ebd
00000100: 0561 d93d 74c7 f43d 1574 45be 1005 0a3e
00000110: bd77 b23d e4c8 10be ba40 b3bd 780b 0e3d
00000120: 31a2 8fbc 6f43 99bd dd77 c9bd 01d8 143d
00000130: 276f bebd f9a0 ea3c d17c e9bc 4175 99bd
00000140: 43de fa3b 39f6 18be f9d3 af3d 0bbf 523d
00000150: 2cf2 30be 2c3b 5e3d b530 d33c 2346 febd
00000160: d68f eabd 8dab 253d 6fb6 7fbd d09d 52bd
00000170: 1bc9 3fbd 1fd1 6a3d 7db5 ffbc 72c1 673c
00000180: 04b1 4c3d 9fd7 0d3d 333e e7bc 1958 b2bd
00000190: 475c c73d 5d83 e43d 2af1 0abe 5ea7 143e
000001a0: 1459 203e 0943 bcbd 58ee c6bd 4927 3a3d
000001b0: 2df5 0ebd 1334 113e 1b70 b23d d454 f2bd
000001c0: 21fb af3d 7dcf 1f3e dcb0 d1bd 73a7 c5bd
000001d0: f997 d83d 0740 7cbd c5c0 163e 5add f83d
000001e0: 548d c3bd e2b8 be3d 306e 093e c956 42bd
000001f0: 2d3c 9fbd a71f 7e3d 6d5e 5dbd b4e1 e73d
00000200: bf93 dc3d 89a6 d1bd 73c2 4d3d 1090 c73d
00000210: d985 a5bd 7913 98bd bce3 e23d 4f24 b3bd
00000220: a98e b23d ae06 053e 5a75 05be 8a29 083e
00000230: 2698 233e f4c5 fbbd 01a9 e3bd 4744 af3c
00000240: 5ef8 0abe 1736 d33d 75e5 d63d be31 9abd
00000250: 1abe 953d ee2d 003e a51b c9bd 9fd9 b2bd
00000260: 6e2e d93d b871 29be 5763 423d b261 69ba
00000270: 203c 5abe f150 103e 5169 dc3d aa6a 38be
00000280: 9849 b1bd 931d 233d c19b 27bd 4df9 0c3e
00000290: d57d 203e ea6c 08be 9d7e 3c3e 646e 073e
000002a0: 5d66 36bd 7c38 5cbd b478 db3d 84bc 17be
000002b0: 079c 423d 8b8f 0bbc 475d 0abe 64b2 f1bb
000002c0: e47c 0b3d 9569 d3bd 5601 0bbe f8c8 753d
000002d0: e688 b7bd f79c 4dbc 4d5d 6f3c b780 3cbe
000002e0: b0fc 2e3d 1d32 b23d fb0c 23be 8e28 1bbe
000002f0: 39cc 433d 3ae0 123c 3410 7dbd 6176 b7bd
00000300: cafe 373d 0935 b0ba 3a4a 96bd c7f3 153d
00000310: c877 42bc a1f2 88bd 2cef c8bd 9930 df3c
00000320: b4a6 7fbc 524a 2bbe de95 c73d c061 a43d
00000330: 21d0 21be 0819 09be 2d2e b73c 0f67 f2bd
00000340: eae0 543d 0a37 013e 906d dabd 2ee9 913d
00000350: 05df c43d 8e9c 45bd 90ad 2abd 509c b73d
00000360: 6e9e 2bbd c057 72bd 1a70 f3bc 6777 9d3c
00000370: 3cea 9cbd 1325 973d d8e2 efbb 35f2 32bd
00000380: 5a0c 243e 07c9 27be 0339 983d e9b3 b43d
00000390: b80a 35be f0f4 cf3d 2586 c73d f33e 04be
000003a0: 9072 f5bd b495 573c 06cc 2bbd b5cc 1a3d
000003b0: bd04 673c 6566 633c a25c b23d 034e 573e
000003c0: 0f81 913c 9f2a 823d 79f5 273e 2a69 2dbd
000003d0: 9db4 08bd 3595 48bd 6072 e1ba e775 8fbd
000003e0: 2eb9 26bd a075 b5bb 5668 15bc 704c b6bd
000003f0: d2a0 b5bd e046 b13c a59d 9c3d bbd6 17be

conv_layers.6.0.conv.bias f4 [16]
-0.233489 0.004810303 0.10222787 0.13690087 -0.0005119544 0.13437979 0.073915035 0.11891858
-0.09135952 -0.070292965 0.004419421 0.11632131 0.12261483 0.02995658 -0.012848478 -0.02361688
00000000: be17 6fbe bf9f 9d3b d85c d13d be2f 0c3e
00000010: ae34 06ba db9a 093e c460 973d 968b f33d
00000020: b31a bbbd c2f5 8fbd cad0 903b de39 ee3d
00000030: 7c1d fb3d 8067 f53c 6c82 52bc 3078 c1bc

linear_layers.0.weight f4 [64, 400]
-0.037897673 0.08467727 -0.021375833 -0.11991548 -0.17392425 -0.079153724 0.055327423 -0.008122693
-0.07193265 -0.12707868 -0.016273161 0.028670287 0.0016346182 -0.043428335 -0.09450951 -0.0062360084
0.03916996 -0.03982786 -0.035269745 -0.022184052 0.012403508 0.06380117 -0.07340239 -0.08235986
0.0054954123 -0.1217145 -0.036752213 0.02010991 0.09796953 0.08558507 -0.16269869 -0.019509247
-0.029880503 -0.004804688 0.08292335 -0.06694088 -0.093942456 -0.08996689 -0.010046591 0.02150224
-0.08754116 -0.0873943 -0.01878165 -0.066204034 0.0103099225 -0.10862377 0.009175647 -0.09486772
-0.028530197 -0.0037480455 -0.0637308 0.054992307 0.01376017 -0.084148906 -0.0154207805 -0.034276646
0.021044737 0.054139044 -0.0033130962 -0.020428961 -0.04893191 0.017152531 0.07433726 0.0026956967
0.0019368741 -0.06702081 0.015266682 0.02700563 0.016804818 0.07956049 -0.06554528 -0.038875915
0.0007410975 0.01582146 -0.0051503736 0.058891393 0.06727617 -0.09797947 -0.036941055 0.059264496
-0.019840004 0.05188235 0.008889605 -0.11049735 0.037525 0.045442764 0.06472302 0.015090933
-0.08572211 0.014842056 0.016809016 0.059641283 -0.018142082 -0.06869505 0.077889666 0.040989935
-0.009354745 -0.0101051405 -0.076498635 0.09641828 0.071677595 -0.14556597 -0.0397064 0.07438341
0.13642354 0.014069469 -0.025117645 -0.057369113 -0.05162254 0.025368916 0.04321474 -0.05102421
-0.076963566 -0.10662957 -0.027081493 0.013167064 -0.007756186 -0.07761822 -0.12116328 -0.02105117
-0.019802481 -0.09388856 -0.020587081 -0.07744508 0.038518466 -0.05576503 -0.0072685755 -0.044917963
-0.083439924 -0.011501189 0.07206406 0.003796438 -0.0016886722 -0.13212124 0.0045152884 -0.01668127
0.06855292 0.08964246 -0.07658178 0.024988104 -0.028723601 0.08150084 0.08048349 -0.08838216
-0.025414167 0.07239702 -0.012791632 -0.0089813825 -0.0024166328 0.040609624 -0.06194082 0.027426329
0.05224342 0.10031185 -0.005170184 -0.10367391 -0.036151733 0.01896383 0.072752655 0.010974204
-0.100285694 -0.09893662 -0.041113123 0.0393157 0.045364566 -0.08641443 -0.04731027 -0.06016576
0.050309766 -0.024096267 -0.057632785 -0.027372433 -0.011030717 0.010867404 0.015869798 -0.0137879355
0.020468196 0.014236936 0.08480621 0.05850369 0.0026783596 0.0032547866 -0.028924678 0.048647072
-0.005405435 -0.050475392 -0.05521757 0.036283117 -0.012176628 0.010891293 0.033734042 -0.084866494
-0.08544923 -0.011601953 0.009086075 -0.009074434 -0.06637945 -0.0016033492 0.015926162 0.027148483
0.05235066 -0.0008682718 -0.030636612 -0.047374506 -0.031502567 -0.015074074 -0.010074377 -0.029095048
-0.084254235 -0.03677999 -0.052791853 0.055171493 -0.020760318 -0.0613399 -0.078497365 0.043275163
-0.10175318 -0.069490984 -0.12772614 -0.11836882 0.07102558 0.055216942 0.0033520798 -0.116343744
-0.05056372 0.05589168 -0.04921888 0.05360183 0.07943538 0.017649459 0.03466841 -0.03486584
-0.008901271 0.049655546 -0.056768764 0.018462554 -0.032615576 -0.046013437 -0.009284289 -0.04231547
0.010044364 -0.037004452 -0.018030595 0.06388953 -0.09344591 0.060608413 -0.10519783 -0.020489143
-0.01664983 -0.15770867 -0.09627116 -0.030562514 -0.00089816237 0.064283706 0.059284363 -0.050729167
00000000: 973a 1bbd 476b ad3d 5f1c afbc 3f96 f5bd
00000010: 3319 32be 591b a2bd 029f 623d 0b15 05bc
00000020: 6d51 93bd ea20 02be 4b4f 85bc f3dd ea3c
00000030: af40 d63a e9e1 31bd 348e c1bd 6e57 ccbb
00000040: ae70 203d 8a22 23bd 0277 10bd 54bb b5bc
00000050: 1538 4b3c 30aa 823d fe53 96bd 49ac a8bd
00000060: dc12 b43b 7445 f9bd 7d89 16bd 8abd a43c
00000070: 40a4 c83d 3a47 af3d 7c9a 26be dbd1 9fbc
00000080: f5c7 f4bc a570 9dbb b8d3 a93d 4d18 89bd
00000090: e764 c0bd 9040 b8bd 759a 24bc 7725 b03c
000000a0: c848 b3bd c8fb b2bd fadb 99bc fb95 87bd
000000b0: f3ea 283c 2476 debd 7455 163c 024a c2bd
000000c0: 29b8 e9bc c5a1 75bb 4b85 82bd 9d3f 613d
000000d0: 5672 613c 4356 acbd 71a7 7cbc ab65 0cbd
000000e0: 0366 ac3c e7c0 5d3d 8820 59bb a35a a7bc
000000f0: d46c 48bd 7783 8c3c 223e 983d 49aa 303b
00000100: b6de fd3a 3542 89bd 1b21 7a3c e93a dd3c
00000110: 42aa 893c 9cf0 a23d 9b3c 86bd 5a3c 1fbd
00000120: 3646 423a 029c 813c 77c4 a8bb 1a38 713d
00000130: 17c8 893d 76a9 c8bd 814f 17bd 54bf 723d
00000140: 8187 a2bc 9682 543d b5a5 113c 6f4c e2bd
00000150: d0b3 193d 3122 3a3d 818d 843d f63f 773c
00000160: 138f afbd 182c 733c 10b3 893c 6b4a 743d
00000170: b49e 94bc feaf 8cbd 9e84 9f3d 10e5 273d
00000180: a544 19bc 0890 25bc 51ab 9cbd f276 c53d
00000190: b4cb 923d 3f0f 15be 2ea3 22bd 5456 983d
000001a0: 9db2 0b3e a183 663c 85c3 cdbc e0fb 6abd
000001b0: 2872 53bd 79d2 cf3c f001 313d c3fe 50bd
000001c0: 139f 9dbd 9b60 dabd 02da ddbc abba 573c
000001d0: 9b27 febb 4df6 9ebd 7424 f8bd 8173 acbc
000001e0: d038 a2bc a548 c0bd 3da6 a8bc 879b 9ebd
000001f0: 8ac5 1d3d df69 64bd 3b2d eebb e6fb 37bd
00000200: 8de2 aabd 7c6f 3cbc 5296 933d a9cd 783b
00000210: 7056 ddba ca4a 07be fcf4 933b 29a7 88bc
00000220: 7965 8c3d 7796 b73d e9d6 9cbd dab3 cc3c
00000230: c24d ebbc eae9 a63d 87d4 a43d b501 b5bd
00000240: 5f31 d0bc e444 943d fe93 51bc a626 13bc
00000250: 5f60 1ebb 4756 263d a8b5 7dbd 2ead e03c
00000260: 32fd 553d 4d70 cd3d a66a a9bb fd52 d4bd
00000270: d713 14bd 095a 9b3c 58ff 943d 26cd 333c
00000280: 9662 cdbd 489f cabd 3c66 28bd 8009 213d
00000290: 32d0 393d 0cfa b0bd 6ac8 41bd 5f70 76bd
000002a0: 9d11 4e3d 8965 c5bc 5b10 6cbd 273c e0bc
000002b0: 2eba 34bc 320d 323c 6101 823c cbe6 61bc
000002c0: ebac a73c 0a42 693c e1ae ad3d 91a1 6f3d
000002d0: 6b87 2f3b 424e 553b 72f3 ecbc 2742 473d
000002e0: 1320 b1bb 49bf 4ebd d22b 62bd 9b9d 143d
000002f0: 7b80 47bc 6571 323c b52c 0a3d 7cce adbd
00000300: 0200 afbd 1e16 3ebc c3dd 143c efac 14bc
00000310: f3f1 87bd 7927 d2ba 9577 823c 7f66 de3c
00000320: a56d 563d bc9c 63ba a2f9 fabc c50b 42bd
00000330: d608 01bd 40f9 76bc 000f 25bc bd58 eebc
00000340: 7c8d acbd 9da6 16bd 453c 58bd 81fb 613d
00000350: 8b11 aabc 8c3f 7bbd 3ac3 a0bd 4c41 313d
00000360: f963 d0bd 4a51 8ebd a4ca 02be 5a6b f2bd
00000370: dc75 913d 292b 623d 91ae 5b3b a145 eebd
00000380: e71b 4fbd adee 643d bc99 49bd 988d 5b3d
00000390: 04af a23d 9995 903c 7600 0e3d 7ccf 0ebd
000003a0: a3d6 11bc 9d63 4b3d 5d86 68bd c83e 973c
000003b0: e997 05bd 9678 3cbd 211d 18bc fc52 2dbd
000003c0: 1e91 243c fb91 17bd e6b4 93bc 84d8 823d
000003d0: 9260 bfbd 8740 783d f671 d7bd d9d8 a7bc
000003e0: 3965 88bc 627e 21be d029 c5bd 3d5e fabc
000003f0: a872 6bba 2da7 833d 29d4 723d 63c9 4fbd

linear_layers.0.bias f4 [64]
0.19908528 0.13662294 0.13231526 0.14885537 0.21086295 0.20937319 0.13649626 0.15028347
0.18976282 0.15350085 0.17671442 0.16929616 0.17510673 0.18405668 0.1280019 0.17456576
0.17112206 0.1990845 0.21531653 0.14357327 -0.028584579 0.17822872 0.1942987 0.16582088
0.19376813 0.16981302 0.21472412 0.15431273 0.21430962 0.17132701 0.23845918 0.17163926
0.15168467 -0.03980869 0.12988347 0.20923351 0.20038095 0.19391693 0.111000076 0.13480297
0.19119677 0.18572184 0.20401369 0.20137446 0.16353306 0.18020597 0.20583895 0.18884309
0.15673552 0.15033334 0.18966058 0.19145718 0.17318784 0.19709094 0.14633264 0.0990618
0.17472592 0.17712148 0.15759298 0.1370892 0.18934427 0.1831707 0.18950021 0.188949
00000000: 03dd 4b3e e2e6 0b3e a77d 073e 8b6d 183e
00000010: 75ec 573e ed65 563e adc5 0b3e e9e3 193e
00000020: 2f51 423e 542f 1d3e a0f4 343e f95b 2d3e
00000030: 2e4f 333e 5b79 3c3e ee12 033e 5ec1 323e
00000040: 9f3a 2f3e cfdc 4b3e f07b 5c3e df04 133e
00000050: 352a eabc 9781 363e 3df6 463e f3cc 293e
00000060: 276b 463e 77e3 2d3e a4e0 5b3e 2804 1e3e
00000070: fb73 5b3e 5970 2f3e a52e 743e 34c2 2f3e
00000080: 3a53 1b3e 700e 23bd 2c00 053e 4f41 563e
00000090: aa30 4d3e 2992 463e 0254 e33d ca09 0a3e
000000a0: 16c9 433e de2d 3e3e f7e8 503e 1b35 4e3e
000000b0: 3675 273e ea87 383e 72c7 523e 1560 413e
000000c0: 477f 203e fcf0 193e 6236 423e 5a0d 443e
000000d0: 2758 313e 35d2 493e 39d8 153e eae0 ca3d
000000e0: 5aeb 323e 555f 353e 0e60 213e 1c61 0c3e
000000f0: 77e3 413e 1a91 3b3e 580c 423e d97b 413e

linear_layers.3.weight f4 [4, 64]
-0.05501844 0.0076221544 -0.2900863 0.08630304 -0.017106645 0.298626 -0.100188985 -0.044499617
0.07570815 0.10614693 0.019926596 0.24872755 0.21004143 0.30127725 0.039831042 0.23130363
-0.2845568 0.09720023 0.028975898 0.2766905 0.060094025 -0.20476021 -0.2468441 -0.014699142
-0.16351865 -0.24670328 0.066632934 0.0076292804 0.25995177 -0.24096836 0.23648386 -0.19475666
0.0147248935 -0.012362498 0.062006906 -0.1156951 -0.0027289505 -0.2325298 0.05698435 -0.26363346
-0.14055796 0.006380395 -0.13300474 0.0945978 -0.17756657 0.029755738 -0.24259834 -0.19552065
-0.10242953 -0.013141345 0.016374156 0.035169113 0.22261088 -0.17106956 0.26403433 -0.15222277
-0.037374444 -0.033145607 0.008122294 0.082389235 0.24283761 0.011771602 0.16017167 -0.124399826
0.21200153 -0.15166509 -0.07076833 -0.19590461 -0.20466192 0.18271378 0.23802415 0.20842332
-0.19771136 0.37530136 -0.17582124 -0.20941208 -0.118137956 0.08607391 -0.23514673 0.025504883
-0.024787545 0.18497775 0.23535584 -0.1835881 0.21951216 0.03868228 0.0732403 -0.17051087
-0.1753788 -0.012777781 0.21597753 0.23177405 0.0045227353 0.16423413 0.06794591 -0.15598987
0.18511248 0.10557447 0.19814903 -0.17934076 0.21652493 0.0889947 -0.23546137 -0.10978359
-0.17488515 0.21014032 0.15379752 -0.22280543 -0.024832515 -0.21564758 0.021299805 -0.04291868
-0.2327251 -0.15254998 -0.25970018 0.1746216 -0.11919486 0.18610793 0.16920154 -0.13822009
0.22018825 -0.22515586 0.20905468 -0.20475794 0.03905236 0.1533508 0.1508998 -0.16746783
-0.05717043 -0.006052417 -0.25353077 0.08173791 -0.0036678896 0.30489635 -0.0724789 -0.020050935
0.08552411 0.066617884 0.001228044 0.21781325 0.2152577 0.27531847 0.018628307 0.23364317
-0.29632035 0.06975638 -0.012074857 0.26815513 0.014006988 -0.21975903 -0.20602055 0.014235345
-0.14641677 -0.22251406 0.09704916 -0.04366558 0.25777528 -0.21101308 0.22541073 -0.17826201
0.013950095 0.14344093 0.114474855 -0.09267623 0.004195933 -0.25170222 0.019857926 -0.26063567
-0.15611352 -0.012249829 -0.115458086 0.07404135 -0.1979752 0.041104518 -0.21216258 -0.19281586
-0.088593744 -0.02038331 0.05550936 0.037888594 0.20232199 -0.18850608 0.25996655 -0.11372249
-0.06320465 -0.026533244 -0.0013209344 0.08180159 0.22399725 0.027862668 0.18739593 -0.17174216
0.16783577 -0.18509746 0.098256566 -0.23154405 -0.14525095 0.13978985 0.20520274 0.21941984
-0.2743242 0.20071651 -0.16598365 -0.11769074 -0.09743714 -0.0138917025 -0.20078099 0.028715143
0.06100274 0.24021614 0.20053753 -0.053893093 -0.10134738 0.10193284 0.07662819 -0.15062585
-0.16041203 -0.04262785 0.23964666 0.22693577 -0.013306644 0.18768144 0.10181126 -0.098416686
0.20625241 -0.06993114 0.35846698 -0.18208602 0.22381493 0.028854983 -0.26798955 -0.19530506
-0.13778843 0.22881062 0.20008732 -0.18807825 -0.030407136 -0.21843399 -0.060862053 0.00099528
-0.13517591 -0.18814334 -0.2388094 0.2137812 -0.1426092 0.16426751 0.107204534 -0.30545765
0.20297715 -0.19876346 0.1724179 -0.20688291 0.08133983 0.16541483 0.25648844 -0.23812653
00000000: 045b 61bd 44c3 f93b 3186 94be a6bf b03d
00000010: 3c23 8cbc 82e5 983e e22f cdbd 3b45 36bd
00000020: e00c 9b3d 9063 d93d 1a3d a33c 6fb2 7e3e
00000030: 1a15 573e 0341 9a3e e025 233d dcda 6c3e
00000040: 6eb1 91be ea10 c73d dd5e ed3c 61aa 8d3e
00000050: 2725 763d a9ac 51be b3c4 7cbe acd4 70bc
00000060: 6f71 27be c99f 7cbe d976 883d 0bff f93b
00000070: 6618 853e 69c0 76be d328 723e 4a6e 47be
00000080: ae40 713c 138c 4abc f4fa 7d3d 8df1 ecbd
00000090: 31d8 32bb 4b1c 6ebe 6c68 693d f7fa 86be
000000a0: 6dee 0fbe a212 d13b 6532 08be 7ebc c13d
000000b0: 03d4 35be 4ec2 f33c b36b 78be 9136 48be
000000c0: 93c6 d1bd cc4e 57bc 1823 863c 7d0d 103d
000000d0: 1bf4 633e dc2c 2fbe 822f 873e 49e0 1bbe
000000e0: f215 19bd b0c3 07bd 5f13 053c b0bb a83d
000000f0: 6caa 783e addd 403c 0b04 243e 56c5 febd
00000100: ee16 593e 184e 1bbe fcee 90bd 389b 48be
00000110: e592 51be 5219 3b3e 9abc 733e ec6c 553e
00000120: d974 4abe 8027 c03e 7c0a 34be 1f70 56be
00000130: 50f2 f1bd 8547 b03d 4eca 70be 9eef d03c
00000140: 400f cbbc cf6a 3d3e 1f01 713e 85fe 3bbe
00000150: ccc7 603e 4f71 1e3d 03ff 953d 679a 2ebe
00000160: 8096 33be e659 51bc 3729 5d3e 2d56 6d3e
00000170: 7433 943b fe2c 283e 3a27 8b3d cfbb 1fbe
00000180: 208e 3d3e 6d37 d83d 94e7 4a3e 1ba5 37be
00000190: b6b8 5d3e da42 b63d c91c 71be 38d6 e0bd
000001a0: 1815 33be 062f 573e 197d 1d3e 1b27 64be
000001b0: 8f6d cbbc b8d2 5cbe ee7c ae3c 7fcb 2fbd
000001c0: 7d4f 6ebe 1036 1cbe 6cf7 84be 01d0 323e
000001d0: 6f1c f4bd 1493 3e3e 2b43 2d3e 9189 0dbe
000001e0: 0779 613e 428f 66be 6e12 563e 11ac 51be
000001f0: 5ef5 1f3d fe07 1d3e 7a85 1a3e b07c 2bbe
00000200: 8a2b 6abd 5b53 c6bb c9ce 81be 3566 a73d
00000210: fa60 70bb 601b 9c3e d16f 94bd dc41 a4bc
00000220: 4427 af3d f56e 883d 52f6 a03a 700a 5f3e
00000230: 846c 5c3e 8bf6 8c3e 649a 983c 2840 6f3e
00000240: 4db7 97be 6fdc 8e3d 9fd5 45bc a14b 893e
00000250: 917d 653c 8308 61be 0df7 52be 5d3b 693c
00000260: 47ee 15be bada 63be b6c1 c63d aeda 32bd
00000270: 1ffb 833e d013 58be 12d2 663e 518a 36be
00000280: f08e 643c 2ee2 123e cb71 ea3d 09cd bdbd
00000290: 0a7e 893b 1ddf 80be 17ad a23c 0a72 85be
000002a0: 39dc 1fbe 82b3 48bc 4a75 ecbd fea2 973d
000002b0: 03ba 4abe 365d 283d 2641 59be 8571 45be
000002c0: a370 b5bd e6fa a6bc c85d 633d 1231 1b3d
000002d0: 7f2d 4f3e bd07 41be 561a 853e 56e7 e8bd
000002e0: 7171 81bd 3f5c d9bc 3423 adba 9887 a73d
000002f0: 895f 653e 4040 e43c b8e4 3f3e 2ddd 2fbe
00000300: 24dd 2b3e 308a 3dbe bd3a c93d e219 6dbe
00000310: aabc 14be 1225 0f3e ab20 523e 98af 603e
00000320: 3974 8cbe a188 4d3e 9ef7 29be d807 f1bd
00000330: 208d c7bd 069a 63bc 8899 4dbe 053c eb3c
00000340: 02de 793d 38fb 753e b659 4d3e 01bf 5cbd
00000350: 378f cfbd 2ac2 d03d 3eef 9c3d aa3d 1abe
00000360: 0d43 24be 8a9a 2ebd ef65 753e da61 683e
00000370: 1c04 5abc 902f 403e 6c82 d03d b08e c9bd
00000380: d533 533e 0f38 8fbd fc88 b73e c274 3abe
00000390: be2f 653e 4961 ec3c ed35 89be 0dfe 47be
000003a0: 6918 0dbe 554d 6a3e b1e3 4c3e 9697 40be
000003b0: 6318 f9bc 29ad 5fbe 7d4a 79bd 0e74 823a
000003c0: 8e6b 0abe a6a8 40be 748a 74be 75e9 5a3e
000003d0: 2508 12be be35 283e 0d8e db3d f264 9cbe
000003e0: 3ed9 4f3e a688 4bbe 518e 303e 1dd9 53be
000003f0: 7f95 a63d 8162 293e 7452 833e 71d7 73be

linear_layers.3.bias f4 [4]
0.06396063 -0.06356609 0.046633497 -0.08197619
00000000: cafd 823d f02e 82bd c402 3f3d 22e3 a7bd
