models/model_1722164985482/model.pth (torch, 189305 bytes, 12 tensors)

conv_layers.0.0.conv.weight f4 [16, 10, 3, 3]
000000 7a 6a 2f 3f e4 be 6e 3f ee 78 97 3e 55 be 84 3f
       0.68521845 0.93260026 0.2958445 1.0370585
000010 3a b0 aa 3f 4b c4 0b 3f c5 40 32 3f 98 98 94 3f
       1.333503 0.54596394 0.6963008 1.1609068
000020 9a b4 f6 3e 73 e1 ed bc 67 a3 34 3c 13 1c f1 3c
       0.48184663 -0.029038167 0.011025286 0.029432332
000030 10 73 d8 bb 55 2f 1a bd 48 90 cb bd 9d ee 0d 3c
       -0.0066055134 -0.037642796 -0.09939629 0.008662847
000040 66 e9 3c 3b 09 89 91 3c 2b 0a c9 3c 0b e3 f4 bc
       0.002882564 0.017765539 0.024540981 -0.029893419
000050 21 5c 8c bd 26 1d 1b bc 0b 09 34 3d 46 cd 60 3d
       -0.0685351 -0.009467399 0.043953937 0.054883264
000060 6b 57 32 be 34 c1 29 bd e3 ba 47 be 13 61 67 bc
       -0.1741616 -0.04144402 -0.19504885 -0.014122265
000070 17 ce 8a 3c 85 58 8a 3c f5 5f 71 bd 15 25 c2 bd
       0.016943974 0.016887913 -0.058929402 -0.09479729
000080 01 82 b8 bc c4 84 32 3d 8a ee 84 3b bf bf 2a 3c
       -0.022522928 0.043583646 0.0040567564 0.010421692
000090 d0 24 d2 bb fb 5a 27 3c f7 47 6f 3c 0e b1 06 3d
       -0.00641308 0.0102145625 0.01460456 0.032883696
0000a0 5a 39 2f 3d cf b7 6e 3c c6 2c 4d 3d ce 1b ec 3b
       0.042779304 0.014570191 0.050091527 0.007205463
0000b0 3c 23 1e 3e 36 97 20 3f d3 81 44 3f e5 1c 9c 3e
       0.15443128 0.6273073 0.76760596 0.30490795
0000c0 2f 71 42 3f ea 55 7c 3f 9c 64 fd 3e 9e a8 11 3f
       0.75953954 0.98568594 0.4949082 0.56897914
0000d0 96 1a 49 3f e4 79 df 3e 7e 60 fa 3c 79 bf 84 3c
       0.7855619 0.43647683 0.03056359 0.016204583
0000e0 5c 45 0a 3c 76 f5 81 3c e6 a7 3b 3b ca 5d 8e 3c
       0.008439388 0.015864115 0.002863401 0.017378706
0000f0 0a 20 a8 3c 04 fa 5f 3c 5b 7b 9b 3b 39 41 15 3d
       0.02052309 0.013670448 0.0047449297 0.036439154
000100 0f fd d0 3c ba fa c6 3c ee cd 3d 3d 85 93 43 3d
       0.025511293 0.024289478 0.046338968 0.047748107
000110 3e 63 cf 3c 04 74 21 3d 78 e3 fd 3c 25 fa 7a 3d
       0.025315877 0.03941728 0.030992255 0.061273713
000120 c9 80 fb 3b 83 0c 1e 3c c2 f1 70 bc a7 b7 36 bb
       0.0076752645 0.009646538 -0.014706077 -0.0027880461
000130 45 8e 25 3c 6b 4b 99 bb 7c 7b 89 bb 47 64 89 bb
       0.0101047205 -0.00467818 -0.0041956287 -0.004192862
000140 39 8b 29 3c fd 3b 89 3b 9e d7 4e bb ab a0 e9 3b
       0.010348135 0.0041880594 -0.0031561623 0.007129749
000150 80 a3 b6 3b b1 8c cf 3b 19 0f ce bb 05 ce 35 3c
       0.00557369 0.0063339104 -0.006288421 0.011096482
000160 9e 1e 9d ba d3 6b 52 bb 1b 5d 31 3f ab d0 4b 3f
       -0.0011987274 -0.0032107725 0.6928269 0.7961528
000170 2d b9 ad 3e d4 45 6d 3f a2 9f 91 3f 16 d5 48 3f
       0.3393034 0.92684674 1.1376841 0.78450143
000180 5b 8d d7 3e 67 bd 7f 3f fa 3a 10 3f 82 a1 76 3c
       0.42100033 0.9989838 0.5633999 0.015053155
000190 12 a5 0e 3d a0 3f e9 3d 2b c4 7b bd f6 39 90 3a
       0.034825392 0.11389089 -0.061466377 0.0011003602
0001a0 ea 8c 8e bc 6a e5 b4 3d 42 c3 a7 bc 53 2d 92 bc
       -0.017401177 0.0883282 -0.020478848 -0.017843878
0001b0 ea 38 43 bd 5c bc 1c bc 08 53 cd bc d0 b4 9d 3c
       -0.0476617 -0.009566393 -0.025064006 0.019251257
0001c0 2e d5 82 3b 1a 73 c6 3c 6b 4a 0d bd a2 f9 91 3b
       0.003992698 0.024224807 -0.0344948 0.0044548074
0001d0 48 21 ce 3c c0 af 1f bb d0 2d 88 3b 2c a5 69 ba
       0.025162354 -0.002436623 0.004155852 -0.0008912857
0001e0 87 f6 05 bc db 12 ba bd a6 4e ec bc f4 81 a9 3c
       -0.0081764525 -0.09085628 -0.028846096 0.02069185
0001f0 82 56 ff ba 9d 0f ff bb a0 85 68 3c 3b fd 34 bb
       -0.0019480737 -0.0077838437 0.014192015 -0.0027616757
000200 6a e6 86 bb 70 da d8 3b 0d b4 a4 3b 5c 9b 95 bb
       -0.004116823 0.0066178367 0.0050263465 -0.0045656394
000210 1e c5 ad b9 7b e4 12 3a a6 b7 bf ba 48 4f 3e 3e
       -0.00033143995 0.0005603504 -0.0014626875 0.18584931
000220 b1 01 f7 3e da 11 b2 3c 3c 13 06 3f 8f 0e 1d 3f
       0.48243478 0.021737028 0.523731 0.6135034
000230 c2 9e ed 3e 6d 80 12 3e 74 a5 d1 3e fd ff b0 3e
       0.46410185 0.14306803 0.40946543 0.34570304
000240 7d d7 aa 3b e0 b5 02 3d 86 57 e8 3c 9a 01 e0 3b
       0.0052136765 0.03191173 0.028362047 0.0068361284
000250 44 91 e6 b9 a4 c7 15 3b 9e 22 21 bb 6e 19 b8 bc
       -0.0004397725 0.002285459 -0.0024587284 -0.022473063
000260 e7 89 a4 bb 91 c5 79 3c 60 db 73 3c d1 91 1c bd
       -0.005021322 0.015244857 0.014883846 -0.038225
000270 8f 54 7a 3d 9b 5e 0b 3d 90 7d fa 3c c9 2c 93 3c
       0.061115798 0.03402577 0.030577451 0.017965691
000280 bc 70 57 3d d6 30 7c 3d da e5 42 3d a8 fe dc 3c
       0.052597746 0.06157001 0.047582485 0.026976898
000290 9c fe 7c bd b8 6b 4b 3d 51 06 30 bc b2 60 df 3c
       -0.061766252 0.049663275 -0.010743693 0.027267788
0002a0 cc c2 4c bd 69 e2 99 3d 46 06 f2 3c 34 6d a3 bb
       -0.04999046 0.075138874 0.029544007 -0.0049873833
0002b0 4d 91 8d bc c4 28 2e bc 20 26 12 3c 20 06 97 3c
       -0.017281199 -0.0106298365 0.0089202225 0.018435538
0002c0 65 2e 4f 3c d8 21 7e 3b f7 b9 0d bc ca 14 26 3c
       0.012645339 0.0038777497 -0.0086502945 0.010136792
0002d0 d5 30 06 3d 39 b6 09 3d 1e e9 f3 bc fe 35 85 be
       0.032761414 0.033621047 -0.029774245 -0.26017755
0002e0 cd eb 2b 3e 89 a1 84 3d 66 8c 21 be 16 ec 5c 3d
       0.1678917 0.06476123 -0.15776214 0.053936087
0002f0 b3 d3 bf bc 81 0d 6f 3d 7f b6 e8 3c b2 10 51 bc
       -0.023416376 0.058362488 0.028407333 -0.012760328
000300 5f 89 c7 bd 02 cb 31 3e f0 cb 55 be ef 43 e8 bd
       -0.09742998 0.17362598 -0.20878577 -0.11341082
000310 50 78 47 bd e7 1c b5 bd b6 e0 8f be 94 de 71 be
       -0.048698723 -0.08843403 -0.28101128 -0.23620063
000320 3e 60 b0 3d f0 78 f5 bd 92 1e f1 bd c6 2d 87 bb
       0.08612107 -0.119859576 -0.11773409 -0.0041253297
000330 51 96 b0 bd 56 9e 77 be f3 b7 f3 bd 10 5c fc 3c
       -0.086224206 -0.24181494 -0.1190032 0.030805618
000340 54 81 39 3d 45 4a 2f bd 0d 24 5c 3d 57 b3 a6 3c
       0.045289353 -0.04279544 0.05374532 0.020349188
000350 2f 4f 27 3c 30 11 3c 3d 6f 65 1a 3e a3 e1 94 3d
       0.01021175 0.04591483 0.15077756 0.07269599
000360 82 3b 6a 3d 21 6f e7 3c 82 89 19 ba d6 8e 23 3b
       0.057185657 0.028251233 -0.0005856977 0.0024956963
000370 76 96 6b 3b 91 be 10 bc 88 95 ce bb 0b 0a a0 3b
       0.0035947836 -0.008834497 -0.0063044466 0.0048840097
000380 5c 7f bb 3c 04 32 dd 3c e6 07 4d 3d fa ff 00 bd
       0.022887878 0.027001388 0.05005636 -0.03149412
000390 a2 4c 74 be c9 da d6 3d b8 3b 06 3d ed df df bc
       -0.23857358 0.10490949 0.032771796 -0.027328456
0003a0 6a 70 93 3c 2d ea 53 bd d9 8a de 3e 9c fa bb bc
       0.01799794 -0.051737 0.43465307 -0.022946648
0003b0 0b 50 83 bc 83 00 42 bc 21 93 7d bc 76 21 f5 3c
       -0.016029378 -0.011840942 -0.015476973 0.029923182
0003c0 74 8f 84 bd 84 e2 d8 bb aa 18 b2 bc f8 79 35 be
       -0.06472674 -0.0066187996 -0.021740276 -0.17722309
0003d0 fe 80 ab 3c 12 34 f5 3c f1 d4 85 3e 11 83 ca bb
       0.020935532 0.029932056 0.26139024 -0.006180175
0003e0 a3 86 d7 bc 97 26 6f 3d d8 e0 a1 3c 8a c4 3a 3d
       -0.026309317 0.05838641 0.019760534 0.04559759
0003f0 78 35 85 be 48 a1 00 3c f0 22 14 3c 27 da ff 3e
       -0.26017356 0.007850952 0.009041533 0.49971125

conv_layers.0.0.conv.bias f4 [16]
000000 02 a2 25 bd 12 90 5e bd bc f2 9c bd 3d 8a 65 bc
       -0.040437706 -0.054336615 -0.076634854 -0.014010009
000010 2c c2 43 bd 4d d4 12 bc 79 3c b1 bd f7 aa 84 bc
       -0.0477926 -0.008961749 -0.08654112 -0.016194804
000020 90 6a 5b be a1 91 53 be ad 59 83 bc e5 44 78 be
       -0.21427369 -0.20661022 -0.016033972 -0.24245031
000030 0e 49 14 bc c2 4e 9d bd d5 d3 87 bd 0e 8a cb bd
       -0.009050621 -0.076810375 -0.06632201 -0.09938441

conv_layers.2.0.conv.weight f4 [32, 16, 3, 3]
000000 be fb 43 3d 9b d3 e6 3c 48 ea 5e 3d c7 0c f7 39
       0.047847502 0.028177073 0.054422647 0.0004712103
000010 02 0c ac bc 43 ae 6c 3d 1f ca 70 bc 97 b6 77 3c
       -0.02100182 0.057783376 -0.014696627 0.015119216
000020 a5 d3 2c bd 43 84 76 3d 74 e6 d9 3c 2c ab b1 bc
       -0.042194027 0.06018473 0.026599146 -0.021688066
000030 81 6e e6 bc 70 35 44 3d c1 53 9c 3b a3 46 3a 3d
       -0.028128864 0.047902524 0.0047707264 0.04547752
000040 e9 7e 7f 3d 7f ff 07 3d c7 89 d2 3c 63 c7 f8 3b
       0.06237689 0.033202644 0.025700463 0.007592128
000050 a6 c4 bd bc 48 13 d5 bc 97 2f 8d 3b 9d 8c 5e 3d
       -0.023165058 -0.02601017 0.0043086517 0.054333318
000060 31 6a c9 3c be c2 61 3c 57 dd 9c 3d 52 7d 22 3d
       0.024586769 0.01377934 0.07659405 0.039670296
000070 c5 21 1f bd f6 a6 76 bd be 6e 42 3d ab cb 9b bc
       -0.038850565 -0.06021782 0.047468893 -0.019018015
000080 91 48 76 bd 63 39 3e 3d 87 c7 3f 3d ae 52 f4 bd
       -0.0601278 0.046441447 0.046821143 -0.119298324
000090 7f 8f 7a 3d b7 6e 90 3c 8f 7d b0 3c e8 33 26 bd
       0.061172005 0.017630918 0.021544246 -0.040576845
0000a0 87 91 01 3e 0d 4c 81 3d 41 7d 0e bd a7 91 77 3c
       0.1265317 0.06313334 -0.03478742 0.01511041
0000b0 9b 5d d3 bc 0e c4 ac 3d 1d a9 10 3d ab a7 50 bd
       -0.02580147 0.08435832 0.03531753 -0.05094115
0000c0 a2 63 fd 3c 7f 22 c9 3c a3 e8 a5 3d c7 b4 3f 3d
       0.030931298 0.024552582 0.081010126 0.046803262
0000d0 29 ed 58 bd cd 5f c2 3c 88 25 18 bb 55 72 2a 3e
       -0.05296055 0.023727322 -0.002321573 0.16645177
0000e0 aa 69 1a 3e fd e0 a2 3d ee fb 2c 3c 96 c3 ab 3d
       0.1507937 0.07953069 0.010558112 0.083869144
0000f0 0a fb c0 3d 5e 2b a5 3d e0 d7 0b 3e fd 0e c7 3d
       0.09422882 0.08064912 0.13656569 0.09719656
000100 3c 27 17 3d 9f 78 1e 3b 00 71 12 3d 7a 6f c6 3c
       0.03690265 0.0024180782 0.035752296 0.024223078
000110 0a 54 ea 3c 45 e3 27 bd 19 4d 13 3d a1 ab 0c 3d
       0.028604526 -0.040988225 0.035962198 0.034343366
000120 10 10 63 3d 28 d7 99 3c 95 c7 81 3d 3f 75 30 3d
       0.05543524 0.018779352 0.063368954 0.043080565
000130 03 fe 75 3d 59 13 2c 3d a1 64 17 3c 4c 14 76 3d
       0.060056698 0.04201064 0.0092403 0.06007795
000140 2b 3e 24 3d 7a cc 86 3d 60 2b 95 3d 74 99 b2 3d
       0.04009835 0.065819696 0.07283664 0.08720675
000150 70 4f 99 3d 46 32 e4 3d bb f7 ca 3d 6b 1d da 3d
       0.074858546 0.111424014 0.09910532 0.10650142
000160 8a 08 eb 3d 5e 0e 6e 3e 2c ac d7 3d b1 f4 82 3c
       0.11476238 0.23247668 0.10530886 0.015985819
000170 95 4a d8 3c 61 e2 43 3c f5 d0 99 3d c0 79 89 bd
       0.026402751 0.011955828 0.075105585 -0.06712675
000180 2b 02 87 bd eb 0f 1b 3d 2b 8e 6f bd 9c 82 09 3e
       -0.065922104 0.037856977 -0.05848519 0.1342873
000190 63 42 14 3e 97 14 33 3d 8b 01 ea 3d b3 a7 86 3e
       0.1447845 0.043720808 0.114260755 0.2629982
0001a0 2b 15 09 3d f9 c3 84 3d da a8 cc 3d 6b 6e 02 3b
       0.033467453 0.06482691 0.099931434 0.001990224
0001b0 37 2d 11 bc c5 c2 2e 3d f9 b7 92 3c 58 ae ac 3c
       -0.008860878 0.042666215 0.01790999 0.021079227
0001c0 26 bb a9 bc 71 d1 fa 3d 3a 9b cf bc 3f eb f6 bc
       -0.020719122 0.12246979 -0.025342572 -0.030141471
0001d0 55 de 35 bd 86 d1 df bd 37 4a 18 be aa e5 85 bc
       -0.044401485 -0.10928635 -0.1487206 -0.016344864
0001e0 8c 93 2b be 3c 31 f1 bc a4 37 01 be 46 9a d3 bd
       -0.16755503 -0.029442422 -0.12618881 -0.1033216
0001f0 39 3d a8 3c 4e 19 57 bc e7 8f 1f bd 86 d8 d4 bc
       0.020537006 -0.013128592 -0.038955595 -0.025982153
000200 84 bf 10 3c d4 47 3a 3d 6d c9 96 bd 77 85 db bd
       0.008834723 0.045478657 -0.07362638 -0.10718816
000210 f3 fa 85 3c 77 7f 17 3c f8 ee 10 be 5b dd 62 3d
       0.016355013 0.009246699 -0.1415366 0.055386882
000220 a4 d1 e2 bc 3d 65 99 bc c4 ff 80 3a c8 5a 74 3d
       -0.027687855 -0.018725032 0.0009841849 0.05965689
000230 cd c1 46 3d 5f af 52 3d 75 b4 68 bd a6 52 ff bc
       0.048524667 0.05143678 -0.056812722 -0.03116734
000240 dc dd 21 bd df d9 e6 bc 2d b3 10 3d a6 d6 24 be
       -0.039518222 -0.02818006 0.035327125 -0.16097507
000250 31 fb 94 bd 87 cd bc bc 93 44 cb bd 36 84 cd bd
       -0.072744735 -0.023047222 -0.09925189 -0.10034983
000260 73 e1 f0 bb 50 b6 8f bc 8b b5 60 3c 54 6f a5 3c
       -0.0073510944 -0.017542988 0.013715158 0.020194687
000270 92 84 44 bc 44 05 b9 3c 92 fe 46 3d b0 ce a1 bc
       -0.011994498 0.022585519 0.04858262 -0.019751877
000280 87 b6 37 bc 8d 63 bb bb f6 e7 62 bd 62 82 54 3d
       -0.0112129515 -0.0057186545 -0.055396996 0.051882155
000290 e6 55 55 3c 23 74 bb bc 69 57 eb bc a3 3e c1 bd
       0.013020968 -0.022882527 -0.028728204 -0.09435775
0002a0 d9 70 84 bd 24 93 3e 3c ba 55 a0 bc 8b f6 98 bb
       -0.064668365 0.011631761 -0.019572128 -0.004668062
0002b0 a7 22 18 bc 14 1e 1d bd a7 72 e7 bc 65 e2 0c bb
       -0.0092856055 -0.038358763 -0.028252913 -0.0021497246
0002c0 c8 cb cd bc 4d ee 4d bd 0b e4 da bc 51 53 57 bd
       -0.025121585 -0.05027609 -0.026720067 -0.05256969
0002d0 2b e4 14 3c b4 ac 72 3d 72 45 e8 3c 00 cf 4b bd
       0.009087603 0.059246734 0.028353427 -0.049757957
0002e0 df 69 d0 bc 35 83 49 3d 23 c7 6b 3d 7d 96 f2 3d
       -0.025441108 0.049197394 0.05756296 0.118451096
0002f0 87 d9 4f 3d 05 fc 38 bd 05 76 bb bb 4c 22 67 bd
       0.05074456 -0.04516222 -0.005720856 -0.056429192
000300 29 eb 3c bb da fd 8a bd 33 6d f3 bc 51 71 ed 3b
       -0.002882669 -0.067866996 -0.029715156 0.0072461744
000310 68 44 3f bc 9b a6 6a bd cb e8 d6 3d e7 1f 9f 3d
       -0.011674024 -0.057287794 0.104936205 0.07769757
000320 7e 48 22 3e d3 48 80 3d 34 64 dd 3d 8d 94 8e 3d
       0.15847966 0.0626389 0.10810128 0.069619276
000330 b2 68 3b 3d 9c 5d b5 3d 76 e5 c0 3d 4e 9a fa 3b
       0.045754142 0.08855745 0.09418766 0.007647789
000340 e1 35 d2 bc 3d ef e5 3c 10 45 32 3d 65 99 6c bd
       -0.025660457 0.02806818 0.043522894 -0.057763476
000350 03 10 e6 bc 70 9c 5f 3c 10 09 23 bd 5a a3 5b bd
       -0.028083807 0.013648137 -0.039803565 -0.05362258
000360 df 88 4e bd d9 81 a6 bd ca 6b 73 bd 02 ff 1e 3d
       -0.0504235 -0.08130235 -0.059428968 0.038817413
000370 2d fc c8 3c d9 83 4a bc c0 4b f1 3c 59 c3 96 3c
       0.02453431 -0.0123605365 0.029455066 0.018403696
000380 ee 01 47 ba d3 fd 9f 3d 76 8e c4 3d 9e 6b 3c 3e
       -0.0007591535 0.07812085 0.09597485 0.18400428
000390 d6 53 cf 3d bd 24 06 3e 8d 1b 7a 3e 73 42 fe 3d
       0.10123412 0.13099952 0.24424572 0.12415018
0003a0 29 b1 10 3e 4c 5a 79 3e fb 0e db 3c 77 c9 73 bc
       0.14130081 0.24350852 0.026740542 -0.014879576
0003b0 82 9a fe bc 63 2e b9 3c 8e b7 b4 bc 98 87 fd bc
       -0.031079534 0.022605127 -0.022060182 -0.030948445
0003c0 01 85 84 3c 1e 54 0e 3c dc 1c 96 bb 41 e4 76 be
       0.016176702 0.008687047 -0.004581077 -0.2411051
0003d0 de b1 81 be 3b 2d 6d be 21 9f a6 be f3 c4 a1 be
       -0.25331014 -0.23161785 -0.3254328 -0.31595573
0003e0 14 76 72 be 62 b3 85 be 11 51 75 be ae be 51 be
       -0.23677856 -0.2611342 -0.23956706 -0.20482895
0003f0 68 b2 10 bb f2 67 44 bc 83 cf 76 3c ca 63 99 3c
       -0.0022078995 -0.011987673 0.015064123 0.018724341

conv_layers.2.0.conv.bias f4 [32]
000000 88 c3 81 be 4f fc ab bd a6 d2 d2 bd 67 20 b9 be
       -0.2534449 -0.083977334 -0.10294084 -0.36157534
000010 4a 5b 1e bc aa 46 53 bd f3 af 7f be ba 4e 2d bd
       -0.00966532 -0.051581062 -0.24969463 -0.042311408
000020 9e 79 c1 bc b7 b6 a1 bc 6e 44 2e 3a c2 2d 67 3b
       -0.023617562 -0.019740446 0.000664777 0.0035275077
000030 c4 6c 45 bd 91 91 00 bd bb 02 71 bd c0 47 9c bc
       -0.04819943 -0.031388823 -0.058840495 -0.019077182
000040 00 4c 5c bd 4f ac 03 3c 21 57 00 bd 88 95 34 bd
       -0.053783417 0.008036687 -0.031333093 -0.044087917
000050 d3 50 a8 3c a8 d9 ae bd 8e 68 8b be e2 18 97 bd
       0.020546352 -0.085376084 -0.27228206 -0.07377793
000060 84 e1 1c bc 4c 9f ca bb 1d 08 79 be 49 71 b0 be
       -0.0095752515 -0.0061835404 -0.24319501 -0.3446143
000070 6a b6 07 bd 11 b3 48 bd 70 85 c4 3a dc bd 1a bd
       -0.033132948 -0.048998896 0.0014993381 -0.03777872

conv_layers.4.0.conv.weight f4 [32, 32, 3, 3]
000000 b1 a0 c4 bc e3 16 33 3d 07 c6 16 3d 08 00 70 bd
       -0.024002405 0.043723 0.036809947 -0.05859378
000010 fb e0 93 3c 9b 7d 8d bb f3 9d 0a bd 2a c5 5c bd
       0.018051615 -0.004317952 -0.03384204 -0.053898968
000020 c9 3d 83 bd 98 96 9c 3c ed 29 b7 bc b9 4d 4e 3d
       -0.06408269 0.019114777 -0.022358859 0.05036709
000030 55 41 fc bc 09 cf 19 bd 14 7c db 3c 95 d5 25 bd
       -0.030792871 -0.03755096 0.026792563 -0.04048689
000040 ee 01 1a bd bf 9d 06 3d 46 1d 8d bc 8e b6 24 3c
       -0.037599497 0.032865282 -0.017225873 0.01005329
000050 4e d1 b1 bb b0 b0 57 3c 54 90 19 3d ad 21 65 3d
       -0.0054265624 0.013164684 0.037491158 0.05594032
000060 0e 88 3b 3d 75 3e f9 3c 92 ed dc bc 0c 69 8b bc
       0.04578405 0.03042529 -0.026968751 -0.017017864
000070 46 ae cc bd 96 47 4d 3c 84 49 a9 bd 48 1d e1 bd
       -0.099941775 0.012529274 -0.08265975 -0.10991913
000080 05 6e 5a bd 29 9a c4 bc 5e 9a 0d be 66 a5 37 bd
       -0.05332758 -0.02399929 -0.13828418 -0.04483547
000090 92 c4 ad 3d 00 ae 6f 3d cc 9d 6e 3c 46 93 11 3e
       0.084847584 0.05851555 0.014563989 0.14216337
0000a0 b6 0e c1 3d 59 36 d2 bc 9f b7 83 3d b2 7c a5 3d
       0.09426634 -0.02566068 0.06431507 0.08080424
0000b0 0d 50 61 bd 40 fb 25 3d a8 f4 44 3c 98 f1 c5 bc
       -0.055007983 0.040522814 0.012021221 -0.024163052
0000c0 0d 90 b3 3c 09 37 13 bc 43 e4 67 3c 34 7d a6 3c
       0.021919275 -0.008985289 0.014153543 0.020323373
0000d0 5f 21 0a bd 84 96 49 3c 16 ad 2f bd 27 ff 71 bc
       -0.03372323 0.012303952 -0.042889677 -0.014770306
0000e0 8d b4 39 3d 20 0c 1b bd 28 f1 27 bd ae 58 f1 bc
       0.045338202 -0.03785336 -0.04100147 -0.029461231
0000f0 45 48 33 bd 3a 54 c7 bd a8 c5 c9 bc 78 a0 f6 3d
       -0.043770093 -0.09732862 -0.024630383 0.12042326
000100 27 f7 1f 3e af 1f 8e bb 22 b5 ab 3d 4f 66 bf 3d
       0.15621625 -0.004337273 0.08384158 0.09345686
000110 95 dd 38 3c 57 af 06 3e 23 da 4a 3e 5d 67 3a bc
       0.011283298 0.13152824 0.19809775 -0.011377183
000120 14 f5 83 3e 8e bb 1d 3e b3 f1 1f 3e b9 34 8b 3e
       0.25772917 0.15403578 0.15619545 0.27188662
000130 69 82 0a 3e ba 70 3a 3e 61 e8 88 3e bc aa 0c 3e
       0.1352631 0.18207064 0.2673979 0.13737005
000140 c5 c3 19 3e 49 e9 a5 3e fb 3b bf 3d 34 84 9d 3d
       0.15016086 0.32404545 0.09337612 0.07691231
000150 d2 3b 9c 3e 6b 79 0d 3e c8 c4 b9 3d ce ce a9 3e
       0.3051439 0.13815849 0.09070736 0.33165592
000160 35 89 05 3e 0e cc 2a 3e 54 e7 c6 bc d2 9d 16 bc
       0.13040622 0.16679403 -0.024280228 -0.009192901
000170 4b 21 27 bd d9 68 dd bb ab 6a 16 3c c1 77 95 bd
       -0.040803235 -0.0067568836 0.009180705 -0.07298232
000180 da fe e8 bb ea 0b f3 bc e7 13 0b bd 19 af 2d 3c
       -0.007110459 -0.029668767 -0.033954527 0.010600829
000190 87 a3 87 bc 6d 03 d6 3b 95 01 5d 3d 52 a1 23 ba
       -0.016557468 0.00653117 0.053956587 -0.0006241995
0001a0 e4 5f 77 3d 36 e4 3a 3d ca c5 8e bc 65 bb ab bc
       0.060394183 0.045627795 -0.017428298 -0.02096338
0001b0 0c 20 6f 3d e6 4f 67 3d 81 6e da 3c 06 64 02 3d
       0.05838017 0.05647268 0.02666402 0.03183367
0001c0 3d 6d d2 3c 1a b0 13 bd 4d 54 4d 3c a0 09 55 3d
       0.025686854 -0.036056615 0.012532306 0.052011132
0001d0 96 b7 04 3d 76 32 eb 3b 24 73 1f 3d f6 e2 8b bc
       0.032401644 0.0071776463 0.038928166 -0.017075997
0001e0 eb be 70 bd c4 e9 ca bc d6 63 13 bd 1d ec e5 bc
       -0.058775824 -0.024769671 -0.035983883 -0.02806669
0001f0 5a cc d4 3c 50 3c 8b bd e4 a2 c2 3d 64 da dc bc
       0.025976349 -0.06798613 0.09503725 -0.026959606
000200 4b a0 82 3d d2 df c8 3d bb 2a 87 3d 02 fa c8 3c
       0.0637823 0.09808315 0.06599947 0.024533276
000210 42 40 9f 3d bf cc be 3c f4 10 36 3d 9d 1a 7c 3e
       0.07775928 0.02329099 0.04444976 0.24619527
000220 25 c6 34 3e 37 6a f4 3d 68 68 8c 3e 52 32 89 3e
       0.17653711 0.119343214 0.27423406 0.26796204
000230 fe 0d 2b 3e 0c b0 8a 3e 98 39 8d 3e 6c b9 45 3e
       0.16704556 0.27087438 0.27583003 0.19309014
000240 4b 85 16 3e 44 5d 51 3e e8 16 c2 3c 6f e4 b8 3d
       0.14699285 0.20445734 0.023692563 0.09027945
000250 3c 40 19 3e c9 43 08 3d 90 ed 15 3e 91 9e 87 3e
       0.1496591 0.03326777 0.14641404 0.26488164
000260 79 d8 02 bd dc 2a 3e bc 55 46 c1 bc 85 25 7b bc
       -0.031944726 -0.011606898 -0.023593107 -0.01532877
000270 6e 1b de 3c f1 3b 3f 3c 55 d3 80 ba a1 c0 0e 3d
       0.027112689 0.011672006 -0.0009828607 0.034851674
000280 8b 65 22 bd a1 67 3c bd ca 57 4a 3d 41 c4 0d bc
       -0.03964762 -0.045997266 0.04940013 -0.008652748
000290 47 00 93 3c 51 48 0e 3d f2 62 7c bb 3a f5 05 3d
       0.017944468 0.034736935 -0.0038511124 0.03270457
0002a0 5a 21 a0 3c d6 76 b9 ba 27 6c 2f bd a8 08 50 3d
       0.019547153 -0.0014149796 -0.04282775 0.050789505
0002b0 cc 05 2b 3c df f8 81 3b c2 5e 18 bb 3d 0a 3e bb
       0.010438394 0.0039664353 -0.002324984 -0.0028997802
0002c0 30 59 ab bb a9 37 b9 3c 48 0c 90 ba 89 67 4e bc
       -0.005229138 0.022609549 -0.0010989988 -0.012597927
0002d0 8b 5f 97 b9 4b a9 c7 bb 13 52 81 bd 6d 85 58 3c
       -0.0002887215 -0.0060931793 -0.063144825 0.013215405
0002e0 9f 1a 7b bd ef b5 f7 bc 8c 43 50 3b 10 af 1d bd
       -0.061304685 -0.03023812 0.0031778542 -0.03849703
0002f0 26 27 82 bd 14 f0 3e 3d c9 2a c2 3d 33 d6 96 3d
       -0.06355123 0.046615675 0.09480817 0.07365074
000300 de 35 a7 3d 00 54 9f 3d bd 04 18 3d a1 b2 2c 3d
       0.08164571 0.077796936 0.037113894 0.04216254
000310 13 50 96 3d be 36 21 3d 5f a3 d6 bc af e0 4e 3c
       0.07339492 0.039358847 -0.026200948 0.012626811
000320 5a f4 93 3b 3f 40 e2 bc 12 b7 a2 bd f3 1f 85 bd
       0.004515213 -0.027618526 -0.07945074 -0.065002345
000330 c3 c1 87 bd 69 f3 d4 bd 8c 44 a3 bd 6e 43 02 bc
       -0.06628754 -0.10397989 -0.07972059 -0.007950647
000340 7c fa a2 3b a7 5f b9 bc 43 d9 20 bc 5c 6e 81 3b
       0.0049737077 -0.022628618 -0.009817424 0.0039499234
000350 24 40 38 3a 60 4b 0f 3d cd 20 1c bb 7d 56 d2 bc
       0.00070286007 0.034983993 -0.0023823262 -0.025676006
000360 32 ab 04 bd 28 12 1d bd a0 b7 fd bb 75 a5 ec bc
       -0.032389827 -0.038347393 -0.007742837 -0.02888749
000370 d7 13 35 bc c9 03 9f bd 87 ef e6 bc 08 c9 a8 bc
       -0.0110520935 -0.07764394 -0.028190387 -0.020603672
000380 29 1b 7c bd 87 85 02 3e 77 fc 93 3d 2d 91 82 3c
       -0.06154934 0.12746249 0.07225888 0.015938366
000390 40 14 8c 3d 92 79 d7 3c 28 d5 32 3d b3 40 e6 3d
       0.068398 0.026303086 0.043660313 0.11242809
0003a0 5a f2 96 3d dd 23 c4 3b 50 37 64 bc 30 da 8f bc
       0.07370444 0.0059857205 -0.013929203 -0.017560095
0003b0 5d f7 d6 3c 25 f0 9b bc 67 ad 33 bc 8c 55 61 3c
       0.026240999 -0.019035408 -0.010966635 0.013753306
0003c0 97 f4 2e bd 08 e6 4e bd 93 a5 f8 bc c3 39 c3 bc
       -0.042713728 -0.050512344 -0.03035239 -0.023831254
0003d0 2e 3c 91 bd 74 2c 09 bd bf 54 45 bd 2a 3b 21 be
       -0.070915565 -0.03348966 -0.048176523 -0.15745226
0003e0 31 ef 99 bd ea 59 e2 bc 91 5e 94 bd 02 6b bc 3c
       -0.07516325 -0.027630765 -0.072445996 0.023000244
0003f0 c2 16 ca 3d 5c 79 ee 3d 4b 0c 2a 3d df ff c8 3d
       0.09867622 0.11644241 0.04151563 0.098144285

conv_layers.4.0.conv.bias f4 [32]
000000 d1 dc 8b bd 61 b3 00 bd bd 9f bc 3c 65 d5 d0 bd
       -0.06829227 -0.03142107 0.023025388 -0.10196952
000010 b5 68 17 3d b0 82 60 bd 1c e5 85 bd 48 b6 ac bd
       0.03696509 -0.054812133 -0.0653784 -0.08433205
000020 15 e6 69 bd d3 bd 89 bd 6d 68 3d bd 56 65 0d 3d
       -0.05710419 -0.06725659 -0.046242166 0.03452047
000030 98 72 2a be 20 f9 b3 bd a5 a2 dc bc 0f c5 99 bd
       -0.16645277 -0.08787751 -0.026933024 -0.07508289
000040 b9 90 b7 bc cc bd 02 bd cd c9 32 bc da 63 7a bd
       -0.022407876 -0.031919286 -0.010912371 -0.061130382
000050 c0 f7 8e bc 0e ce 2f 3c fa d3 ad bd 2f d3 5e bd
       -0.01745212 0.01073028 -0.08487697 -0.05440062
000060 df 0e 94 bd 9e 89 3f 3c d2 70 4d bd 98 ab 8d bd
       -0.07229399 0.011690525 -0.050156422 -0.069174945
000070 82 67 5a bd e9 aa f4 bd bb 85 59 3c e6 d4 5b be
       -0.05332137 -0.11946661 0.013276513 -0.21467933

conv_layers.6.0.conv.weight f4 [16, 32, 3, 3]
000000 2c df 7a bc 17 0d 4c 3d 02 9a fe 3c da 63 cc 3d
       -0.015311997 0.04981717 0.031079296 0.09979983
000010 89 8c f8 bd ba ef f0 bd d4 cc 45 3d 21 23 0d be
       -0.1213618 -0.11764474 0.048291042 -0.13782932
000020 05 4d 8a bd 3e be 28 bc b6 6e 7f 3a 08 fe 55 3c
       -0.067529716 -0.0102992635 0.0009743975 0.013061054
000030 b8 8a 44 bd 7b bb d4 3c a0 11 62 be 3b 35 ee bd
       -0.047983855 0.025968304 -0.22077036 -0.11631247
000040 c8 eb 73 bd 4c 52 0c bd 10 c7 04 3d 37 7c 72 3d
       -0.05955103 -0.034258172 0.032416403 0.05920049
000050 c3 1b b2 bd d9 d3 3e 3e 4f 1a eb bd 34 bf 1f be
       -0.086967014 0.18635501 -0.11479627 -0.15600282
000060 54 13 ec bd 85 29 aa bd 9a d4 49 bd 44 70 92 bd
       -0.11527124 -0.083087005 -0.04927502 -0.07150319
000070 a0 81 ed 3b 6f 29 34 3c a2 b0 40 3d 35 43 d4 bd
       0.0072481185 0.010996207 0.04704345 -0.10364381
000080 22 fc 1e bd 49 c4 c1 bc 20 80 08 be 7b a9 e5 bd
       -0.03881467 -0.023653166 -0.13330126 -0.112139665
000090 11 63 26 3c 51 2e b6 3c 36 47 f7 bd 1a d9 b5 3d
       0.010155455 0.022238882 -0.12074129 0.088792995
0000a0 2b 07 ec bd 1a 2e fa bd b8 ca e6 3c da 01 8b bc
       -0.11524805 -0.122158244 0.028172836 -0.016968656
0000b0 ff 47 dd bd aa a6 a0 bd 13 f7 10 bd d0 0f c5 3d
       -0.10804748 -0.07844289 -0.03539188 0.096221566
0000c0 b0 6a a9 3d 9e 0e e5 bd e4 79 76 bd 3d 22 85 be
       0.08272302 -0.11184429 -0.060174838 -0.26002684
0000d0 76 d2 a2 be 56 c6 24 bd 35 53 15 3c 58 b4 8e 3c
       -0.31801194 -0.04022821 0.009114076 0.017419979
0000e0 dc 72 5c 3d e3 1f d7 3c 44 f7 08 be 91 71 f6 bd
       0.053820476 0.026260322 -0.13375574 -0.1203338
0000f0 f9 c5 be 3c 80 f3 b9 bd 0a e5 f5 bd a3 f5 08 3e
       0.02328776 -0.09079647 -0.12006576 0.13374953
000100 04 29 1f bd 49 7b 24 bc 12 f2 0f 3d 75 09 60 bd
       -0.038857475 -0.010039159 0.035142966 -0.05469652
000110 4f 18 92 bd 8d 59 2e bd 89 58 9a bd af b0 06 be
       -0.07133543 -0.04256587 -0.07536418 -0.13153337
000120 41 88 32 3c e2 35 4e 3d db 3c b5 bc 50 ff 8d bd
       0.010896743 0.050344355 -0.022123745 -0.069334626
000130 66 12 23 3d e7 34 5e be cc a6 d6 bc df 8f c6 bd
       0.039812468 -0.21699868 -0.026202582 -0.0969541
000140 5f 61 8c 3a 59 71 02 3d fe f2 94 bc c9 d3 2c be
       0.0010710171 0.031846378 -0.018182274 -0.16877665
000150 e0 d6 c3 3c c1 2c f6 bc 1f 0b 60 be 19 a5 e9 3c
       0.023906171 -0.030050637 -0.21879242 0.028521108
000160 16 1c a3 bd 26 ee 41 be 75 d2 6c bc cd 5f cf 3c
       -0.07964341 -0.18938503 -0.014454474 0.025314236
000170 f8 fb de 3a 73 b1 74 3d fc b9 8d 3d 77 c6 20 be
       0.0017012348 0.05973954 0.06920239 -0.15700708
000180 10 32 1f be 81 cd ce bd 62 5d 00 be 38 4c aa 3d
       -0.15546441 -0.100977905 -0.12535623 0.08315319
000190 2a 54 11 bd f9 c7 42 be 5c 58 04 3e b3 62 26 be
       -0.035480656 -0.19021596 0.12924331 -0.16248588
0001a0 2e 3f 24 be 9f 59 24 3d c7 94 21 be e3 26 b9 bd
       -0.16039726 0.04012453 -0.1577941 -0.0904062
0001b0 a7 bc bb bc 58 cf cc 3d dd 29 51 3d 81 61 e4 3d
       -0.022917105 0.10000485 0.051065315 0.1115141
0001c0 69 8c 86 3c 56 f5 1a be 1a 1f 88 bd 26 7d 41 be
       0.016424375 -0.1513265 -0.06646557 -0.18895397
0001d0 0d bc fb bc ed 2c 12 3e f2 0e 46 bd 96 42 09 be
       -0.030729318 0.1427495 -0.048354097 -0.13404307
0001e0 7c 78 33 3d 3d 61 5e bd ac 00 fe bd 2b f8 a2 bd
       0.043816075 -0.054291952 -0.12402472 -0.079574905
0001f0 c7 ab 24 3c ff 28 18 be 06 71 f6 3d 06 46 68 3d
       0.010050721 -0.14859389 0.12033276 0.056707405
000200 1a b8 60 be 0b 4e 4c 3e ba 37 9f bd 87 23 98 be
       -0.21945229 0.19951646 -0.07774301 -0.29714605
000210 00 c3 31 3d f8 1f 1c be ba 32 22 be 29 5d 90 bd
       0.043398857 -0.1524657 -0.15839663 -0.07049019
000220 b8 04 a1 3d b9 fe 0d 3d 90 4e 3b 3b 2d 1d b3 bc
       0.07862228 0.03466675 0.0028580762 -0.021864498
000230 96 04 88 bd 53 c1 67 bc 51 3c bb bd 8d e0 8d bd
       -0.066415 -0.014145213 -0.09142364 -0.06927595
000240 75 d2 22 bd 53 4a c4 3c 9f 65 0e 3d db df ad bc
       -0.03975149 0.023961222 0.034764882 -0.021224907
000250 18 98 0e 3d f8 af 9a bd dc 14 0e be 15 9a 85 bd
       0.034813017 -0.075530946 -0.13875145 -0.065235294
000260 ac bf 3f bd 82 1b eb bc 60 04 1a bd 8a 8c ff 3d
       -0.046813652 -0.02869964 -0.03760183 0.124779776
000270 4e f4 39 3c bb 26 d1 3b 70 f5 6e bd fa 5b 71 be
       0.011349751 0.006382791 -0.058339536 -0.23570243
000280 64 96 bd bd 02 66 b5 3d 49 0a 95 bd de 2f 10 bc
       -0.092572 0.08857347 -0.07277352 -0.008800475
000290 9e 0c 26 bd ce f5 78 bd 69 f9 b4 ba 50 38 bb bd
       -0.040539376 -0.060781293 -0.001380724 -0.091416
0002a0 25 c4 27 be 07 cf d7 bd 81 f7 95 3d ec fc 12 bd
       -0.16383417 -0.10537534 0.07322598 -0.035885736
0002b0 af 0f 33 3d 3d 79 a8 3d 7a 7b c7 3b ba 6d 35 bd
       0.04371613 0.08226249 0.0060877176 -0.044294097
0002c0 65 35 a0 bd ac c6 0d be 55 18 ae bd 6c b1 73 bd
       -0.07822684 -0.13845319 -0.08500735 -0.059495375
0002d0 aa 2b 14 3d 2a a6 11 3e 5a fe c0 bc 36 da 25 3d
       0.036174454 0.14223543 -0.023558784 0.040491305
0002e0 da 35 48 3c a7 0a 02 be ab 07 0f bd 93 ae c1 3c
       0.01221987 -0.12699376 -0.034919422 0.023642814
0002f0 62 e3 51 3c 09 d3 bd 3c 5c 68 82 3d fc f5 3d be
       0.01281056 0.023171918 0.06367561 -0.18550867
000300 5f b9 c4 3d 38 1b 0d bd 79 96 bb be e6 0b 09 be
       0.09605669 -0.034449786 -0.3663824 -0.13383445
000310 62 c3 28 be 66 8e 47 be 8c c7 31 bd 2d 8a 94 3c
       -0.16480783 -0.19487914 -0.043403193 0.018132294
000320 eb e1 b5 3c 3b 03 6b 3c fd 59 0c be cd 28 d0 bd
       0.022202453 0.014344032 -0.13706203 -0.10164032
000330 7b 24 db 3a a3 f3 ed bd a8 4a c5 bd b3 da 01 3e
       0.0016719246 -0.11618736 -0.0963338 0.12681083
000340 59 44 87 3d 51 e6 8c bd 2f e5 8b 3d 3d 8d 2f 3d
       0.06604833 -0.06879867 0.06830823 0.042859305
000350 f0 ec 1b be 11 b0 c4 3d 8f 47 24 3d 1e 8a ea bd
       -0.15227103 0.096038945 0.040107306 -0.11452125
000360 d5 bc 9e 3d b5 e1 ee bb 81 58 0f 3c 49 3c 0b 3c
       0.077508606 -0.00729009 0.008749128 0.00849826
000370 81 e2 e8 bd 58 b5 5a 3c c5 76 e2 bd 32 d0 15 be
       -0.11371327 0.0133489 -0.1105781 -0.14630201
000380 a3 6c b2 bc 13 85 d0 3b 7e 96 76 bd 32 57 de bc
       -0.021780318 0.00636352 -0.060202114 -0.027141187
000390 39 5b 08 bc 1e 04 93 bd 16 47 4e bc e8 76 f2 ba
       -0.00832253 -0.0717852 -0.01259019 -0.0018498572
0003a0 dc 61 99 3c 90 be 4c bd e8 6b 63 3d 0f 5b 93 bd
       0.01872342 -0.049986422 0.05552283 -0.071951024
0003b0 e6 4f 87 bd 78 5a ce 3d 33 16 c3 bc 40 f9 e2 bd
       -0.06607036 0.10075849 -0.023814296 -0.11082697
0003c0 1f 1a 2b be 3a a3 d6 bd f1 9c 7c bd 48 d3 a1 bd
       -0.16709183 -0.10480352 -0.06167311 -0.07901627
0003d0 14 82 15 3d fc 65 7b bc a6 c8 75 3d a0 5e d8 bd
       0.036501005 -0.015344139 0.060005806 -0.10564923
0003e0 72 74 cd bd c3 cf 7e bd db 9c 2f be 12 85 70 bd
       -0.10031976 -0.062209856 -0.1714968 -0.058720656
0003f0 79 20 87 bc 3b a5 0a 3c 64 b2 89 3a 3e 3b c6 bc
       -0.016494976 0.008462246 0.0010505435 -0.02419817

conv_layers.6.0.conv.bias f4 [16]
000000 0c c7 af 3d 67 b7 8f 3d 75 04 e2 3d 01 73 d7 3d
       0.08582887 0.07017403 0.11036006 0.10519982
000010 ba 60 99 3d 07 0f 87 3d 57 c3 b8 3c d5 b8 9c 3d
       0.07489152 0.06594663 0.022554083 0.076524414
000020 73 05 eb 3d 2f 30 ef 3d eb 1e 8e 3d cd 6c 88 3d
       0.11475649 0.11679112 0.06939491 0.06661377
000030 46 92 04 bd fe dc 76 3d 03 3c fb bc af 35 83 bd
       -0.03236606 0.06026935 -0.030668264 -0.06406724

linear_layers.0.weight f4 [64, 400]
000000 fc e3 06 3e b6 ed ec 3d ce 33 20 bd 5c 1a 4e bc
       0.13172907 0.11568777 -0.039111905 -0.012579527
000010 c6 9f 69 3d f6 a8 79 bb f3 80 cb bd 76 8e bd bd
       0.057037137 -0.0038095093 -0.099367045 -0.09255688
000020 6c a9 80 bd 12 95 d3 3d 07 ff 9e 3d f1 b4 a1 bd
       -0.06282315 0.10331167 0.07763486 -0.0789584
000030 32 c9 c8 ba ad 63 e1 bc 17 78 fa 3c f0 a3 0e 3d
       -0.001531875 -0.02751335 0.030574841 0.03482431
000040 54 46 71 bd cd 99 ab bd 03 9c 6f 3c 9a 62 93 3d
       -0.05890496 -0.083789445 0.014624598 0.07196541
000050 9c 41 f4 3d a0 85 57 bb ef e4 33 3c 8c 6a fb bd
       0.119265765 -0.0032886043 0.010979875 -0.122761816
000060 db 9b 7d bc 3b d1 3f 3c c5 19 4a 3d 1b 1f 46 bd
       -0.015479053 0.011707599 0.049340982 -0.04836951
000070 cb 14 05 3c b5 97 57 bc 3e f7 3f 3d d2 94 9b 3d
       0.008122633 -0.013158728 0.046866648 0.075967446
000080 bb ed 54 3d 3f 79 6b 3d 5f d0 21 3d 78 81 18 bd
       0.05198453 0.057488676 0.03950536 -0.037232846
000090 e9 9b e4 bd 70 be ba 3c 7d fe c0 3c 7e 12 be 3c
       -0.1116255 0.022795886 0.02355885 0.023202177
0000a0 18 48 52 bd 54 b2 6c be 55 89 0d bc e5 a0 0c bd
       -0.051338285 -0.23114902 -0.0086387 -0.03433313
0000b0 cd f7 ea 3d cd 37 05 bd af 87 7e be e1 ce d1 3c
       0.114730455 -0.03252392 -0.24856447 0.025611343
0000c0 12 88 d9 bb 05 0e 4e bc 06 8d 32 3e 67 87 ec 3c
       -0.0066385353 -0.012576585 0.17436609 0.028873159
0000d0 bc f2 07 bc cb a4 9c 3c fb 48 bc 3d e2 9c 91 3d
       -0.0082976185 0.019121548 0.091936074 0.07110001
0000e0 0c 33 f3 3a 96 d0 80 3a a6 fc f5 bb b2 c5 73 3c
       0.0018554642 0.0009827788 -0.0075069247 0.014878677
0000f0 ea e5 cf 3d aa e2 1f bd 12 6b 9b bd fb 51 99 bd
       0.101512745 -0.039034523 -0.075887814 -0.0748634
000100 b1 be eb 3b e5 aa ff 3a 1a db e6 bd 7d 9c 9d bd
       0.007194363 0.0019505887 -0.11272259 -0.076958634
000110 07 63 a3 bc d4 71 3b bc 3a 7e 3e 3c cc fc 17 be
       -0.01994468 -0.011440713 0.011626774 -0.14842528
000120 49 1d ed bd e9 43 c8 3c ff 9a 68 bd 9d b2 d9 3d
       -0.11577851 0.024446445 -0.05678844 0.10629771
000130 33 e9 98 3d 68 41 a4 bc f1 3a 93 bd ef 5e 63 3d
       0.07466354 -0.02005072 -0.071889766 0.055510458
000140 9f c6 d0 3c ba 4f 68 3d 1b 6f 5d bc 48 9f 96 bd
       0.025485335 0.05671666 -0.013515259 -0.07354599
000150 d6 a2 7a 3c dc 9a 81 3c 41 27 ea ba 78 8a 15 bd
       0.015297612 0.015820913 -0.0017864482 -0.036509007
000160 78 46 4d bd d9 a9 ad bc 9b 71 81 3d 0c 6e 03 3d
       -0.050116032 -0.021199154 0.06320497 0.03208737
000170 62 96 2e bd 49 54 4b bd 94 f5 0a bd be e3 1f bd
       -0.042623885 -0.049640927 -0.033925608 -0.03903555
000180 8d dc c2 bb 2e b3 32 bd a3 e0 3e 3d 37 40 57 bc
       -0.005946702 -0.04362791 0.04660095 -0.013137869
000190 2c ea 5d 3c 30 e3 83 bc 43 08 bb 3d 85 eb b2 3c
       0.0135446 -0.016099542 0.09132435 0.02184082
0001a0 80 ab c3 3c fb db 8b 3d 2f 8d d0 3c e3 a7 3e 3d
       0.023885489 0.06829067 0.025457947 0.046546828
0001b0 c0 5e 9e bc bc c5 60 bc da ac 90 bc e5 03 6d bd
       -0.01933229 -0.013719019 -0.017660547 -0.057865042
0001c0 c5 7c 74 bc f1 1b a1 3d 6c c0 b7 bc ed e4 5d be
       -0.0149223255 0.078666575 -0.022430621 -0.2166936
0001d0 97 e6 85 be 09 40 cd ba 6a 7f 17 3d b8 fa e6 bd
       -0.2615249 -0.0015659343 0.036986746 -0.112782896
0001e0 6c b5 c2 bd f0 a7 40 be 7c 68 e0 bb ea c1 d0 3d
       -0.0950726 -0.18814063 -0.006848393 0.10193236
0001f0 55 e1 25 3d b6 37 39 3d 1d 59 50 bc f8 ae aa bb
       0.040498096 0.045219146 -0.012716559 -0.005208846
000200 f1 a9 f9 3c b0 e5 8a 3d da 2d f9 bb 90 4f 84 bb
       0.030476542 0.06782091 -0.007604343 -0.004037805
000210 ae 62 30 3d b6 39 a8 3d c0 16 38 3c c4 a1 29 be
       0.04306286 0.082141325 0.011235893 -0.16565615
000220 8b f5 5a bd 75 b9 68 3c de f6 88 3d 2e 04 bd bc
       -0.053456824 0.014204373 0.06687711 -0.023073282
000230 36 1f 49 be 33 8b 00 3d a8 dd 05 3c 0e 24 90 3d
       -0.19640812 0.03138275 0.008170523 0.07038127
000240 8a 9f 6d 3b ee de ee bd b1 c0 b6 bd 86 7a 76 3c
       0.0036258423 -0.11663614 -0.08923472 0.01504386
000250 17 d0 e7 3b 58 50 3e bd b8 b4 88 3d a8 e9 b0 bb
       0.007074367 -0.04646334 0.06675094 -0.0053989477
000260 37 16 1c bd 9e e4 3e 3d 79 e0 c9 3c fe 83 05 bb
       -0.038107123 0.046604745 0.02464317 -0.0020372863
000270 f2 f9 56 3d 06 38 4f 3d 81 05 e1 3d 51 f1 9b 3d
       0.05248446 0.050590537 0.10987378 0.07614387
000280 21 9a 92 bd f8 95 b8 3d 4e 07 f0 bd f6 4c bb 3d
       -0.07158304 0.09012979 -0.11720143 0.091455385
000290 ca 8f ec bc 0d 4d 9a bd 63 98 0e bc 99 cd 2f bc
       -0.028877158 -0.075342275 -0.008703324 -0.010730171
0002a0 87 ea 23 3d d7 d7 a0 bd 6b 62 ab bd 9f 71 e0 bd
       0.040018585 -0.07853668 -0.08368381 -0.109591715
0002b0 e5 8e ba ba dd 17 bd 3d d9 8f 5b 3d 4c ac 57 3d
       -0.001423326 0.09233067 0.05360398 0.05265455
0002c0 80 6b b6 3d 9c d6 71 3d 8a d3 31 bb 0a a6 52 bc
       0.08907223 0.059042558 -0.0027134144 -0.01285697
0002d0 c2 7a a0 3d f8 22 e3 3d 52 6c da 3b 9c 2d 58 bd
       0.07835914 0.11090654 0.006665745 -0.05277787
0002e0 40 50 a7 bd 53 f5 bd 3c 1b 37 8e 3d 9a 82 65 bc
       -0.08169603 0.023188269 0.06944104 -0.014008189
0002f0 f1 58 85 3d a8 3b a3 bd 72 6e ac 3c e2 cb 34 bd
       0.06511105 -0.07970363 0.021048758 -0.04413975
000300 12 bb 56 bc 1f 41 59 3d 94 34 43 be 5c bb 7e bd
       -0.0131061245 0.05304062 -0.19063026 -0.0621904
000310 f5 b9 26 3c 43 27 0c bb ad 47 c6 3d 47 2b 2c 3c
       0.010176172 -0.0021385706 0.0968164 0.010508365
000320 7e f3 d1 3c 46 85 56 3c 90 be d1 3d 22 55 e5 3c
       0.025628801 0.013093298 0.10241425 0.027994696
000330 61 c1 e9 3d 9b 81 ca bd fe 51 e4 3c 14 c3 8c bd
       0.11413837 -0.098880015 0.027871128 -0.06873146
000340 04 bf 34 bd 2b 25 ff 3c 34 40 04 be e9 88 f5 bd
       -0.04412748 0.031145653 -0.12915117 -0.11989004
000350 44 0d 3a 3d 8b 3a 36 bd 8d 5d 6f 3c 36 39 13 be
       0.045422807 -0.044489425 0.014609707 -0.14377293
000360 55 8c 37 bc 94 8d 07 bd 53 a1 15 bb 71 80 0a 3c
       -0.011202891 -0.033094004 -0.0022831752 0.008453474
000370 67 95 e9 ba 91 7b cb bc 02 f5 37 bd 4e f7 37 3d
       -0.0017821015 -0.024839194 -0.044911392 0.044913583
000380 1e d8 06 3d 75 de 1c 3e 1e 73 b5 3d df bd 44 3d
       0.03292095 0.15319236 0.088598475 0.048032638
000390 84 ba 47 bd 19 ca 99 bd dc 88 56 3c 70 5f 0c 3d
       -0.04876186 -0.0750925 0.013094153 0.034270704
0003a0 8c 42 ad 3c ff 5d e1 3c 3b 24 07 bd 0f 7e 02 be
       0.021149896 0.027510641 -0.032993536 -0.127434
0003b0 a1 9f 85 bd a1 91 a6 3b f0 0b 8a 3c c4 20 06 be
       -0.065245874 0.0050832783 0.016851395 -0.13098437
0003c0 9c b6 87 be 99 0d 7e 3d c1 bd 5a 3b 19 1c 75 3c
       -0.26506507 0.062024686 0.0033377262 0.014960312
0003d0 eb a1 fe bd 81 16 fa bd e2 98 f7 bb 91 25 52 bc
       -0.12433227 -0.122113235 -0.007556067 -0.012826339
0003e0 15 ec b8 ba 3c 86 09 bd d0 3d 9b 3d b3 5b 02 3c
       -0.0014108444 -0.03357528 0.07580149 0.007956433
0003f0 f9 dd 89 3d 91 43 71 3d 65 6d 9f 3d b5 75 11 bc
       0.06731791 0.058902327 0.07784537 -0.008878161

linear_layers.0.bias f4 [64]
000000 3a 54 95 3e 3d ba 7b 3e 5c 7b 81 3e 1a 72 69 3e
       0.29165822 0.24582763 0.25289428 0.22797433
000010 8f e5 68 3e f5 48 69 3e e7 d9 73 3e 08 51 8c 3e
       0.2274382 0.22781737 0.23813592 0.27405572
000020 b7 5e 70 3e 46 65 8e 3e 92 c4 4c 3e 90 51 61 3e
       0.23473631 0.2781164 0.1999686 0.2200377
000030 cc 9f 6e 3e a7 4b 5e 3e d9 e9 9b 3e d6 33 64 3e
       0.23303145 0.21708547 0.3045185 0.22285399
000040 a6 ed 85 3e 75 ec 81 3e 5a 4d a2 3e 1d 33 72 3e
       0.26157874 0.25375715 0.3169964 0.2365231
000050 2a 82 53 3e 9d ee 2d 3e b4 34 9a 3e 5f 77 8a 3e
       0.20655122 0.16985555 0.30118334 0.27044198
000060 44 d9 57 3e ca 09 85 3e 5e be 67 3e 47 58 74 3e
       0.21078974 0.2598403 0.22631213 0.238618
000070 84 ad a4 3e 16 40 84 3e d6 f3 5a 3e d0 12 4e 3e
       0.32163632 0.25830144 0.21382079 0.20124364
000080 96 74 8d be ad 63 7e 3e d4 83 4d 3e 2a 4e 1d 3e
       -0.2762801 0.24842711 0.2006982 0.15361848
000090 8d 2c 80 3e 31 0c 5a 3e 2d 21 54 3e 3a 73 78 3e
       0.2503399 0.21293713 0.2071578 0.24262705
0000a0 01 c5 4c 3e 33 26 87 3e ff fe 86 3e ab 9f 82 3e
       0.19997026 0.2639633 0.26366422 0.25512442
0000b0 d2 92 41 3e 2a b9 3f 3e 55 fb 24 3e 9e 20 e8 3d
       0.18903664 0.18722978 0.161115 0.11334346
0000c0 f4 a4 4f 3e 8a be 30 3e 7a d5 4f 3e ce e2 86 3e
       0.20277768 0.17260185 0.20296279 0.26344913
0000d0 e6 6a 76 3e 28 47 66 3e 28 91 83 3e ef 68 51 3e
       0.24064216 0.22488081 0.25696683 0.20450185
0000e0 ce e4 ac 3e 3a f1 85 3e c3 0a 70 3e 80 3b 48 3e
       0.33768314 0.26160604 0.23441605 0.19553947
0000f0 fe 59 6c 3e c5 a5 53 3e f3 d2 aa 3e cd 0e 9c 3e
       0.23081204 0.20668705 0.33364066 0.30480042

linear_layers.3.weight f4 [4, 64]
000000 f7 48 67 3e 6e 31 41 3e 34 84 d7 be 84 c5 d2 3d
       0.22586428 0.18866512 -0.4209305 0.10291579
000010 d4 65 8c 3e 79 db c3 bc 1d 8c dd bd 20 2f 5b 3e
       0.2742144 -0.023908364 -0.1081774 0.21404696
000020 0c f3 69 3d cc c9 de be 5c 22 99 3e 71 2f 3d bc
       0.057116553 -0.43513334 0.29909027 -0.011546955
000030 e0 f3 42 be 20 9e 40 3c c0 7e 2b 3d 36 bb ec 3d
       -0.19038343 0.01175645 0.041868925 0.11559145
000040 ee b0 9d be 9e 10 c6 be b8 a5 74 3d 97 87 9e be
       -0.3079905 -0.38684553 0.059728354 -0.30962822
000050 2e e0 17 3c 1a f2 87 3e e3 15 9c bd b6 fb 90 3e
       0.009269757 0.26551896 -0.07621362 0.2831704
000060 e2 f7 c6 be 88 f2 b0 3e 26 92 ce 3d 69 52 1a bd
       -0.38860995 0.34560037 0.10086469 -0.03767625
000070 cd 0b 6a be 0c 51 ab be ef e0 8d be 97 8f 9d 3e
       -0.22856064 -0.3346027 -0.27710673 0.30773613
000080 51 6c 40 bd 15 d2 98 bc 26 81 34 3e 1d 31 b1 3c
       -0.0469783 -0.018654862 0.17627391 0.021629864
000090 4b d5 e7 3e 92 d2 9d be 44 36 32 3a c9 fb 15 be
       0.45279917 -0.30824715 0.00067982473 -0.1464683
0000a0 eb 05 b3 bd a2 ba c7 3d d3 7b a9 3e 24 14 d4 3e
       -0.08741363 0.09752394 0.33102283 0.41421616
0000b0 48 f2 ff 3e 68 e4 8c bd d5 cf c1 bd 3c ac 3f 3d
       0.49989533 -0.068795025 -0.09463469 0.046795115
0000c0 b0 50 97 3e 3f 1c e2 be 14 1a 02 3f 98 34 8e be
       0.29553747 -0.44162175 0.5082104 -0.277745
0000d0 ad 9d dd 3c 0c 1b cd bd d2 2c 64 3d 04 b3 f2 bd
       0.027052725 -0.100149244 0.055706806 -0.11850551
0000e0 0f 94 40 bc df 04 ec 3d 64 f1 d1 3e cc f5 6e be
       -0.01175405 0.115243666 0.4100448 -0.23335952
0000f0 a2 b8 2a be c0 a4 d1 be e1 77 0d bd fa 86 cf ba
       -0.16671994 -0.40946007 -0.034538154 -0.0015833073
000100 11 45 9f be 49 66 36 3e 4a 93 1c be 20 ca 5d 3e
       -0.3110738 0.17812456 -0.15290561 0.21659136
000110 5e d7 4f 3e 9c bd 1d 3e c2 ad 54 3e 84 52 68 3e
       0.20297 0.15404361 0.20769408 0.22687727
000120 91 ef 72 3e e3 9d db be 22 d6 b2 be 1b de 5a 3e
       0.237242 -0.42893896 -0.34928995 0.21373789
000130 02 d5 46 3e 97 26 b8 3e 07 50 a5 be 49 7f e0 be
       0.19417194 0.35966942 -0.3228762 -0.4384711
000140 33 3b 95 3e e2 11 20 3e 2a 88 d3 be 27 6d b5 be
       0.29146728 0.15631822 -0.41314822 -0.3543484
000150 30 d2 ff 3d 50 b9 8f 3e 66 52 a8 be 49 c3 a7 be
       0.12491262 0.2807107 -0.32875365 -0.32766178
000160 46 5e 14 be c2 57 10 3d 0b 5e 52 3e 60 55 6d 3e
       -0.14489087 0.035239942 0.20543687 0.23177099
000170 3e 98 a1 be b7 71 2a 3e 83 39 c3 3e 69 c0 84 3e
       -0.31561464 0.16644941 0.38129815 0.25928047
000180 ba e6 02 bf 9c 90 ff be ac f2 83 3e 17 44 64 3e
       -0.5113331 -0.49915016 0.2577108 0.22291599
000190 cf f9 6b be 95 2f 6b 3d 02 2b 8b 3e 09 b4 76 be
       -0.23044513 0.057418425 0.2718125 -0.24092115
0001a0 c3 5d 77 3e d5 54 a3 3e 87 f2 10 bd 7e 58 b4 be
       0.24156861 0.3190066 -0.035387542 -0.35223764
0001b0 ef fb 36 3e c1 d1 e1 3d c4 ae 91 3e 17 ad b7 be
       0.17869543 0.110263355 0.28453648 -0.35874245
0001c0 3d 5a d0 3e b6 b2 82 3d f8 2d 0c bd 19 43 9b be
       0.40693846 0.06381743 -0.034223527 -0.3032463
0001d0 42 83 e1 3e 3c fa 38 3e 85 50 7f be d2 ce 62 3e
       0.44045454 0.18064207 -0.2493306 0.22149208
0001e0 17 98 ae be 36 20 86 3e e5 95 bf 3e 4f fd 02 3f
       -0.3410041 0.2619645 0.37419048 0.5116777
0001f0 34 9d a0 3e ab f2 c2 3e 44 2c a3 be b8 56 86 3e
       0.31369936 0.38075766 -0.3186971 0.26238036
000200 24 04 90 3e 92 c1 99 3e e1 81 84 be 9f 66 24 3e
       0.2812816 0.30030495 -0.2588034 0.16054772
000210 d2 55 34 3e ba 8b d1 3c f0 05 0c be 93 e8 5c 3e
       0.17610863 0.025579322 -0.1367414 0.21573095
000220 49 58 00 3d 9c 1a f3 be b8 5d 94 3e 3c e2 84 bc
       0.031334195 -0.4748124 0.28977752 -0.016221158
000230 7b ec 3b be c2 f5 4a 3d 86 fa 5b 3d 51 67 e6 3d
       -0.18351929 0.04955078 0.053705715 0.11250175
000240 e1 95 87 be c1 2b cb be a8 50 4c 3d 5b 97 97 be
       -0.26481536 -0.3968182 0.049881607 -0.29607663
000250 77 6b b9 3d 8d 3f 87 3e 3e 86 3c bd 5c b2 a5 3e
       0.090537004 0.26415673 -0.04602646 0.3236264
000260 f3 81 cf be 56 1f 68 3e 9a 58 9f 3d 24 28 0d 3d
       -0.4052883 0.22668204 0.07780571 0.03446211
000270 0a 43 8f be ab 80 30 be 16 d2 59 be 41 0f d3 3e
       -0.27980834 -0.17236583 -0.21271548 0.41222575
000280 54 8e 4e bd 86 93 18 3d d0 52 00 3e 6b 76 1a bd
       -0.050428703 0.037250064 0.1253159 -0.03771059
000290 0f 14 d0 3e d5 2d 90 be 78 b5 49 bc 0e b9 2f be
       0.40640303 -0.28159967 -0.012311332 -0.17160437
0002a0 87 5e 2d be 9c 31 83 3d ca 6e c0 3e 21 cd cd 3e
       -0.1693059 0.064059466 0.37584525 0.40195563
0002b0 2a 08 d7 3e d3 75 84 bd a2 a9 4a bd 60 25 75 3d
       0.41998416 -0.06467786 -0.04947818 0.059850097
0002c0 46 d2 6d 3e f8 3e ba be fd 92 a6 3e aa c3 b2 be
       0.23224744 -0.36376166 0.32534018 -0.34914905
0002d0 5a 65 01 bd 91 c9 a7 bd 31 dc 52 3d c0 6b 69 be
       -0.031590797 -0.081927426 0.051479522 -0.2279501
0002e0 58 92 c3 bc 5c 96 ad 3d 21 cc 9d 3e fd 3f 89 bc
       -0.023873493 0.084759444 0.308198 -0.016754145
0002f0 c0 d3 58 be 65 60 d9 be 3a 89 59 bd 9c 71 3d bd
       -0.21174526 -0.42456356 -0.053109385 -0.046250924
000300 30 3c a4 be 41 10 a3 3e 83 18 22 be 0d 06 7f 3e
       -0.3207717 0.31848338 -0.15829663 0.24904652
000310 3e 48 27 3e a7 81 52 3e a3 c6 91 3e 12 72 5a 3e
       0.16336152 0.20557271 0.2847186 0.21332577
000320 31 de 57 3e eb 65 95 be 8c 28 e6 be f9 51 fa 3d
       0.21080853 -0.2917932 -0.4495281 0.12222666
000330 db cd 63 3e 02 72 cc 3d 6c 29 a8 be c2 6b ac be
       0.22246496 0.09982683 -0.32844102 -0.33675963
000340 a3 e4 74 3e a1 e9 28 3e fc 8c 4e be 04 9b bd be
       0.23915343 0.16495372 -0.20170969 -0.3703233
000350 60 ad a6 3e 97 5c b5 3e 65 32 da be d6 fb 85 be
       0.3255415 0.35422203 -0.42616573 -0.26168698
000360 0e ae 85 bd 7d b2 04 3d fe 19 3c 3e a2 a4 85 3e
       -0.06527339 0.032396782 0.1836929 0.26102167
000370 c4 03 87 be eb 3d 9d 3d d5 dd cc 3e 79 6e 94 3e
       -0.2637006 0.076778255 0.40012994 0.28990534
000380 68 80 b2 be 95 0a 61 be 29 5c a1 3e 14 4b 0a 3e
       -0.3486359 -0.21976693 0.31515625 0.13505203
000390 45 d6 59 be 54 88 1a 3e ab 86 87 3e 76 99 80 be
       -0.21273144 0.15091068 0.2646993 -0.2511708
0003a0 8c 29 88 3e 56 a1 91 3e df c3 82 3b d9 84 c5 be
       0.26594198 0.28443402 0.003990635 -0.38577917
0003b0 08 be ad 3d 7a d6 9d 3e 1d 70 2f bf 71 0d 74 be
       0.08483511 0.30827695 -0.68530446 -0.23833252
0003c0 19 9f 93 3e 7f e9 be 3c 41 eb 84 3a 20 9b 82 be
       0.2883232 0.023304699 0.0010140912 -0.25508976
0003d0 f9 8c 14 3e aa 04 1d 3e e2 a6 4c be f1 8c af 3e
       0.14506902 0.1533381 -0.19985536 0.34287217
0003e0 02 cc a5 be 42 30 3f 3e 8f 9c 8f 3e ec 1a 25 3e
       -0.32382208 0.18670753 0.28049132 0.16123551
0003f0 0e fe a3 3e cb a4 b6 3e 49 49 a5 be 8e db 89 3e
       0.32029766 0.35672602 -0.32282475 0.2692532

linear_layers.3.bias f4 [4]
000000 6c 52 4b 3a 13 03 1f 3e 7e af 90 bb fb 1a 93 3d
       0.0007756117 0.15528516 -0.0044154515 0.071828805
