models/model_1728761636430/model.pth (torch, 275575 bytes, 32 tensors)

conv_layers.0.0.conv.weight f4 [16, 2, 3, 3]
0	0xbd4000f2	-0.0468759
1	0x3d0fdf46	0.03512504
2	0xbea76edb	-0.32701764
3	0xbeb145d6	-0.34623593
4	0xbe30e7d2	-0.17275932
5	0x3d6c9da0	0.05776751
6	0xbe8cc8bb	-0.27496895
7	0x3e5de946	0.21671018
8	0xbe95c933	-0.29255065
9	0x3dbc9624	0.092083246
10	0x3db13daf	0.08654343
11	0xbe5cb5cd	-0.21553726
12	0xbe209377	-0.15681253
13	0x3e086947	0.1332141
14	0x3ce8f2b6	0.028436046
15	0x3db6ac09	0.08919532
16	0xbdc5c5b5	-0.0965685
17	0x3cd9ce82	0.026587728
18	0xbe029d27	-0.12755261
19	0xbe04ff26	-0.12987956
20	0xbc64e456	-0.013970455
21	0x3e2cec7f	0.16887091
22	0x3e0e41df	0.13892315
23	0xbe06f20c	-0.13178271
24	0x3e30f986	0.17282686
25	0x3e8ecdea	0.27891475
26	0x3d0562e1	0.032565
27	0xbdf8d3ef	-0.12149798
28	0xbdf2170b	-0.11820801
29	0xbe08be0d	-0.13353749
30	0x3d6e50bc	0.058182463
31	0x3c8fa458	0.01753442
32	0xbe6efd4b	-0.23338811
33	0x3c305831	0.010763214
34	0x3dcc4b65	0.09975318
35	0x3c166ace	0.009180738
36	0xbeb8c16b	-0.36085066
37	0x3e2e3e0f	0.17015861
38	0xbdf61d65	-0.12017325
39	0x3dff34fe	0.12461279
40	0x3b1b8826	0.0023732274
41	0x3e897aa7	0.2685139
42	0xbe8eee55	-0.27916208
43	0x3c1c7f37	0.009551815
44	0xbe1dd8f2	-0.1541479
45	0x3cea4784	0.028598554
46	0xbc7dcb24	-0.015490327
47	0x3e32e220	0.17469072
48	0xbe1451dd	-0.14484353
49	0x3ca8952e	0.020578947
50	0x3da2ce23	0.07949474
51	0x3bf3ab61	0.0074362014
52	0xbe276d57	-0.16350304
53	0xbea6256a	-0.3245042
54	0xbb09d241	-0.0021029862
55	0x3ea0993d	0.31366912
56	0x3e43838e	0.19093153
57	0xbae69491	-0.0017591884
58	0x3e40d912	0.18832806
59	0x3dc17dac	0.09447798
60	0x3e712dee	0.23552677
61	0x3e77bc38	0.24192894
62	0xbd30b224	-0.04313864
63	0x3b61a93e	0.0034433152
64	0xbe0bd184	-0.13654143
65	0x3dfa6fe3	0.12228372
66	0xbb0e0090	-0.0021667816
67	0xbdbdbc60	-0.09264445
68	0xbe16f401	-0.14741518
69	0x3b2775a6	0.0025552302
70	0x3e2a34a3	0.16621642
71	0x3da83521	0.082132585
72	0xbdb3c89a	-0.08778496
73	0x3d6868fd	0.05674075
74	0xbe115d7e	-0.1419582
75	0x3dc3deb7	0.09563964
76	0x3eb09389	0.3448756
77	0x3d409e99	0.04702625
78	0x3e844fb9	0.25842074
79	0xbdda263a	-0.106518224
80	0x3dc3a539	0.09552998
81	0x3d84971d	0.06474135
82	0x3d7b0ef1	0.061293546
83	0x3db82100	0.08990669
84	0xbdd16ad2	-0.102254525
85	0x3d8c5310	0.068517804
86	0x3d54ca0b	0.051950496
87	0xbda43cf5	-0.08019439
88	0x3e4eec6d	0.20207377
89	0xbe54b0a8	-0.20770514
90	0x3e2869f1	0.16446663
91	0x3d11d151	0.03560001
92	0xbe81fa09	-0.25386074
93	0x3ddd63a8	0.108100235
94	0xb9a47284	-0.00031365838
95	0xbe2010c0	-0.1563139
96	0xbd70f336	-0.058825694
97	0xbddc899c	-0.107684344
98	0xbd165e31	-0.03671092
99	0x3e257195	0.1615661
100	0xbe8d77fc	-0.27630603
101	0xbb970c3c	-0.0046096127
102	0x3dfd94ff	0.123819344
103	0x3e5da254	0.21643955
104	0xbdcc1a65	-0.09965972
105	0xbe159882	-0.14608958
106	0xbe65cb89	-0.22440924
107	0xbddaf578	-0.10691351
108	0x3d71aba0	0.059001565
109	0x3d14806c	0.036255285
110	0x3d15e08e	0.036591105
111	0x3c44090c	0.011965048
112	0xbe3eb3be	-0.18623254
113	0xbe9304b2	-0.2871452
114	0xbe552844	-0.20816141
115	0x3e249cd8	0.16075456
116	0xbe61087c	-0.21975893
117	0x3cdcfb79	0.02697538
118	0x3e0a440c	0.1350252
119	0xbdf5fd20	-0.120111704
120	0xbe85c0bd	-0.2612361
121	0xbe423913	-0.18967085
122	0xbb3b7b48	-0.0028607417
123	0x3d0abe9c	0.033873186
124	0xbe6aecad	-0.22941847
125	0xbd43c2be	-0.047793142
126	0x3e0fe974	0.14053899
127	0xbe3b194e	-0.18271372
128	0x3df7e8d4	0.12104955
129	0x3d25baa0	0.040461183
130	0x3e1b8184	0.15186125
131	0xbcb873e2	-0.022516195
132	0xbd17dda4	-0.037076607
133	0xbdad5bb4	-0.084647566
134	0xbe8b5036	-0.27209634
135	0xbe24300f	-0.16033958
136	0xbe6d4e4c	-0.23174399
137	0xbe937fc6	-0.2880842
138	0xbe50af6b	-0.20379417
139	0xbda9956a	-0.082804516
140	0x3e5539ca	0.20822826
141	0x3e0cf782	0.13766292
142	0xbdacb3c0	-0.08432722
143	0x3e681ed4	0.2266801
144	0xbe838d7d	-0.25693884
145	0xbe7ca59d	-0.24672551
146	0xbec2b0c5	-0.3802549
147	0xbe9162a4	-0.2839557
148	0x3e116959	0.14200343
149	0xbde2a3dd	-0.11066411
150	0x3d79db64	0.061000243
151	0x3e3170f8	0.1732825
152	0x3d69888b	0.057014983
153	0x3c24207f	0.010017513
154	0xbde7ca70	-0.11317909
155	0xbe6992ae	-0.2280986
156	0x3d98fb44	0.074698
157	0xbd952b04	-0.07283595
158	0x3e10d87f	0.14145087
159	0xbd3c4697	-0.045965757
160	0xbda6580f	-0.081222646
161	0xbe45f784	-0.19332701
162	0x3cea386c	0.028591357
163	0xbc9b5af1	-0.018964263
164	0x3df52ba7	0.11971217
165	0xbbecb3ee	-0.0072235977
166	0xbc058a33	-0.008150625
167	0xbe029b91	-0.12754656
168	0x3c883ac1	0.016629579
169	0x3e0a38c8	0.13498223
170	0x3e1c6023	0.15271048
171	0x3cf16cf3	0.029470896
172	0xbd6ee069	-0.058319483
173	0xbd26c78b	-0.040717643
174	0x3e244afd	0.16044231
175	0xbe9793f9	-0.29605082
176	0x3d446295	0.047945578
177	0xbe90d999	-0.28291014
178	0xbe7a1b3a	-0.24424449
179	0x3e31448e	0.17311308
180	0xbe5949c9	-0.21219553
181	0xbe6473a3	-0.22309737
182	0x3d0480ed	0.032349516
183	0xbe175181	-0.14777185
184	0x3e1973e8	0.14985621
185	0xbd4060f4	-0.04696746
186	0xbe8c15db	-0.27360424
187	0xb9b9578e	-0.00035351183
188	0xbdfd230c	-0.123602
189	0x3d3fe607	0.04685023
190	0x3dc7c107	0.09753614
191	0x3d35ec81	0.044415
192	0xbe2b1e95	-0.16710885
193	0x3da7ed0b	0.08199509
194	0xbe3c7ada	-0.18406239
195	0xbe29f134	-0.16595918
196	0x3e128605	0.14308937
197	0xbddfa0aa	-0.10919316
198	0x3e080f0f	0.13286994
199	0x3db354d2	0.087564126
200	0x3e126aaf	0.14298509
201	0x3e009a84	0.12558943
202	0x3ec7ea97	0.39046165
203	0x3da34b43	0.079733394
204	0x3da38acd	0.079854585
205	0x3e26d9ca	0.16294017
206	0xbbaf9899	-0.005358767
207	0x3debf8f7	0.11522096
208	0xbd9836aa	-0.07432301
209	0xbdff9368	-0.124792874
210	0x3d9552b7	0.07291167
211	0x3d8cb6f3	0.06870832
212	0x3da453e3	0.080238126
213	0xbd430ed2	-0.047621556
214	0xbe0fcd3b	-0.14043133
215	0x3d5f7e61	0.054563884
216	0xbd9a1195	-0.07522885
217	0xbe0e5b1b	-0.13901941
218	0x3d61f412	0.055164404
219	0x3d7b9bcc	0.061427876
220	0xbcf31b08	-0.029675975
221	0x3e52ce5a	0.2058653
222	0x3ce2618a	0.0276344
223	0xbe0f0bbf	-0.13969325
224	0x3e2c0556	0.1679891
225	0x3dbede71	0.09319771
226	0xbe778067	-0.24170075
227	0x3c72c61b	0.01481774
228	0xb9a22c9f	-0.00030932293
229	0xbcacc0fd	-0.021088118
230	0xba623496	-0.0008629052
231	0xbde5180a	-0.11186226
232	0x3cd55bd5	0.026044765
233	0x3b0cd18a	0.00214872
234	0x3ea8121e	0.32826322
235	0x3e18bc1c	0.14915508
236	0x3e3e356c	0.18575066
237	0xbdf6ecd5	-0.12056891
238	0x3b25aa85	0.002527864
239	0x3de2a88e	0.110673055
240	0xbd9ecb20	-0.07753587
241	0x3eb1ccab	0.34726462
242	0x3e58e253	0.21180086
243	0xbe202576	-0.1563929
244	0x3e2d89a7	0.16947041
245	0x3d3f1142	0.046647318
246	0x3d1675bd	0.036733378
247	0xbdf84767	-0.12122994
248	0x3cbe70f9	0.023247229
249	0x3de13c13	0.109977864
250	0xbe310650	-0.17287564
251	0x3d27a3f3	0.04092784
252	0xbd463ec5	-0.048399705
253	0x3e371d57	0.17882286
254	0x3e670346	0.22559842
255	0xbe805dda	-0.25071603

conv_layers.0.1.weight f4 [16]
0	0x3f7529cf	0.9576692
1	0x3f81cbb5	1.0140291
2	0x3f7e2a7e	0.9928359
3	0x3f79aac7	0.9752621
4	0x3f785a44	0.97012734
5	0x3f7e20fd	0.99269086
6	0x3f82cdae	1.0219018
7	0x3f78e405	0.9722293
8	0x3f860b86	1.0472267
9	0x3f7f8b78	0.9982219
10	0x3f826b0f	1.0188922
11	0x3f7bf683	0.9842302
12	0x3f833c54	1.0252786
13	0x3f83f7f9	1.031005
14	0x3f756632	0.9585906
15	0x3f7b2ea3	0.98118037

conv_layers.0.1.bias f4 [16]
0	0x3caddf6f	0.021224706
1	0xbcf72bc0	-0.030172229
2	0x3dee29bc	0.11629054
3	0x3d917fce	0.07104455
4	0xbd2e2212	-0.04251296
5	0x3d909699	0.07059974
6	0x3d86ca2e	0.065815315
7	0x3d17865f	0.03699338
8	0x3d852e40	0.06502962
9	0xbd84c848	-0.06483513
10	0x3d528a8e	0.051401667
11	0xb9bf8d30	-0.00036535552
12	0xbe13b6cd	-0.14425202
13	0x3d6582e4	0.05603303
14	0xbe042469	-0.12904514
15	0x3cc583bc	0.024110667

conv_layers.0.1.running_mean f4 [16]
0	0xba1eb25b	-0.0006053799
1	0xb96ad950	-0.00022396934
2	0xba098b84	-0.00052469247
3	0x3a21769f	0.00061593385
4	0x39e9dee8	0.000446073
5	0xba0c0bf4	-0.00053423573
6	0xba7fd116	-0.0009758634
7	0xba15be5e	-0.0005712266
8	0xba7a026c	-0.0009537104
9	0xb9cdb021	-0.00039231873
10	0xba2b498c	-0.00065340917
11	0x3a22ef7c	0.00062154955
12	0xb9405836	-0.00018343408
13	0x3a1130a0	0.0005538557
14	0xb8548fa2	-5.0678507e-05
15	0xb917848c	-0.0001444986

conv_layers.0.1.running_var f4 [16]
0	0x3876ac36	5.8811354e-05
1	0x3838a744	4.4024797e-05
2	0x388db2f5	6.756737e-05
3	0x382d1e51	4.127465e-05
4	0x382e41b9	4.154604e-05
5	0x388ff32a	6.864064e-05
6	0x388d636d	6.7419234e-05
7	0x38a68206	7.9397156e-05
8	0x3889dbb1	6.57359e-05
9	0x388485ba	6.319159e-05
10	0x384ff8ac	4.958424e-05
11	0x38165561	3.5842302e-05
12	0x37d13118	2.4937603e-05
13	0x38410c18	4.602605e-05
14	0x3826ffb8	3.981564e-05
15	0x384efd90	4.9350376e-05

conv_layers.2.0.conv.weight f4 [32, 16, 3, 3]
0	0x3d0d5137	0.03450128
1	0x3d3f17f1	0.04665369
2	0xbda21b33	-0.07915344
3	0x3d0ea62a	0.034826435
4	0xbd72de3a	-0.059293963
5	0xbcf1228d	-0.02943542
6	0x3cd81291	0.02637604
7	0xbd2281fb	-0.03967474
8	0xbcdd2e85	-0.026999721
9	0x3ca6972b	0.020335754
10	0xbc5cc513	-0.0134747205
11	0xbc924317	-0.017854257
12	0x3de5572e	0.11198269
13	0x3bce77b0	0.006300889
14	0xbd0c69e1	-0.03428066
15	0x3c973d09	0.018461721
16	0x3cc22056	0.02369706
17	0x3d06651d	0.032811273
18	0x3ced4b36	0.028966527
19	0xbdec3ae6	-0.115346715
20	0x3cf1871d	0.029483372
21	0x3db948ae	0.09047066
22	0xbd676213	-0.056490015
23	0xbdae5596	-0.08512418
24	0xbd30769b	-0.04308186
25	0xbd40bd08	-0.047055274
26	0x3bcaefbc	0.0061931293
27	0xbc03e9ed	-0.008051378
28	0xbce935bc	-0.028468005
29	0xbda15e6e	-0.07879339
30	0x3d584530	0.052800357
31	0x3adb0ff3	0.0016713127
32	0xbd616087	-0.055023696
33	0x3d9b339b	0.07578202
34	0xbd6618be	-0.05617594
35	0xbdc6516c	-0.09683499
36	0xbcd5227f	-0.026017426
37	0xbb8c7681	-0.0042865877
38	0xbd9a4ee0	-0.075345755
39	0x3c1d2d74	0.009593356
40	0x3cc0b5a6	0.023524117
41	0x3cd545e2	0.0260343
42	0xbd35d647	-0.044393804
43	0xbcfd5d76	-0.030928355
44	0xbd8b0ee8	-0.067899525
45	0xbdae535a	-0.08511992
46	0xbdd0aa53	-0.10188737
47	0xbc3aaaa2	-0.011393221
48	0x3bdbe8c2	0.0067110965
49	0x3d175ecf	0.03695565
50	0x3d792a3a	0.060831286
51	0x3d7cf565	0.061757464
52	0x3cfa8309	0.03058006
53	0x3bf6a5c3	0.0075270846
54	0xbd0fc536	-0.035100184
55	0x3d6fc1a5	0.058534283
56	0x3d836c43	0.06417134
57	0xbc8a0d95	-0.01685218
58	0xbda21e9a	-0.07915993
59	0x3b5e5460	0.0033924803
60	0x3dcd70d2	0.100312844
61	0xbc3bcceb	-0.0114624305
62	0x3c656894	0.014001984
63	0xbd79b0ea	-0.060959734
64	0xbd8abba9	-0.067740746
65	0xbbe75d17	-0.0070606577
66	0x3d1b11ed	0.037858892
67	0xbdb7247d	-0.089425065
68	0xbc121193	-0.008915323
69	0x3cfb1941	0.03065169
70	0xbd74d8b7	-0.059776988
71	0x3db8425c	0.08997032
72	0x3ca68df6	0.020331364
73	0xbd22c62f	-0.039739784
74	0xbd09ac72	-0.033611722
75	0x3d98f057	0.07467716
76	0x3ddbd8d0	0.10734713
77	0xbbfe1105	-0.0077534937
78	0x3cb9daec	0.022687398
79	0x3e1182bb	0.14210026
80	0x3d2e87cb	0.04260997
81	0x3c53c5e5	0.0129256
82	0xbda30e02	-0.07961656
83	0xbda5e62a	-0.08100541
84	0x3de6edbe	0.112758145
85	0xbcff7b2d	-0.031186664
86	0x3c9df05b	0.01927965
87	0x3da4860a	0.080333784
88	0x3da6620f	0.08124172
89	0xbdb36f92	-0.08761515
90	0x3d6089be	0.05481886
91	0xbce3627a	-0.027756918
92	0x3ce1c3ed	0.027559245
93	0xbd6221fb	-0.055208188
94	0x3cb89da9	0.022536116
95	0x3d05e4b1	0.0326888
96	0x3d9e8e5a	0.07741995
97	0xbc9f69fa	-0.019459713
98	0x3b943083	0.0045223846
99	0xbe07ef4e	-0.13274881
100	0xbdd682f2	-0.104741946
101	0xbd5bcccc	-0.053662106
102	0x3cd22ac5	0.02565516
103	0x3d996414	0.074897915
104	0x3c62e7b7	0.01384919
105	0xbd494ea5	-0.049147267
106	0x3d52c160	0.051453948
107	0xbe06b874	-0.13156301
108	0x3d17a5fb	0.037023526
109	0xbd0db803	-0.034599315
110	0xbd975a94	-0.07390323
111	0xbc7fcf36	-0.015613368
112	0x3d1c5812	0.038169928
113	0x3d8068b6	0.06269972
114	0xbd0e82d3	-0.034792732
115	0xbdb3a8d0	-0.08772433
116	0xbd753b97	-0.059871282
117	0x3c748e20	0.014926463
118	0x3d6520c8	0.055939466
119	0xbdf1220e	-0.117740735
120	0x3d06eea2	0.03294242
121	0x3cf5cc7f	0.030004738
122	0xbd83a44d	-0.06427822
123	0x3dcf7b9c	0.101309985
124	0x3d70bb15	0.058772165
125	0xbd0b1677	-0.03395697
126	0x3d8b7faf	0.06811463
127	0x3c5d7746	0.013517207
128	0x3bd04816	0.0063562496
129	0xbcf9d228	-0.030495718
130	0xbc81ecc9	-0.015859978
131	0xbdbd5118	-0.09243983
132	0xbcc1017b	-0.023560276
133	0x3d50649f	0.05087721
134	0x3cac35fc	0.021021836
135	0xbe020ef1	-0.12701012
136	0xbdbac37a	-0.091193154
137	0xbd9c3b9e	-0.076285586
138	0x3d527a1d	0.051385988
139	0x3ac90e10	0.0015339274
140	0x3bdd3b23	0.0067514344
141	0x3d9eb788	0.077498496
142	0xbd5f59c6	-0.054528974
143	0xbd5d98f8	-0.05410096
144	0x3d95bd95	0.073115505
145	0x3c4e68fb	0.0125982715
146	0xbd652ce3	-0.05595101
147	0x3b552138	0.003252102
148	0xbdacd8a6	-0.0843976
149	0x3d076612	0.033056326
150	0x3cb88e50	0.022528797
151	0x3d7c26cd	0.06156044
152	0x3d02b74a	0.03191308
153	0xbda5eff8	-0.08102411
154	0xbdc3794b	-0.09544619
155	0x3dc2f65c	0.095196456
156	0x3daaa9b2	0.08333148
157	0xbd2b89a5	-0.041879315
158	0xbd0826e2	-0.033240207
159	0x3d642623	0.055700433
160	0x3dab7048	0.08371025
161	0x3df64d76	0.12026493
162	0x3d9a80dc	0.07544109
163	0x3d673db7	0.05645534
164	0x3c82bb65	0.015958497
165	0xbd49d592	-0.049275942
166	0x3c153f01	0.00910926
167	0xbcd0c4b1	-0.025484415
168	0x3d0c3100	0.034226418
169	0x3bae64ea	0.0053220885
170	0xbdd5d3ec	-0.104408115
171	0x3d02c0cb	0.031922143
172	0x3d4ae411	0.049533907
173	0xbd84d6be	-0.06486271
174	0x3d4b5d19	0.04964933
175	0xbcca8e6b	-0.024726113
176	0x3b4a641e	0.0030882428
177	0x3d990c4f	0.07473051
178	0x3d7c1933	0.06154747
179	0x3c2e525b	0.010639752
180	0x3d8706ef	0.06593119
181	0xbdcba6d6	-0.09943931
182	0xbd92af19	-0.071623035
183	0xbda8f438	-0.08249706
184	0x3cfd1474	0.030893542
185	0xbd671704	-0.056418434
186	0xbd69a396	-0.057040773
187	0x3d148265	0.036257166
188	0xbbb129f6	-0.0054066135
189	0x3db772ba	0.08957429
190	0xbd95e3f8	-0.07318872
191	0x3d2b97c6	0.04189279
192	0xbd5506a1	-0.052008275
193	0x3c62bda1	0.013839156
194	0xbd089047	-0.03334072
195	0xbddc842b	-0.107673965
196	0x3bffcab2	0.0078061456
197	0xbc7b3fd4	-0.015335042
198	0xbc039eea	-0.0080334935
199	0x398018d2	0.00024432555
200	0xbd090a44	-0.033457056
201	0xbc9330ae	-0.017967548
202	0xbdafa463	-0.08576276
203	0x3d84e258	0.06488484
204	0xbd01340e	-0.031543784
205	0xbc066cd1	-0.008204655
206	0xbd4096ad	-0.047018696
207	0xbda9bf2a	-0.08288415
208	0x3d3fdea6	0.046843193
209	0xbdd6bd04	-0.104852706
210	0xbdbd17d0	-0.092330575
211	0xbd62c1ca	-0.055360593
212	0xbcd74eb1	-0.02628264
213	0xbc7a2035	-0.015266468
214	0x3da3ab53	0.07991662
215	0xbb2d53b9	-0.0026447608
216	0xba1b8548	-0.0005932641
217	0xbdd35997	-0.10319822
218	0x3c91acde	0.017782625
219	0xbe05d889	-0.13070883
220	0xbe17736c	-0.14790124
221	0xbd9ff1ed	-0.078098156
222	0x3d869553	0.0657145
223	0x3d93716c	0.07199368
224	0x3d5d1c0f	0.053981837
225	0x3cff7746	0.031184804
226	0xbbe558b0	-0.0069990978
227	0x3d4020b0	0.046906173
228	0x3dcafd79	0.09911627
229	0xbd99d108	-0.07510573
230	0x3dac4ce8	0.08413106
231	0x3e16977e	0.14706227
232	0xbc62881a	-0.013826394
233	0xba7c5d66	-0.00096269546
234	0x3cc16094	0.023605622
235	0x3c9cceec	0.019141637
236	0xbdb5773c	-0.08860633
237	0x3d6438bd	0.055718172
238	0x3c088728	0.008333005
239	0xbc537d85	-0.012908344
240	0xbe297c5a	-0.16551343
241	0xbd55904e	-0.052139573
242	0xbdfda846	-0.12385611
243	0xbbf74f60	-0.007547304
244	0xbda1f04a	-0.079071596
245	0x3d8e9d20	0.06963563
246	0xbc498de9	-0.0123019
247	0xbcb578e7	-0.022152377
248	0xbd07f7d7	-0.033195343
249	0xbd876ee1	-0.06612945
250	0x3d63a01f	0.055572625
251	0xbd9ae615	-0.07563416
252	0x3c80ab81	0.01570678
253	0xbd4c7a74	-0.049921468
254	0x3d9b391b	0.075792514
255	0xbd2793ee	-0.04091256

conv_layers.2.1.weight f4 [32]
0	0x3f761eb2	0.9614059
1	0x3f7a57fa	0.9779049
2	0x3f828c69	1.01991
3	0x3f835ee4	1.0263333
4	0x3f7fe2d3	0.9995548
5	0x3f8a9da7	1.0829362
6	0x3f80ab18	1.0052214
7	0x3f6d975d	0.9280909
8	0x3f81a6a3	1.0128978
9	0x3f756023	0.9584982
10	0x3f7a3737	0.977405
11	0x3f89324a	1.0718472
12	0x3f7c0826	0.98449934
13	0x3f7da682	0.99082196
14	0x3f8461fc	1.0342402
15	0x3f84e233	1.038153
16	0x3f800a2e	1.0003107
17	0x3f7f915d	0.9983118
18	0x3f74b677	0.9559092
19	0x3f823982	1.01738
20	0x3f845392	1.0338004
21	0x3f80e8f4	1.0071092
22	0x3f86520e	1.0493791
23	0x3f7fee5d	0.9997309
24	0x3f7eb322	0.99492085
25	0x3f8060e3	1.0029567
26	0x3f8217c0	1.0163498
27	0x3f8380fd	1.0273739
28	0x3f81afa7	1.013173
29	0x3f7a8f23	0.9787466
30	0x3f7e0c4c	0.99237514
31	0x3f7efa0b	0.99600285

conv_layers.2.1.bias f4 [32]
0	0x3b462d13	0.0030239269
1	0xbc399f22	-0.011329444
2	0xbd4e9151	-0.050431553
3	0x3e27d60e	0.16390249
4	0xbdc60f45	-0.09670881
5	0x3dc41d01	0.095758446
6	0xbdae677c	-0.08515832
7	0xbe450444	-0.19239908
8	0xbc1daf37	-0.009624294
9	0xbe21f88a	-0.15817466
10	0x3b949526	0.0045343814
11	0x3d792e73	0.060835313
12	0xbe05d94c	-0.13071173
13	0xbdc6bc7f	-0.097039215
14	0x3dfa1b0e	0.122121915
15	0x3d6fe9c5	0.05857255
16	0x3c33266e	0.010934455
17	0xbd9f66ed	-0.077833034
18	0x3c86776b	0.016414365
19	0x3d7e5e4d	0.06210165
20	0x3e1b585a	0.15170422
21	0xbd84e4f2	-0.0648898
22	0x3dd51fb2	0.10406436
23	0x3d672b84	0.056437984
24	0x3d92912d	0.07156596
25	0xbdc686e3	-0.09693696
26	0xbb87aca6	-0.0041404543
27	0x3da13458	0.07871312
28	0xbe1cd9bd	-0.15317436
29	0xbd6df043	-0.05809046
30	0x3db90679	0.09034438
31	0x3d8ccaca	0.068746164

conv_layers.2.1.running_mean f4 [32]
0	0xbcfb2219	-0.030655907
1	0xbdf8233c	-0.121160954
2	0xbe226def	-0.15862249
3	0xbcb01673	-0.02149508
4	0xbc95059a	-0.018191148
5	0xbd9d2b40	-0.07674265
6	0x3db5c92f	0.08876263
7	0xbeb32cde	-0.34995168
8	0x3dca7932	0.098863974
9	0xbe849bb8	-0.25900054
10	0x3d866e1d	0.06563971
11	0xbdbcce53	-0.09219041
12	0xbd3dd388	-0.04634431
13	0xbdb352f7	-0.08756059
14	0xbe143445	-0.14473064
15	0x3c479940	0.012182534
16	0xbe8753e3	-0.26431188
17	0xbd8efb79	-0.06981558
18	0xbda38d05	-0.07985882
19	0xbdf87106	-0.121309325
20	0xbe15667b	-0.14589874
21	0x3e98ea6a	0.29866344
22	0xbcfef1f2	-0.031121228
23	0x3e133f4c	0.14379615
24	0xbdfe54b3	-0.12418499
25	0xbc0aef19	-0.008479857
26	0xbdda488a	-0.10658367
27	0xbda6fb8c	-0.081534475
28	0x3d95dea7	0.07317858
29	0xbcfd67ab	-0.030933222
30	0xbd5f524d	-0.054521848
31	0x3d89303d	0.06698654

conv_layers.2.1.running_var f4 [32]
0	0x3e545ae5	0.20737799
1	0x3da18e7c	0.07888505
2	0x3e335284	0.17511946
3	0x3e6380a0	0.22217035
4	0x3e095f79	0.13415326
5	0x3eefb2f2	0.46816212
6	0x3dbb46b6	0.091443464
7	0x3de589b6	0.11207907
8	0x3e4192b3	0.18903618
9	0x3e155a83	0.14585309
10	0x3ed709a0	0.4199953
11	0x3e80786d	0.25091878
12	0x3dfab47f	0.12241458
13	0x3e1d332f	0.15351556
14	0x3eecedfb	0.46275315
15	0x3e105654	0.14095432
16	0x3e1c2d3e	0.15251634
17	0x3e1e92ea	0.15485731
18	0x3e2b605a	0.16735974
19	0x3e89d153	0.26917514
20	0x3e9fd543	0.31217393
21	0x3dffc722	0.124891534
22	0x3e086a6b	0.13321845
23	0x3e1d2e2b	0.15349643
24	0x3eaa41d5	0.3325335
25	0x3e89d5e8	0.2692101
26	0x3e21a544	0.157857
27	0x3e972f94	0.29528487
28	0x3ebe3d54	0.37156165
29	0x3e0b1b66	0.1358467
30	0x3e394650	0.18093228
31	0x3ed96c19	0.42465284

conv_layers.3.conv1d.weight f4 [1, 1, 3]
0	0xbfad1c3a	-1.3524239
1	0xbed8fbbd	-0.4237956
2	0xbf07f1cb	-0.5310332

conv_layers.5.0.conv.weight f4 [32, 32, 3, 3]
0	0x3d88da4d	0.066822626
1	0xbd6453c1	-0.055743936
2	0x3c8548bb	0.016270032
3	0xbd33e1d0	-0.043916523
4	0xbcfcc2e4	-0.03085465
5	0x3c8fbc51	0.017545851
6	0xbc2298e3	-0.009924146
7	0x3d550e5e	0.052015655
8	0xbcfd6b93	-0.030935084
9	0xbdf05984	-0.11735824
10	0xbc771d7a	-0.015082711
11	0x3ced0d88	0.028937116
12	0x3c3a64df	0.011376589
13	0xbbe4e7a3	-0.006985621
14	0x3c6aa45b	0.014321412
15	0x3d0a7c28	0.03380981
16	0xbd122773	-0.035682153
17	0x3d2606f8	0.04053399
18	0xbcbf6ded	-0.023367846
19	0x3d211a46	0.039331697
20	0x3cc8da16	0.024518054
21	0x3dc858e0	0.097825766
22	0x3d8ca7b8	0.06867927
23	0x3db887f9	0.0901031
24	0x3e077620	0.13228655
25	0x3dde8171	0.10864533
26	0x3da02f18	0.078214824
27	0xbc905761	-0.01761979
28	0x3ce29a8b	0.027661582
29	0xbcb29299	-0.021798419
30	0xbd3fc01a	-0.04681406
31	0xbc8199fb	-0.015820494
32	0xbd31aa50	-0.043375313
33	0x3b073ed4	0.0020636814
34	0xbc4d57e4	-0.012533162
35	0x3dd03f07	0.101682715
36	0xbd359718	-0.044333547
37	0xbd029576	-0.03188082
38	0x3cf69d1c	0.030104212
39	0xbd3a6a48	-0.045511514
40	0xb9ac24f3	-0.00032833926
41	0xbc9917d3	-0.018688118
42	0x3c7c41ad	0.015396518
43	0x3d8ec555	0.06971232
44	0xbd756bb1	-0.059917156
45	0xbd9f5f87	-0.07781892
46	0xbdee4274	-0.11633769
47	0xbde2530e	-0.11050998
48	0xbd78e348	-0.060763627
49	0xbc8ed68e	-0.017436292
50	0xbd3e8962	-0.046517737
51	0xbd463d90	-0.048398554
52	0xbe02fdb5	-0.12792094
53	0xbd81c7b7	-0.06336921
54	0xbcb7f55b	-0.022455862
55	0xbd905b99	-0.07048721
56	0xbbed714b	-0.0072461716
57	0xbd9e844d	-0.07740078
58	0xbd1cc154	-0.03827031
59	0xbc953ed3	-0.018218433
60	0xbdbde2c5	-0.092717685
61	0xbc732a26	-0.014841592
62	0xbd231d9c	-0.03982316
63	0x3ce369e8	0.027760461
64	0x3d323249	0.043504987
65	0x3d32f76b	0.043692987
66	0xbc6c9f07	-0.014442212
67	0x3cc12be1	0.023580493
68	0x3daefa3f	0.085438244
69	0x3da827d9	0.08210725
70	0x3cc1409c	0.023590378
71	0x3d834336	0.06409304
72	0xbd1578d0	-0.03649217
73	0x3d60f278	0.054918736
74	0xba4e4db4	-0.0007869855
75	0xbd404b13	-0.046946596
76	0xbd6200af	-0.055176433
77	0xbd1e5353	-0.038653683
78	0xbd57d67b	-0.05269478
79	0x3c2720ff	0.010200738
80	0xbd9aeb50	-0.075644135
81	0xbd68fc9b	-0.05688153
82	0xbc6ef184	-0.014583949
83	0x3d8b36f6	0.06797592
84	0x3d74529a	0.059649087
85	0x3c10a4a3	0.008828315
86	0x3db45a7a	0.088063195
87	0x3d166594	0.036717966
88	0x3cb15136	0.02164517
89	0x3da66e26	0.08126478
90	0xbcc01d19	-0.023451375
91	0xbd93edd8	-0.072230995
92	0x3b3ab398	0.0028488394
93	0xbdfd3498	-0.12363547
94	0xbdbd9a15	-0.092579044
95	0xbdcc8603	-0.09986498
96	0xbd03df79	-0.032195542
97	0xbde3aa88	-0.11116511
98	0xbd159b72	-0.036525197
99	0xbdbd4b0e	-0.09242831
100	0xbdd90a23	-0.105976366
101	0xba85a740	-0.0010196939
102	0xbd9d7527	-0.07688361
103	0xbdb0800d	-0.08618174
104	0xbe0036e9	-0.12520947
105	0xbba61b11	-0.0050691445
106	0xbd80cf90	-0.062895894
107	0xbcc8323e	-0.02443802
108	0xbdc305e7	-0.0952261
109	0xbb059a7b	-0.0020386267
110	0xbbf02bd4	-0.0073294435
111	0x3c913fd5	0.017730633
112	0xbd18ca4a	-0.037302293
113	0xbc99c34a	-0.018769879
114	0xbddaf4bb	-0.1069121
115	0xbd84b407	-0.0647965
116	0xbc926088	-0.017868295
117	0xbd908b37	-0.07057803
118	0xbc02dac2	-0.007986726
119	0xbd008f62	-0.03138674
120	0xbd95a5fd	-0.073070504
121	0xbd3b5fa4	-0.045745507
122	0xbd574aaf	-0.05256146
123	0x3ba20c10	0.0049452856
124	0x3c42c302	0.011887314
125	0x3d92bbe1	0.07164741
126	0xbd51f25d	-0.051256526
127	0xbd493553	-0.04912312
128	0xbbc05ebc	-0.005870668
129	0x3cf5e912	0.030018363
130	0xbd0a047c	-0.033695683
131	0xbd952c12	-0.07283796
132	0xbc826e22	-0.015921656
133	0xbd1fe128	-0.039033085
134	0xbd4df2dc	-0.050280437
135	0xbd360ebe	-0.044447653
136	0xbcc4aca0	-0.024008095
137	0xbcaee468	-0.021349147
138	0x3c18c0ce	0.009323312
139	0xbd65071d	-0.055914987
140	0xbcbe3944	-0.023220666
141	0xbcfe0235	-0.031006912
142	0xbd40589e	-0.046959512
143	0xbc63231e	-0.013863353
144	0x3d8e3498	0.06943625
145	0xb921dd07	-0.00015436496
146	0x3df316ee	0.11869608
147	0x3dd1cb27	0.10243826
148	0x3d2c9f7c	0.042144284
149	0x3d2b958e	0.041890673
150	0x3e09ffc6	0.13476476
151	0x3dcfa6c4	0.1013923
152	0x3d9a369b	0.075299464
153	0xbd00eb67	-0.031474497
154	0xbce5a965	-0.028034875
155	0x3c5790cb	0.01315708
156	0xbdbb5a59	-0.09148092
157	0xbd2428d8	-0.040078014
158	0xbd2e6c90	-0.042584002
159	0xbc017117	-0.007900498
160	0xba445361	-0.0007489231
161	0x3cc9186a	0.024547774
162	0xbdaada45	-0.08342413
163	0xbd74054d	-0.059575368
164	0x3dc29224	0.0950053
165	0xbd27d9ea	-0.040979303
166	0xbcb99e57	-0.02265851
167	0xbdb74166	-0.08948021
168	0xbd6e13d5	-0.058124382
169	0xbd08570f	-0.03328615
170	0x3cec47dc	0.028842859
171	0xbd40e5b2	-0.047094055
172	0xbcaebb22	-0.021329466
173	0xbd2e09a0	-0.042489648
174	0xbdd81a26	-0.105518624
175	0xbdcb3634	-0.09922448
176	0xbe188b2b	-0.14896838
177	0xbd8a8bcd	-0.06764946
178	0xbbcf83dd	-0.006332858
179	0xbdf2aac4	-0.11848977
180	0x3d66154e	0.05617266
181	0x3a83c011	0.0010051747
182	0xbca6521e	-0.020302828
183	0x3c289935	0.010290434
184	0xbcb63d9a	-0.02224617
185	0xbd52a900	-0.051430702
186	0x3be54391	0.00699658
187	0xbd97b15c	-0.074068755
188	0xbd682776	-0.056678258
189	0x3d91984f	0.07109129
190	0x3dca1b6e	0.09868513
191	0x3d186906	0.037209533
192	0x3c957cf5	0.01824806
193	0xbd92d17a	-0.07168861
194	0xbd9de092	-0.07708849
195	0x3d3acbf1	0.04560465
196	0xbceb28be	-0.02870595
197	0xbd0cba14	-0.034357145
198	0xbdac4d8d	-0.08413229
199	0x3d721b94	0.05910833
200	0xbd9dc5b6	-0.07703726
201	0xbdd08083	-0.10180762
202	0xbd66da70	-0.056360662
203	0xbd871cf2	-0.06597318
204	0x3cd54bf3	0.026037192
205	0x3b85a23f	0.004078179
206	0x3d2510c8	0.040299207
207	0xbdfdafd2	-0.12387051
208	0xbd8ebdfb	-0.0696983
209	0xbde70110	-0.112794995
210	0xbcb34112	-0.021881614
211	0xbd342275	-0.043978173
212	0xbb931a95	-0.004489253
213	0xbd691998	-0.056909174
214	0xbd8c780a	-0.06858833
215	0xbbdf2ca8	-0.0068107434
216	0xbde51a37	-0.11186641
217	0xbdb3f1ff	-0.087863915
218	0xbd3ec6b0	-0.046576202
219	0xbdaeeff4	-0.08541861
220	0xbd8d2f7e	-0.06893824
221	0xbe2191e7	-0.15778314
222	0xbd0bd088	-0.034134418
223	0xbde90957	-0.113787346
224	0xbc6e36c5	-0.014539425
225	0xbcf9eb0c	-0.030507587
226	0xbd255dcd	-0.04037266
227	0x3cd138c8	0.02553977
228	0xbcf05f7d	-0.029342407
229	0xbd08c200	-0.033388138
230	0xbb47e9a5	-0.0030504253
231	0x3cba1162	0.022713367
232	0xbda1a23e	-0.07892273
233	0xbd761218	-0.06007585
234	0x3abd6488	0.0014449516
235	0xbcaa58fd	-0.020794386
236	0xbb8e08c1	-0.0043345396
237	0xbd9cc200	-0.0765419
238	0x3ce1ac1f	0.027547894
239	0x3b1983cd	0.0023424507
240	0xbca65322	-0.020303313
241	0xbd126f01	-0.035750393
242	0x3c65a770	0.014016971
243	0x3dc893cd	0.09793816
244	0x3cc84133	0.024445152
245	0xbd4ecabd	-0.050486315
246	0x3cc325b0	0.023821682
247	0xbd044e53	-0.03230126
248	0xbdae52e2	-0.085119024
249	0xbc3a0afa	-0.011355156
250	0xbd307267	-0.043077853
251	0xbda36be6	-0.07979564
252	0xbcfe3177	-0.031029446
253	0xbd9abb50	-0.07555258
254	0x3d1e9a03	0.038721096
255	0xbdba7d29	-0.09105904

conv_layers.5.1.weight f4 [32]
0	0x3f84f0ca	1.0385983
1	0x3f8038c2	1.0017321
2	0x3f68822d	0.9082363
3	0x3f5d01d6	0.86330926
4	0x3f58e7e5	0.8472884
5	0x3f6d6be5	0.9274276
6	0x3f810d6a	1.0082219
7	0x3f739efa	0.95164454
8	0x3f7ddeba	0.9916798
9	0x3f8841d5	1.064509
10	0x3f6ab551	0.91682917
11	0x3f81a4aa	1.0128376
12	0x3f83dc6e	1.0301645
13	0x3f708555	0.9395345
14	0x3f6fa207	0.9360661
15	0x3f71f5d4	0.9451573
16	0x3f752f68	0.9577546
17	0x3f801d64	1.0008969
18	0x3f81ffd0	1.0156193
19	0x3f81637f	1.0108489
20	0x3f6f8ea8	0.9357705
21	0x3f62bcb1	0.8856917
22	0x3f844133	1.0332397
23	0x3f60dbd9	0.8783546
24	0x3f87932d	1.059179
25	0x3f704b86	0.9386524
26	0x3f599bd1	0.8500338
27	0x3f5b1d93	0.85592
28	0x3f830782	1.0236666
29	0x3f63a03f	0.8891639
30	0x3f55ac48	0.83466005
31	0x3f793ab3	0.9735519

conv_layers.5.1.bias f4 [32]
0	0xbe17901b	-0.14801066
1	0xbd658629	-0.05603615
2	0xbddea1d3	-0.10870709
3	0xbe1ef2b4	-0.15522271
4	0xbdfd4422	-0.12366511
5	0xbe1b4512	-0.15163067
6	0xbe3fda8f	-0.18735717
7	0xbe0f472c	-0.13991994
8	0xbe4a191b	-0.1973614
9	0x3e96dcd8	0.29465365
10	0xbe00d392	-0.12580708
11	0xbd4a46a8	-0.04938379
12	0x3e569c61	0.20958091
13	0xbdb52246	-0.08844428
14	0xbdb965e1	-0.09052635
15	0xbdc60e01	-0.0967064
16	0xbe17264b	-0.14760701
17	0x3e1380e5	0.14404638
18	0x3e2d6f0a	0.1693689
19	0xbde3edc0	-0.111293316
20	0xbdb5f492	-0.08884539
21	0xbe348bd3	-0.17631464
22	0x3e7f2c60	0.24919271
23	0xbdaabdba	-0.08336969
24	0x3d8be2de	0.06830381
25	0xbe1827b4	-0.14858896
26	0xbe2fb94d	-0.1716053
27	0xbdd40add	-0.103536345
28	0x3e2db7a7	0.16964589
29	0xbde0962a	-0.109661415
30	0xbdd6d1d7	-0.104892425
31	0x3e936888	0.2879069

conv_layers.5.1.running_mean f4 [32]
0	0xbed9bd98	-0.4252746
1	0xbe87a74f	-0.26494834
2	0x3ed9173e	0.42400545
3	0x3d16fae0	0.036860347
4	0x3ef3a31d	0.47585383
5	0x3c70d3c0	0.014698923
6	0xbe27baeb	-0.16379897
7	0xbe2ee8d3	-0.17081003
8	0xbf167966	-0.5877899
9	0xbe823403	-0.25430307
10	0xbdb0d2f4	-0.08633986
11	0xbd3664a4	-0.044529572
12	0xbe6f453b	-0.23366253
13	0x3e79b3fd	0.24385066
14	0x3ebb9fb8	0.36645293
15	0x3ee92c8a	0.45541793
16	0x3d181e36	0.037138186
17	0xbdc4f083	-0.096161865
18	0xbe95f382	-0.29287344
19	0xbdd49479	-0.103798814
20	0x3eb9332c	0.36171854
21	0xbe23fae2	-0.16013673
22	0xbdeec253	-0.11658158
23	0x3e4e6f83	0.20159726
24	0xbe0bd08e	-0.13653776
25	0xbe2760f1	-0.16345574
26	0xbdcd71c4	-0.10031465
27	0x3e6a4687	0.22878467
28	0xbe6d3241	-0.23163702
29	0x3ea91cc4	0.3302976
30	0x3e8083c4	0.2510053
31	0xbf2b3303	-0.6687471

conv_layers.5.1.running_var f4 [32]
0	0x3db0a666	0.08625488
1	0x3e1d9cf2	0.15391901
2	0x3d9602a4	0.073247224
3	0x3e413bf9	0.18870534
4	0x3dab8e88	0.08376795
5	0x3ddb53d1	0.10709346
6	0x3dfae02d	0.122497894
7	0x3dd5336f	0.10410201
8	0x3dc5c8d0	0.096574426
9	0x3e2864df	0.1644473
10	0x3d8bdd74	0.06829348
11	0x3dd629f9	0.104572244
12	0x3e750a95	0.23929818
13	0x3db7e673	0.089795016
14	0x3ddb05b7	0.106944494
15	0x3da3e117	0.08001917
16	0x3dcb1a06	0.09917073
17	0x3e12270d	0.14272709
18	0x3dccd715	0.10001961
19	0x3e41b10a	0.18915191
20	0x3dc8955b	0.09794112
21	0x3d6f174e	0.058371834
22	0x3e1e12ab	0.15436809
23	0x3d985470	0.0743798
24	0x3e08cf3c	0.13360304
25	0x3da12e72	0.07870187
26	0x3da029b1	0.07820452
27	0x3d8f6eba	0.07003541
28	0x3e342658	0.17592752
29	0x3d9fe518	0.07807368
30	0x3d6dd4b9	0.058064196
31	0x3e214852	0.15750244

conv_layers.6.0.conv.weight f4 [32, 32, 3, 3]
0	0x3dfa6f6c	0.12228283
1	0x3b1dfaf0	0.002410587
2	0x3d15a0fb	0.036530476
3	0x3db2da06	0.08732991
4	0x3ceedc6f	0.029157845
5	0x3d0b6cd8	0.03403935
6	0x3e248f02	0.16070178
7	0x3d1275fe	0.035757057
8	0xbc8d8597	-0.017275615
9	0x3cfee125	0.031113217
10	0x3d8f42cc	0.06995162
11	0xbd36d4e4	-0.044636622
12	0xbd837abe	-0.064198956
13	0xbca71217	-0.020394368
14	0xbd9cb589	-0.076518126
15	0xbd4b5954	-0.049645737
16	0xbc14b7b5	-0.009077002
17	0xbd92673f	-0.07148599
18	0xbd27da6e	-0.040979795
19	0xbd955eaf	-0.0729345
20	0xbd3e43df	-0.046451446
21	0xbc9df18b	-0.019280216
22	0xbc591988	-0.013250716
23	0xba953557	-0.0011383694
24	0xbc99b2f1	-0.018762084
25	0xbc0ac45c	-0.008469667
26	0x3c50d48a	0.012745986
27	0xbdd70322	-0.104986444
28	0xbbe71de8	-0.0070531256
29	0xbd8480c6	-0.06469874
30	0xbd1f5a0c	-0.038904235
31	0xbb25627d	-0.0025235706
32	0xbd9da62a	-0.07697709
33	0xbe06c02b	-0.13159244
34	0xbc80372a	-0.015651304
35	0xbd286af5	-0.041117627
36	0x3cc203b6	0.02368341
37	0xbd6f3e44	-0.05840899
38	0xbd9e9923	-0.07744052
39	0x3c592174	0.013252605
40	0xbd692ec6	-0.056929372
41	0x3c971274	0.018441416
42	0x3cfd233d	0.030900592
43	0xbd5e8fb2	-0.054336257
44	0xbd27bf40	-0.040953875
45	0xbd0fb21b	-0.035081964
46	0x3c03533d	0.008015451
47	0x3d134761	0.035956744
48	0xbd6ac840	-0.05731988
49	0x3d1f61b4	0.038911536
50	0xbc9085aa	-0.017641861
51	0x3c17124d	0.009220672
52	0x3c974f74	0.018470503
53	0x3a3e6a74	0.00072637876
54	0xbd8041b0	-0.06262529
55	0x3d2fb1ad	0.042894054
56	0x3d6671cb	0.056260865
57	0xbc89d10c	-0.016823314
58	0xbb162520	-0.0022910312
59	0x3d9509cb	0.072772585
60	0xbd03eb1f	-0.03220665
61	0x3acf0ea7	0.0015797213
62	0x3cf50fc9	0.029914754
63	0x3db8c51f	0.09021973
64	0x3cfcbcf6	0.030851822
65	0xbbc79ebd	-0.006091921
66	0x3daa32de	0.083104834
67	0x3d2e9dbf	0.042630907
68	0x3dc65880	0.09684849
69	0x3da0c9b2	0.0785097
70	0x3dc99d97	0.09844511
71	0x3da73f56	0.08166377
72	0x3d945227	0.07242232
73	0xbd0fe96e	-0.035134725
74	0xbc76e89e	-0.015070109
75	0x3e1355a3	0.14388137
76	0x3cfdbda4	0.030974217
77	0xbd96943b	-0.073524915
78	0x3e001bc4	0.12510592
79	0xbc11890b	-0.008882771
80	0x3b5274df	0.0032113118
81	0x3cf225e1	0.029559078
82	0xbd9c22f5	-0.07623855
83	0xbd808f84	-0.062773734
84	0x3d317e6a	0.04333345
85	0xbdb492a5	-0.08817033
86	0xbd365376	-0.04451319
87	0x3c94949d	0.01813727
88	0xbdbca0c4	-0.09210351
89	0xbd383e50	-0.0449813
90	0xbd9365f0	-0.071971774
91	0xbdcc2b6e	-0.09969221
92	0xbe059475	-0.13044913
93	0xbdeb146f	-0.11478507
94	0xbde0aa52	-0.10969986
95	0xbd91c691	-0.07117952
96	0xbdbb227e	-0.09137438
97	0xbda51859	-0.080612846
98	0xbdeada26	-0.1146739
99	0xbe031f9a	-0.12805024
100	0x3c1ce866	0.0095768925
101	0xbc3fe893	-0.011713165
102	0xbe0e5232	-0.13898543
103	0xbc5a9cb1	-0.013343022
104	0xbd705f5d	-0.058684696
105	0xbdaf6663	-0.085644506
106	0xba21ac07	-0.00061672967
107	0xbaa5fd3c	-0.0012663971
108	0x3ce21536	0.027598005
109	0xbd495d56	-0.049161278
110	0xbcc619c5	-0.02418221
111	0xbd2de2ab	-0.042452496
112	0xbc6ca695	-0.014444013
113	0xbb23d3ff	-0.0024998186
114	0xbce5c4e1	-0.02804798
115	0xbc9cbc48	-0.019132748
116	0x3d52ecda	0.05149541
117	0xbbecfd12	-0.007232317
118	0xbd71f242	-0.059068926
119	0xbbb37f6b	-0.005477836
120	0xbacedc75	-0.0015782254
121	0x3c618403	0.013764384
122	0xbbfc5407	-0.0077004465
123	0x3d960017	0.07324236
124	0x3d985bc6	0.074393794
125	0x3c9f558c	0.019449972
126	0xbd03bee3	-0.032164466
127	0x3d508ce3	0.05091561
128	0x3cb6ca6e	0.022313323
129	0x3cd0511d	0.025429303
130	0xbb55b30f	-0.0032607948
131	0x3c8aeb3d	0.016957873
132	0x3d38b8cd	0.045098115
133	0x3d339234	0.043840602
134	0x3d651d36	0.05593606
135	0xbc2ba9bb	-0.010477479
136	0xbcdd3305	-0.027001867
137	0x3c06b3c8	0.008221574
138	0x3d3895ab	0.04506461
139	0xbb4f268a	-0.0031608664
140	0xbcc42300	-0.02394247
141	0x3c84276f	0.016132085
142	0x3c7121ba	0.014717514
143	0x3d3195d2	0.04335577
144	0xbcefb9a6	-0.029263329
145	0xbd80f8f7	-0.06297486
146	0xbb97bb11	-0.0046304544
147	0xbcd6cb82	-0.026220087
148	0xbd85ded0	-0.06536639
149	0xbdb1c888	-0.086808264
150	0x3958635c	0.0002063638
151	0xbc045599	-0.008077049
152	0xbcf8437f	-0.030305622
153	0xbdc79dc8	-0.09746891
154	0xbd4b9c96	-0.04970988
155	0xbddd0af2	-0.10793103
156	0xbd59e27d	-0.05319451
157	0xbd902b07	-0.07039457
158	0xbd82115e	-0.06350969
159	0xbcaa49f4	-0.020787217
160	0xbdaad878	-0.083420694
161	0xbdd98772	-0.10621537
162	0xbde6dc73	-0.11272516
163	0xbd983e3d	-0.07433746
164	0xbdd350c3	-0.103181385
165	0xbe357171	-0.17719056
166	0xbe122f0c	-0.1427576
167	0xbe0f77cb	-0.14010541
168	0xbe362618	-0.17787969
169	0xbe3eecac	-0.1864497
170	0xbd7b2ea4	-0.061323777
171	0xbd423d5e	-0.047421806
172	0xbd61eec9	-0.055159364
173	0xbd48fffa	-0.049072243
174	0xbd007a79	-0.0313668
175	0x3ce9dde8	0.028548196
176	0xbd5a370f	-0.053275164
177	0xbc4b5ed0	-0.012412742
178	0x3b8044c8	0.0039144494
179	0xbd0ae0dc	-0.03390585
180	0x3da931e3	0.08261468
181	0x3d8a98a2	0.06767394
182	0x3db8c852	0.09022583
183	0x3d60c4a8	0.054875046
184	0x3bbaafee	0.005697242
185	0xbcd2b004	-0.025718696
186	0x3d2c6ff0	0.04209894
187	0xbc662673	-0.014047253
188	0x3ce08358	0.02740638
189	0xbd0d34fe	-0.034474365
190	0xbc865159	-0.016396211
191	0xbd4b7125	-0.04966845
192	0xbc6165b5	-0.013757159
193	0x3d7d3414	0.061817244
194	0x3c526324	0.01284102
195	0xbcc27eda	-0.023742128
196	0x3c4fc64b	0.012681554
197	0xbe005eee	-0.12536213
198	0x3d0223d3	0.031772446
199	0xbd6d4a53	-0.05793221
200	0xbbb2d545	-0.0054575526
201	0xbc3973e4	-0.011319134
202	0xbe0285fe	-0.12746426
203	0xbe227f93	-0.15868978
204	0xbcdeae9f	-0.027182875
205	0xbdfa66dd	-0.12226651
206	0xbdf54802	-0.11976625
207	0xbd43b0dc	-0.047776088
208	0xbd274603	-0.040838253
209	0xbd33016f	-0.04370254
210	0x3c380ea3	0.011233958
211	0x3caafd95	0.02087287
212	0x3c168cb9	0.009188824
213	0xbd92af27	-0.07162314
214	0x3bbc8b62	0.0057539204
215	0xbca3e712	-0.020007644
216	0xbc8024d1	-0.015642555
217	0xbd00e606	-0.031469367
218	0x3d2b6f9a	0.04185448
219	0x3d08ce38	0.03339979
220	0xbd579554	-0.052632645
221	0xbd152a35	-0.036417205
222	0x3d19fcd3	0.037594628
223	0xbd374285	-0.044741172
224	0xbdca6a3a	-0.09883542
225	0x3d1aca6a	0.037790693
226	0x3c44b635	0.012006332
227	0xbd0b4acc	-0.03400688
228	0x3de25c67	0.110527806
229	0x3d940238	0.07226986
230	0x3d88c3ff	0.06678008
231	0x3d640649	0.055670056
232	0x3cf7dd54	0.030256905
233	0x3d068f19	0.032851312
234	0xbadc94ba	-0.0016828992
235	0x3c051fd3	0.008125263
236	0x3ca3c796	0.01999263
237	0xbd15219f	-0.036409017
238	0x3d1aa70b	0.03775696
239	0x3b96d615	0.0046031573
240	0x3c564cb4	0.013079811
241	0xbd97838b	-0.07398137
242	0x3b9033f8	0.0044007264
243	0x3d39f8d0	0.0454033
244	0x3c81c3bb	0.015840402
245	0x3bfe0d14	0.007753024
246	0x3bc4bb0c	0.006003743
247	0x3bc61972	0.006045514
248	0xbc7eaff6	-0.015544882
249	0x3da02eea	0.07821448
250	0x3d193beb	0.037410658
251	0x3cb6e8ed	0.022327865
252	0x3dc78803	0.09742739
253	0x3bf7de85	0.007564368
254	0xbc91520b	-0.017739316
255	0xbcf2ecf9	-0.029654013

conv_layers.6.1.weight f4 [32]
0	0x3f78d5bf	0.9720115
1	0x3f90a23d	1.1299511
2	0x3f8262a2	1.018635
3	0x3f7a00f4	0.97657704
4	0x3f6d856d	0.92781717
5	0x3f7515c9	0.95736367
6	0x3f6759b4	0.9037125
7	0x3f7d06b2	0.9883834
8	0x3f74af3a	0.95579875
9	0x3f74626a	0.9546267
10	0x3f5cd82f	0.8626737
11	0x3f7a9db6	0.978969
12	0x3f835ab3	1.0262054
13	0x3f8058f2	1.0027144
14	0x3f6ee331	0.93315417
15	0x3f7b0dfb	0.9806821
16	0x3f793a4d	0.97354585
17	0x3f7725a1	0.9654179
18	0x3f732138	0.9497256
19	0x3f8d0bf3	1.1019272
20	0x3f7aa276	0.97904146
21	0x3f7ea576	0.99471223
22	0x3f85d657	1.0456036
23	0x3f7809fb	0.9689023
24	0x3f5a67f3	0.85314864
25	0x3f7c60b8	0.9858508
26	0x3f75c47c	0.96002936
27	0x3f6ca2ab	0.9243571
28	0x3f60f687	0.8787617
29	0x3f7dec54	0.99188733
30	0x3f7090c0	0.9397087
31	0x3f6ea4cc	0.9322021

conv_layers.6.1.bias f4 [32]
0	0xbb61f6c5	-0.0034479361
1	0xbeaaba82	-0.3334542
2	0x3d886c10	0.06661236
3	0xbe30c65b	-0.17263167
4	0xbe369e48	-0.17833817
5	0xbdd7e922	-0.105425134
6	0xbd5ddd98	-0.054166406
7	0x3dad3cc6	0.08458857
8	0xbdd89719	-0.105756946
9	0xbdc48864	-0.09596327
10	0xbe674661	-0.22585441
11	0xbd7e3263	-0.06205977
12	0xbe0834bf	-0.13301371
13	0xbe7c06c2	-0.24611953
14	0xbd86474e	-0.06556569
15	0x3dd1def1	0.10247601
16	0xbe50d404	-0.20393378
17	0xbcd72357	-0.026261969
18	0xbd986d56	-0.07442729
19	0xbe92e818	-0.28692698
20	0xbdf59ebc	-0.11993167
21	0xbe38daf2	-0.18052271
22	0xbd48e7f5	-0.049049336
23	0xbe3928ca	-0.18081966
24	0xbd860695	-0.06544224
25	0xbd7de16b	-0.061982553
26	0xbdfe430f	-0.12415134
27	0xbcf10be7	-0.02942462
28	0xbde4d0c1	-0.11172629
29	0xbd512ce3	-0.051068198
30	0xbde5d969	-0.11223108
31	0xbdc105d4	-0.0942494

conv_layers.6.1.running_mean f4 [32]
0	0xbfb770be	-1.4331281
1	0x40187a37	2.3824594
2	0x3f49ca76	0.78824556
3	0xbf5af996	-0.8553709
4	0xbf723f90	-0.9462824
5	0xbecffede	-0.40624136
6	0xbf41bce2	-0.7567884
7	0xbeeeee58	-0.46666217
8	0xbff04cfd	-1.8773495
9	0x3e9d9366	0.3077652
10	0xbf2b98fb	-0.67030305
11	0xbd7e3fb3	-0.062072467
12	0xbed71f6f	-0.4201617
13	0xbfad8441	-1.3555986
14	0xbec83274	-0.39100993
15	0xbfc8b142	-1.5679095
16	0xbf8ef8e4	-1.1169705
17	0xbe99f0f9	-0.3006666
18	0xbfeb82b3	-1.8399261
19	0x402f4f20	2.7392044
20	0xbf0f6304	-0.5601046
21	0xbf36021e	-0.7109698
22	0x3e027a6b	0.12742011
23	0xbfa7f675	-1.3122088
24	0xbf9d8d97	-1.2308835
25	0xbf9423f5	-1.1573473
26	0xbf258cd6	-0.64668024
27	0xbea1a0b2	-0.31567913
28	0xbf0424eb	-0.5161883
29	0xbfb7b030	-1.4350643
30	0xbfa4a748	-1.286355
31	0xbe9da284	-0.30788052

conv_layers.6.1.running_var f4 [32]
0	0x3f050582	0.5196153
1	0x3f7b636d	0.98198587
2	0x400bc613	2.1839645
3	0x3f26e37d	0.6519087
4	0x3f0c128a	0.5471579
5	0x3f8d80c2	1.1054919
6	0x3fa7b974	1.3103471
7	0x40b70f5f	5.7206264
8	0x3f285ed5	0.657697
9	0x3edcd2c8	0.43129563
10	0x3f75cd17	0.9601607
11	0x3f531e73	0.82468337
12	0x3f5db617	0.8660597
13	0x3f3202a7	0.695353
14	0x3fccd397	1.6002072
15	0x4006164d	2.0951111
16	0x3f32be3d	0.6982153
17	0x4058cf67	3.3876588
18	0x3f2b3eff	0.66893
19	0x3fac8d7e	1.348068
20	0x3f359602	0.7093202
21	0x3fa85f8d	1.315416
22	0x3f28b397	0.6589903
23	0x3f06b19a	0.5261475
24	0x3fcd54b8	1.6041479
25	0x3ec8d31a	0.39223558
26	0x3f9e9947	1.2390527
27	0x40050aa5	2.0787747
28	0x3f57847a	0.8418652
29	0x3ecbf9d4	0.3983904
30	0x3ed4ac62	0.41537768
31	0x3f5f5678	0.87241316

conv_layers.7.conv1d.weight f4 [1, 1, 3]
0	0xbf7cacdf	-0.9870128
1	0xbf3a2a10	-0.7272043
2	0x3ee363b5	0.44412008

conv_layers.9.0.conv.weight f4 [16, 32, 3, 3]
0	0x3c56d8f1	0.013113246
1	0xbd1b78ca	-0.03795699
2	0xbb7e44fd	-0.0038798444
3	0x3da9ee7e	0.08297442
4	0x3d669d62	0.056302436
5	0xbb9624fe	-0.0045820465
6	0x3c1e6ec7	0.009669966
7	0x3ce61c5c	0.028089695
8	0xbbf40ed8	-0.0074480586
9	0xbe0cf9bc	-0.13767141
10	0xbd85c133	-0.065309905
11	0xbddab36a	-0.10678752
12	0xbd4bb6b8	-0.0497348
13	0x3d57e72e	0.052710705
14	0x3cad57b7	0.02115999
15	0x3c03c23a	0.008041913
16	0xbdd57f14	-0.10424629
17	0xbb189141	-0.0023279937
18	0xbc8cbb8f	-0.017179279
19	0x3d3bcf2b	0.045851868
20	0x3d8009ca	0.06251867
21	0xbd586e73	-0.052839708
22	0xbdcabd03	-0.098993324
23	0xbdcad0e3	-0.09903123
24	0xbd8ddf72	-0.069273844
25	0xbd1a6f63	-0.037703883
26	0xbc8e5c29	-0.01737793
27	0xbdcb9f66	-0.09942512
28	0x3caf218d	0.021378303
29	0x3d7971f8	0.060899705
30	0xbd8f5f8e	-0.070006475
31	0x3d6cef1b	0.057845216
32	0xbd021269	-0.03175584
33	0x3c52b3fe	0.012860296
34	0xbce6b394	-0.028161801
35	0xbc2b3951	-0.010450677
36	0x3d7d425f	0.061830875
37	0x3cb54dfa	0.022131909
38	0x3d4c77fe	0.04991912
39	0x3d690118	0.05688581
40	0xbc4ef250	-0.012631014
41	0x3c1f7f37	0.00973492
42	0x3d62273d	0.0552132
43	0x3c6e414e	0.014541937
44	0x3d556323	0.052096497
45	0xbd6db4e7	-0.05803385
46	0xbd87fad8	-0.066396415
47	0xbce1c35b	-0.027558973
48	0xbdb46bfe	-0.088096604
49	0x3c932354	0.017961182
50	0xbda5b42d	-0.080910064
51	0xbd440f31	-0.04786605
52	0x3b100abe	0.002197906
53	0x3d06ccee	0.03291028
54	0xbd324548	-0.043523103
55	0x3aab9f85	0.0013093805
56	0x3a810260	0.0009842627
57	0xbe0a2f9f	-0.13494729
58	0xbdb7495e	-0.089495406
59	0xbd559aa7	-0.05214944
60	0xbdd3fcc1	-0.10350943
61	0xbc2bf419	-0.010495209
62	0xbcf8ce20	-0.030371726
63	0x3c8eb973	0.017422413
64	0x3c30bb7b	0.010786886
65	0xbd0ce4fa	-0.034398057
66	0xbd15733d	-0.036486853
67	0xbe16c1e9	-0.14722408
68	0xbe126b9b	-0.1429886
69	0x3c82d3ac	0.015970074
70	0xbd9739b8	-0.07384056
71	0xbdba12c7	-0.09085613
72	0x3bd634cb	0.006537055
73	0xbd127eff	-0.035765644
74	0x3dce2d07	0.10067182
75	0x3c81e7e9	0.015857654
76	0x3c98c340	0.01864779
77	0x3dcdbadf	0.100454085
78	0x3d3383d1	0.04382688
79	0x3d3ef9bf	0.046624895
80	0xbd04caf3	-0.03242011
81	0x3d61583c	0.055015787
82	0xbc8d9aa6	-0.017285656
83	0x3cb4e49d	0.022081668
84	0x3d32dc89	0.04366735
85	0x3bf46fc8	0.0074596144
86	0xbdaf1787	-0.08549409
87	0x3d2ad9c1	0.041711573
88	0xbc187f42	-0.009307684
89	0x3c59e156	0.013298353
90	0xbdae27b1	-0.08503664
91	0xbde09756	-0.10966365
92	0xbc380462	-0.011231514
93	0xbbf2f3ad	-0.0074143023
94	0xbd838068	-0.06420976
95	0xbd9defaa	-0.07711728
96	0xbd939d12	-0.07207693
97	0xbdad21dd	-0.084537245
98	0xbcbf602b	-0.023361286
99	0x3c842bfd	0.016134256
100	0x3d112129	0.035432015
101	0xbd45d901	-0.048302654
102	0xbe0fea3c	-0.14054197
103	0xbceb7070	-0.028740138
104	0xbd050ad6	-0.032481037
105	0x3b9c2b63	0.0047659143
106	0x3d2f034c	0.042727754
107	0x3ae30bad	0.0017322205
108	0x3d6ee201	0.058321003
109	0xbc452182	-0.012031915
110	0xbd8e7a7c	-0.06956956
111	0x3e0ce366	0.1375862
112	0x3bab4df0	0.0052277967
113	0x3c9fdd2e	0.019514646
114	0x3d125038	0.035721034
115	0x3dd9804d	0.106201746
116	0x3bccfee4	0.0062559713
117	0xbdaafeaa	-0.083493546
118	0xbd87e554	-0.06635538
119	0xbce989df	-0.028508125
120	0xbdc6f759	-0.097151466
121	0xb8d55f15	-0.00010174342
122	0xbbe997e9	-0.007128705
123	0xbdc0f607	-0.09421926
124	0xbd0b7afa	-0.034052826
125	0xbcc02e6d	-0.023459638
126	0x3daa46cb	0.08314284
127	0x3d96d075	0.07363979
128	0xbcd43a19	-0.02590661
129	0x3da33f5c	0.07971069
130	0xbbfcf363	-0.0077194436
131	0xbc2e8d39	-0.010653787
132	0xbd3e6705	-0.046484966
133	0xbdfdc8e9	-0.12391836
134	0xbd4c4402	-0.049869545
135	0x3cc4b632	0.024012659
136	0xbd876e38	-0.066128194
137	0xbd893788	-0.06700045
138	0x3d0151ef	0.03157228
139	0xbd2eeba8	-0.042705208
140	0xbd8d8dfe	-0.069118485
141	0xbce77c29	-0.028257446
142	0xbda71e84	-0.08160117
143	0xbdaf8689	-0.085705824
144	0x3b8a8de2	0.0042283395
145	0x3ca84fff	0.020545958
146	0x3ce701eb	0.028199157
147	0xbd693b04	-0.056941047
148	0x3d5e0be3	0.054210555
149	0x3b1bfcca	0.0023801797
150	0x3d7c1637	0.061544623
151	0x3c499072	0.012302505
152	0x3cc0d1be	0.023537513
153	0x3ddce685	0.107861556
154	0xbb6f30bf	-0.003649756
155	0x3cba747a	0.022760618
156	0x3d37b27b	0.044847947
157	0xbd63e445	-0.055637617
158	0xbc5a6473	-0.013329613
159	0xbd400d33	-0.046887588
160	0xbd4cb64b	-0.049978536
161	0xbdaaf522	-0.083475366
162	0xba92966c	-0.0011183745
163	0xbc8f6715	-0.017505208
164	0xbd71ba6e	-0.059015684
165	0xbd4682da	-0.048464634
166	0x3ca31536	0.019907575
167	0xbda7745e	-0.08176492
168	0xbba5ccc4	-0.0050598104
169	0xbd0f824a	-0.035036363
170	0x3d5d9a0a	0.05410198
171	0xbdd1f672	-0.10252084
172	0xbda4a8d9	-0.08040018
173	0xbd9c1a42	-0.07622196
174	0xbdad587c	-0.08464143
175	0xbd87dcad	-0.066338874
176	0xbcb7b0c9	-0.022423165
177	0xbd956d36	-0.07296221
178	0xbd3416f5	-0.043967206
179	0xbc4adb7a	-0.012381429
180	0xb51ae880	-5.77078e-07
181	0x3d236a4e	0.039896302
182	0xbd33f717	-0.043936815
183	0xbd58cf76	-0.052932225
184	0x3ae4f4c7	0.0017467969
185	0xbd76782b	-0.060173195
186	0xbda77f9e	-0.08178638
187	0x3bf0cc21	0.007348553
188	0x3d62fc4e	0.055416398
189	0x3c8de681	0.017321827
190	0x3c63815c	0.013885822
191	0x3d3924f0	0.045201242
192	0xbe0c0848	-0.13675034
193	0xbb7e6e16	-0.003882294
194	0xbd9bfbcd	-0.076163866
195	0xbd03a933	-0.032143783
196	0x3c5e7099	0.01357665
197	0x3c3697cd	0.011144591
198	0xbdac5b79	-0.084158845
199	0xbdaa5e3a	-0.083187535
200	0xbd2b4e4a	-0.04182271
201	0xbd62311e	-0.055222623
202	0x3c8b751a	0.017023612
203	0x39b3f3fc	0.00034323323
204	0xbd9ae203	-0.075626396
205	0xbcdaf00d	-0.026725793
206	0x3cc1d84e	0.023662712
207	0x3dca5ff3	0.09881582
208	0x3dae24ff	0.0850315
209	0x3d657239	0.056017134
210	0x3dc044ee	0.09388147
211	0x3d3c8238	0.046022624
212	0x3c9a376c	0.018825255
213	0x3dfa51d9	0.122226425
214	0x3d0c7c66	0.034298323
215	0xbd2619f8	-0.04055211
216	0xbcf767aa	-0.030200798
217	0x3c297527	0.010342873
218	0xbd1de925	-0.038552422
219	0x3dad5ba7	0.08464747
220	0xbdd4a636	-0.10383265
221	0xbdf39fc7	-0.118957095
222	0xbd2ec153	-0.042664837
223	0xbcde8927	-0.027165009
224	0xbd1862e1	-0.037203673
225	0xbbc08128	-0.0058747716
226	0x3c8c9754	0.017162003
227	0x3c9b6d0a	0.018972892
228	0x3d2bf517	0.041981783
229	0xbd9f3925	-0.07774571
230	0xbd8afc24	-0.06786373
231	0x3d707fe2	0.05871571
232	0x3e1176c6	0.14205465
233	0x3c3b50b9	0.01143282
234	0x3d8029f5	0.06258003
235	0xbd7db4d9	-0.061940048
236	0xbdbf19bd	-0.09331081
237	0x3db82f55	0.08993403
238	0xbcf129d8	-0.029438898
239	0x3af61bd4	0.0018776604
240	0xbca2d824	-0.019878455
241	0xbd0fb68d	-0.035086203
242	0x3d5c67c0	0.05380988
243	0x3cff6f93	0.031181132
244	0x3d2beb04	0.041972175
245	0x3d1bcf65	0.038039584
246	0xbcf2de78	-0.029647097
247	0x3c0dab52	0.008646803
248	0xbcf96e7f	-0.030448196
249	0x3cfd9d5b	0.030958822
250	0x3b8154d7	0.0039468813
251	0xbc01c854	-0.007921297
252	0x3d8b3edf	0.06799101
253	0x3cc09864	0.023510166
254	0xbb9a5fa7	-0.0047111097
255	0x3d816cfc	0.06319615

conv_layers.9.1.weight f4 [16]
0	0x3f79deb1	0.97605425
1	0x3f84030a	1.0313427
2	0x3f83a534	1.0284791
3	0x3fa0c4eb	1.2560095
4	0x3f8051d3	1.0024971
5	0x3f70ef73	0.9411537
6	0x3f956977	1.167281
7	0x3f81d8d5	1.0144297
8	0x3f8e91d8	1.1138258
9	0x3f9378de	1.1521261
10	0x3f810d51	1.0082189
11	0x3f8219ab	1.0164083
12	0x3f8817ce	1.0632265
13	0x3f8def9b	1.1088747
14	0x3f88534c	1.065042
15	0x3f949220	1.1607094

conv_layers.9.1.bias f4 [16]
0	0x3cb15da6	0.0216511
1	0xbda0981c	-0.078415126
2	0xbe389c4f	-0.18028377
3	0xbe25b604	-0.16182715
4	0x3d16398f	0.036675986
5	0xbd950802	-0.07276918
6	0xbdf838ec	-0.12120232
7	0x3cc4cb22	0.024022643
8	0xbdadec47	-0.08492332
9	0xbe8722d7	-0.26393768
10	0xbe03d99d	-0.12875982
11	0xbd3fead6	-0.046854816
12	0x3dd74ab6	0.10512297
13	0x3cef23a5	0.029191801
14	0xbd00c40a	-0.031436957
15	0xbe8b5d04	-0.27219403

conv_layers.9.1.running_mean f4 [16]
0	0xbe67dfda	-0.22643986
1	0xbddcdc94	-0.107842594
2	0xbe66d57d	-0.22542377
3	0xbce20df3	-0.027594542
4	0xbea0c9d9	-0.31403998
5	0xbd66a65a	-0.05631099
6	0xbdc518c4	-0.09623864
7	0xbe659cbe	-0.22423074
8	0x3ccc6658	0.024951145
9	0x3db0be97	0.08630102
10	0xbe743d00	-0.23851395
11	0xbdfad76f	-0.12248122
12	0xbef91ef7	-0.48656437
13	0xbd3e9e14	-0.046537474
14	0x3c84b736	0.016200643
15	0x3b23e0ec	0.002500589

conv_layers.9.1.running_var f4 [16]
0	0x3d11d3c8	0.03560236
1	0x3d18b81b	0.03728495
2	0x3cce3d4a	0.02517571
3	0x3d28c8d2	0.041207142
4	0x3d9ec118	0.077516735
5	0x3d513d3d	0.051083792
6	0x3cf48a0f	0.029850988
7	0x3d97bc0f	0.07408916
8	0x3cf6c0f6	0.030121308
9	0x3ccc44ce	0.024935152
10	0x3cfa8b2b	0.030583939
11	0x3d12be70	0.035826147
12	0x3d62601b	0.055267435
13	0x3ce97310	0.028497249
14	0x3d7539b9	0.0598695
15	0x3d066384	0.03280975

conv_layers.10.conv1d.weight f4 [1, 1, 3]
0	0xbce01755	-0.027354876
1	0xbf20f1db	-0.6286904
2	0x3e95651f	0.29178712
