models/model_1726066888781/model.pth (torch, 227178 bytes, 14 tensors)

conv_layers.0.0.conv.weight f4 [16, 10, 3, 3]
0	0xb1cdd108	-5.9900493e-09
1	0xb7a528bf	-1.9688507e-05
2	0x34b2ba6f	3.3290732e-07
3	0x375f5834	1.3312372e-05
4	0x38e2e058	0.00010818307
5	0x32306fed	1.0269997e-08
6	0xb2d9fa7b	-2.537603e-08
7	0x332dde98	4.048215e-08
8	0xb6cca5f0	-6.0989914e-06
9	0xb1ce2933	-6.000073e-09
10	0xb378bdc1	-5.791458e-08
11	0xb19b3391	-4.516956e-09
12	0xb54593ba	-7.360319e-07
13	0x332b128b	3.9830905e-08
14	0xb1c04baa	-5.5965375e-09
15	0x34bc9e1f	3.5132777e-07
16	0x313fc588	2.7906442e-09
17	0xb1fb3b7c	-7.311824e-09
18	0xb4c5251e	-3.6721116e-07
19	0xb8fdc597	-0.00012100784
20	0x33402152	4.473379e-08
21	0xaf5695ca	-1.9516402e-10
22	0x3413081c	1.3693392e-07
23	0x31dc9bc0	6.4205494e-09
24	0x32009c34	7.486097e-09
25	0xb0594694	-7.904444e-10
26	0xb7e73421	-2.756162e-05
27	0x349d905b	2.934856e-07
28	0xb27ef7c8	-1.4841085e-08
29	0xb8c9ef9a	-9.629056e-05
30	0xb3221964	-3.7741657e-08
31	0xb223c860	-9.533409e-09
32	0x31cf3830	6.0308807e-09
33	0x2f923086	2.6591723e-10
34	0xb30a861c	-3.22526e-08
35	0xaf2a6bc8	-1.5499702e-10
36	0xb87c06bd	-6.0087757e-05
37	0xb100cce0	-1.874291e-09
38	0x34a51b30	3.0753426e-07
39	0x360a89af	2.0643745e-06
40	0xb0b588d4	-1.3208372e-09
41	0x3458992e	2.0172294e-07
42	0xb236d0b0	-1.0641244e-08
43	0xb2784c6d	-1.4452877e-08
44	0xb0c2b990	-1.4168098e-09
45	0xb5a7e26b	-1.2508366e-06
46	0x2f92b5aa	2.6686325e-10
47	0xb139f1e5	-2.7058544e-09
48	0xb24c6572	-1.1897429e-08
49	0x3629183a	2.5197064e-06
50	0x3411830d	1.3551853e-07
51	0x340c1551	1.3046271e-07
52	0x328bbdf0	1.6268103e-08
53	0x34135c00	1.3723911e-07
54	0x37031e17	7.815214e-06
55	0x3284e46f	1.5470702e-08
56	0x38080881	3.2432847e-05
57	0xb5e371f8	-1.6945987e-06
58	0x3620ee66	2.3980624e-06
59	0xb1453535	-2.8697518e-09
60	0x33dc4e86	1.0258832e-07
61	0x30d6e1b2	1.5634696e-09
62	0xb57de0bd	-9.457688e-07
63	0x32572160	1.2522236e-08
64	0x31948120	4.3220467e-09
65	0xb2fa4603	-2.9135668e-08
66	0x31455bda	2.8719485e-09
67	0x325aa55c	1.27268684e-08
68	0xb3f185d3	-1.12467795e-07
69	0xb4ae0853	-3.2416082e-07
70	0x329f70b7	1.8561293e-08
71	0xb5958f7c	-1.1143125e-06
72	0x31275c28	2.4354083e-09
73	0x33ec2533	1.0996373e-07
74	0xb84418f0	-4.6753266e-05
75	0xb895fccd	-7.1519615e-05
76	0x3236c4c2	1.0638532e-08
77	0x31d9536e	6.325016e-09
78	0xb1c1c2e3	-5.6391953e-09
79	0x3788a665	1.6289947e-05
80	0x3119e464	2.2394255e-09
81	0x37cf2274	2.4692366e-05
82	0x337549a5	5.7110487e-08
83	0xb340bc36	-4.487466e-08
84	0xb601ad80	-1.9323488e-06
85	0xb417293f	-1.4077976e-07
86	0x32319c93	1.0338357e-08
87	0x3250e87e	1.2160056e-08
88	0xb8812c72	-6.159478e-05
89	0x3525f54c	6.1824244e-07
90	0x33179aee	3.5298335e-08
91	0xb5727d28	-9.033415e-07
92	0xb28fa55e	-1.6722591e-08
93	0x35f6ada5	1.8378965e-06
94	0xb7e9e4eb	-2.7882363e-05
95	0xb72f963d	-1.0465793e-05
96	0xb33197ff	-4.1349264e-08
97	0xb2a52695	-1.9226073e-08
98	0xb2022b8b	-7.576896e-09
99	0xb20e204f	-8.272834e-09
100	0x3817e1bb	3.6211433e-05
101	0x3350e701	4.863887e-08
102	0xb377ceed	-5.7697367e-08
103	0xb137ca70	-2.6745077e-09
104	0xb68421f8	-3.937861e-06
105	0x2f153350	1.3569701e-10
106	0x34108552	1.3459547e-07
107	0xb2606594	-1.3061612e-08
108	0x306d2ea8	8.62864e-10
109	0x32730bc0	1.4147133e-08
110	0x3043cd7a	7.1232586e-10
111	0x38d3ac99	0.00010093413
112	0xb31528fd	-3.4729045e-08
113	0x31ab6d7e	4.989203e-09
114	0xb4a96a4d	-3.1556047e-07
115	0x37bf6675	2.2816685e-05
116	0xb2a7acf4	-1.9520009e-08
117	0x338c5f18	6.5365555e-08
118	0xb38568a4	-6.212329e-08
119	0xb18cb310	-4.0948933e-09
120	0xb2231635	-9.492898e-09
121	0xb32b3e2c	-3.9870585e-08
122	0x31a6c3dc	4.8535025e-09
123	0x35d6dab1	1.600789e-06
124	0x38b95da8	8.838932e-05
125	0xb7a01544	-1.9083389e-05
126	0xb4b6b169	-3.4029225e-07
127	0xb1165a2d	-2.1879132e-09
128	0x2fff2eb4	4.6417414e-10
129	0xb1bc06bc	-5.4722857e-09
130	0xb7439d5d	-1.1659545e-05
131	0x3271fe63	1.4085887e-08
132	0x32802c1a	1.4921216e-08
133	0x314f507a	3.016821e-09
134	0x37616d61	1.3436512e-05
135	0xb2fa071b	-2.9107062e-08
136	0x338d00fd	6.566004e-08
137	0xb3803936	-5.970871e-08
138	0x36cfc939	6.192506e-06
139	0xb7d550bf	-2.5429179e-05
140	0xb152739c	-3.0624738e-09
141	0xb4dd8cb8	-4.1266844e-07
142	0x383c9e4b	4.4970115e-05
143	0x3912c89c	0.00013998378
144	0x31c0584a	5.5979728e-09
145	0x2f608098	2.0418367e-10
146	0xb25e6faf	-1.2947495e-08
147	0x30936431	1.0724134e-09
148	0x39004db2	0.00012235975
149	0x320eb883	8.307441e-09
150	0xb154b172	-3.0950926e-09
151	0xb21f7e46	-9.283729e-09
152	0x355dc846	8.262035e-07
153	0xaee805c0	-1.055116e-10
154	0x36aa7fc3	5.0812682e-06
155	0xb0877f22	-9.858676e-10
156	0xb81b4eea	-3.7028374e-05
157	0x38c5ecbb	9.4377865e-05
158	0x36074bf9	2.016079e-06
159	0x31adcb04	5.058043e-09
160	0xb627740b	-2.4952485e-06
161	0x33e576e8	1.06852724e-07
162	0x3303fa0a	3.0728224e-08
163	0xb38cb968	-6.552983e-08
164	0xb4336d2c	-1.671039e-07
165	0x3321e081	3.768992e-08
166	0x30a912ce	1.2301713e-09
167	0x3632a38a	2.661926e-06
168	0xb2fa1b10	-2.9116137e-08
169	0xb525901e	-6.167701e-07
170	0x34cf90ad	3.866202e-07
171	0xb3907e37	-6.728481e-08
172	0x303ca04e	6.862181e-10
173	0xb227b7ce	-9.762472e-09
174	0x325142ec	1.2180617e-08
175	0xb1d84f10	-6.2954157e-09
176	0x325d5988	1.288425e-08
177	0x307966d2	9.073179e-10
178	0xb513dc4b	-5.5082336e-07
179	0x35fffc14	1.9072345e-06
180	0x34c34ad7	3.6376034e-07
181	0x3491ebbe	2.717988e-07
182	0x337f4db9	5.9442502e-08
183	0xb1cbd1d2	-5.9319314e-09
184	0x334e2472	4.799626e-08
185	0xb0d0b5e2	-1.5185686e-09
186	0x30ca1d92	1.4705839e-09
187	0xb5e446bb	-1.7007909e-06
188	0x34d69807	3.997122e-07
189	0xb4e95f94	-4.3469174e-07
190	0xb6ceaf3d	-6.159679e-06
191	0x360823ee	2.0286493e-06
192	0xb206b85a	-7.841743e-09
193	0xaf8a5b63	-2.5166988e-10
194	0xb05224c8	-7.6449824e-10
195	0x361f569a	2.3743255e-06
196	0xb241bbb3	-1.1276756e-08
197	0xb0eaa875	-1.7073619e-09
198	0x34a010d0	2.9814555e-07
199	0xb397797a	-7.053582e-08
200	0xb8909a0f	-6.895151e-05
201	0xb8b76087	-8.7440996e-05
202	0xb34a7811	-4.714099e-08
203	0x30dc24f5	1.6017611e-09
204	0x309681d0	1.0950831e-09
205	0xb791fad2	-1.7402144e-05
206	0xb84e0ece	-4.9128015e-05
207	0x33d17c3f	9.754921e-08
208	0x33472617	4.636794e-08
209	0xb42272fa	-1.5129254e-07
210	0x3792a0ed	1.7479493e-05
211	0x328df1dc	1.6524545e-08
212	0x31a2e407	4.7407442e-09
213	0x31b2500f	5.1895834e-09
214	0x3290203f	1.677847e-08
215	0x31e74a44	6.731428e-09
216	0xb1fd9f2c	-7.381365e-09
217	0xb74ed557	-1.2328229e-05
218	0x2fd1e7ad	3.8181494e-10
219	0xb11cb920	-2.280622e-09
220	0x3390469c	6.718366e-08
221	0xb1eaf1d0	-6.8377872e-09
222	0x318e4815	4.1409387e-09
223	0xb7016bce	-7.714099e-06
224	0x3323ae56	3.8109953e-08
225	0x31e73c88	6.7298664e-09
226	0x32debe93	2.5930865e-08
227	0x32f8a52a	2.8946108e-08
228	0xb237582e	-1.0672052e-08
229	0xb7ea267f	-2.79129e-05
230	0x2ffa2428	4.5500426e-10
231	0xb4380357	-1.713755e-07
232	0xb22fa2d6	-1.0223365e-08
233	0xb31ca217	-3.6469e-08
234	0xaf818703	-2.3560895e-10
235	0xb4ddfdec	-4.134921e-07
236	0x345fc9a4	2.084185e-07
237	0x3126f3be	2.429473e-09
238	0xb4038780	-1.224962e-07
239	0x33d0b0aa	9.71789e-08
240	0xb1b16f94	-5.164063e-09
241	0xb4014098	-1.203756e-07
242	0xb14fd4d0	-3.0243434e-09
243	0xb61d9086	-2.3478947e-06
244	0xb59fefa8	-1.1916172e-06
245	0x361d2e04	2.3421608e-06
246	0x34c5bc7b	3.6831247e-07
247	0xb3904753	-6.718496e-08
248	0x33f61f1e	1.1460928e-07
249	0x37bdcb66	2.262527e-05
250	0x32d6aca4	2.4991387e-08
251	0x3559ecaf	8.118322e-07
252	0xb2c61a87	-2.3062297e-08
253	0xb72720db	-9.961625e-06
254	0x320bb43f	8.131848e-09
255	0xb75c2b72	-1.3123137e-05

conv_layers.0.0.conv.bias f4 [16]
0	0xb7925ed4	-1.7448714e-05
1	0xb2027ce0	-7.595389e-09
2	0x340ba34d	1.3004792e-07
3	0xb89fd571	-7.6214674e-05
4	0x34a34935	3.041438e-07
5	0x34cdcfed	3.8335511e-07
6	0xb07ba1d8	-9.154326e-10
7	0xb34b4f11	-4.733653e-08
8	0xb3899b1c	-6.407774e-08
9	0x32a59437	1.9275928e-08
10	0xb3895195	-6.394399e-08
11	0x34012916	1.2029008e-07
12	0xb51b029e	-5.774581e-07
13	0x349233a7	2.72322e-07
14	0x30bf6c42	1.3927848e-09
15	0xb2b74086	-2.1333346e-08

conv_layers.2.0.conv.weight f4 [32, 16, 3, 3]
0	0xb4d65950	-3.992559e-07
1	0x313763d4	2.668675e-09
2	0x2e9040a0	6.5598416e-11
3	0x32c8d0ed	2.3378073e-08
4	0x303e8fb2	6.93258e-10
5	0x34c820de	3.7276817e-07
6	0xb257afce	-1.25546205e-08
7	0x33128008	3.4109718e-08
8	0x332f347d	4.07931e-08
9	0x32527dce	1.22522135e-08
10	0x32218c78	9.403372e-09
11	0xb216f72c	-8.7873495e-09
12	0xb257103b	-1.25183375e-08
13	0x300a7a26	5.037769e-10
14	0xafd7a540	-3.922569e-10
15	0xb0d63926	-1.5586792e-09
16	0x310f0bf7	2.081604e-09
17	0xb13229fa	-2.592627e-09
18	0xb2856b70	-1.5532095e-08
19	0xb06891e2	-8.460842e-10
20	0x311ca41e	2.2794278e-09
21	0xaeefe274	-1.0908688e-10
22	0xb184cc6e	-3.8649466e-09
23	0xb186b8c4	-3.9209187e-09
24	0xb192048c	-4.249676e-09
25	0xb2f434b7	-2.842931e-08
26	0x34a12d28	3.0021442e-07
27	0xb2483561	-1.1653669e-08
28	0xb3036ad0	-3.059796e-08
29	0xb0463736	-7.211044e-10
30	0x32a51b02	1.922081e-08
31	0x3334ad70	4.2067256e-08
32	0x330b9190	3.2495848e-08
33	0xb0bee2d1	-1.3888785e-09
34	0x312f4362	2.5504154e-09
35	0x3384fdf5	6.1929235e-08
36	0xb50ff133	-5.362264e-07
37	0x320eea22	8.3187235e-09
38	0xb60fb61b	-2.141466e-06
39	0xb2e26afb	-2.6358512e-08
40	0x3402783a	1.2150932e-07
41	0x336f1804	5.5668366e-08
42	0x30815ea9	9.412889e-10
43	0x31d27eb0	6.126207e-09
44	0x30739458	8.8613694e-10
45	0x32505282	1.2125954e-08
46	0xb29142d0	-1.6910604e-08
47	0xb204c44c	-7.728044e-09
48	0x34a44291	3.0595814e-07
49	0x2e28d710	3.838979e-11
50	0xb36c2e53	-5.4990164e-08
51	0xb491f90b	-2.7189557e-07
52	0xb2ac5dc0	-2.0066068e-08
53	0x31906364	4.202251e-09
54	0x337d7037	5.900821e-08
55	0x3256a7a4	1.24945565e-08
56	0x31e58b54	6.680617e-09
57	0x34db6e38	4.0872123e-07
58	0x314aaf52	2.9494527e-09
59	0xb2a5f448	-1.9319614e-08
60	0x313729fe	2.6653875e-09
61	0x3415e750	1.3960857e-07
62	0xb4c199bf	-3.6060916e-07
63	0xb4e8c898	-4.335932e-07
64	0x31ce783d	6.0090586e-09
65	0x319406f0	4.3081556e-09
66	0xb3294b31	-3.9416765e-08
67	0xb253792e	-1.23093695e-08
68	0x30aea6c0	1.270756e-09
69	0x33353371	4.2189132e-08
70	0xb18217b6	-3.7861936e-09
71	0x35f5ae20	1.83046e-06
72	0xb319a910	-3.577685e-08
73	0x31a8ca1e	4.9124216e-09
74	0xb2f663aa	-2.8683491e-08
75	0x34dab5f0	4.073804e-07
76	0xaff0480a	-4.3706933e-10
77	0xb3db22bf	-1.02043025e-07
78	0xb40201e3	-1.210788e-07
79	0xb49708d2	-2.813236e-07
80	0x32f06ae1	2.798828e-08
81	0xb3030b77	-3.051124e-08
82	0x33657415	5.3423793e-08
83	0x32ac6f01	2.0073914e-08
84	0xb1808d00	-3.74132e-09
85	0x2f92d50e	2.670863e-10
86	0xb545aeaa	-7.364239e-07
87	0x33814a2c	6.0205224e-08
88	0xb0b7f850	-1.3385577e-09
89	0x32248ed5	9.578533e-09
90	0xb1fa5b88	-7.2863635e-09
91	0x30c24414	1.4134707e-09
92	0x309fbbc0	1.1622134e-09
93	0xb30cc334	-3.2773826e-08
94	0xb22ccb76	-1.0057979e-08
95	0x3318f052	3.5608828e-08
96	0xb34ff088	-4.8414705e-08
97	0x31e37eae	6.6209713e-09
98	0x325525cd	1.2406827e-08
99	0x3411aef4	1.3567825e-07
100	0xb4de2abc	-4.1381816e-07
101	0x344f19a8	1.9287711e-07
102	0xb21909ac	-8.907971e-09
103	0xb3ed97cd	-1.1063785e-07
104	0xb103ccc5	-1.9179407e-09
105	0x32347b00	1.0505346e-08
106	0x34b78f20	3.4190543e-07
107	0xb3427718	-4.527746e-08
108	0x34de3429	4.1388674e-07
109	0xb3981eba	-7.083641e-08
110	0xb4e3c0d6	-4.2422351e-07
111	0x30e66e80	1.6766109e-09
112	0xb38de1c0	-6.606888e-08
113	0xb1882105	-3.961875e-09
114	0xb0c85663	-1.4576468e-09
115	0xb61497f9	-2.2142178e-06
116	0xb2878f57	-1.5781252e-08
117	0xb38896ee	-6.3604475e-08
118	0x31c0ab6b	5.6074234e-09
119	0xb10569bc	-1.941415e-09
120	0x346a1e76	2.180403e-07
121	0xb42216fe	-1.509579e-07
122	0x33f3733b	1.13365296e-07
123	0xb6027818	-1.9441413e-06
124	0x309c6675	1.1379614e-09
125	0xb1102c28	-2.0979858e-09
126	0x31be6566	5.5412555e-09
127	0xb40127f2	-1.2028593e-07
128	0xb2ad9077	-2.0205546e-08
129	0x338fcb42	6.695929e-08
130	0x32b68070	2.1245995e-08
131	0xb01c785d	-5.6923516e-10
132	0xb2214972	-9.388133e-09
133	0xb38c25d2	-6.5261375e-08
134	0x35adb4b4	1.2942096e-06
135	0xb22ef183	-1.0183046e-08
136	0xb225d11a	-9.651808e-09
137	0x32adc67e	2.0230114e-08
138	0x34d0b7e2	3.8876811e-07
139	0xaf607580	-2.0414426e-10
140	0x32a6640e	1.9370443e-08
141	0x33c656dc	9.235893e-08
142	0x338edfd1	6.653102e-08
143	0xb4d38c98	-3.9404108e-07
144	0x327d9090	1.4759408e-08
145	0x308af434	1.0110228e-09
146	0x304ca1da	7.444477e-10
147	0x332af674	3.9805357e-08
148	0xb453d88b	-1.9729684e-07
149	0x340a8aef	1.2902795e-07
150	0xaf1ff748	-1.4548818e-10
151	0xb3dab92c	-1.01850986e-07
152	0x32448a67	1.1440171e-08
153	0x31951a05	4.339429e-09
154	0x33741e81	5.683842e-08
155	0x320c5a6f	8.169635e-09
156	0x31c296b4	5.663276e-09
157	0xb4cc0a9f	-3.800569e-07
158	0xb20c9d44	-8.184831e-09
159	0x340dbc96	1.3200255e-07
160	0x324775ca	1.1610107e-08
161	0x328f6914	1.6695175e-08
162	0xb3e1b6f5	-1.0510659e-07
163	0xb0ae16a4	-1.2666601e-09
164	0xb31b57ee	-3.616872e-08
165	0xb167d79d	-3.3737486e-09
166	0xb29b60db	-1.808842e-08
167	0x32b6dbdf	2.1287574e-08
168	0x34c0de1f	3.59244e-07
169	0x35218153	6.0165365e-07
170	0x30ee0c4c	1.7320274e-09
171	0x31aa7040	4.9604125e-09
172	0x2ff156e3	4.389938e-10
173	0xb1151ebf	-2.169983e-09
174	0xb2d6cc0a	-2.5005665e-08
175	0x305de2aa	8.072144e-10
176	0x3254f8cb	1.2396593e-08
177	0xb234316b	-1.0488615e-08
178	0x3240dd84	1.1226238e-08
179	0xb357891a	-5.018328e-08
180	0x34a11dfa	3.0010398e-07
181	0x31b9206b	5.387894e-09
182	0xafc884c4	-3.6474124e-10
183	0x34d06275	3.8814656e-07
184	0x3293c1b0	1.7201131e-08
185	0x322e571c	1.0147939e-08
186	0x32534ddb	1.2299519e-08
187	0xb39c50c6	-7.279009e-08
188	0x32a5573c	1.9248198e-08
189	0xb01583bc	-5.439309e-10
190	0x322a7bfa	9.923491e-09
191	0xb01d8714	-5.7308225e-10
192	0x3609515d	2.046195e-06
193	0xb4840535	-2.4590705e-07
194	0x30884d9a	9.917358e-10
195	0xb14ed3a2	-3.0097245e-09
196	0x338f42ce	6.671108e-08
197	0xb201c59e	-7.553721e-09
198	0x3212440f	8.513793e-09
199	0x329d003a	1.8277309e-08
200	0xb205d0cb	-7.789093e-09
201	0x332ee946	4.0724693e-08
202	0xb160fb82	-3.2739256e-09
203	0xb505ecab	-4.989076e-07
204	0x310fbca8	2.0916477e-09
205	0xb18809e6	-3.9592463e-09
206	0xb11a9e4a	-2.2499926e-09
207	0xb401074d	-1.2016717e-07
208	0x3307f393	3.1653666e-08
209	0x310eb636	2.0767295e-09
210	0x338de666	6.6077334e-08
211	0xb29ee81f	-1.8499177e-08
212	0xb28a3f48	-1.6094091e-08
213	0x33168e4e	3.5054022e-08
214	0xb13a7564	-2.7133291e-09
215	0x2f2424c8	1.492878e-10
216	0xaede06f8	-1.0096629e-10
217	0x31c22881	5.650748e-09
218	0x31fa67b6	7.287748e-09
219	0xb4d843dd	-4.0282512e-07
220	0x312d2a1b	2.5198748e-09
221	0xb4b631d8	-3.3936408e-07
222	0x2e120b20	3.3206438e-11
223	0x3108d3b9	1.9910955e-09
224	0x2f5cdfa8	2.0088342e-10
225	0xb3192826	-3.5659603e-08
226	0x3206d94f	7.849237e-09
227	0x327aa56c	1.4589528e-08
228	0xb2260770	-9.664163e-09
229	0xb25601f7	-1.2456886e-08
230	0xb493c6b9	-2.7525473e-07
231	0x340e7b8d	1.3269728e-07
232	0x32bd9923	2.2072134e-08
233	0xb402a21b	-1.2166167e-07
234	0x35f80879	1.8479906e-06
235	0x340d4463	1.3156527e-07
236	0xb39cd30a	-7.302704e-08
237	0xb36c7cb9	-5.5061466e-08
238	0xb0d77b2e	-1.5678319e-09
239	0x329860f4	1.7739218e-08
240	0xb0ff3c2b	-1.8570793e-09
241	0xb189dc16	-4.0122456e-09
242	0x3294015c	1.7230086e-08
243	0xb3e9f0c9	-1.08937066e-07
244	0xb217f2a6	-8.844529e-09
245	0x32a762ca	1.9486283e-08
246	0x31220c4e	2.3581097e-09
247	0xb4dd8f8d	-4.1268905e-07
248	0xb4bbb436	-3.4962585e-07
249	0x3116d4bb	2.1948796e-09
250	0x2feb8bc3	4.2845558e-10
251	0xb32b83f8	-3.9934065e-08
252	0xb1b75692	-5.335843e-09
253	0xb120ce76	-2.3400424e-09
254	0x360116cd	1.923577e-06
255	0xb11b1d86	-2.257225e-09

conv_layers.2.0.conv.bias f4 [32]
0	0x305a0d40	7.932677e-10
1	0x31af6c50	5.105484e-09
2	0xb4139ade	-1.3746782e-07
3	0x3206fd27	7.857387e-09
4	0x320ed27e	8.313348e-09
5	0x31b0a174	5.1406293e-09
6	0x3174e9fb	3.5639676e-09
7	0x3346786b	4.6209987e-08
8	0xb0e6839b	-1.6772107e-09
9	0xb401dece	-1.2095117e-07
10	0x338b393c	6.483103e-08
11	0xb0efe969	-1.7455878e-09
12	0xb54d7611	-7.654026e-07
13	0x30d5d916	1.5559489e-09
14	0xb21fcaba	-9.301113e-09
15	0x330b4b47	3.2431924e-08
16	0xb459034b	-2.0210898e-07
17	0xb3247bb8	-3.8296747e-08
18	0xafde5c60	-4.04472e-10
19	0xaff08499	-4.3749962e-10
20	0xb4de35a4	-4.138975e-07
21	0x312fafe2	2.556583e-09
22	0x3284f51c	1.5478285e-08
23	0xb4ad4d6f	-3.2280101e-07
24	0x34013aed	1.2035498e-07
25	0x2fbf1498	3.475733e-10
26	0xb4b1a4db	-3.3088767e-07
27	0x322062d1	9.335694e-09
28	0x33dda29a	1.03206915e-07
29	0xb3ad5c94	-8.07278e-08
30	0xb4de07ca	-4.135639e-07
31	0xb49051d7	-2.6881636e-07

conv_layers.4.0.conv.weight f4 [32, 32, 3, 3]
0	0x3271a3ba	1.4065273e-08
1	0x32384bb7	1.0727425e-08
2	0x3213f007	8.611102e-09
3	0x32b87deb	2.147768e-08
4	0xb1cca100	-5.955485e-09
5	0xb1e5423a	-6.6723063e-09
6	0xb28dcecf	-1.6508606e-08
7	0xb28fb523	-1.6729762e-08
8	0x32f4c895	2.8496553e-08
9	0x33848406	6.170744e-08
10	0xb1e853a7	-6.761599e-09
11	0xb126999b	-2.4243494e-09
12	0x329d920c	1.834362e-08
13	0x2f73160a	2.2108551e-10
14	0x328ed445	1.6627505e-08
15	0xb381832f	-6.030893e-08
16	0xb0f508cd	-1.7828597e-09
17	0x32b24361	2.0752568e-08
18	0xb3245e5b	-3.827004e-08
19	0x32bdf776	2.2115028e-08
20	0xb1fa6ceb	-7.28834e-09
21	0x2f865dc4	2.4441082e-10
22	0x2fc69fc8	3.6129522e-10
23	0xb0cb4fd0	-1.4792878e-09
24	0xb286351c	-1.5623804e-08
25	0x319bf5e4	4.5390482e-09
26	0xb263617b	-1.32353035e-08
27	0x33553521	4.9641248e-08
28	0xb3259cf4	-3.8559804e-08
29	0x31fa7d6d	7.290217e-09
30	0xb19ef750	-4.6265214e-09
31	0x326eff72	1.3911505e-08
32	0x333026e1	4.1013553e-08
33	0x3219f8cb	8.962341e-09
34	0xb0be63d9	-1.3852698e-09
35	0x308d5abc	1.0284888e-09
36	0xb293a118	-1.718631e-08
37	0x2fd306f2	3.838561e-10
38	0x32190405	8.906686e-09
39	0xb207aeee	-7.897809e-09
40	0xb37388f5	-5.6702408e-08
41	0xb18016b2	-3.7278705e-09
42	0xaff2b1c2	-4.4145848e-10
43	0x326db2a1	1.3835831e-08
44	0x3235bcbf	1.05785025e-08
45	0x32ad0cb0	2.014562e-08
46	0xb0b4be2f	-1.3150777e-09
47	0xb1f8661e	-7.2293593e-09
48	0xb3907990	-6.7276346e-08
49	0xb228f60e	-9.834833e-09
50	0x32be52bd	2.2156536e-08
51	0xb1c1e821	-5.6434293e-09
52	0x2d11ff80	8.299028e-12
53	0x323153e0	1.0321827e-08
54	0xb3176911	-3.5252985e-08
55	0xb28252e2	-1.5171683e-08
56	0x3238c9dc	1.0756107e-08
57	0x3309df59	3.210093e-08
58	0xb3692bde	-5.4289437e-08
59	0xb238fad0	-1.0767238e-08
60	0xaf16cb88	-1.371473e-10
61	0xb2393f58	-1.078282e-08
62	0xb17558c4	-3.570265e-09
63	0xb189be71	-4.0088755e-09
64	0xb20bf03e	-8.14549e-09
65	0xb3267a21	-3.8760962e-08
66	0xb294f525	-1.7340946e-08
67	0xb1523396	-3.0588345e-09
68	0xb2b3c633	-2.0928473e-08
69	0xb2977794	-1.7633091e-08
70	0xb11a294a	-2.243342e-09
71	0xb1c27138	-5.6590146e-09
72	0x33287069	3.9217785e-08
73	0xaf8a9704	-2.5209357e-10
74	0xb1ce0c81	-5.9968106e-09
75	0x31bbca22	5.465396e-09
76	0xb18b6e76	-4.0579904e-09
77	0x31e0be99	6.5409265e-09
78	0xb2fac8ea	-2.9195196e-08
79	0xb045da10	-7.197807e-10
80	0xb22d7786	-1.0097102e-08
81	0xb0ed43eb	-1.7263323e-09
82	0x331fdfcc	3.7223614e-08
83	0xb2b225a9	-2.0739053e-08
84	0xb15a5f2d	-3.1777276e-09
85	0xb194d975	-4.332089e-09
86	0x304a0d5a	7.3506146e-10
87	0xb2d01648	-2.422452e-08
88	0x32c743ea	2.3197533e-08
89	0x3131d437	2.587752e-09
90	0xb20e21b5	-8.273152e-09
91	0xb2839a83	-1.5320671e-08
92	0x31d114a7	6.0850485e-09
93	0xb015c750	-5.4489124e-10
94	0x30ff99a2	1.8597357e-09
95	0xb1156e70	-2.174513e-09
96	0xb335da90	-4.2341128e-08
97	0x2f712628	2.1932378e-10
98	0xb2f91500	-2.8996965e-08
99	0xb2a99f24	-1.9746558e-08
100	0xb218bd8b	-8.8906615e-09
101	0x327374ee	1.4171048e-08
102	0x336e45e5	5.5477262e-08
103	0xb1eef200	-6.954224e-09
104	0xb38d74ae	-6.587048e-08
105	0x30c16b12	1.4073029e-09
106	0x32184cdd	8.865041e-09
107	0xb13dc621	-2.7615743e-09
108	0xb13e7daa	-2.772007e-09
109	0xb0a3b260	-1.1910508e-09
110	0x318bbcd2	4.066899e-09
111	0x32a08559	1.8687091e-08
112	0xb1f62db5	-7.1647386e-09
113	0xb13c3591	-2.738805e-09
114	0x3391369e	6.7620235e-08
115	0x308ad3bf	1.0101003e-09
116	0x30f89caa	1.8088901e-09
117	0x312e71d0	2.5385027e-09
118	0xb26d6f6d	-1.3820551e-08
119	0x333a0b5c	4.331683e-08
120	0xb013c97c	-5.3764615e-10
121	0x32ccfa15	2.386245e-08
122	0x33197edc	3.5738466e-08
123	0x31f02ccf	6.9900135e-09
124	0xb09e9c4a	-1.1540433e-09
125	0x3119cad1	2.2379718e-09
126	0x307a9896	9.116631e-10
127	0xb11cadd8	-2.2799806e-09
128	0xb1e942ac	-6.788772e-09
129	0x32b1b34c	2.0687047e-08
130	0x32d60518	2.4915195e-08
131	0x30fa6b53	1.8220397e-09
132	0x3153ff72	3.0849745e-09
133	0xb24f49b5	-1.2065745e-08
134	0xb2267360	-9.688705e-09
135	0x31b32f0d	5.2149347e-09
136	0x33255c1c	3.850083e-08
137	0x31110c1a	2.1107156e-09
138	0x2f9f0160	2.8922909e-10
139	0x32beae46	2.2198162e-08
140	0x313ee9f7	2.7781633e-09
141	0xb2b9bc40	-2.162244e-08
142	0xb188a0b7	-3.976392e-09
143	0x33708de8	5.6008417e-08
144	0xb03e58f8	-6.924803e-10
145	0x31387270	2.6840574e-09
146	0x32265ee4	9.684047e-09
147	0x330a4cdf	3.2200543e-08
148	0xb28cbc8e	-1.638389e-08
149	0x32a7196e	1.9452923e-08
150	0x32bd1f2e	2.2016675e-08
151	0x319b8976	4.526721e-09
152	0xb0534ae2	-7.686777e-10
153	0x31665c2e	3.3521803e-09
154	0xb2c696f7	-2.3118885e-08
155	0x31d39a7c	6.158471e-09
156	0xb2f9dc3e	-2.908757e-08
157	0xb189aebd	-4.00709e-09
158	0x33907de6	6.728423e-08
159	0x32bb6abf	2.1818208e-08
160	0x337852d9	5.781735e-08
161	0x2e344ca0	4.0995318e-11
162	0x332f8191	4.0863203e-08
163	0x31775d85	3.599639e-09
164	0x328eb336	1.6612471e-08
165	0x31800c28	3.7266723e-09
166	0x3329527f	3.942341e-08
167	0x33901806	6.7098924e-08
168	0xb200624a	-7.472929e-09
169	0x2dfc7080	2.8699043e-11
170	0xb228bd20	-9.821889e-09
171	0x32704be2	1.3987092e-08
172	0xb2420f22	-1.1295727e-08
173	0xb201bde1	-7.551962e-09
174	0xb0d920da	-1.5798165e-09
175	0xb321c60e	-3.7665863e-08
176	0xafa0df60	-2.9262548e-10
177	0xb3699bd2	-5.4391258e-08
178	0x32395b9f	1.07892495e-08
179	0x329f11cd	1.8518131e-08
180	0x31ada8d1	5.054155e-09
181	0x332f69c7	4.0841567e-08
182	0xb25653ec	-1.2475521e-08
183	0xb1857f49	-3.88528e-09
184	0xb1373d6b	-2.6664917e-09
185	0xb2ac5f74	-2.0066842e-08
186	0xb1d5c194	-6.221123e-09
187	0xb1bdaa04	-5.5199525e-09
188	0x3203adc3	7.664712e-09
189	0xb23e6191	-1.108164e-08
190	0x30491511	7.315331e-10
191	0x3264be03	1.331455e-08
192	0x30b67ac5	1.3277136e-09
193	0x3205c1ec	7.785712e-09
194	0xb19e5926	-4.60854e-09
195	0xb1ca2614	-5.8833027e-09
196	0xaf2f27d0	-1.5930302e-10
197	0xb15ae2d8	-3.185212e-09
198	0xb1ad0d28	-5.0364584e-09
199	0x324c7ef9	1.1903233e-08
200	0x328a6228	1.610995e-08
201	0xaf14abc8	-1.352155e-10
202	0x3360d0d7	5.2344003e-08
203	0xb156ea27	-3.1274199e-09
204	0x31c0cc38	5.6111524e-09
205	0x3161c833	3.285561e-09
206	0xb28e512a	-1.6567885e-08
207	0xb20fedbd	-8.377751e-09
208	0x31ae502d	5.0731814e-09
209	0xb0afe228	-1.2797203e-09
210	0x323eec36	1.1113164e-08
211	0x32d16ffa	2.4381723e-08
212	0x3272ffa0	1.4144376e-08
213	0x31bc38cd	5.4779776e-09
214	0x31d4c093	6.191905e-09
215	0xb1ab1708	-4.9793734e-09
216	0x333ae529	4.351492e-08
217	0xb331ab13	-4.1366615e-08
218	0xb1189806	-2.2205326e-09
219	0xb3317814	-4.1320234e-08
220	0xb19ec5a9	-4.6208766e-09
221	0x338a0315	6.4266864e-08
222	0x32bea2fe	2.2193031e-08
223	0x31748572	3.5582528e-09
224	0x323e48fa	1.10760485e-08
225	0xb1800b24	-3.726557e-09
226	0x31d6207f	6.231914e-09
227	0x31874794	3.9371546e-09
228	0x33248e85	3.8313846e-08
229	0xb0018993	-4.712543e-10
230	0x320f2caf	8.333855e-09
231	0xb017d1a1	-5.523138e-10
232	0xb2ebd306	-2.7453563e-08
233	0xb221ebe9	-9.425073e-09
234	0x2fccef68	3.7277492e-10
235	0xb107a42a	-1.9738402e-09
236	0x317ad938	3.6503263e-09
237	0xb205e0b4	-7.7927105e-09
238	0x3085fb9a	9.748533e-10
239	0xb1815f2e	-3.765215e-09
240	0x32f7832d	2.8814236e-08
241	0x3205e33d	7.793287e-09
242	0x32bd06dc	2.2005615e-08
243	0xb1130574	-2.1394415e-09
244	0x317cf355	3.6809145e-09
245	0x3102d44c	1.9038167e-09
246	0xb06ebc64	-8.6851615e-10
247	0x32a728e9	1.9459963e-08
248	0x31134996	2.1433144e-09
249	0xb38294c7	-6.080659e-08
250	0xb27720cc	-1.4384749e-08
251	0x32917746	1.6934461e-08
252	0xb3134fc7	-3.429866e-08
253	0x30c0b1c8	1.4020367e-09
254	0xb2e16fee	-2.6244347e-08
255	0x3179cd31	3.6350907e-09

conv_layers.4.0.conv.bias f4 [32]
0	0x306b4242	8.558666e-10
1	0x321d8870	9.169625e-09
2	0xb27f1929	-1.4848674e-08
3	0xb2dc7d67	-2.5668397e-08
4	0x3167d05f	3.373337e-09
5	0xb15f2d17	-3.2476402e-09
6	0xae5d81d5	-5.0364896e-11
7	0x33370c68	4.261929e-08
8	0x331ccd7e	3.6508474e-08
9	0x338b3f3f	6.484196e-08
10	0xb1cbed49	-5.935054e-09
11	0xb29110c8	-1.6887853e-08
12	0x326a32ee	1.3632173e-08
13	0xae1bbb50	-3.5409287e-11
14	0xb08d2365	-1.026916e-09
15	0xb21be9ee	-9.075377e-09
16	0xb09b1250	-1.1282939e-09
17	0xb30a9c04	-3.2272524e-08
18	0x31e82b52	6.7570136e-09
19	0xb11b11e3	-2.2565636e-09
20	0x3100bbd5	1.8733222e-09
21	0xb2dac3c8	-2.5467571e-08
22	0xb216b5e4	-8.772506e-09
23	0xb368bb04	-5.41868e-08
24	0x31f881df	7.2325146e-09
25	0x326d5ed5	1.3816778e-08
26	0xb0a26a6c	-1.1817298e-09
27	0xb1d74970	-6.2656724e-09
28	0x3293c8c8	1.7204357e-08
29	0x3255087c	1.2400161e-08
30	0xb273f26b	-1.4199581e-08
31	0x3200f4dc	7.506255e-09

conv_layers.5.0.conv.weight f4 [32, 32, 3, 3]
0	0xb23f4560	-1.1133437e-08
1	0xb2c86f90	-2.3333797e-08
2	0xb1dd75d9	-6.4453443e-09
3	0xb0153f9d	-5.4296284e-10
4	0x31b2d57b	5.2047517e-09
5	0x332696a3	3.878689e-08
6	0xb2703c26	-1.3983515e-08
7	0xb18bb4ee	-4.0660018e-09
8	0x317f950d	3.719211e-09
9	0xb0ce2a3a	-1.5000474e-09
10	0xb15ef03f	-3.2441816e-09
11	0x31f8b745	7.2385853e-09
12	0x323212e4	1.0365259e-08
13	0xb0a26ab6	-1.181738e-09
14	0xb2a9aafa	-1.975194e-08
15	0x32692247	1.3570179e-08
16	0x3147f182	2.9095593e-09
17	0xb1d12cf9	-6.0878134e-09
18	0x33890cbe	6.3818774e-08
19	0xb30014e4	-2.9821322e-08
20	0xb0eee7ae	-1.7382626e-09
21	0x31ea14a1	6.8126416e-09
22	0xb2beaf28	-2.2198563e-08
23	0x30c89a52	1.4595776e-09
24	0xb298d1e2	-1.7790573e-08
25	0x322076e6	9.34026e-09
26	0xb1a8dd22	-4.9145834e-09
27	0x328b375f	1.620691e-08
28	0x3323a6f9	3.8103256e-08
29	0x332d01c1	4.0281297e-08
30	0xb0e4bb2c	-1.6642381e-09
31	0x32f07d55	2.7996672e-08
32	0xb1e23b53	-6.58421e-09
33	0xb0f5844a	-1.7863695e-09
34	0xafa3c924	-2.9792446e-10
35	0xb15a4c1c	-3.1766438e-09
36	0x3247e169	1.1634577e-08
37	0x310ffb28	2.0952005e-09
38	0x31da638e	6.355953e-09
39	0xb257ebbf	-1.25682496e-08
40	0x30f17160	1.7567281e-09
41	0xb147a076	-2.9049523e-09
42	0xb1258d9d	-2.4091158e-09
43	0x314e8d56	3.0057286e-09
44	0xb38370ec	-6.120703e-08
45	0x31f5f529	7.15831e-09
46	0x328e449a	1.6562172e-08
47	0xb138a1e7	-2.6867555e-09
48	0x31438d3c	2.8456517e-09
49	0x323d48da	1.1017812e-08
50	0x332c96b7	4.0183945e-08
51	0x314dfa5b	2.9973737e-09
52	0xb2768314	-1.4348888e-08
53	0xb2989e39	-1.776708e-08
54	0xb1eddda9	-6.9228077e-09
55	0xb17294d9	-3.5300245e-09
56	0x3214b008	8.654759e-09
57	0xb1f8184e	-7.220513e-09
58	0x337b35d9	5.8489466e-08
59	0xb1840f2b	-3.84343e-09
60	0x332fbf7a	4.091951e-08
61	0x32971876	1.7589837e-08
62	0xaf18e05c	-1.3904028e-10
63	0x31ee32a3	6.9324684e-09
64	0xb12ac717	-2.4851425e-09
65	0xb295afa5	-1.7425757e-08
66	0x32189d4c	8.88333e-09
67	0x322f077c	1.0188042e-08
68	0x3325ce3d	3.860463e-08
69	0xb19e5666	-4.6082276e-09
70	0xb2371412	-1.0656565e-08
71	0x30e9fc7a	1.7024739e-09
72	0x30b4eec3	1.3164584e-09
73	0xb24a248b	-1.1766256e-08
74	0x331d0b2b	3.656457e-08
75	0xb1076c5d	-1.9706683e-09
76	0xb3682775	-5.4052595e-08
77	0x320266a2	7.590332e-09
78	0xb37f3922	-5.9423776e-08
79	0x3129c9da	2.4707476e-09
80	0xb30078f6	-2.9912336e-08
81	0x333145cf	4.1274514e-08
82	0xb340ba23	-4.4872774e-08
83	0xb3900b75	-6.7076066e-08
84	0x31e6a6c4	6.71284e-09
85	0xb29fbf2b	-1.859697e-08
86	0x3081cef1	9.444802e-10
87	0x30afce28	1.2791519e-09
88	0x32f6fabc	2.875219e-08
89	0xb2143b74	-8.628252e-09
90	0xb325abd7	-3.8573344e-08
91	0xb2a5584d	-1.9248683e-08
92	0xaf274014	-1.5211327e-10
93	0xb192c9e4	-4.2721116e-09
94	0x3311930f	3.3894192e-08
95	0x30cb2972	1.4781973e-09
96	0xb2a92b1c	-1.9693793e-08
97	0x321c73fc	9.106767e-09
98	0xb2d7df6b	-2.5130893e-08
99	0xb2f77fe2	-2.8812739e-08
100	0x32f98063	2.9045799e-08
101	0x3336b944	4.2543675e-08
102	0x327685a8	1.43494745e-08
103	0xaf579c60	-1.9609692e-10
104	0xb2a4c4a4	-1.9181535e-08
105	0xb389c690	-6.415678e-08
106	0x2f4a2d6a	1.8387927e-10
107	0x3293cfb2	1.7207501e-08
108	0x31b1e8da	5.17785e-09
109	0xb35068eb	-4.8524196e-08
110	0xb3316fc1	-4.1312664e-08
111	0xb2d735ba	-2.5053726e-08
112	0xb3881219	-6.3362855e-08
113	0xb060a822	-8.1729656e-10
114	0x323907ef	1.0770221e-08
115	0x338b2efc	6.481238e-08
116	0x3292dee9	1.7098005e-08
117	0xb0818fe4	-9.426881e-10
118	0xb169058a	-3.390911e-09
119	0xb269ad3b	-1.3601773e-08
120	0x328e48a0	1.6564002e-08
121	0x31500cf7	3.0275353e-09
122	0xb3123d0c	-3.4048796e-08
123	0xb1de1778	-6.4637184e-09
124	0x3063fefb	8.294447e-10
125	0xb288c332	-1.5921248e-08
126	0xb1fc1436	-7.336463e-09
127	0x311d7028	2.291026e-09
128	0xb22579bf	-9.631946e-09
129	0xb169313e	-3.3933953e-09
130	0x334b3926	4.7316597e-08
131	0xb206585b	-7.819916e-09
132	0x32f672ca	2.869037e-08
133	0x2fa9df28	3.0899483e-10
134	0x32925ed2	1.7039756e-08
135	0xb1f4c2f5	-7.1234987e-09
136	0x3322c92d	3.7901533e-08
137	0x32282d8a	9.789241e-09
138	0x331b1a44	3.6112638e-08
139	0xb101cad9	-1.8887276e-09
140	0x318568cc	3.8827235e-09
141	0xb3219fb6	-3.763099e-08
142	0x3215f9dd	8.729754e-09
143	0xb27653ba	-1.4338122e-08
144	0xb2ec0cdc	-2.7479864e-08
145	0xaf3a3780	-1.6936319e-10
146	0x2f148c90	1.351046e-10
147	0xb15c6b43	-3.2075185e-09
148	0x33227100	3.7821337e-08
149	0x32f4d24f	2.8500976e-08
150	0x2f802370	2.3308244e-10
151	0x332b2018	3.984323e-08
152	0x31b8a490	5.3738134e-09
153	0xb2610f54	-1.3100209e-08
154	0x31e2da48	6.6022814e-09
155	0xb1ec833e	-6.8834245e-09
156	0x30f17fe9	1.7571412e-09
157	0xb1a7b11c	-4.8804747e-09
158	0xb3084ae1	-3.173307e-08
159	0x31e36aab	6.6186963e-09
160	0xb1c81d0d	-5.824069e-09
161	0xb1823b69	-3.790252e-09
162	0x332d1f52	4.0308187e-08
163	0x31ba74bf	5.426585e-09
164	0x326f80a3	1.394088e-08
165	0x31fbf9c6	7.3334574e-09
166	0x3309aab7	3.2053062e-08
167	0xb2ea66f3	-2.7288001e-08
168	0x32d94a5f	2.5295945e-08
169	0xb21ce54f	-9.132534e-09
170	0x32a673e3	1.9377643e-08
171	0x327d2800	1.4735633e-08
172	0xb0f6c091	-1.7953586e-09
173	0xb1896d32	-3.999639e-09
174	0xb3267da0	-3.8764142e-08
175	0x311235de	2.1276416e-09
176	0xb102a6f2	-1.9012387e-09
177	0xb191cd3d	-4.2433883e-09
178	0xb3310f44	-4.1224908e-08
179	0xb289991a	-1.6018522e-08
180	0x322192d5	9.404819e-09
181	0xb1a30732	-4.7447424e-09
182	0xb30c287e	-3.2633118e-08
183	0xb06cc2a6	-8.613291e-10
184	0xb1a064e7	-4.668084e-09
185	0x325db926	1.2905991e-08
186	0x338fad74	6.690507e-08
187	0x32f80c92	2.8876716e-08
188	0x319432e4	4.3131525e-09
189	0x328882e0	1.5891999e-08
190	0x3248f5af	1.1697394e-08
191	0x3151c86e	3.0527434e-09
192	0x2fd2b9cf	3.8330802e-10
193	0x32d3c856	2.4654735e-08
194	0x331eb19a	3.694877e-08
195	0xb27c3a17	-1.4681539e-08
196	0x30c45846	1.4285966e-09
197	0x32748c6b	1.4234597e-08
198	0x31624e60	3.293188e-09
199	0x32d25b41	2.4488715e-08
200	0x3025db4c	6.033829e-10
201	0x324c02f8	1.1875038e-08
202	0x31d9eb3f	6.3422756e-09
203	0x32537819	1.23091235e-08
204	0xb26f744e	-1.3938076e-08
205	0x338f4f3a	6.6733676e-08
206	0x3324de08	3.8386162e-08
207	0x32071a30	7.863989e-09
208	0x2f36e069	1.663253e-10
209	0xb38fd820	-6.698269e-08
210	0x334cb56c	4.7662454e-08
211	0xb0a0ed4e	-1.1708978e-09
212	0x3333a487	4.1826322e-08
213	0x315a39b4	3.1755976e-09
214	0xb2504274	-1.2122303e-08
215	0x31f1aa96	7.0334165e-09
216	0x330f601e	3.33822e-08
217	0x30edca51	1.7301521e-09
218	0x3140216c	2.7958675e-09
219	0xb26068a4	-1.3062309e-08
220	0xb222ce9e	-9.47662e-09
221	0xb0ebf4f0	-1.7168116e-09
222	0x30173614	5.501033e-10
223	0xb19afcb9	-4.510721e-09
224	0x300040c8	4.665819e-10
225	0x320edf32	8.316237e-09
226	0x322a3bf9	9.908939e-09
227	0xb31bf232	-3.6309025e-08
228	0xb20e8954	-8.296713e-09
229	0x3044d18e	7.160218e-10
230	0x3127472a	2.434215e-09
231	0x32700997	1.3972019e-08
232	0x323ac025	1.08703135e-08
233	0xb1a17977	-4.6995257e-09
234	0xb2f94df7	-2.902287e-08
235	0x3121e737	2.3560014e-09
236	0x3079030b	9.0589997e-10
237	0x31d9017b	6.3156995e-09
238	0x2fb02ea0	3.2047343e-10
239	0xb0e68e3e	-1.677513e-09
240	0x327cfcc1	1.47258e-08
241	0x30a7d379	1.2210953e-09
242	0x32b4b456	2.1036765e-08
243	0xb181396a	-3.7609214e-09
244	0xb21c83d8	-9.110373e-09
245	0xb095731e	-1.0873895e-09
246	0xb221dc2c	-9.421495e-09
247	0x3202090d	7.569054e-09
248	0xb0a5e068	-1.206911e-09
249	0xb1ebf884	-6.867653e-09
250	0x32274849	9.737115e-09
251	0xb056a3a0	-7.808527e-10
252	0x313d3984	2.7535814e-09
253	0x313982f6	2.6995486e-09
254	0x30a2ce87	1.184575e-09
255	0x32584e53	1.2590664e-08

conv_layers.5.0.conv.bias f4 [32]
0	0x3205a4b7	7.779071e-09
1	0x32163cd2	8.744978e-09
2	0x327018d0	1.397548e-08
3	0xb212790e	-8.525843e-09
4	0x32beae31	2.2198124e-08
5	0x31685414	3.3808236e-09
6	0xb15ca74c	-3.210931e-09
7	0xb2366e30	-1.0618848e-08
8	0x2ee38908	1.03471065e-10
9	0x328a8814	1.6127196e-08
10	0xb2cc741d	-2.3801528e-08
11	0x31d0004a	6.0536296e-09
12	0xb206bb0f	-7.842359e-09
13	0x31b31484	5.211918e-09
14	0x31cb19d8	5.9110157e-09
15	0xb327f4b1	-3.9105263e-08
16	0x329bfb5c	1.815868e-08
17	0xb372c4b9	-5.6523934e-08
18	0x325b0e3a	1.27507125e-08
19	0xb2989461	-1.7762604e-08
20	0xb1d92e12	-6.320769e-09
21	0x32b360d0	2.0882368e-08
22	0x30a6851f	1.2115925e-09
23	0xb28771e4	-1.576786e-08
24	0x31a652d2	4.8406514e-09
25	0xb31298ab	-3.4132125e-08
26	0xb103e8e2	-1.9195388e-09
27	0x320a58c7	8.052843e-09
28	0xb243f044	-1.1405124e-08
29	0xb38d2c97	-6.573935e-08
30	0xb31c9484	-3.6456655e-08
31	0xb15f5974	-3.250162e-09

conv_layers.7.0.conv.weight f4 [16, 32, 3, 3]
0	0xb22d9925	-1.0104746e-08
1	0x33906323	6.7235554e-08
2	0x32f423b1	2.8421569e-08
3	0x3236ea33	1.0647045e-08
4	0xb15852d2	-3.1479215e-09
5	0x30e987d0	1.6991581e-09
6	0x3322ee34	3.793521e-08
7	0x3205c460	7.786269e-09
8	0x325c32d7	1.2817245e-08
9	0x304bcfd3	7.4146306e-10
10	0xb2d80fdb	-2.515292e-08
11	0xace08dc0	-6.3822003e-12
12	0x31fe7c2a	7.4064888e-09
13	0x320e7356	8.291712e-09
14	0x32f3611e	2.8333087e-08
15	0xb187ff4a	-3.95804e-09
16	0x32e6d8e3	2.6874153e-08
17	0xb0a99f2a	-1.2341606e-09
18	0xb25dcb6a	-1.2910144e-08
19	0x32b5b61c	2.1153987e-08
20	0xb2a42d16	-1.9112615e-08
21	0x32ece408	2.7577713e-08
22	0xb2593312	-1.26426745e-08
23	0xb30d1dec	-3.2856335e-08
24	0x32a0d85e	1.8724844e-08
25	0xaf0d992d	-1.2878294e-10
26	0x3221f7bc	9.427762e-09
27	0x3186a1a5	3.91829e-09
28	0xb35a7aea	-5.086887e-08
29	0x33588a56	5.0417235e-08
30	0x30853f3a	9.694994e-10
31	0xb1171a6c	-2.198841e-09
32	0xadcb8980	-2.313949e-11
33	0xb1ebeaae	-6.86608e-09
34	0xb30617df	-3.1221017e-08
35	0x322ffbf0	1.0243625e-08
36	0x32093a0b	7.987647e-09
37	0x3136ba27	2.65903e-09
38	0xb372579b	-5.6424692e-08
39	0x321d3d6d	9.152569e-09
40	0xb235a544	-1.0573164e-08
41	0x3032ec7a	6.5092076e-10
42	0x33313668	4.1260506e-08
43	0x2eeb066c	1.06877035e-10
44	0x2fb1ab5c	3.231787e-10
45	0x327c6f24	1.4693601e-08
46	0xb157aece	-3.1385983e-09
47	0xb18109ec	-3.755522e-09
48	0xb38d923d	-6.592425e-08
49	0xb25d9f39	-1.2900096e-08
50	0x3226e87e	9.715334e-09
51	0x31df00bd	6.490238e-09
52	0xb2f47dd1	-2.8462553e-08
53	0xb11d7648	-2.2913742e-09
54	0x322a4938	9.91195e-09
55	0xb18075d6	-3.7386867e-09
56	0xb33b6de0	-4.363926e-08
57	0x2f9e861f	2.883533e-10
58	0x31e039dc	6.525836e-09
59	0xb18d2b50	-4.108564e-09
60	0xb083ea1c	-9.598042e-10
61	0xb17ea3d2	-3.7054986e-09
62	0x3102df82	1.904454e-09
63	0xb2accacb	-2.0115655e-08
64	0x32beb2b1	2.220017e-08
65	0xb28e79c7	-1.6586354e-08
66	0xb13a8cb5	-2.7146545e-09
67	0x3174ec4a	3.5640988e-09
68	0xb2a14bf4	-1.8777406e-08
69	0xb0882310	-9.905268e-10
70	0x32681fea	1.3511434e-08
71	0x332849d0	3.918268e-08
72	0xb21fad42	-9.294412e-09
73	0xb38b6d04	-6.492522e-08
74	0xb0861f83	-9.758739e-10
75	0xb3453d09	-4.5923148e-08
76	0x2ef4ca25	1.11317434e-10
77	0xb34b386e	-4.7315943e-08
78	0x32a7c989	1.9533006e-08
79	0x32b76406	2.134949e-08
80	0xb38edf5e	-6.6530205e-08
81	0xb0f52ffa	-1.7839732e-09
82	0xb28bf8a6	-1.6294802e-08
83	0x3015db6a	5.451769e-10
84	0x3198fa32	4.452226e-09
85	0x30a0789d	1.1675813e-09
86	0xb00d5690	-5.1418514e-10
87	0x303d949c	6.8968986e-10
88	0xb21ed6ba	-9.245634e-09
89	0xb114d69e	-2.165883e-09
90	0x325b6878	1.2771231e-08
91	0xb122ef7c	-2.3710234e-09
92	0x313cf7cc	2.7498457e-09
93	0x32beb246	2.219998e-08
94	0x3138b850	2.6880294e-09
95	0x339696be	7.012339e-08
96	0xb1a809c9	-4.890556e-09
97	0xb205127c	-7.745822e-09
98	0x320e4585	8.281295e-09
99	0xb178036d	-3.6090697e-09
100	0xb0dbab8f	-1.5983107e-09
101	0xb0b9a188	-1.3506432e-09
102	0xb174a84a	-3.5602334e-09
103	0xb22314db	-9.492591e-09
104	0x32b49182	2.1020927e-08
105	0x32dd9992	2.5797622e-08
106	0xb38738fb	-6.296792e-08
107	0xafbef187	-3.4732414e-10
108	0xb2f80326	-2.8872432e-08
109	0x33905c6a	6.7223326e-08
110	0xb27abb7a	-1.45945425e-08
111	0xb0f44008	-1.7771535e-09
112	0x334bd27c	4.7456055e-08
113	0x311df17f	2.2983782e-09
114	0x33852a2f	6.200968e-08
115	0xafd89b65	-3.9400586e-10
116	0xb1c07ebe	-5.6023444e-09
117	0x312c98e5	2.5116205e-09
118	0xb293a456	-1.7187784e-08
119	0xb2397f2e	-1.0797335e-08
120	0xb26f7a84	-1.3939488e-08
121	0x3235ead6	1.0588982e-08
122	0x33853de2	6.2045515e-08
123	0x3302cb13	3.045268e-08
124	0x3257bd2c	1.255766e-08
125	0x31eedaf8	6.9516055e-09
126	0xb296ff8a	-1.7578504e-08
127	0x306b14c4	8.552201e-10
128	0x320b9dd2	8.126749e-09
129	0x31f91c10	7.250044e-09
130	0xb1f96e01	-7.25936e-09
131	0x3218c844	8.8931e-09
132	0xb22c73f1	-1.003808e-08
133	0xb1eff716	-6.983906e-09
134	0x2fc32cd7	3.5502154e-10
135	0xafad387c	-3.150865e-10
136	0xb136207d	-2.6502953e-09
137	0xb036bd99	-6.648065e-10
138	0xb2363058	-1.0604786e-08
139	0xb14f0617	-3.0125926e-09
140	0x3060ebe3	8.182594e-10
141	0xb1755035	-3.5697785e-09
142	0xb22205ae	-9.4309325e-09
143	0x332f4835	4.0811035e-08
144	0x32b6fae2	2.1301677e-08
145	0x322c8ba0	1.0043465e-08
146	0xb1a43e67	-4.7801225e-09
147	0xb259271f	-1.26399575e-08
148	0xb319a9cd	-3.577752e-08
149	0x3062fe81	8.2579993e-10
150	0xb24df07c	-1.198725e-08
151	0xb33121eb	-4.1241872e-08
152	0x320ebc38	8.308284e-09
153	0xb129524a	-2.4639513e-09
154	0x320b19d8	8.096741e-09
155	0xb1d0ce98	-6.0770837e-09
156	0x312459e6	2.3916242e-09
157	0xb279675b	-1.4517208e-08
158	0xb2ee6ec8	-2.7757224e-08
159	0xb32f3239	-4.079104e-08
160	0x2eb20580	8.09548e-11
161	0x3303be3b	3.0673828e-08
162	0x338dcc0a	6.6029386e-08
163	0xb22f20bc	-1.0193784e-08
164	0xb2abe29b	-2.0010068e-08
165	0x2fcd14d1	3.7304074e-10
166	0xb18b2e07	-4.050665e-09
167	0xb00c12fc	-5.095868e-10
168	0xb30f2004	-3.33239e-08
169	0xb25c6c0e	-1.2830254e-08
170	0x325711d5	1.2518702e-08
171	0x2fbc63b6	3.426785e-10
172	0xb26dae1f	-1.3834806e-08
173	0xb34b9927	-4.7403912e-08
174	0xb280eb17	-1.5008068e-08
175	0xaf757a67	-2.2326106e-10
176	0x32391d90	1.0775139e-08
177	0x323c74b8	1.0969579e-08
178	0xb0f3aff2	-1.7730584e-09
179	0xb2f46e99	-2.8455633e-08
180	0xb1cd7470	-5.9795227e-09
181	0x32da0f3d	2.538547e-08
182	0x31540d53	3.0857634e-09
183	0x309f9319	1.161058e-09
184	0xb1fe8094	-7.4069906e-09
185	0xb03c3116	-6.8463757e-10
186	0x32ac74f8	2.0076627e-08
187	0xb27e526f	-1.4803489e-08
188	0xb1765374	-3.584515e-09
189	0xb2152b46	-8.682781e-09
190	0x2f84ae00	2.4134295e-10
191	0xb1accbd0	-5.0290296e-09
192	0xaf6d6506	-2.1590915e-10
193	0xb149785e	-2.931777e-09
194	0xb22a9105	-9.928276e-09
195	0x330d367a	3.2878667e-08
196	0x3295deb5	1.7447158e-08
197	0x332c7b48	4.0158994e-08
198	0xb129a9e4	-2.4689308e-09
199	0xb3252deb	-3.845882e-08
200	0x32bd88c9	2.2064699e-08
201	0x32854f09	1.5519179e-08
202	0xb2202445	-9.3214725e-09
203	0x317794d6	3.6027834e-09
204	0x33843c97	6.15775e-08
205	0xb326a678	-3.880129e-08
206	0x2f2fd3d1	1.599141e-10
207	0x31f92249	7.2507516e-09
208	0x3324ebba	3.8398618e-08
209	0xb1ec1f11	-6.872036e-09
210	0xb2b77dfe	-2.1361299e-08
211	0xb1afa1db	-5.111571e-09
212	0x32a271db	1.8911058e-08
213	0x3206ab78	7.838814e-09
214	0x3100f459	1.8765347e-09
215	0xb2f51ec5	-2.8535746e-08
216	0xafe835f6	-4.2238896e-10
217	0xb2def22f	-2.5954334e-08
218	0xb31a3248	-3.590165e-08
219	0xb2eecd93	-2.7800331e-08
220	0xb1b8c8f6	-5.3779514e-09
221	0xb2b74509	-2.1335397e-08
222	0xb3317b64	-4.1323247e-08
223	0x319919be	4.4558126e-09
224	0xb209f876	-8.030943e-09
225	0x31582935	3.145556e-09
226	0x330c393c	3.2648344e-08
227	0xb23657c1	-1.0613747e-08
228	0xb32dc79e	-4.0461252e-08
229	0xb2554718	-1.2414397e-08
230	0x33305621	4.1056527e-08
231	0x31ab17be	4.979454e-09
232	0xaf694c00	-2.1218227e-10
233	0xb2002bf3	-7.4605735e-09
234	0x333ac92a	4.3489457e-08
235	0x3371859e	5.623371e-08
236	0xb2c6546a	-2.308862e-08
237	0xb23f491d	-1.1134287e-08
238	0xb2a886cf	-1.9619078e-08
239	0x326045dd	1.3054401e-08
240	0xb0f568ab	-1.7855845e-09
241	0x32a4942e	1.9159497e-08
242	0x338b1815	6.4770724e-08
243	0xb0885afa	-9.92116e-10
244	0x2ec333c0	8.876766e-11
245	0xaf3f11ee	-1.7377719e-10
246	0x32768aea	1.435067e-08
247	0xaf7647e4	-2.239911e-10
248	0x2f994900	2.7882407e-10
249	0xb1020adb	-1.892366e-09
250	0x31cbe5e2	5.9342122e-09
251	0x32242916	9.555398e-09
252	0xb0935248	-1.0719043e-09
253	0xb1681e2f	-3.37776e-09
254	0xb2dce596	-2.5715774e-08
255	0x3304f3ee	3.0955498e-08

conv_layers.7.0.conv.bias f4 [16]
0	0xb25427d6	-1.2349082e-08
1	0x32338b49	1.0450841e-08
2	0x3330347d	4.102593e-08
3	0xb380472c	-5.9734106e-08
4	0x3291b350	1.6961764e-08
5	0x32b36d8a	2.0888155e-08
6	0xb387fc39	-6.3323064e-08
7	0x31cebbad	6.0167253e-09
8	0xb10c34da	-2.0402724e-09
9	0x3086654c	9.778574e-10
10	0x308fc4a2	1.0460506e-09
11	0x311ce977	2.2833697e-09
12	0x31b8b256	5.3753793e-09
13	0x327ce70c	1.47208645e-08
14	0x31f2c6e7	7.0657395e-09
15	0xb2be61d7	-2.2163404e-08

linear_layers.0.weight f4 [64, 400]
0	0xb0922b69	-1.0635236e-09
1	0xb0b3e45e	-1.308887e-09
2	0xaf9d6e70	-2.8636604e-10
3	0xb1fbd6ec	-7.3294952e-09
4	0xb30292b8	-3.0401424e-08
5	0x31e08509	6.5343824e-09
6	0xb17c3d02	-3.6705505e-09
7	0xb10a5588	-2.0130262e-09
8	0xb152d07b	-3.067753e-09
9	0xb235a30a	-1.0572657e-08
10	0x3327a133	3.9029327e-08
11	0x2f42263c	1.7657781e-10
12	0x2f57b242	1.9617466e-10
13	0xb2ac87f4	-2.008526e-08
14	0xb150b6d2	-3.0371905e-09
15	0xb2b69a04	-2.1257627e-08
16	0x31acbe25	5.0274758e-09
17	0xb31b776e	-3.619737e-08
18	0xb218a444	-8.884914e-09
19	0xb2353d98	-1.0549591e-08
20	0x2f3fc9df	1.7443068e-10
21	0x3213fb9d	8.613736e-09
22	0x32a579c7	1.9263906e-08
23	0x32391d12	1.0775027e-08
24	0xb21eb3f2	-9.237725e-09
25	0x32b26ab4	2.077045e-08
26	0xb258ac3e	-1.2612018e-08
27	0xb2e17c6e	-2.6250031e-08
28	0xb214f01a	-8.669327e-09
29	0x32150147	8.673232e-09
30	0xaff4cb0a	-4.452761e-10
31	0x32520e0b	1.2226802e-08
32	0x316ae793	3.4183116e-09
33	0xb19716af	-4.3972572e-09
34	0x2c4d58c0	2.9181518e-12
35	0x332d525f	4.0354617e-08
36	0xb0ae0633	-1.2661928e-09
37	0xb21ad644	-9.012698e-09
38	0x31d6cb85	6.251357e-09
39	0x31c777c6	5.805279e-09
40	0x320ebc29	8.3082705e-09
41	0xb21d3559	-9.150733e-09
42	0x30e0bc1f	1.6351612e-09
43	0x319fde2c	4.652767e-09
44	0xb1c955fc	-5.859645e-09
45	0x2f426c94	1.7682772e-10
46	0xb1593d28	-3.161242e-09
47	0x31aed774	5.0885607e-09
48	0xaf343d50	-1.6392687e-10
49	0xb1157268	-2.1747386e-09
50	0xb2aa1c54	-1.9803487e-08
51	0x3054dbe0	7.743761e-10
52	0xb256aadc	-1.2495288e-08
53	0xb1c3e494	-5.7012333e-09
54	0xb2e55c36	-2.6701041e-08
55	0xb21b485f	-9.038643e-09
56	0x3220e6d8	9.3657135e-09
57	0xad909c00	-1.6440183e-11
58	0xb1030add	-1.9069184e-09
59	0x3295f803	1.7458666e-08
60	0x3295b59f	1.7428475e-08
61	0x31af6054	5.1041216e-09
62	0xb2e97020	-2.7175759e-08
63	0x31808590	3.7404746e-09
64	0xb28b229c	-1.6197468e-08
65	0x323f3508	1.1129721e-08
66	0x332fb6dd	4.0911676e-08
67	0xb06625e2	-8.372735e-10
68	0xb280b39f	-1.4982843e-08
69	0xb2bf8f48	-2.2300483e-08
70	0xb1b78a00	-5.3416898e-09
71	0x3326441a	3.8711825e-08
72	0x31b7c4ef	5.3483897e-09
73	0xaeae1318	-7.9159956e-11
74	0x326f28d2	1.3920912e-08
75	0xb2f6b7a2	-2.8721676e-08
76	0x31854e7a	3.879731e-09
77	0xb1ab5272	-4.986128e-09
78	0x301501a2	5.4208205e-10
79	0xb0916a6a	-1.0580383e-09
80	0xb24a4a54	-1.1774848e-08
81	0xb2424c48	-1.1309631e-08
82	0xaf10fc78	-1.3186419e-10
83	0x31125ecf	2.1299689e-09
84	0x31fd9043	7.3796698e-09
85	0x31602f35	3.2623124e-09
86	0x329073c4	1.681645e-08
87	0xb0c6ee89	-1.4474192e-09
88	0xb16aa0ee	-3.414296e-09
89	0xae13a1e0	-3.3567704e-11
90	0xb25765f8	-1.2537832e-08
91	0x30aa0615	1.2370857e-09
92	0xb21e838a	-9.226719e-09
93	0xb211e70c	-8.492645e-09
94	0x318c1345	4.076727e-09
95	0x326042a2	1.3053667e-08
96	0x31b501b6	5.267988e-09
97	0x32b4b9ad	2.1039193e-08
98	0xafedc612	-4.3250786e-10
99	0xb220f0e9	-9.368002e-09
100	0xb1e45879	-6.6457315e-09
101	0x325a6fdf	1.2714707e-08
102	0x310043e8	1.8665052e-09
103	0xb205d89a	-7.790868e-09
104	0x3289ecc3	1.6056566e-08
105	0xb0fcafca	-1.8385375e-09
106	0xb1b40e9b	-5.24035e-09
107	0xb21dcf05	-9.1856736e-09
108	0x31767e3b	3.5869465e-09
109	0xb25f21e9	-1.2988019e-08
110	0xb0f660b2	-1.7926338e-09
111	0xb1c2fa90	-5.6746288e-09
112	0xb288097a	-1.5836793e-08
113	0x307485af	8.895666e-10
114	0xb28dcf79	-1.6508908e-08
115	0xb21e3352	-9.208479e-09
116	0x30421e66	7.061999e-10
117	0x32217d85	9.399973e-09
118	0x329d22c9	1.8293024e-08
119	0x32e36512	2.647224e-08
120	0xb2905f07	-1.680702e-08
121	0x32330454	1.0420155e-08
122	0x31920d06	4.25064e-09
123	0x2ec481b0	8.936085e-11
124	0xb28eecb4	-1.6638616e-08
125	0x32213dc6	9.385479e-09
126	0x2f7e9e78	2.3157465e-10
127	0x32627378	1.3181186e-08
128	0xb2b2b694	-2.0804954e-08
129	0xb32a19f9	-3.960483e-08
130	0x31fcb6fe	7.354969e-09
131	0xb29574ca	-1.7398992e-08
132	0xb28a3900	-1.6091235e-08
133	0xb22b313e	-9.964706e-09
134	0x327cc310	1.4712683e-08
135	0xb293a915	-1.7189942e-08
136	0xb1f60677	-7.1602773e-09
137	0x3285ad45	1.5562032e-08
138	0xb1a0086d	-4.6575708e-09
139	0xb23576ac	-1.05625695e-08
140	0x328dcb29	1.6506947e-08
141	0xb32a5d42	-3.9666027e-08
142	0x32d0f9b1	2.4327933e-08
143	0xb2e5c9f8	-2.6750953e-08
144	0xb1da4112	-6.3520327e-09
145	0x31e6a932	6.7131163e-09
146	0xb3008370	-2.9921864e-08
147	0xb282065e	-1.5136887e-08
148	0xb13a7171	-2.7131046e-09
149	0x2fe887a8	4.2296944e-10
150	0x33159836	3.48302e-08
151	0xb2099f19	-8.010624e-09
152	0x316ffe50	3.4923637e-09
153	0x327b9ecc	1.4646229e-08
154	0x31e01b1d	6.5223404e-09
155	0x2f6dbe2e	2.162259e-10
156	0x324b13ae	1.182063e-08
157	0x329159ed	1.6921115e-08
158	0xb0d36e32	-1.538359e-09
159	0x31a440ff	4.7804174e-09
160	0x3155d3f0	3.1116052e-09
161	0x31d23e8c	6.118915e-09
162	0x3275a19c	1.4297623e-08
163	0x32094e41	7.992242e-09
164	0x3241ecb4	1.1287899e-08
165	0x3228234c	9.786913e-09
166	0x31c124d2	5.6212253e-09
167	0x3187d8be	3.953658e-09
168	0x3083a568	9.578516e-10
169	0xb1961901	-4.368417e-09
170	0x325fb0ea	1.3020534e-08
171	0xb2d87ad4	-2.5201565e-08
172	0x2fa852a1	3.0617733e-10
173	0xb0c759cb	-1.4504676e-09
174	0x3026f9ee	6.074562e-10
175	0x3237b71a	1.0693634e-08
176	0xb1080b9a	-1.97972e-09
177	0xb266d4a6	-1.3436113e-08
178	0xb189ca80	-4.0102464e-09
179	0xb13daeed	-2.7602554e-09
180	0x31a6eef8	4.8584035e-09
181	0xb1299aed	-2.4680802e-09
182	0x331b3171	3.6133716e-08
183	0xb0edfc46	-1.731572e-09
184	0xb32a6d91	-3.968086e-08
185	0x3331a946	4.1364977e-08
186	0x31b8e2a4	5.380871e-09
187	0x2e41ad70	4.4037163e-11
188	0xb2b0cca7	-2.0582162e-08
189	0xaf6bc5d0	-2.1443403e-10
190	0x31795a84	3.628572e-09
191	0x315fd364	3.2570933e-09
192	0x3138f7e4	2.6916434e-09
193	0xb1fabeed	-7.2976634e-09
194	0x32ab1134	1.9914843e-08
195	0xb1e84643	-6.7600765e-09
196	0xb0814fa0	-9.408616e-10
197	0xb2bd82b4	-2.2061933e-08
198	0xb18e832b	-4.147656e-09
199	0xb243a14d	-1.1387169e-08
200	0xb206685b	-7.823554e-09
201	0x31236df8	2.3782132e-09
202	0xb1f26077	-7.0540938e-09
203	0x2edb5696	9.974348e-11
204	0x327ceb46	1.47218255e-08
205	0x31c9c935	5.8727445e-09
206	0xb27be6a2	-1.4662563e-08
207	0x30b9b822	1.3512855e-09
208	0x3121fe39	2.3573092e-09
209	0xb11f3c57	-2.3171844e-09
210	0xaedec268	-1.0129925e-10
211	0xb001659a	-4.707431e-10
212	0x32036e77	7.65032e-09
213	0xb23303cb	-1.0420034e-08
214	0x31d7d061	6.2810135e-09
215	0x327d915a	1.4759587e-08
216	0xb16405cd	-3.3181664e-09
217	0x31b83c95	5.361992e-09
218	0x2fa255e3	2.9528655e-10
219	0x31cefe76	6.024318e-09
220	0xb1ae34f9	-5.070089e-09
221	0xb2e1c71a	-2.6283988e-08
222	0xb298b2ed	-1.7776495e-08
223	0xb28abd95	-1.6151526e-08
224	0xb141518a	-2.8131546e-09
225	0x32b0b5a3	2.0571695e-08
226	0xb26d0a75	-1.3797593e-08
227	0xb02f260f	-6.3718714e-10
228	0xb155eb2e	-3.1129264e-09
229	0xb07526d4	-8.918566e-10
230	0xb1acd374	-5.0298983e-09
231	0xb1dc1ede	-6.406352e-09
232	0x2fb35b3c	3.2624736e-10
233	0xb2ab3de3	-1.9935163e-08
234	0xb01aaf1a	-5.627371e-10
235	0x31fd6516	7.3747612e-09
236	0x3136e306	2.6613534e-09
237	0x32ddb67d	2.5810772e-08
238	0x30b1bac4	1.2931527e-09
239	0xb15e9381	-3.2389098e-09
240	0xb25d60e7	-1.2885926e-08
241	0x320e9d37	8.301234e-09
242	0x3276911d	1.43520795e-08
243	0xb0dbc810	-1.5991208e-09
244	0xb32d093f	-4.028811e-08
245	0xb2113221	-8.451509e-09
246	0x31d0aa06	6.072926e-09
247	0xb20e9c63	-8.301046e-09
248	0x31b03148	5.127877e-09
249	0x308ad768	1.0102044e-09
250	0x32ab312e	1.9929384e-08
251	0xb0fb3fa0	-1.8280737e-09
252	0x33319a1c	4.1351186e-08
253	0xb0f97db4	-1.8152861e-09
254	0xb24d0ca3	-1.1935444e-08
255	0x3209d512	8.022896e-09

linear_layers.0.bias f4 [64]
0	0x2fb88ba8	3.3568637e-10
1	0xaf90312b	-2.6228383e-10
2	0xb2df9d28	-2.6032083e-08
3	0xafa6a6e0	-3.0313796e-10
4	0x31082900	1.981391e-09
5	0x3204f278	7.738542e-09
6	0xb2fa062d	-2.9106639e-08
7	0xaff096b0	-4.3762816e-10
8	0xb2df341e	-2.5984317e-08
9	0x2f1affa0	1.4097035e-10
10	0x3201d83b	7.557953e-09
11	0x30f94d4f	1.8139107e-09
12	0xb2e8ecf9	-2.7116117e-08
13	0x319e55ef	4.6081747e-09
14	0xb1a0d7b9	-4.6811377e-09
15	0xb0617164	-8.201566e-10
16	0xb2004ca6	-7.468008e-09
17	0x31aa99dc	4.965143e-09
18	0x322204a4	9.430696e-09
19	0xb15e6302	-3.2361531e-09
20	0xb23d2a2c	-1.1010837e-08
21	0xb01e50e8	-5.759504e-10
22	0x3221e170	9.422692e-09
23	0xb2b99935	-2.1606505e-08
24	0xb224a854	-9.58433e-09
25	0x3297cd28	1.7672008e-08
26	0xb1237cba	-2.379052e-09
27	0x3191ab15	4.239505e-09
28	0x300aac9f	5.0449417e-10
29	0xb1079955	-1.9732245e-09
30	0x3326acff	3.8807226e-08
31	0x32d9db6b	2.5361905e-08
32	0xb21b1ee4	-9.029211e-09
33	0x2fc744f9	3.6246897e-10
34	0x318988ab	4.002762e-09
35	0x31b95682	5.3940434e-09
36	0xb17392b0	-3.5444536e-09
37	0xb19c100a	-4.542021e-09
38	0x305801d0	7.858292e-10
39	0xb21d5a5e	-9.15915e-09
40	0xb0d9f064	-1.5857151e-09
41	0xafe04ba5	-4.079911e-10
42	0xb0d916a4	-1.5795263e-09
43	0xb2524880	-1.2240093e-08
44	0xb259f9ae	-1.2687833e-08
45	0xb2397e93	-1.0797197e-08
46	0x32689a9f	1.3539334e-08
47	0xb1b26672	-5.1921285e-09
48	0xb28672b9	-1.5651823e-08
49	0x30453388	7.1741413e-10
50	0xb1113470	-2.1130084e-09
51	0x2eacb05a	7.852981e-11
52	0xaf54e298	-1.936179e-10
53	0x30cab3dd	1.4748555e-09
54	0x317460ae	3.556163e-09
55	0xb0b2392d	-1.2967455e-09
56	0xb039e968	-6.76343e-10
57	0x32b629d1	2.1206604e-08
58	0x322e55b6	1.0147621e-08
59	0xb27d4fbe	-1.47446695e-08
60	0xb29f865b	-1.8571134e-08
61	0x32b771bc	2.1355724e-08
62	0x2fcc2711	3.7135142e-10
63	0xb1d0891c	-6.0691843e-09
