models/model_1726659994720/model.pth (torch, 227178 bytes, 14 tensors)

conv_layers.0.0.conv.weight f4 [16, 10, 3, 3]
0.0039661 0.0037533105 0.0067938184 0.008198958 0.004924966 0.0062082973 0.004145254 0.007292533
0.004042738 0.012520492 0.012626076 -0.010500235 0.013173202 0.014332083 0.014898579 0.014936622
0.015069395 -0.00764258 0.011895188 0.011216205 0.009246177 0.009793847 0.009363472 0.004623831
0.0075540384 0.008630858 0.007813881 0.017135574 0.015356784 0.020544447 0.011997664 0.0134468675
0.01695617 0.0116019435 0.015560185 0.01840205 0.014656018 0.020291647 0.01932612 0.021332689
0.01614581 0.01975327 0.011737084 0.0149525795 0.019728027 0.010506654 0.014504314 0.014327746
0.012308081 0.014164057 0.014899053 0.013860742 0.0147777125 0.014869616 -0.027837489 -0.030749094
-0.026344582 -0.027325606 -0.027910909 -0.027758963 -0.021156803 -0.026560668 -0.02594734 -0.02259617
-0.03173904 -0.03313539 -0.017876998 -0.02992542 -0.02653142 -0.033086967 -0.03362731 -0.03041359
0.0056853886 -0.0021507768 0.021448528 0.003326891 0.0060559316 0.016742472 0.007298668 0.012757514
0.016712045 0.0012429261 -0.012231473 -0.0011183823 -0.0019980299 0.013682922 -0.0017731041 -0.014765569
-0.009933465 0.0079588145 0.008804611 0.006409702 0.007683639 0.0058269827 0.007378985 0.013736007
0.0110346135 0.005285847 0.0068280078 0.024856344 0.020545235 0.0060720965 0.022509988 0.024493117
0.023379086 -0.0011869714 0.015490342 -0.0065088077 0.022039559 0.01983277 0.012337649 0.017556315
0.020052182 0.02290548 -0.00028323324 0.009609381 0.017247632 0.025694896 0.026182285 0.010680898
0.022508174 0.029284857 0.03101836 0.011497978 0.012520653 0.022872861 0.029792152 0.030080931
0.022264842 0.025284572 0.031374067 0.02480923 0.012338875 0.023282126 0.024689693 0.012314415
0.016939698 0.011212207 0.010380818 0.015947185 0.017620962 0.01635508 0.012897439 0.013145021
-0.039997317 -0.039817765 -0.04904257 -0.025828127 -0.031310122 -0.04641547 -0.03652914 -0.035857335
-0.010359327 -0.033707667 -0.03638136 -0.0394562 -0.003306195 -0.0066580037 -0.035818864 -0.0076207025
-0.048087712 0.0030698122 0.011730527 0.016350638 -0.00885007 0.019909538 0.010434427 0.013671599
0.016149482 0.016066467 0.017012509 -0.025863612 0.021295577 0.006230062 0.0012216778 0.028965533
0.0045882748 0.0010295787 0.014808285 0.002423261 -0.007366478 -0.0030474684 -0.0045255665 -0.004233024
-0.0051557207 -0.0045875274 -0.004853814 -0.0068794126 -0.005255938 -0.013437978 -0.016050007 -0.026500339
-0.013907267 -0.01452724 -0.015587798 -0.016274171 -0.012814972 -0.014087205 -0.009565969 -0.0073032374
-0.0075993584 -0.0060351742 -0.008619453 -0.005925854 -0.007332908 -0.0063760974 -0.006284883 -0.008520381
-0.010471042 -0.007850529 -0.010143519 -0.009391113 -0.0108971195 -0.012306478 -0.011670145 -0.01004287
-0.0114591615 -0.013103608 -0.010882818 -0.012474073 -0.013886359 -0.014982573 -0.018057683 -0.016346531
-0.012649353 -0.008161925 -0.008149234 -0.0067325537 -0.006646908 -0.007034648 -0.007380491 -0.009516914
-0.008498513 -0.009538184 0.021045184 0.022484938 0.018106822 0.023483261 0.011654145 0.023989901
0.022489566 0.010848731 0.020786209 0.020302191 0.021818642 0.021740882 0.020849567 0.021381324
0.023614578 0.019513814 0.02215158 0.019699657 -0.0035010758 0.00062285044 -5.0782488e-05 0.0006480999
00000000: 0ff6 813b 1afa 753b ae9e de3b ec54 063c
00000010: 9c61 a13b f96e cb3b e9d4 873b 33f6 ee3b
00000020: f278 843b c022 4d3c 9add 4e3c 2d09 2cbc
00000030: 6ad4 573c 1dd1 6a3c 2b19 743c bcb8 743c
00000040: a0e5 763c 9c6e fabb 09e4 423c 2cc4 373c
00000050: 477d 173c 5f76 203c 4069 193c 8183 973b
00000060: de87 f73b 7168 0d3c cb05 003c e75f 8c3c
00000070: 059b 7b3c d44c a83c da91 443c 4050 5c3c
00000080: aae7 8a3c 1416 3e3c 25f0 7e3c e5bf 963c
00000090: cb1f 703c ab3a a63c d051 9e3c e4c1 ae3c
000000a0: 3844 843c 9cd1 a13c e64c 403c aafb 743c
000000b0: ac9c a13c 1a24 2c3c 81a3 6d3c ecbe 6a3c
000000c0: d5a7 493c 5c10 683c 281b 743c 2a18 633c
000000d0: 381e 723c b19f 733c 720b e4bc 86e5 fbbc
000000e0: 98d0 d7bc f3d9 dfbc 6ba5 e4bc c466 e3bc
000000f0: 0851 adbc c295 d9bc 848f d4bc 9a1b b9bc
00000100: cc00 02bd fab8 07bd c872 92bc 2826 f5bc
00000110: 6c58 d9bc 3386 07bd cabc 09bd ec25 f9bc
00000120: 7f4c ba3b 0cf4 0cbb d3b4 af3c f807 5a3b
00000130: d670 c63b 8227 893c aa29 ef3b e404 513c
00000140: b3e7 883c aee9 a23a 8466 48bc af96 92ba
00000150: 61f1 02bb 562e 603c 8067 e8ba 49eb 71bc
00000160: f9bf 22bc b065 023c 3741 103c 7a08 d23b
00000170: 09c7 fb3b 46f0 be3b 6acb f13b fd0c 613c
00000180: 86ca 343c e634 ad3b 7bbd df3b 889f cb3c
00000190: 7b4e a83c 70f8 c63b de66 b83c caa5 c83c
000001a0: 7f85 bf3c 2794 9bba 34cb 7d3c d647 d5bb
000001b0: 4e8c b43c 5578 a23c da23 4a3c 43d2 8f3c
000001c0: 7944 a43c 46a4 bb3c ec7e 94b9 aa70 1d3c
000001d0: e84a 8d3c 1a7e d23c 3b7c d63c effe 2e3c
000001e0: 1063 b83c cce6 ef3c 371a fe3c 0462 3c3c
000001f0: 6d23 4d3c de5f bb3c ac0e f43c 496c f63c
00000200: c264 b63c 9721 cf3c 1882 003d ba3c cb3c
00000210: fe28 4a3c 28ba be3c 0a42 ca3c 66c2 493c
00000220: 1fc5 8a3c 68b3 373c 4e14 2a3c aca3 823c
00000230: d659 903c 17fb 853c c84f 533c 375e 573c
00000240: 3ad4 23bd f417 23bd dde0 48bd 8295 d3bc
00000250: 0b3f 00bd 261e 3ebd 949f 15bd 24df 12bd
00000260: 2bba 29bc 0d11 0abd 9f04 15bd d39c 21bd
00000270: bfac 58bb 622b dabb cdb6 12bd 16b7 f9bb
00000280: 9ff7 44bd e72e 493b 6531 403c c6f1 853c
00000290: e2ff 10bc 5419 a33c 29f5 2a3c d8fe 5f3c
000002a0: eb4b 843c d39d 833c d15d 8b3c eddf d3bc
000002b0: 1074 ae3c 8c25 cc3b b420 a03a 2049 ed3c
000002c0: 3d59 963b eef2 863a 739e 723c 93cf 1e3b
000002d0: 7f62 f1bb 09b8 47bb 344b 94bb 2eb5 8abb
000002e0: 52f1 a8bb f852 96bb be0c 9fbb b26c e1bb
000002f0: 013a acbb f72a 5cbc 4e7b 83bc 3d17 d9bc
00000300: 4edb 63bc a903 6ebc f763 7fbc 6951 85bc
00000310: e3f5 51bc 05ce 66bc 95ba 1cbc ff4f efbb
00000320: 0a04 f9bb b6c2 c5bb 9b38 0dbc ab2d c2bb
00000330: e448 f0bb 95ee d0bb 6bf1 cdbb 1199 0bbc
00000340: bc8e 2bbc 819f 00bc 0131 26bc 2fdd 19bc
00000350: d589 32bc 1ca1 49bc 2334 3fbc da8a 24bc
00000360: 35bf 3bbc 84b0 56bc d94d 32bc 0e60 4cbc
00000370: 9c83 63bc 7779 75bc b5ed 93bc 29e9 85bc
00000380: 3b3f 4fbc 98b9 05bc 5d84 05bc c19c dcbb
00000390: 4ece d9bb e882 e6bb 0cd8 f1bb d5ec 1bbc
000003a0: 593d 0bbc 0b46 1cbc f366 ac3c 5532 b83c
000003b0: c254 943c f85f c03c 07f1 3e3c 7886 c43c
000003c0: 0a3c b83c e0be 313c d747 aa3c c850 a63c
000003d0: 02bd b23c ef19 b23c b6cc aa3c e327 af3c
000003e0: 5c73 c13c 6fdb 9f3c 3b77 b53c 2d61 a13c
000003f0: 4e72 65bb c946 233a 48ff 54b8 40e5 293a

conv_layers.0.0.conv.bias f4 [16]
0.0036686948 -0.02571876 0.049367953 -0.01943112 -0.072725326 0.09915834 -0.02175241 0.085670546
-0.041350864 0.051659267 -0.08850684 0.016507313 -0.08173913 0.013689134 0.08835995 -0.047164697
00000000: 7c6e 703b 26b0 d2bc 0d36 4a3d 032e 9fbc
00000010: 04f1 94bd 8713 cb3d 1c32 b2bc 0a74 af3d
00000020: 865f 29bd ab98 533d 1343 b5bd 583a 873c
00000030: d866 a7bd 6448 603c 10f6 b43d c52f 41bd

conv_layers.2.0.conv.weight f4 [32, 16, 3, 3]
-0.012333463 -0.0033483114 -0.014728636 0.0052685062 -0.0056925016 -0.014793145 -0.015811298 0.008976907
0.014630278 0.00040179724 0.0004465979 0.00046098212 -0.00015830524 0.00013460865 3.14815e-05 -1.8144608e-05
1.0807293e-05 -5.2319163e-05 -0.0040020924 0.03178555 -0.03599004 -0.046018187 -0.046647955 -0.005838596
0.023706578 -0.041462727 -0.008083536 -0.0017367139 -0.0014224849 -0.0008300811 -0.0032028279 -0.0024775134
-0.0015745148 -0.0029664272 -0.0022007423 -0.001710174 0.005575719 -0.00034764825 -0.010543204 0.003315809
0.00028849635 0.0012599032 0.0054752645 -3.3364442e-05 -0.001315625 -0.051667333 -0.044641547 -0.04788517
0.029353833 -0.0070264013 0.02893581 0.027343042 -0.04079716 -0.03371548 -0.0004806543 -0.00039098057
-0.0005493361 -0.0013172734 -0.00084325287 -0.00073932635 -0.0014116205 -0.0008354074 -0.0012984354 -0.020389887
-0.045674823 -0.023385126 0.04946717 -0.057420984 0.022838484 0.016250476 -0.0268489 0.009895307
-0.00169562 -0.00084542256 -0.00024071313 -0.0025035508 -0.001877758 -0.0009968291 -0.0019974993 -0.002133115
-0.0007498156 0.033701394 -0.03587732 0.0021511847 -0.020627769 -0.010601092 -0.013627111 -0.042565793
-0.035980344 0.020299792 0.0022156981 -0.012894437 0.0062488895 0.018437132 0.012163481 -0.0066411686
0.0047991006 -0.010475503 -0.0063282256 0.015543596 -0.0020485495 -0.003698242 0.010213278 -0.004924023
0.015913012 -0.016908556 -0.011141663 0.0122319395 0.0017779539 0.010053334 0.0066383625 0.007061641
0.006205063 0.0015121484 0.00781183 0.011596071 -0.00035990984 0.018570041 -0.0058696764 -0.013925099
0.01088573 0.010242649 -0.0024021103 0.023419349 -0.017889244 -0.005366134 0.028104343 -0.005345554
-0.018828973 0.037581842 -0.04346362 -0.047533106 -0.001492441 -0.004941918 -0.03208458 0.0013345968
0.0009096828 0.0012002352 0.0011754171 0.0009734074 -0.0020135564 0.0006859337 0.0051181493 0.0015917438
-0.027831264 -0.044041686 -0.04800611 0.031027028 -0.04107571 0.057453316 0.0006695129 -0.047573235
-0.031739797 0.0012025798 -0.011090962 0.018095195 0.0074741724 0.020149287 0.032437105 0.031265453
-0.008597007 -0.020667521 -0.045672663 0.01677376 0.068234414 -0.05063523 0.07014248 0.045125827
0.021744525 -0.05337803 -0.06346419 0.02021702 0.009995761 -0.0005450803 0.020141024 0.006663622
0.015118791 0.03465741 0.02576852 0.033272482 -0.01873219 -0.014222802 0.044882987 0.01675153
-0.006564193 -0.037357166 -0.004690093 -0.012007712 -0.0074679833 -0.0045265174 0.052962936 -0.07872825
0.06011301 -0.07968583 0.042502776 0.04230915 -0.035947543 -0.037514005 0.017376754 0.016564932
0.010115098 0.010375395 0.021699829 0.02400892 0.0010562971 0.004898816 0.01718466 -0.071808614
-0.0033119544 0.068823956 0.017696608 -0.06698191 -0.014093025 0.025566876 0.06435862 -0.013484406
0.018269714 -0.0011187219 0.04013902 0.023375485 0.014178638 0.036056343 0.008457072 0.022184901
0.019776251 -0.051119525 0.01670081 -0.06558836 0.0073416443 0.07332675 -0.051666804 0.02943079
0.05712814 -0.0380058 -0.045204777 -0.014185841 0.035895247 0.0038960855 0.002834268 -0.009340444
-0.0295536 0.018681351 -0.052877456 -0.025014976 0.007851501 -0.062492102 -0.0028377578 0.021513248
0.023542585 0.017678259 0.00018931055 -0.05711071 -0.039805222 -0.029284805 -0.0044683963 -0.022436246
00000000: 4b12 4abc 586f 5bbb 6050 71bc 6fa3 ac3b
00000010: 2a88 babb f25e 72bc b286 81bc e013 133c
00000020: d5b3 6f3c 50a8 d239 5b25 ea39 f9af f139
00000030: bdfe 25b9 bc25 0d39 010b 0438 4035 98b7
00000040: f850 3537 4671 5bb8 fc23 83bb 9131 023d
00000050: 4b6a 13bd 917d 3cbd ed11 3fbd b151 bfbb
00000060: 4c34 c23c d2d4 29bd cf70 04bc 73a2 e3ba
00000070: ac72 baba cd99 59ba 89e6 51bb c75d 22bb
00000080: f35f ceba 6468 42bb 543a 10bb eb27 e0ba
00000090: 85b4 b63b 8f44 b6b9 67bd 2cbc 0b4e 593b
000000a0: 5341 9739 5623 a53a d969 b33b ccf0 0bb8
000000b0: 0d71 acba 20a1 53bd 0eda 36bd 3d23 44bd
000000c0: 7377 f03c ba3d e6bb cb0a ed3c 84fe df3c
000000d0: ec1a 27bd 3e19 0abd 5400 fcb9 86fc ccb9
000000e0: 5201 10ba 5ca8 acba be0d 5dba 5acf 41ba
000000f0: 2006 b9ba 3eff 5aba 4330 aaba b108 a7bc
00000100: 8615 3bbd 2a92 bfbc 169e 4a3d 4432 6bbd
00000110: c617 bb3c b81f 853c 39f2 dbbc ed1f 223c
00000120: 913f deba 599f 5dba f067 7cb9 9d12 24bb
00000130: 1a1f f6ba 09a8 82ba 7ae8 02bb bbcb 0bbb
00000140: 468f 44ba 790a 0a3d 19f4 12bd e4fa 0c3b
00000150: 91fb a8bc 34b0 2dbc 3f44 5fbc 7859 2ebd
00000160: 2060 13bd c04b a63c 3f35 113b 3043 53bc
00000170: 7cc3 cc3b 7809 973c 5649 473c 299e d9bb
00000180: c641 9d3b 72a1 2bbc 015d cfbb 91aa 7e3c
00000190: f540 06bb 345e 72bb 9855 273c b359 a1bb
000001a0: 015c 823c d083 8abc 868b 36bc 7968 483c
000001b0: 3c0a e93a bdb6 243c 9f86 d93b 5765 e73b
000001c0: d753 cb3b 4833 c63a 61fa ff3b 72fd 3d3c
000001d0: 48b2 bcb9 3320 983c 6a56 c0bb 1926 64bc
000001e0: 105a 323c c9d0 273c b96c 1dbb efd9 bf3c
000001f0: 778c 92bc 65d6 afbb 143b e63c c229 afbb
00000200: 383f 9abc 6bef 193d e906 32bd 13b2 42bd
00000210: 039e c3ba d0ef a1bb 1f6b 03bd a3ed ae3a
00000220: c877 6e3a 3651 9d3a 7410 9a3a 442c 7f3a
00000230: dff5 03bb 3bd0 333a 26b6 a73b 0fa2 d03a
00000240: 64fe e3bc 0e65 34bd 0ea2 44bd 652c fe3c
00000250: 013f 28bd 2b54 6b3d 4082 2f3a 27dc 42bd
00000260: 9701 02bd e29f 9d3a deb6 35bc 603c 943c
00000270: e7e9 f43b 1e10 a53c c5dc 043d 3410 003d
00000280: 76da 0cbc ef4e a9bc 4213 3bbd 2069 893c
00000290: 7cbe 8b3d e366 4fbd dca6 8f3d dcd5 383d
000002a0: 9321 b23c eca2 5abd 83f9 81bd 2a9e a53c
000002b0: 43c5 233c b8e3 0eba cafe a43c 835a da3b
000002c0: ceb4 773c eef4 0d3d 8118 d33c ba48 083d
000002d0: 4074 99bc c106 69bc 39d7 373d 813a 893c
000002e0: 7118 d7bb d403 19bd 5aaf 99bb ffbb 44bc
000002f0: fcb5 f4bb 2e53 94bb aaef 583d 473c a1bd
00000300: 0f39 763d 5332 a3bd 6417 2e3d 5c4c 2d3d
00000310: bb3d 13bd 49a8 19bd b259 8e3c 2eb3 873c
00000320: ccb9 253c 90fd 293c d7c3 b13c 5bae c43c
00000330: 7373 8a3a 3f86 a03b d8c6 8c3c 6510 93bd
00000340: 600d 59bb 93f3 8c3d 7af8 903c d02d 89bd
00000350: 6ee6 66bc a071 d13c 74ce 833d b3ed 5cbc
00000360: 5eaa 953c 14a2 92ba d068 243d f27d bf3c
00000370: 854d 683c d1af 133d 888f 0a3c 1cbd b53c
00000380: ce01 a23c b562 51bd 23d0 883c 3153 86bd
00000390: 2d92 f03b 562c 963d 92a0 53bd d718 f13c
000003a0: 32ff 693d f8ab 1bbd a528 39bd bb6b 68bc
000003b0: e506 133d 7855 7f3b 20bf 393b a908 19bc
000003c0: 641a f2bc a209 993c 0896 58bd 35ec ccbc
000003d0: 95a3 003c b8f7 7fbd adf9 39bb 8d3c b03c
000003e0: 61dc c03c ffd1 903c aa81 4639 ebec 69bd
000003f0: cd0a 23bd b0e6 efbc a06b 92bb 38cc b7bc

conv_layers.2.0.conv.bias f4 [32]
0.030644143 0.08145241 0.0021100894 -0.011993694 0.07510316 -0.043992903 0.056607775 0.037207842
0.058542445 0.038875885 0.0046266373 0.038176585 -0.026325421 0.03650093 0.028389206 0.041975696
0.021437274 0.06766641 0.0034476712 0.024289027 -0.044305358 -0.0007033027 0.05295276 0.031429734
-0.02472061 -0.012975619 -0.042815212 0.049975786 -0.033056065 -0.01816879 -0.02678947 -0.043410875
00000000: 6d09 fb3c 85d0 a63d 6d49 0a3b 3381 44bc
00000010: b0cf 993d e731 34bd 8edd 673d 4067 183d
00000020: 34ca 6f3d 523c 1f3d 0c9b 973b 0d5f 1c3d
00000030: 69a8 d7bc 0082 153d 7b90 e83c b5ee 2b3d
00000040: 399d af3c b094 8a3d 53f2 613b c8f9 c63c
00000050: 8979 35bd d85d 38ba fee4 583d 77bc 003d
00000060: e082 cabc b197 54bc 015f 2fbd 69b3 4c3d
00000070: cc65 07bd b7d6 94bc 9775 dbbc 9acf 31bd

conv_layers.4.0.conv.weight f4 [32, 32, 3, 3]
-0.014608942 -0.013864255 -0.0023067722 -0.021739557 -0.0033492178 -0.0015732727 -0.010947953 -0.014973498
-0.015920872 -0.021191482 -0.018331574 0.037780784 -0.009821179 -0.019715235 0.030824713 -0.005150367
0.023460893 0.015335152 0.010770006 -0.012446157 0.001796556 -0.0052227075 -0.0040301764 -0.0019770896
-0.010179962 -0.00254221 -0.0065120445 0.021042401 -0.005919811 0.013667717 0.0074079228 0.018860253
-0.0077278432 0.016768007 0.0047683315 0.004423864 -0.04713003 0.021616101 0.01015217 -0.039229438
0.011192988 0.0038685165 0.038352326 -0.04293036 0.015292057 -0.0137819685 -0.0134296 -0.0009956751
-0.0033003436 -0.011632525 -0.0026075204 -0.008130979 -0.002996555 -0.005038904 0.0142254485 0.012408232
-0.014722128 -0.025973594 -0.027316071 0.0060367566 0.034819108 0.015033107 0.016880088 0.018683609
-0.021144751 0.0067309076 0.015646966 0.005245579 0.00899242 0.019498462 -0.00090346823 0.0044484856
0.015614226 -0.03305692 -0.03599999 0.012372082 0.0057642823 -0.037060678 -0.015444312 -0.04357135
0.033711545 0.004892049 0.0050428445 0.015180021 0.013701853 0.004597859 0.0011673629 -0.00054649054
0.012999753 -0.0029713558 0.004655144 0.0039785816 0.0049036737 0.005468409 -0.0055963965 0.0013316645
-0.0047231573 -0.0023890638 0.0018425741 0.0005390787 -0.010695572 -0.008461615 -0.011171579 -0.00011313765
-0.003638911 0.0027066716 -0.00727467 0.0012713135 0.006003736 0.01308567 0.0061617875 -0.0026264458
0.0013799316 -0.0023744374 0.0015848735 -0.011102265 -0.0088065155 -0.00516711 0.012749095 -0.008905013
0.025910808 0.0073672743 0.034420803 -0.030758074 0.040264357 0.032623336 -0.0029334964 0.01505283
-0.023757989 -0.0194088 -0.02213972 -0.023697054 0.003982129 0.013253105 0.0135146985 -0.02211494
-0.013594788 -0.019257002 -0.022493722 0.010890735 0.003927767 -0.004020904 -0.0061951466 -0.018013583
0.0033669563 0.009185736 -0.01724552 0.029533042 0.0035354546 0.0024220871 -0.014809934 -0.004748861
0.009445296 0.023738248 -0.005143637 0.019924162 -0.0033740904 -0.0320458 -0.02516854 0.0039378055
0.0075183087 0.00579737 -0.016049104 -0.007825996 -0.009291921 -0.017487977 -0.013861658 -0.009162212
-0.0060653444 -0.0113718305 -0.007514016 -0.016506834 -0.008708064 -0.0133696785 -0.012294252 -0.013399399
0.0032867258 -0.00046145509 0.011549648 0.00079897157 0.0075036944 -0.0047782804 0.00025381957 0.008463157
0.0054409853 -0.0039908024 -0.0003489121 0.0077746133 0.0097129205 -0.008105826 0.002001959 -0.0013414421
-0.005495242 -0.0028683757 -0.01158432 -0.00079696084 -0.005362215 -0.0032733136 0.0035907347 -0.037764218
0.0024481753 0.042897813 -0.010653485 -0.02943696 0.048823934 0.029418763 -0.011068058 -0.0053586303
-0.004887586 -0.0052229487 -0.0076404996 -0.008086921 -0.0073390277 -0.0026708287 -0.007181851 -0.008596597
-0.0140440315 0.00030291843 -0.009256169 0.017175961 0.015595032 -0.007824836 0.005804814 0.004499919
-0.009845332 -0.0043440945 -0.0038864587 -0.010188548 -0.010406939 -0.0029594246 -0.009302823 -0.009402696
-0.010805204 -0.007973276 -0.00959322 -0.014624732 -0.0043471064 -0.0003875395 0.004270674 0.003547757
-0.01804927 0.005511586 -0.015151056 -0.021089206 0.031342275 0.031220518 0.018871097 0.0026301458
-0.018789876 0.0087281605 -0.014463433 0.0043481593 -0.022512402 -0.01259031 -0.00066185714 -0.0010674188
00000000: 585a 6fbc e626 63bc 372d 17bb 2817 b2bc
00000010: 8d7e 5bbb 4636 ceba 0b5f 33bc 6753 75bc
00000020: 7d6c 82bc c299 adbc 192c 96bc 06c0 1a3d
00000030: 03e9 20bc d881 a1bc 1c84 fc3c 69c4 a8bb
00000040: 0f31 c03c 4a40 7b3c ae74 303c f7ea 4bbc
00000050: 6b7a eb3a 3f23 abbb 920f 84bb 0f92 01bb
00000060: dbc9 26bc 359b 26bb fd62 d5bb 1d61 ac3c
00000070: f9fa c1bb 8fee 5f3c 29be f23b d180 9a3c
00000080: d939 fdbb 0f5d 893c aa3f 9c3b 10f6 903b
00000090: 6b0b 41bd 4014 b13c 4a55 263c 0caf 20bd
000000a0: cb62 373c f086 7d3b 5417 1d3d bfd7 2fbd
000000b0: 898b 7a3c c4cd 61bc d307 5cbc 5081 82ba
000000c0: 944a 58bb 5996 3ebc efe2 2abb cc37 05bc
000000d0: da61 44bb 641d a5bb db11 693c e64b 4b3c
000000e0: 1535 71bc 93c6 d4bc f4c5 dfbc fccf c53b
000000f0: 7b9e 0e3d 6c4d 763c 1c48 8a3c 5e0e 993c
00000100: c237 adbc f28e dc3b 112e 803c 1be3 ab3b
00000110: f154 133c 3dbb 9f3c bad6 6cba 9ac4 913b
00000120: d0d2 7f3c b166 07bd ba74 13bd 46b4 4a3c
00000130: 4ee2 bc3b f0cc 17bd 240a 7dbc df77 32bd
00000140: 1e15 0a3d 7b4d a03b 723e a53b 9fb5 783c
00000150: bd7d 603c a3a9 963b 3302 993a 5c42 0fba
00000160: eafc 543c 14bb 42bb 2e8a 983b c35e 823b
00000170: ffae a03b 5730 b33b fa61 b7bb 3f8b ae3a
00000180: b7c4 9abb d791 1cbb 8782 f13a f650 0d3a
00000190: 7b3c 2fbc 96a2 0abc 0009 37bc 5044 edb8
000001a0: cc7a 6ebb 6a62 313b 5b60 eebb 34a2 a63a
000001b0: fdba c43b 4765 563c d2e8 c93b 7320 2cbb
000001c0: d2de b43a 739c 1bbb 88bb cf3a 46e6 35bc
000001d0: 3449 10bc dc50 a9bb 95e1 503c 55e6 11bc
000001e0: e742 d43c 2d69 f13b d4fc 0c3d 5bf8 fbbc
000001f0: 3dec 243d 0ca0 053d e73f 40bb 25a0 763c
00000200: 1da0 c2bc 34ff 9ebc 5c5e b5bc 5320 c2bc
00000210: 857c 823b 8d23 593c c16c 5d3c 642a b5bc
00000220: acbc 5ebc dcc0 9dbc c144 b8bc 0e6f 323c
00000230: 7fb4 803b cac1 83bb a800 cbbb 3991 93bc
00000240: 27a8 5c3b c57f 163c 7a46 8dbc 47ef f13c
00000250: 16b3 673b e1bb 1e3b 5ea5 72bc 559c 9bbb
00000260: 71c0 1a3c b776 c23c f48b a8bb ff37 a33c
00000270: d81f 5dbb 7542 03bd 412e cebc b508 813b
00000280: 255c f63b ddf7 bd3b 6979 83bc 9b38 00bc
00000290: 243d 18bc f242 8fbc 021c 63bc 1a1d 16bc
000002a0: ccbf c6bb ea50 3abc 2238 f6bb 5739 87bc
000002b0: 45ac 0ebc 7f0c 5bbc d56d 49bc 2789 5bbc
000002c0: 1c66 573b 74ef f1b9 bc3a 3d3c 1372 513a
000002d0: 8de1 f53b 1f93 9cbb 1613 8539 0ea9 0a3c
000002e0: 4b4a b23b 47c5 82bb 30ee b6b9 2fc2 fe3b
000002f0: f122 1f3c 4cce 04bc 4c33 033b 54d3 afba
00000300: 6e11 b4bb 5cfb 3bbb 29cc 3dbc 23eb 50ba
00000310: 85b5 afbb 1785 56bb 8852 6b3b a7ae 1abd
00000320: 9171 203b 9eb5 2f3d f48b 2ebc c825 f1bc
00000330: 9bfb 473d 9eff f03c cd56 35bc 7397 afbb
00000340: 0b28 a0bb 4525 abbb 285d fabb 017f 04bc
00000350: 3a7c f0bb 1209 2fbb bc55 ebbb bed8 0cbc
00000360: f018 66bc 06d1 9e39 30a7 17bc 9ab4 8c3c
00000370: 4e82 7f3c be33 00bc 4f36 be3b 0e74 933b
00000380: 514e 21bc e858 8ebb f5b3 7ebb deed 26bc
00000390: de81 2abc e8f2 41bb de6a 18bc c40d 1abc
000003a0: 4f08 31bc 58a2 02bc e22c 1dbc 929c 6fbc
000003b0: 2c72 8ebb ac2e cbb9 03f1 8b3b 7c81 683b
000003c0: 10dc 93bc 899a b43b 233c 78bc 45c3 acbc
000003d0: c260 003d 2cc2 ff3c 8f97 9a3c 865e 2c3b
000003e0: 3aed 99bc 8f00 0f3c 09f8 6cbc 017b 8e3b
000003f0: ee6b b8bc 9647 4ebc 7b80 2dba a2e8 8bba

conv_layers.4.0.conv.bias f4 [32]
-0.009688471 0.035407245 -0.020157445 -0.036192518 -0.028290397 0.0024496973 -0.031681772 0.021516906
0.057643488 -0.02522937 -0.03612114 -0.022521712 -0.044022575 -0.020988267 0.018790958 0.0058349553
-0.04893995 -0.014710571 0.006319008 0.005251894 0.034138948 -0.019702567 -0.009624889 -0.04500225
-0.0015978029 -0.010018183 -0.035124976 -0.04951383 -0.015178641 -0.027873356 -0.048276123 -0.017461035
00000000: 65bc 1ebc 3007 113d 3a21 a5bc 9b3e 14bd
00000010: 43c1 e7bc 1a8b 203b bfc4 01bd 3944 b03c
00000020: 941b 6c3d d3ad cebc c3f3 13bd 747f b8bc
00000030: 0451 34bd 96ef abbc 7fef 993c 2733 bf3b
00000040: 4275 48bd 9b04 71bc ae0f cf3b 1418 ac3b
00000050: 48d5 0b3d 4767 a1bc b6b1 1dbc 4754 38bd
00000060: 5e6d d1ba 4e23 24bc 35df 0fbd 04cf 4abd
00000070: d6af 78bc aa56 e4bc 2fbd 45bd 720a 8fbc

conv_layers.5.0.conv.weight f4 [32, 32, 3, 3]
0.0018409787 -0.0020633151 -0.0029896325 0.0037960762 0.0017597625 -0.0048977174 0.0028175795 0.0027035782
0.0033741882 -0.016683767 0.01799878 -0.008057921 0.024149822 0.011289706 0.02533462 0.020783488
0.019243613 0.01602726 -0.0052158018 0.021214692 0.017072529 -0.008946418 0.0099108415 -0.015844617
0.03677891 0.02990552 0.017822867 -0.012426514 0.0077703195 -0.0064783245 -0.014854949 -0.0047343466
-0.015202194 -0.01656993 -0.0018409248 -0.009640878 0.003983183 -0.003878676 0.024627868 -0.003781047
0.03539938 0.004013203 -0.004529653 0.005718657 0.037361346 0.01005959 0.0027999156 0.006090342
0.01247576 0.011523881 0.008797466 0.0133994045 0.015897255 0.0104175955 0.009461358 0.0018192509
0.004410032 0.01586872 0.012991231 0.009867474 0.019775635 0.01858624 0.017211702 0.0037042443
0.008669775 0.011641791 0.00035709632 0.007897285 0.017932987 -0.006973052 0.01304882 0.009130702
0.043087963 0.006128086 -0.004010614 0.045907676 0.041581575 -0.011426044 0.0059860162 0.044060815
0.052987766 -0.0038637477 -0.01728481 -0.009343501 0.009434521 0.0078090983 -0.011968665 0.019904936
-0.00613491 0.007862938 -0.001972769 -0.00034853665 -0.005006596 -0.018960938 -0.01527606 -0.00048498507
-0.016295694 -0.011054411 -0.00033410196 0.0006556723 -0.0035983939 0.0010931656 0.008253319 0.005235098
0.0050442615 0.012312324 0.013382609 0.01038065 -0.007242871 -0.0040900037 -0.0006251167 -0.0046718544
-0.0057772794 -0.00047284656 -0.00015972875 -0.0072008907 -0.0059583234 -0.002732141 -0.0010919264 0.012990574
0.008694202 0.016216822 0.0014262374 -0.012121921 0.007513526 -0.009119369 -0.0027833716 0.0046452656
-0.0020840724 0.002575315 -0.007453047 0.0027375617 0.00069017033 0.0011919847 -0.0014214665 0.009017074
0.027388925 0.022090588 0.024980668 0.027600301 0.004048949 0.008174137 0.013540222 0.026272003
-0.012521298 -0.0006083985 -0.00289066 -0.0076045226 -0.007590241 0.0011660778 -0.0071805054 -0.0063588237
-0.011845629 -0.0072879214 -0.007940004 -0.0065949964 -0.0092454245 -0.0063499734 -0.007498501 -0.009489259
-0.0082549 -0.009149236 0.014539104 0.00920625 0.018422373 0.022431724 0.013172145 -0.0032722943
0.02479827 0.0128731355 0.001840509 -0.005259186 -0.005015323 -0.005502285 -0.006287799 -0.0065431385
-0.007318609 -0.0049595106 -0.008239337 -0.0032351776 -0.032691248 0.045539252 0.022937696 0.011359684
0.008032579 0.03015216 -0.022290392 -0.013866107 -0.014206364 0.013494357 0.0079021165 0.006205802
0.028727455 0.023786556 0.022786811 0.037631538 0.035075918 0.03344438 -0.030049479 -0.022480305
0.01769736 0.034978572 0.024100669 0.015299898 -0.010063797 0.026184298 0.016575638 -0.013074538
0.009539157 -0.007757535 -0.016229965 0.0039209262 -0.02125744 -0.016860858 -0.0010950572 0.0006663748
0.022138754 0.020485766 0.02003325 0.033069156 0.032685775 0.032985233 0.03830432 0.035079136
0.036315292 -0.0012621153 0.02115688 0.008064582 0.048212282 -0.008706816 0.037713762 0.028431095
0.0032720459 -0.005842055 -0.009862938 0.007201717 0.007282982 -0.0038241763 -0.0011414279 0.008430105
-0.007655094 -0.0029159447 0.008749197 0.002488741 0.014494732 0.004659226 -0.0036410866 -0.011097059
-0.0038334134 0.0020268653 0.004034762 0.00031860126 -0.0025556968 -0.0003203713 -0.0066186013 0.003017004
00000000: ff4c f13a af38 07bb b6ed 43bb 97c7 783b
00000010: d5a7 e63a 087d a0bb 24a7 383b 842e 313b
00000020: 7c21 5d3b 65ac 88bc 2d72 933c 5f05 04bc
00000030: d9d5 c53c 76f8 383c 8d8a cf3c 2242 aa3c
00000040: c8a4 9d3c 9a4b 833c 51e9 aabb 6fca ad3c
00000050: b0db 8b3c ff93 12bc 1561 223c 92cc 81bc
00000060: 7ba5 163d 6cfc f43c 4301 923c 9498 4bbc
00000070: 2a9e fe3b 2048 d4bb 2c62 73bc 9422 9bbb
00000080: a012 79bc a9bd 87bc 304b f1ba c6f4 1dbc
00000090: 5c85 823b 6331 7ebb 62c0 c93c 71cb 77bb
000000a0: f1fe 103d 3081 833b 7c6d 94bb 9263 bb3b
000000b0: 3608 193d fbd0 243c ca7e 373b 7e91 c73b
000000c0: 2167 4c3c a9ce 3c3c 3f23 103c 2d89 5b3c
000000d0: f63a 823c 90ae 2a3c d003 1b3c ee73 ee3a
000000e0: 0882 903b 1eff 813c 2cd9 543c 30ab 213c
000000f0: 8300 a23c 2c42 983c 8eff 8c3c e8c2 723b
00000100: ac0b 0e3c 36bd 3e3c a838 bb39 9d63 013c
00000110: 33e8 923c 337e e4bb b8ca 553c f198 153c
00000120: 017d 303d 1cce c83b 786b 83bb b009 3c3d
00000130: 7151 2a3d 4d34 3bbc 5826 c43b 1d79 343d
00000140: b309 593d ee36 7dbb e098 8dbc 7c15 19bc
00000150: 4093 1a3c 77e3 ff3b 3818 44bc ad0f a33c
00000160: 5b07 c9bb 8dd3 003c 9249 01bb ccbb b6b9
00000170: 5f0e a4bb f853 9bbc 7148 7abc 9845 feb9
00000180: 8c7e 85bc 8f1d 35bc 682a afb9 6ce1 2b3a
00000190: 08d3 6bbb 8d48 8f3a ee38 073c 2f8b ab3b
000001a0: 554a a53b a1b9 493c bb42 5b3c 9a13 2a3c
000001b0: 9b55 edbb 7005 86bb dfde 23ba 5b16 99bb
000001c0: 554f bdbb 64e8 f7b9 dc7c 27b9 73f5 ebbb
000001d0: 0a3e c3bb b80d 33bb f81e 8fba 6bd6 543c
000001e0: 2072 0e3c 24d9 843c 96f0 ba3a 069b 46bc
000001f0: 0634 f63b 6869 15bc 3a69 36bb 5037 983b
00000200: ef94 08bb 9ec6 283b b138 f4bb aa68 333b
00000210: 8cec 343a 5f3c 9c3a 8050 baba 59bc 133c
00000220: bd5e e03c 52f7 b43c 42a4 cc3c 071a e23c
00000230: 0cad 843b d1ec 053c cfd7 5d3c 6238 d73c
00000240: 2126 4dbc ef7c 1fba 3a71 3dbb 5c2f f9bb
00000250: 8eb7 f8bb 14d7 983a 724a ebbb ae5d d0bb
00000260: 2b14 42bc 84cf eebb ca16 02bc d71a d8bb
00000270: 1f7a 17bc 7013 d0bb fcb5 f5bb d678 1bbc
00000280: 8f3f 07bc ade6 15bc 6c35 6e3c d0d5 163c
00000290: 84ea 963c bcc2 b73c fbcf 573c fd73 56bb
000002a0: be25 cb3c d8e9 523c 3c3d f13a 4055 acbb
000002b0: 9457 a4bb 834c b4bb e209 cebb d367 d6bb
000002c0: f1d0 efbb 6483 a2bb 49fe 06bc 4605 54bb
000002d0: 42e7 05bd 5e87 3a3d d6e7 bb3c f81d 3a3c
000002e0: 149b 033c aa01 f73c 579a b6bc ab2e 63bc
000002f0: cfc1 68bc 6f17 5d3c e177 013c 0a5a cb3b
00000300: d755 eb3c 06dc c23c 68ab ba3c 8723 1a3d
00000310: c4ab 0f3d f9fc 083d 532a f6bc 9e28 b8bc
00000320: 0efa 903c b145 0f3d c46e c53c 6cac 7a3c
00000330: a0e2 24bc 7480 d63c a2c9 873c 9636 56bc
00000340: 204a 1c3c ec32 febb b4f4 84bc 1d7b 803b
00000350: 1524 aebc c81f 8abc 0688 8fba a8af 2e3a
00000360: 555c b53c c4d1 a73c c51c a43c 8673 073d
00000370: 85e1 053d 861b 073d fee4 1c3d 24af 0f3d
00000380: 58bf 143d 906d a5ba 3151 ad3c 4f21 043c
00000390: 3e7a 453d 08a7 0ebc bf79 1a3d 54e8 e83c
000003a0: d26f 563b b66e bfbb 2998 21bc 61fc eb3b
000003b0: 15a6 ee3b 089f 7abb f79b 95ba 6c1e 0a3c
000003c0: 95d7 fabb 6f19 3fbb cb58 0f3c 251a 233b
000003d0: 507b 6d3c 6cac 983b 4c9f 6ebb 70d0 35bc
000003e0: 013a 7bbb 28d5 043b 0936 843b f009 a739
000003f0: 7a7d 27bb 82f7 a7b9 dae0 d8bb eeb8 453b

conv_layers.5.0.conv.bias f4 [32]
-0.024285184 -0.018348955 0.04364533 0.005413389 0.016106058 0.00051731785 -0.0022763466 -0.007868101
-0.010213787 0.0232181 -0.009972085 -0.013137576 0.029148154 -0.01341754 -0.0015322748 -0.03699141
-0.018506922 -0.028672593 -0.021456582 0.0040339488 0.005104743 0.0034859823 0.0027111487 0.03959128
0.022031765 -0.034070976 0.03738108 -0.040787518 -0.017098814 0.006696078 -0.029101642 0.049149726
00000000: b9f1 c6bc 8c50 96bc 72c5 323d cc62 b13b
00000010: daf0 833c 9d9c 073a c22e 15bb 35e9 00bc
00000020: ba57 27bc e333 be3c f561 23bc fd3e 57bc
00000030: 1cc8 ee3c 3ed5 5bbc 9cd6 c8ba 4e84 17bd
00000040: d49b 97bc c9e2 eabc b7c5 afbc 372f 843b
00000050: b045 a73b 1475 643b 87ad 313b 772a 223d
00000060: f67b b43c 028e 0bbd e71c 193d d010 27bd
00000070: d012 8cbc c66a db3b 9166 eebc 3951 493d

conv_layers.7.0.conv.weight f4 [16, 32, 3, 3]
0.009221865 0.038026135 0.047999114 0.04510087 -0.026273573 0.012858378 -0.014323123 -0.016248971
-0.039349895 0.053930584 0.027215127 -0.026596066 0.01829978 -0.04055725 0.0036588667 -0.0058028866
-0.02162259 -0.017882317 0.017274277 0.00862516 -0.001992478 0.010169417 0.04834955 -0.005203236
0.018069487 -0.04345056 0.0053551397 -0.00029609696 0.042434424 -0.005888819 0.013374673 0.015708987
0.024521524 0.023530792 0.03825222 -0.045475386 0.00814317 0.03998415 0.04604925 0.043819133
-0.039039493 -0.04260418 0.0021341175 -0.0579471 0.048551947 0.053968135 -0.048787527 -0.012541311
-0.031509753 0.04751971 0.0008408617 0.030296983 -0.026141008 -0.013266102 -0.005119429 -0.02052119
0.0013212772 -0.03437452 0.0021451663 -0.03744664 0.007116173 0.03189092 -0.047924682 0.024807092
0.0021920989 0.034239665 -0.0042672013 0.059470452 -0.014944534 -0.040698335 0.006017886 -0.034521844
0.005678629 0.04498319 -0.013769558 -0.046088208 -0.034399208 0.059548676 -0.016874356 -0.03537675
-0.042678256 -0.02606877 -0.0040693553 0.051947176 -0.04249756 0.021643812 0.059420716 -0.043559454
0.021927703 0.022743205 -0.0077313175 0.029549051 0.039719712 0.042237878 -0.014509151 0.0022076983
-0.03019979 0.03499495 -0.04337894 0.04335665 -0.020571142 0.020883355 0.051275577 0.051684458
0.041470762 -0.013239828 0.020507162 0.015749775 -0.0030155752 -0.04867971 -0.02242626 -0.025353352
-0.017499305 0.02688717 0.053860694 -0.046172753 -0.0431695 0.01883062 0.018750282 -0.05132824
-0.0304331 0.04127546 -0.046273287 0.028783463 0.027366422 0.012078867 0.0374042 -0.044011317
0.002137803 0.022404306 -0.0021341501 -0.036186874 0.02962492 -0.044892732 0.011079382 0.022792354
0.010349702 -0.0050880513 0.030684292 -0.008221758 0.042422634 -0.044873312 0.04034018 0.0011306023
0.0111250235 -0.0068082837 0.042686336 -0.004869947 -0.043505415 -0.02072657 0.0372273 -0.026015826
0.03716071 0.0016255007 -0.009139505 0.010690164 -0.026049476 0.047898155 -0.008755135 -0.0033909061
0.03400084 0.011391684 -0.025522145 0.019707298 0.0114652235 -0.00871564 -0.04540805 0.037890606
-0.020419974 0.01174633 -0.038453676 0.0028557477 0.0109544825 -0.031192878 0.0015625267 0.039556853
-0.016240498 0.035106666 -0.047767267 -0.030818066 0.017377356 0.008800376 -0.020654194 0.047934722
-0.0146677885 -0.016014986 -0.023033516 -0.036521308 0.010131925 -0.0007178804 -0.031231884 -0.046476744
0.0006304851 -0.058350373 0.017750647 -0.011383142 0.04363012 -0.051259175 -0.034797348 -0.04616747
0.059462983 -0.0144087 -0.04064925 0.063581236 0.025965275 0.044353347 0.05154279 -0.0324484
0.011328199 -0.0397451 -0.0014273416 -0.00033242116 -0.01490742 0.059174553 0.0027471061 0.043256134
-0.015855663 -0.04430793 -0.023881318 0.021299807 -0.044695362 0.026959725 0.02947947 -0.039744146
-0.038106065 -0.04421251 0.022124287 0.053899888 0.044278216 0.052562613 0.03889729 -0.02469009
0.013279784 0.009927012 0.0072004995 -0.020397648 -0.044909097 0.04590311 -0.054420806 0.053984977
0.009227686 -0.007684358 -0.023354132 0.0068919966 -0.033055104 0.0126211345 -0.052312523 -0.016318306
0.017560743 0.043468874 -0.03503342 -0.040059093 -0.039615266 -0.04029316 -0.00095429074 0.034500223
00000000: 4e17 173c 4bc1 1b3d b89a 443d b1bb 383d
00000010: ad3b d7bc f2ab 523c 88ab 6abc 901c 85bc
00000020: 5b2d 21bd 51e6 5c3d 42f2 de3c fedf d9bc
00000030: 6ce9 953c 5c1f 26bd 99c9 6f3b 2426 bebb
00000040: dc21 b1bc f07d 92bc c982 8d3c 8b50 0d3c
00000050: 3c94 02bb a09d 263c 2e0a 463d e87f aabb
00000060: 7606 943c 37f9 31bd 2b7a af3b 763d 9bb9
00000070: b8cf 2d3d fff6 c0bb 7221 5b3c 22b0 803c
00000080: 5de1 c83c a6c3 c03c 5cae 1c3d 6644 3abd
00000090: ee6a 053c 6cc6 233d 239e 3c3d b17b 333d
000000a0: e0e7 1fbd b881 2ebd 8ddc 0b3b f059 6dbd
000000b0: 68de 463d b10d 5d3d 6ed5 47bd 127a 4dbc
000000c0: 5f10 01bd 07a4 423d 466d 5c3a 6131 f83c
000000d0: ab25 d6bc 115a 59bc e2c0 a7bb 0e1c a8bc
000000e0: b52e ad3a 4ccc 0cbd eb95 0c3b a661 19bd
000000f0: c92e e93b 0ea0 023d ac4c 44bd 3e38 cb3c
00000100: 51a9 0f3b e43e 0c3d e1d3 8bbb 4a97 733d
00000110: ebd9 74bc 4cb3 26bd b031 c53b c766 0dbd
00000120: cb13 ba3b 4b40 383d b699 61bc fdc6 3cbd
00000130: 2fe6 0cbd 50e9 733d 173c 8abc 36e7 10bd
00000140: 65cf 2ebd 2c8e d5bc 3a58 85bb 90c6 543d
00000150: ec11 2ebd 5d4e b13c 2363 733d 666b 32bd
00000160: baa1 b33c f54f ba3c fe56 fdbb da10 f23c
00000170: 23b1 223d a001 2d3d cab7 6dbc 08af 103b
00000180: 8d65 f7bc dd56 0f3d 1eae 31bd be96 313d
00000190: d084 a8bc 9213 ab3c 5706 523d 15b3 533d
000001a0: 3fdd 293d ddeb 58bc a3fe a73c ac05 813c
000001b0: f5a0 45bb 6064 47bd 47b7 b7bc d5b1 cfbc
000001c0: b45a 8fbc 7b42 dc3c 089d 5c3d a41f 3dbd
000001d0: 80d2 30bd ac42 9a3c 319a 993c 903d 52bd
000001e0: d64e f9bc 7510 293d 0f89 3dbd 4ccb eb3c
000001f0: 8c2f e03c 71e6 453c 2535 193d 3645 34bd
00000200: 621a 0c3b 3c89 b73c 19dd 0bbb b038 14bd
00000210: f6af f23c 71e1 37bd 4c86 353c 08b7 ba3c
00000220: cc91 293c abb9 a6bb a05d fb3c 8db4 06bc
00000230: 5bc3 2d3d 14cd 37bd bf3b 253d b830 943a
00000240: bb45 363c 0618 dfbb ded7 2e3d 1494 9fbb
00000250: bc32 32bd c5ca a9bc a77b 183d 241f d5bc
00000260: d435 183d c10e d53a ddbd 15bc cc25 2f3c
00000270: b665 d5bc db30 443d b371 0fbc f739 5ebb
00000280: 7744 0b3d 30a4 3a3c d113 d1bc 3371 a13c
00000290: a2d8 3b3c 0bcc 0ebc cbfd 39bd 2e33 1b3d
000002a0: ca47 a7bc ae73 403c 9a81 1dbd 7f27 3b3b
000002b0: 6e7a 333c 3588 ffbc b2cd cc3a 5e06 223d
000002c0: cb0a 85bc 02cc 0f3d 9ca7 43bd 2b76 fcbc
000002d0: f55a 8e3c 742f 103c fc32 a9bc 3357 443d
000002e0: 2a51 70bc dc31 83bc c9b0 bcbc 5e97 15bd
000002f0: 6000 263c 2330 3cba 02da ffbc 665e 3ebd
00000300: 2447 253a cd00 6fbd ce69 913c 5c80 3abc
00000310: 7fb5 323d 24f5 51bd aa87 0ebd 1a1a 3dbd
00000320: 758f 733d 7812 6cbc d47f 26bd e136 823d
00000330: 21b5 d43c dbab 353d 881e 533d 9de8 04bd
00000340: e999 393c c2cb 22bd a315 bbba d048 aeb9
00000350: 403e 74bc 0461 723d cb08 343b 582d 313d
00000360: bce3 81bc 3b7c 35bd c1a2 c3bc ef7c ae3c
00000370: 7c12 37bd a4da dc3c ee7e f13c c2ca 22bd
00000380: 1b15 1cbd 2d18 35bd fe3d b53c 21c6 5c3d
00000390: 135d 353d e54b 573d c452 1f3d df42 cabc
000003a0: 7393 593c e8a4 223c 2bf2 eb3b f818 a7bc
000003b0: 9af2 37bd e604 3c3d 5ae8 5ebd 5a1f 5d3d
000003c0: b82f 173c 11cd fbbb 2a51 bfbc 42d6 e13b
000003d0: ca64 07bd e0c8 4e3c a845 56bd f8ad 85bc
000003e0: 8cdb 8f3c 6b0c 323d 347f 0fbd 0115 24bd
000003f0: 9e43 22bd 710a 25bd 5e29 7aba 1b50 0d3d

conv_layers.7.0.conv.bias f4 [16]
0.040959377 -0.04440933 0.030437399 0.001634327 -0.018427044 -0.050933506 0.02656998 -0.05554039
-0.010939903 -0.02577319 0.03736705 0.00592595 -0.034006137 0.047300413 0.030339092 -0.057927143
00000000: 05c5 273d 8fe6 35bd da57 f93c ea36 d63a
00000010: 50f4 96bc a79f 50bd 49a9 d93c 527e 63bd
00000020: 473d 33bc 4c22 d3bc 310e 193d 792e c23b
00000030: 054a 0bbd 14be 413d b089 f83c 0345 6dbd

linear_layers.0.weight f4 [64, 400]
0.025472475 -0.041175213 -0.045418184 0.002317495 -0.04030438 -0.03732166 -0.008510687 0.014529302
0.027008226 0.008936664 0.008655746 -0.015512912 0.008919677 -0.019252615 0.0052987337 -0.038308717
-0.044046167 0.0063158227 -0.03686942 -0.043032605 0.00537078 -0.0030436756 0.008285884 -0.021280356
0.006357372 0.00703072 0.008983304 0.014047885 0.00043152855 0.007618379 0.02747753 0.0024775334
0.015392624 0.0064804293 0.028440708 0.0073287617 0.019666163 0.014530107 -0.010587849 -0.0043090787
-0.00048857485 -0.004713823 -0.010173305 -0.0022989465 0.023299651 0.0009445469 -0.006641813 0.01332296
0.007265987 0.0074515464 0.0066963313 -0.02992177 0.02124185 -0.0028686742 -0.016280621 -0.039301664
-0.023468407 0.009494243 0.019990556 -0.036532693 -0.037697814 0.0106762685 -0.036607686 -0.018093921
0.028168727 0.013840196 0.000108180364 0.023574263 -0.024374494 -0.008872026 -0.013992575 -0.042234156
0.026192037 -0.028580667 -0.033586998 0.015925534 -0.0046999864 -0.0012664055 0.014869753 0.011215815
0.012722612 0.017592926 -0.011405857 0.00881906 -0.018279124 -0.011900881 -0.0010540349 -0.013407202
-0.0053332266 -0.011024126 0.000109028304 0.0112730935 0.0031032457 -0.0063900375 0.019538717 0.0088710785
0.007957309 0.011921734 0.005915149 0.00013929547 0.01683532 0.0069926535 0.0072262026 0.0014498072
0.0032363087 0.015527203 0.010097492 0.0057966704 0.022776533 0.011420223 0.0128510585 -0.004442988
0.002895985 0.008394381 2.1735206e-05 0.004491903 0.0011998916 -0.006619529 0.0022416401 -0.0043410277
0.0056604957 -0.0024943599 0.0071715936 -0.0021343199 0.006502132 0.00013828732 0.011510096 0.02580025
-0.008393867 0.015359937 0.0027966653 -0.0041805115 0.008848609 0.02140448 -0.00662723 0.020079102
-0.012739124 0.008284749 0.013296119 -0.0012270175 0.0010168657 -0.00056333607 -0.0051520774 -0.0002118445
-0.012167483 0.013091713 0.0026753969 0.0055293585 0.012370866 0.00041983929 0.0132046575 0.0015644814
-0.036737867 -0.040395476 0.025361905 0.010782989 0.017265083 -0.028486166 -0.026426263 -0.0038312546
0.014385105 -0.033340003 0.024184095 0.017536981 -0.015811425 0.0017599614 -0.013489689 0.019579196
0.015520484 -0.023160614 -0.008853685 -0.010039639 -0.022472912 -0.044032346 0.023866951 -0.009662437
0.0037338154 0.0028078305 -0.011094994 0.013725356 -0.007652542 0.016775109 -0.015677962 -0.0101059275
0.025266198 -0.012201112 -0.0013896967 0.00969098 -0.004504596 -0.007012179 0.025751559 -0.0007341002
0.021034313 0.023331322 0.013451671 0.023974625 -0.011135595 -0.014589827 0.007334713 0.024669029
0.0014616685 -0.0028143115 -0.005851299 -0.005512227 -0.0033588992 0.011112393 -0.018543404 -0.030555556
5.3944183e-05 0.010932144 -0.020694498 -0.004473536 -0.0051048775 -0.014410975 0.008072931 0.017688097
-0.009101987 0.025213558 -0.017769702 0.013606195 -0.02158332 -0.013613521 -0.0002972504 -0.0058685453
-0.03501344 0.0057936595 -0.0012591664 0.00080023566 0.0076526073 0.016617147 0.001102423 0.010893744
0.009634322 0.010047418 -0.008960306 -0.0027623267 -0.012910629 0.016536089 0.012975343 0.012242051
-0.00492188 0.0004825011 -0.0071909353 -0.0052039595 0.01206136 0.002022465 -0.004880267 -0.00015974909
0.0027110497 -0.010976789 -0.002716781 0.0036954829 -0.027956294 0.017792003 -0.0040863883 -0.043550387
00000000: a7ab d03c 57a7 28bd 6b08 3abd 1de1 173b
00000010: 3516 25bd 99de 18bd 6970 0bbc 4f0c 6e3c
00000020: 5b40 dd3c 166b 123c d4d0 0d3c de29 7ebc
00000030: d623 123c a9b7 9dbc 00a1 ad3b 9ae9 1cbd
00000040: c169 34bd f6f4 ce3b 6404 17bd f542 30bd
00000050: 5efd af3b 6778 47bb 84c1 073c 2454 aebc
00000060: 8051 d03b f461 e63b b52e 133c 1a29 663c
00000070: c83e e239 98a3 f93b 8f18 e13c 1d5e 223b
00000080: 5831 7c3c c859 d43b 7dfc e83c 1c26 f03b
00000090: ef1a a13c b00f 6e3c a878 2dbc 2c33 8dbb
000000a0: b413 00ba 6a76 9abb efad 26bc eca9 16bb
000000b0: e9de be3c 789b 773a 91a3 d9bb 8b48 5a3c
000000c0: 8417 ee3b 1a2c f43b e66c db3b 801e f5bc
000000d0: 6303 ae3c 5e00 3cbb f05e 85bc c8fa 20bd
000000e0: d140 c0bc be8d 1b3c 3cc3 a33c 4ea3 15bd
000000f0: 0669 1abd 84eb 2e3c f1f1 15bd b439 94bc
00000100: 1ac2 e63c fdc1 623c e4de e238 d01e c13c
00000110: 05ad c7bc f95b 11bc 1d41 65bc b9fd 2cbd
00000120: af90 d63c 0122 eabc 8592 09bd 4476 823c
00000130: 5802 9abb 84fd a5ba 44a0 733c 8ac2 373c
00000140: 8172 503c 0a1f 903c a2df 3abc d27d 103c
00000150: 1abe 95bc eafb 42bc 8b27 8aba e2a9 5bbc
00000160: 59c2 aebb 899e 34bc 20a6 e438 c8b2 383c
00000170: d35f 4b3b 8563 d1bb a90f a03c 0058 113c
00000180: 5f5f 023c 6053 433c ded3 c13b d80f 1239
00000190: 3aea 893c a122 e53b c8c9 ec3b 7507 be3a
000001a0: 4018 543b cf65 7e3c f36f 253c fff1 bd3b
000001b0: da95 ba3c e31b 3b3c 3f8d 523c 7c96 91bb
000001c0: 91ca 3d3b 9688 093c 0054 b637 d030 933b
000001d0: ae45 9d3a a2e8 d8bb 7be8 123b 2e3f 8ebb
000001e0: ae7b b93b 6a78 23bb b0ff ea3b f2df 0bbb
000001f0: d60f d53b 3801 1139 d794 3c3c 0c5b d33c
00000200: 6e86 09bc 3fa8 7b3c 4248 373b acfc 88bb
00000210: c2f9 103c 7358 af3c 3c29 d9bb ee7c a43c
00000220: c2b7 50bc c2bc 073c f7d7 593c e0d3 a0ba
00000230: 5a48 853a d8ac 13ba c2d2 a8bb 9322 5eb9
00000240: 1f5a 47bc a07e 563c b655 2f3b 9f2f b53b
00000250: 2caf 4a3c e01d dc39 5958 583c 490f cd3a
00000260: 727a 16bd ba75 25bd c5c3 cf3c 22ab 303c
00000270: 816f 8d3c d25b e9bc e47b d8bc c915 7bbb
00000280: 81af 6b3c 878f 08bd b91d c63c b7a9 8f3c
00000290: f686 81bc 81ae e63a db03 5dbc 8d64 a03c
000002a0: a149 7e3c 54bb bdbc 0c0f 11bc 4c7d 24bc
000002b0: 1d19 b8bc 435b 34bd a084 c33c 334f 1ebc
000002c0: 07b3 743b 9403 383b c7c7 35bc 51e0 603c
000002d0: 2dc2 fabb f46b 893c 126f 80bc 5593 25bc
000002e0: 0ffb ce3c 2ce7 47bc 7c26 b6ba ebc6 1e3c
000002f0: 4a9b 93bb 6cc6 e5bb eff4 d23c a170 40ba
00000300: 2750 ac3c 5421 bf3c 6664 5c3c 6f66 c43c
00000310: 1272 36bc 2b0a 6fbc 0858 f03b b416 ca3c
00000320: 7595 bf3a 5070 38bb 41bc bfbb e99f b4bb
00000330: fa20 5cbb c110 363c 56e8 97bc a54f fabc
00000340: 2042 6238 bc1c 333c 8287 a9bc bd96 92bb
00000350: d146 a7bb 031c 6cbc 5444 043c a1e6 903c
00000360: 8020 15bc aa8c ce3c c491 91bc 85ec 5e3c
00000370: 81cf b0bc 3f0b 5fbc 46d8 9bb9 ed4c c0bb
00000380: 416a 0fbd bdd8 bd3b 9d0a a5ba e8c6 513a
00000390: b9c2 fa3b af20 883c 2d7f 903a ad7b 323c
000003a0: 46d9 1d3c ed9d 243c 3fce 12bc 2708 35bb
000003b0: 1a87 53bc b176 873c 8896 543c e292 483c
000003c0: b947 a1bb 34f8 fc39 f0a1 ebbb fa85 aabb
000003d0: 039d 453c 558b 043b a6ea 9fbb 5282 27b9
000003e0: deab 313b fdd7 33bc 060c 32bb ea2f 723b
000003f0: 9904 e5bc 89c0 913c 1ce7 85bb e461 32bd

linear_layers.0.bias f4 [64]
0.017240252 -0.028688699 -0.028625673 0.020077605 -0.0034494298 -0.044431265 -0.004906829 0.024385093
-0.030049762 0.034667667 -0.009440351 0.043049287 0.03290625 -0.0609726 -0.023602959 0.0057082684
0.026674882 0.010431621 0.013540909 0.030318506 0.00056401076 -0.012674329 -0.058969043 0.048075836
-0.052719895 -0.029774321 0.013895119 -0.01346373 -0.0073111732 -0.064242624 0.04896358 0.025752658
0.006901283 -0.011706552 -0.032201573 0.023962643 0.051873483 -0.0021445877 -0.043232914 0.0029736361
-0.0066584395 -0.058316812 -0.04444565 0.037157334 -0.035256144 0.019484457 0.0153571665 -0.062298086
0.06302175 0.06640451 -0.00879442 -0.06274129 -0.012967973 0.026257977 -0.0409071 0.01868555
-0.020105286 0.011160002 0.019852517 -0.06274124 -0.0043910746 -0.035345107 0.04309249 0.07084398
00000000: 6e3b 8d3c 9004 ebbc 6380 eabc ca79 a43c
00000010: d40f 62bb 8ffd 35bd 77c9 a0bb 3fc3 c73c
00000020: eb2a f6bc afff 0d3d b4ab 1abc 7354 303d
00000030: b4c8 063d 68be 79bd fe5a c1bc 6d0c bb3b
00000040: 4885 da3c 64e9 2a3c b0da 5d3c 845e f83c
00000050: 1fda 133a fda7 4fbc 8689 71bd 2beb 443d
00000060: d1f0 57bd 47e9 f3bc 5aa8 633c fa96 5cbc
00000070: 9192 efbb a391 83bd 098e 483d 3df7 d23c
00000080: 2824 e23b d6cc 3fbc cce5 03bd 4e4d c43c
00000090: 4a79 543d 368c 0cbb ff14 31bd 56e1 423b
000000a0: 0a2f dabb 9cdd 6ebd a40c 36bd 4a32 183d
000000b0: bf68 10bd de9d 9f3c a09c 7b3c 472c 7fbd
000000c0: 8c11 813d 16ff 873d 7916 10bc 817e 80bd
000000d0: 9f77 54bc f81a d73c 348e 27bd 7012 993c
000000e0: d7b3 a4bc 71d8 363c bfa1 a23c 7b7e 80bd
000000f0: 01e3 8fbb 08c6 10bd c081 303d a616 913d

linear_layers.3.weight f4 [4, 64]
0.04139096 0.06008646 0.029104197 -0.033147905 -0.024096096 0.045489334 -0.07051067 0.053680748
-0.09105246 0.09186527 0.013737501 -0.024830637 0.050589554 -0.011227899 0.011701172 0.03648706
-0.08762681 0.0587804 -0.022215249 -0.028050499 0.024059571 -0.017788634 0.030860195 -0.021404034
0.10394863 -0.08919697 0.03690899 0.11711701 -0.017366579 0.027209565 -0.06502578 -0.11047504
-0.043755285 0.1007587 0.084092505 -0.12330802 -0.064148314 -0.074737236 0.09125853 -0.08956092
-0.020279098 -0.033078913 0.08865949 0.044168074 0.10952169 -0.108602166 0.06258485 -0.013318917
0.09137246 -0.102377236 -0.019008936 0.078461155 0.09262583 0.0645355 0.038630433 0.05543008
-0.0047248136 -0.1192497 0.05108562 0.122168854 -0.052695733 0.023857258 0.07960627 -0.07507598
-0.012787561 -0.024020279 -0.04369171 -0.009231604 0.046112742 0.05557746 -0.043016497 -0.0116929775
-0.0633301 -0.09890119 0.046711203 0.073456846 0.061783344 -0.029453373 0.1214842 -0.025010243
-0.04583402 0.04203425 0.060946297 0.020815829 -0.035936568 0.10436422 -0.07300653 -0.07541044
-0.096846096 -0.052545927 0.07406855 -0.055202853 0.083680004 0.114290975 0.023977002 -0.062441368
0.0696052 -0.030418336 0.0075243213 0.03568326 0.10412387 0.034439404 -0.08655359 0.013149609
-0.042362314 0.09710904 0.087460786 0.056687046 -0.08501207 -0.035526663 0.10523021 -0.033430133
-0.1275801 -0.0884846 0.012298911 0.087017246 0.018613456 0.08959898 0.09860055 0.09588829
0.051688578 0.0785119 -0.07201754 0.018981062 0.004273797 0.07694026 -0.1190465 0.02917368
-0.05937191 0.03167729 -0.075296015 -0.044611674 -0.10113442 0.09479597 0.020582069 0.068967625
-0.02600605 0.02027597 0.12963122 -0.04993344 -0.044258684 0.017707104 0.11471197 0.08168326
0.086490944 0.06345745 -0.015822653 -0.092616335 -0.067434385 0.017139351 0.031717874 -0.12795302
0.015356642 0.01646514 0.036970247 0.05092498 0.01564394 0.07694682 0.044341665 0.11436877
-0.07669631 0.040715292 0.12746355 0.032743014 0.023394672 0.079027966 -0.03627369 -0.096810855
0.016325524 0.035914972 -0.057989992 -0.09881356 -0.04506108 0.05687891 -0.09761694 0.07703859
-0.07792111 -0.042659376 0.044040386 0.087144494 0.03726247 -0.10911343 0.021971203 0.09167929
0.017095612 -0.08666452 0.05866365 -0.04839605 0.10556926 0.13141587 -0.030189302 -0.122399025
0.061351538 0.03827424 -0.09198418 -0.07336385 0.051929943 -0.028906083 -0.055848073 -0.10073554
-0.08932966 -0.045809656 -0.050942235 -0.12854192 -0.111316815 0.13241631 -0.019566422 0.095185466
-0.04689307 0.08706618 0.10568236 0.08153882 0.057814106 0.10762314 0.11392965 -0.0054051206
0.12729119 0.034305032 -0.04814084 0.015523356 -0.07923728 0.12133855 -0.096627794 0.0497637
0.087756805 0.05120627 -0.088548884 -0.013105548 -0.11763019 -0.065585874 -0.015908722 -0.073545106
0.09315159 -0.026196059 -0.025795396 -0.10988285 0.12559046 -0.11437209 0.10482512 0.09023232
-0.04425495 -0.012827876 0.06336252 0.03917567 -0.004439077 0.049283706 -0.05591854 0.0860155
-0.032185182 -0.05608443 -0.088572554 0.08867871 0.10183552 -0.074293405 -0.0681794 -0.09134723
00000000: 9189 293d 381d 763d ed6b ee3c 19c6 07bd
00000010: 2d65 c5bc 0653 3a3d e667 90bd 58e0 5b3d
00000020: b679 babd dc23 bc3d 4113 613c 9f69 cbbc
00000030: fe36 4f3d 39f5 37bc 46b6 3f3c 7573 153d
00000040: af75 b3bd b7c3 703d c1fc b5bc 29ca e5bc
00000050: 9418 c53c 78b9 91bc 85ce fc3c 8357 afbc
00000060: 05e3 d43d e7ac b6bd e22d 173d 0bdb ef3d
00000070: 5b44 8ebc 98e6 de3c 3c2c 85bd bd40 e2bd
00000080: be38 33bd 945a ce3d b138 ac3d ea88 fcbd
00000090: 3160 83bd d60f 99bd c1e5 ba3d b76b b7bd
000000a0: 5a20 a6bc c17d 07bd 1b93 b53d 95e9 343d
000000b0: e84c e03d d06a debd 7c2c 803d 9637 5abc
000000c0: 7c21 bb3d 28ab d1bd a1b8 9bbc 3eb0 a03d
000000d0: 9cb2 bd3d 302b 843d f23a 1e3d a70a 633d
000000e0: 9cd2 9abb 3039 f4bd 283f 513d aa33 fa3d
000000f0: 7bd7 57bd 4c70 c33c 9d08 a33d 6fc1 99bd
00000100: eb82 51bc 2dc6 c4bc 14f6 32bd 2740 17bc
00000110: b7e0 3c3d 31a5 633d 1132 30bd e793 3fbc
00000120: 36b3 81bd b58c cabd 3f54 3f3d 8b70 963d
00000130: 8810 7d3d 3348 f1bc b5cc f83d 48e2 ccbc
00000140: 74bc 3bbd 1b2c 2c3d d3a2 793d f585 aa3c
00000150: 3932 13bd e8bc d53d 7384 95bd ca70 9abd
00000160: 3f57 c6bd 663a 57bd 40b1 973d 631c 62bd
00000170: 6c60 ab3d 6311 ea3d 6b6b c43c 85c2 7fbd
00000180: 2c8d 8e3d e02f f9bc 958e f63b 9c28 123d
00000190: e53e d53d 5510 0d3d 0243 b1bd 7571 573c
000001a0: 1b84 2dbd 1be1 c63d a41e b33d ad30 683d
000001b0: cf1a aebd 6884 11bd f082 d73d 09ee 08bd
000001c0: 5ca4 02be 6a37 b5bd 5f81 493c 1936 b23d
000001d0: 3f7b 983c ac7f b73d 16ef c93d 1461 c43d
000001e0: 67b7 533d d9ca a03d ef7d 93bd 2c7e 9b3c
000001f0: 350b 8c3b db92 9d3d a7ce f3bd a4fd ee3c
00000200: f62f 73bd 0cc0 013d cc34 9abd bbba 36bd
00000210: 901f cfbd 6424 c23d ba9b a83c e63e 8d3d
00000220: a40a d5bc cb19 a63c 0cbe 043e 0287 4cbd
00000230: 9848 35bd 7d0e 913c 1cee ea3d 8e49 a73d
00000240: 2a22 b13d fbf5 813d 829e 81bc a2ad bdbd
00000250: 0a1b 8abd d367 8c3c 9aea 013d 1e06 03be
00000260: 6d9a 7b3c e7e1 863c 1d6e 173d b696 503d
00000270: b827 803c 4b96 9d3d 9b9f 353d 2c3a ea3d
00000280: f412 9dbd 14c5 263d ce85 023e 8a1d 063d
00000290: 2fa6 bf3c 6ad9 a13d b993 14bd c544 c6bd
000002a0: 1bbd 853c 941b 133d ea86 6dbd c45e cabd
000002b0: f891 38bd dcf9 683d 64eb c7bd 69c6 9d3d
000002c0: 1a95 9fbd 99bb 2ebd b163 343d d078 b23d
000002d0: 88a0 183d dd76 dfbd f4fc b33c 5ac2 bb3d
000002e0: 190c 8c3c 2b7d b1bd 4c49 703d f03a 46bd
000002f0: b234 d83d e291 063e 8e4f f7bc 57ac fabd
00000300: c04b 7b3d 73c5 1c3d 3462 bcbd c93f 96bd
00000310: 7eb4 543d 73cc ecbc f3c0 64bd 6f4e cebd
00000320: 78f2 b6bd e8a2 3bbd cea8 50bd 7ea0 03be
00000330: 12fa e3bd 2498 073e c349 a0bc 99f0 c23d
00000340: f312 40bd c14f b23d fe6f d83d d3fd a63d
00000350: 7cce 6c3d 8569 dc3d f353 e93d 701d b1bb
00000360: 9f58 023e 6f83 0c3d 542f 45bd ad55 7e3c
00000370: 2847 a2bd 5880 f83d cbe4 c5bd 06d5 4b3d
00000380: d7b9 b33d aabd 513d 1e59 b5bd a7b8 56bc
00000390: 19e8 f0bd e351 86bd 0253 82bc d19e 96bd
000003a0: 43c6 be3d 1e99 d6bc de50 d3bc 420a e1bd
000003b0: c99a 003e ea3b eabd 8dae d63d b9cb b83d
000003c0: ae44 35bd 032c 52bc 35c4 813d ab76 203d
000003d0: ad75 91bb b6dd 493d d70a 65bd e528 b03d
000003e0: 9cd4 03bd cab8 65bd 8765 b5bd 2f9d b53d
000003f0: 248f d03d 2427 98bd a4a1 8bbd 4214 bbbd

linear_layers.3.bias f4 [4]
0.071839325 -0.010256592 0.089903444 0.07048318
00000000: 7f20 933d 440b 28bc 4c1f b83d 7c59 903d
