models/model_1722157737805/model.pth (torch, 189305 bytes, 12 tensors)

conv_layers.0.0.conv.weight f4 [16, 10, 3, 3]
000000 be 67 84 3e 8c ea 88 3e 87 a8 7b 3e 1d 95 88 3e
       0.258604 0.26741445 0.24576007 0.26676264
000010 99 77 8b 3e 08 a9 86 3e 64 0a 87 3e b5 f9 8a 3e
       0.27239683 0.26300836 0.26375115 0.27143636
000020 35 13 73 3e 3a f4 25 bd 77 02 2b bd 27 c7 af bc
       0.23737796 -0.040516116 -0.041750398 -0.021457268
000030 3d a5 47 3b 81 2c 6f bc 7f 1d 2c 3d ab 8b 90 3c
       0.003046348 -0.014598013 0.042020317 0.017644724
000040 82 a7 0f 3b 69 00 44 3d 1f 62 d5 3c 94 64 41 b9
       0.002191991 0.047851954 0.026047764 -0.00018443383
000050 68 66 2e 3d c7 d5 a7 3a 0e ee 24 3d de e7 d6 bb
       0.04257813 0.00128048 0.04026609 -0.0065584024
000060 d9 87 e3 3c 0b 7f 1c 3d 3b 79 0a 3d e8 33 c1 bc
       0.027774738 0.038207095 0.03380702 -0.023584321
000070 8d 2d 56 3c d4 02 23 bd 70 d8 9d bc d4 ba 9f 3c
       0.013072384 -0.03979762 -0.019268245 0.019498266
000080 06 b1 31 bd 36 d2 d4 ba 88 30 d2 3b ae dd 8e bc
       -0.043381713 -0.0016236964 0.006414477 -0.01743969
000090 d9 f1 59 bc 88 2d ef 3b a9 0f ac bc 82 64 ed bb
       -0.01330229 0.007299129 -0.021003561 -0.0072446475
0000a0 7e 57 60 3c f7 03 30 3d 52 07 19 3c 43 43 07 bd
       0.013692735 0.04297253 0.009340124 -0.03302313
0000b0 23 ed 4f bb 79 03 8f 3e 19 26 81 3e 4b ea 92 3e
       -0.0031727038 0.27932337 0.2522438 0.28694376
0000c0 ae 7a 8e 3e 9f ef 8c 3e 77 25 87 3e c8 f1 8c 3e
       0.27827972 0.27526566 0.2639577 0.27528214
0000d0 28 2e 8d 3e 02 a2 8d 3e 4b 49 66 bd 81 6c 8a bc
       0.27574277 0.27662665 -0.05622224 -0.016897442
0000e0 3d 2f 8a bd a0 12 57 bc 1b c8 81 bd 90 0d 54 bd
       -0.06747291 -0.013126999 -0.06336995 -0.051770747
0000f0 e3 80 59 bd 82 5c 99 bc 0c 53 f9 bb 5e 7f 1a bd
       -0.05310143 -0.018720869 -0.007608777 -0.037719123
000100 95 57 4b bd c2 31 80 bb 88 b5 05 bd 6f 0e 5d bd
       -0.04964407 -0.0039121816 -0.032643825 -0.053968843
000110 95 5a 4a bc 4d dd 16 bd 5d 30 44 bc 32 dc 0b bd
       -0.012350698 -0.036832143 -0.011974421 -0.03414554
000120 5c b9 20 bc 12 65 6b 3c 49 e2 34 3c fd e5 a5 3c
       -0.009809818 0.014367359 0.011040279 0.020251269
000130 5b 67 0c 3d 58 a7 45 3b 2b 81 8a bc 72 37 f4 3a
       0.034278255 0.003015956 -0.016907295 0.0018632247
000140 6e 5c d9 39 bb 07 39 bc f4 0d 09 bc 35 b1 a4 3b
       0.0004145833 -0.011293347 -0.008365143 0.0050260075
000150 67 ba dc 3b b0 81 d6 3b 7e 97 8e 3c 5e b8 d4 ba
       0.006736088 0.0065462217 0.017406221 -0.0016229262
000160 75 d4 10 3d 85 d2 b0 ba 2f 71 6d 3e ec a5 6e 3e
       0.035358865 -0.0013490474 0.23187707 0.23305482
000170 e1 3a 57 3e e0 79 7e 3e 04 18 6e 3e b5 9d 62 3e
       0.21018554 0.24851179 0.23251349 0.22130473
000180 26 49 7f 3e 0c bd 64 3e 0a 4b 5b 3e 60 6f 38 bc
       0.24930248 0.2233774 0.21415344 -0.011257023
000190 04 82 75 3c db 9a b0 3c 17 c8 3b bd b7 91 ec bc
       0.014984611 0.021558216 -0.045845117 -0.028878076
0001a0 b3 4c 64 3b 0e 1c 3a 3c d9 c6 e4 ba 10 9e 20 3c
       0.0034835755 0.011359228 -0.0017454281 0.00980331
0001b0 d5 c5 10 3d 4d a0 9a 3c 45 64 be 3c e7 9a 12 3d
       0.035344917 0.018875265 0.023241172 0.035792258
0001c0 ec c1 0b 3d 1b 04 21 3d d3 79 af 3c 37 bc 3f 3c
       0.034120485 0.039310556 0.021420395 0.011702589
0001d0 96 82 ff 3c b1 9a 2e bd e5 ee e5 bc b3 5f 91 bc
       0.031190198 -0.042627994 -0.028068015 -0.017745828
0001e0 25 14 2d bd 51 2c 50 bc 7d 0f b7 bc e5 db a8 bc
       -0.04225554 -0.012705878 -0.022346253 -0.020612666
0001f0 fe 71 a6 bc 4e db 3b bd 6e 53 bd 3a 47 c8 30 bc
       -0.020318028 -0.045863442 0.001444442 -0.010789937
000200 88 a2 ba bc 71 23 13 3a 02 91 b8 bc fa 3c c7 bc
       -0.022782579 0.0005612886 -0.022530083 -0.024321068
000210 f9 4b f5 bc e7 72 df bb 43 e8 60 bb ab 4d 67 3e
       -0.029943453 -0.0068191173 -0.0034318126 0.22588222
000220 fa f4 6b 3e 21 8d 7e 3e eb 9f 83 3e d6 38 81 3e
       0.2304267 0.24858524 0.25707945 0.25238675
000230 ac 92 5b 3e 6f 69 76 3e 39 64 82 3e bc 1c 64 3e
       0.2144267 0.24063657 0.2546709 0.22276586
000240 6e 4f 75 3c 0c 3b c5 3c 88 c3 3d bc a3 1e e1 bb
       0.014972551 0.024076007 -0.011582263 -0.0068701073
000250 50 35 ec bc 59 69 3e 3c 54 f4 18 bb be 61 06 bc
       -0.028834015 0.0116217965 -0.002333899 -0.0082020145
000260 c0 91 a0 3c ff 9f cf 3c 5d cd 2b 3d fa 8e 1b bd
       0.019600749 0.025344847 0.041943897 -0.03797815
000270 91 07 05 bc 57 70 47 bc b3 30 ce 3c 41 f3 1c 3c
       -0.00811948 -0.01217278 0.025169706 0.009579481
000280 de b9 fb bc ca 22 d2 3c 63 a1 f2 3b 88 b2 bf ba
       -0.030728277 0.025651354 0.0074044927 -0.001462535
000290 3b 03 6d 3c 8f 85 34 3c 1c 65 a4 3c 03 04 c6 3c
       0.014466102 0.011018171 0.020067744 0.024171835
0002a0 eb 97 c3 3c b5 31 8a 3c 65 13 fa 3b ba e6 86 3c
       0.023876151 0.016869405 0.0076317065 0.01646744
0002b0 5d 70 5d 3c 74 e0 f6 b9 82 1f d3 3c f3 b1 6f 3c
       0.013515559 -0.00047088007 0.02577186 0.014629829
0002c0 47 fe 7c 3c 63 fa a1 3c c3 8f cc 3b 64 f9 2a 3c
       0.015441484 0.019772714 0.0062427237 0.010435436
0002d0 61 4e 1f be 6c fd 38 be b8 0c 22 be 22 d2 2a be
       -0.15557243 -0.18065423 -0.15825164 -0.16681722
0002e0 29 7b 38 be 58 dd 41 be aa aa 43 be e0 be 66 be
       -0.18015732 -0.18932092 -0.19108072 -0.2253375
0002f0 a8 41 51 be 99 d6 86 3c 9a e5 34 3d 76 e9 24 3d
       -0.20435202 0.01645975 0.044164278 0.04026171
000300 c7 6c 84 3d b0 10 3a 3d 7a 91 5e 3d 2a 48 25 39
       0.0646606 0.04542607 0.054337956 0.0001576251
000310 1f b8 80 3d b1 22 04 3d 92 b6 df bc 55 be 5d bd
       0.06285118 0.032259647 -0.027308736 -0.054136593
000320 b6 f5 13 bc 24 fc 49 bd 42 ac 50 bd 72 4a 03 3c
       -0.00903075 -0.049312726 -0.050945528 0.008013355
000330 11 07 39 bd a3 ac fb 3c 6c fe 02 bd dd c2 3e 3d
       -0.045172755 0.030721968 -0.031980917 0.046572555
000340 81 01 c3 3b 43 eb a3 3c 4c 82 5b 3d 1c 85 b7 bb
       0.005951107 0.020009642 0.053591058 -0.0056005847
000350 c7 b8 9f 3d cd cd 31 3c eb 08 33 bc 27 1a 40 3d
       0.07798915 0.010852289 -0.010927419 0.04689994
000360 b9 23 c3 3c 91 9a 8a 3c c6 b2 fb 3c 3a 10 6d 3c
       0.023820745 0.016919406 0.030724894 0.014469201
000370 f6 2e cd bb 55 6c 8e 3c d6 4f 78 3d 32 3c 70 3d
       -0.0062617017 0.017385641 0.060623012 0.058651157
000380 76 ad 3f 3d b2 a9 2c be db 2f 2d be 6e 94 2e be
       0.046796285 -0.16861609 -0.16912787 -0.17048809
000390 5c ea 27 be 6e 90 3f be d3 87 55 be b3 67 24 be
       -0.16397995 -0.1870744 -0.20852594 -0.16055183
0003a0 cc b1 4b be 3f 69 49 be 05 74 53 bd f9 6a 7d bd
       -0.19892043 -0.19669054 -0.051624317 -0.061869595
0003b0 89 ed 26 3d c0 6b 44 bd 1c 59 0c bd b2 e1 d0 bc
       0.040753875 -0.04795432 -0.03426467 -0.025498245
0003c0 36 99 84 bd 3b 40 10 3d 0f 03 39 bd f4 49 17 3d
       -0.06474535 0.035217505 -0.045168933 0.03693576
0003d0 be 56 65 3d 13 dc bd bd 21 d0 39 3d 19 10 60 3d
       0.055990927 -0.092704915 0.045364503 0.054702852
0003e0 6a 5c 1d 3d 86 ff d8 3c 99 cf 92 bd 35 06 23 3d
       0.03841821 0.02648903 -0.07168502 0.03980084
0003f0 fc 91 75 3d 45 0c 9f 3d 5a a1 c3 bd f6 0e 93 bc
       0.059953675 0.07766012 -0.0955226 -0.01795147

conv_layers.0.0.conv.bias f4 [16]
000000 8c 7d 2f 3d 7c ee e3 3c fc 1f bf 3c 06 b5 b3 bd
       0.04284434 0.02782368 0.023330681 -0.08774762
000010 03 7d 9c bd e9 95 3e 3d 1f 63 5a bd 42 84 9b bd
       -0.076410316 0.046529684 -0.053317185 -0.075935856
000020 a4 52 92 3c bc 2d 04 bd 8a c1 a1 3c 61 83 63 bd
       0.017861672 -0.03227018 0.019745607 -0.055545215
000030 1d e1 77 bd 78 fc 6c bd 4a f8 a1 3c df 81 4b 3d
       -0.06051742 -0.05785796 0.019771714 0.0496844

conv_layers.2.0.conv.weight f4 [32, 16, 3, 3]
000000 b8 cd bb 3c d5 12 5b bd 27 72 c3 3c 61 58 b2 bd
       0.022925243 -0.053484756 0.023858143 -0.08708263
000010 e7 dd 59 bd 2f 56 96 bb dc 60 9c 3c a9 82 85 bd
       -0.05319014 -0.0045879106 0.019089155 -0.06519062
000020 dd b9 54 bc c3 66 a3 bd 3a fc 8c 3c 38 c0 7a 3c
       -0.012983766 -0.079785846 0.017210115 0.015304618
000030 e2 e3 53 3c 68 e4 6b bd 9c 66 a0 3c d1 76 0c 3d
       0.012932749 -0.057590872 0.019580178 0.034293
000040 ca 55 26 bd d3 e3 15 bd cf 4f 00 bc 32 3c e3 bc
       -0.04060916 -0.036594223 -0.007831528 -0.027738664
000050 66 13 a7 bd 10 1d 58 bd 8d df 52 bd 8a 33 15 3d
       -0.08157997 -0.05276209 -0.051482726 0.036426105
000060 ab ff 13 3d de 69 5b 3d 7e cc 5d 3d da da e7 bb
       0.036132496 0.05356776 0.054150097 -0.0070756497
000070 9f 9b 0d bd 19 c2 2c bd f0 ea 46 bc ef c6 b2 3c
       -0.03457224 -0.042177293 -0.012140974 0.021823375
000080 31 9f 9c bb a2 db 44 bc af d7 ee bc ea d3 19 bd
       -0.0047797193 -0.012015255 -0.02915558 -0.037555613
000090 dc 50 8c bc 12 4b ce bc d3 61 45 bd 27 00 a6 bc
       -0.0171284 -0.02518228 -0.048188996 -0.020263745
0000a0 11 0a 97 bc 94 16 2e bd a0 4b 7a bd 65 04 79 bd
       -0.018437417 -0.042502 -0.061107278 -0.060795207
0000b0 b4 1a ad ba 45 a5 28 bd 48 86 30 bd 9c 36 f7 3b
       -0.0013206811 -0.04117324 -0.04309681 0.0075443517
0000c0 5a 17 4c 3d 42 9d 39 bd cf f6 ad bd bf 0d 79 bd
       0.049826957 -0.04531599 -0.08494341 -0.060804125
0000d0 f6 06 34 bd 08 ba 3b 3d 51 6e 44 bd 27 15 5f bd
       -0.04395195 0.04583171 -0.04795677 -0.05446353
0000e0 8c 35 5d bc c3 76 8f bd c1 71 b0 bd f9 f8 24 bd
       -0.013501536 -0.07005074 -0.08615447 -0.0402765
0000f0 1f 8c a4 bd 0a 1c 2e bd fb 2f 84 bd cb 43 6e 3c
       -0.080345385 -0.04250721 -0.06454464 0.01454253
000100 95 7c e1 bc 6a 2c 2b bd a3 a3 81 bc 6f 51 c8 bb
       -0.027525226 -0.041790403 -0.015825098 -0.0061132233
000110 3c 2c 95 3b 31 45 73 bd 97 c4 3c bd 6e 8e cd bc
       0.0045523923 -0.059392158 -0.04608592 -0.02509233
000120 0f 2d 1e 3c 02 de 47 bd f0 7f 20 bd ab 56 c8 3c
       0.0096542975 -0.048795708 -0.03918451 0.024455389
000130 71 b3 86 bd d1 bc ef 3c b0 61 83 bd 69 2b 65 bd
       -0.065771945 0.02926484 -0.06415117 -0.055949602
000140 6f 68 1c bc f9 7d 1f 3d 41 bb 9f 3d 6c 11 8a 3d
       -0.009546383 0.038938496 0.07799388 0.06741604
000150 f8 7d 88 3d 9c 81 b0 3d e0 8e 17 3d 70 0e 53 3d
       0.06664652 0.08618471 0.03700149 0.05152744
000160 61 60 bc 3d 8e 2f 34 3d 4f 11 47 bd 22 77 95 bc
       0.0919807 0.043990664 -0.04860049 -0.018245284
000170 fd 83 ba bc c4 3d 84 bd 12 aa 04 bd db fc 83 3c
       -0.022768015 -0.06457093 -0.032388754 0.016111782
000180 0d e8 90 3c 5c d6 0f 3d a4 26 4c 3c 4c ae 4e bd
       0.017688775 0.03511654 0.0124603845 -0.05045919
000190 27 38 18 bd b0 5e 14 bd d9 ba 3d bd 09 50 91 bd
       -0.037162926 -0.036223114 -0.04632077 -0.070953436
0001a0 1b ad 9b bc ac ea 35 bd ac ca 0e bd 55 03 e5 bc
       -0.019003442 -0.044413254 -0.03486125 -0.02795569
0001b0 3a 4b d8 bb f4 07 86 bc 30 ba ce bc f2 ce b5 bb
       -0.0066007646 -0.016361214 -0.025235265 -0.0055483514
0001c0 6e fb 4c bd 17 98 dd bc b1 9f cf bc 89 1e 09 bd
       -0.05004447 -0.027050061 -0.025344701 -0.033476386
0001d0 45 64 6c bc ef a4 46 bd d6 ce 3b bd 6a 77 2d bd
       -0.014428203 -0.048497137 -0.04585155 -0.04235021
0001e0 27 3e 46 bd 60 bb 1f 3b 23 95 9e bc f6 d1 a8 bc
       -0.048399117 0.0024373159 -0.019358223 -0.02060793
0001f0 4c 85 44 bb 9c ca 46 bd aa 8a 10 bd 2d 50 fd bb
       -0.0029986678 -0.048533067 -0.03528849 -0.007730505
000200 18 8e ba bd 3c d5 9b 3c 06 a9 bc bd f6 91 4d bd
       -0.091091335 0.019022577 -0.09211926 -0.050188027
000210 09 0e c0 bd a2 a7 08 bd bf 52 a8 bd b2 85 ab bd
       -0.09377677 -0.033362992 -0.082189076 -0.0837511
000220 0f a8 ab 3c f4 dd 11 3d f3 30 ba bd ee 92 ae 3c
       0.02095416 0.03561206 -0.090913676 0.021310296
000230 04 12 b7 3c 61 05 45 bd b7 84 00 3d 40 ab b8 bd
       0.022347458 -0.048100833 0.031376567 -0.09017038
000240 ef 13 1d 3d ff 4b 7a bc 42 81 98 39 1f 82 b5 bb
       0.03834909 -0.015276908 0.00029088004 -0.0055391933
000250 41 cc aa bd 0e 1f 5a bc ce 6b 06 bd 27 f6 1f bd
       -0.083397396 -0.013313068 -0.032817654 -0.03905311
000260 b2 f1 0f 3b e8 cf 43 3c 39 86 7b bd 76 91 83 bc
       0.002196413 0.011951424 -0.0614073 -0.016060572
000270 00 ad 61 3d 01 e1 47 bc 02 f5 97 3c fe b3 53 bc
       0.055096626 -0.012199641 0.018549446 -0.012921331
000280 5c 3d 65 3c 39 be 35 bd 45 cf 7b bd cd 45 8d bd
       0.01399168 -0.044370864 -0.061476965 -0.06898079
000290 99 34 6d bd ed 59 1b bc 93 14 24 3d df 1e 49 3d
       -0.05791149 -0.009481889 0.040058684 0.049101707
0002a0 e8 45 50 bd 70 01 0b 3d 1a ad 1d bd bd 94 0d 3b
       -0.050847918 0.033936918 -0.03849516 0.0021603548
0002b0 f6 c6 01 bd 76 aa f0 bc c8 b8 9f bc fa 04 cd bc
       -0.031683885 -0.029378157 -0.01949729 -0.025026787
0002c0 b7 4c 93 bc 54 21 3a bc 21 37 6a bc f5 66 f5 bb
       -0.017980916 -0.011360485 -0.01429537 -0.00748908
0002d0 cc df 8a bc e3 db da 3b fe 2a 77 3c 6f 07 44 bc
       -0.016952418 0.0066790446 0.015085934 -0.011964663
0002e0 2f 30 e1 bc 78 17 e4 bc e7 f5 18 bd a7 aa 50 3b
       -0.027488796 -0.027843222 -0.037343886 0.0031839998
0002f0 9c 3d 72 bc f2 15 45 bd f6 78 d6 bc 57 86 b0 bc
       -0.014785197 -0.04811663 -0.026180726 -0.021548433
000300 2d 44 4b bd d0 33 60 3c 26 ec b3 3b 7f 0d 2e 3d
       -0.049625564 0.013684228 0.0054907976 0.04249334
000310 5f 0f 6d bd f4 3d a4 bd 6b 44 a2 bb ec 55 d8 bc
       -0.057875987 -0.08019629 -0.0049520037 -0.026408158
000320 03 ea ab bc 95 a4 61 bb 20 5f 6f bc 17 b8 56 3b
       -0.020985609 -0.0034430374 -0.014610082 0.0032763535
000330 18 12 03 bc 6c 05 2f bd b3 a2 33 bd e3 ef de bc
       -0.007999919 -0.04272978 -0.043856334 -0.027213996
000340 8d 4d 0a bd e6 2b 5d bc 02 9b d3 bc 4b 99 84 bc
       -0.033765364 -0.013499236 -0.02583075 -0.016186377
000350 38 e9 f0 bc c0 e3 f4 bc 18 13 0f bd ac f0 76 bc
       -0.029408082 -0.029893756 -0.03493032 -0.015072029
000360 33 c1 bd bc 96 d0 3a bc cc 8c 85 bc a7 86 6c bc
       -0.023163414 -0.01140227 -0.016302489 -0.0144364005
000370 c7 14 c0 bc ca 07 7e bd c8 e5 4f 3c da 95 94 bd
       -0.023447407 -0.062019147 0.012689061 -0.072551444
000380 09 03 05 3d 69 45 29 bc 16 e3 e7 ba 13 11 10 3d
       0.032473598 -0.01033149 -0.0017691578 0.035172533
000390 2e 55 0d 3d e4 c4 9d 3c 78 6b e2 ba b6 e8 01 3d
       0.03450506 0.019258924 -0.001727446 0.03171607
0003a0 e6 f1 cc 3b 53 a9 fd ba c5 53 3b bd 34 9d 66 bd
       0.0062544225 -0.0019352831 -0.045734186 -0.056302264
0003b0 58 cc 6b bb df 98 a6 bb 69 d6 89 bd 73 93 7f bb
       -0.0035979953 -0.0050841416 -0.067303486 -0.0038997799
0003c0 5c c7 ac bd 08 17 08 bc 6f a6 10 3d 91 95 0f bd
       -0.08436462 -0.008306272 0.035314973 -0.035054747
0003d0 14 d1 06 bd fc 36 3d bd c1 e9 07 bd a9 2e 4c bd
       -0.032914236 -0.046195015 -0.03318191 -0.049849186
0003e0 42 84 c8 bc 28 fe 36 bd 0b e4 16 bd 4d 65 5f bd
       -0.024477128 -0.044675976 -0.036838572 -0.054539967
0003f0 59 16 77 bc 99 3c ef bc 74 c3 1a bd bc 99 37 bc
       -0.015081012 -0.0292037 -0.037784055 -0.011206087

conv_layers.2.0.conv.bias f4 [32]
000000 dc 71 a5 3c 80 b9 4e b9 83 66 19 bd dd 60 95 3d
       0.020195894 -0.00019714795 -0.03745128 0.07293866
000010 ff 79 7a 3c 56 4b 58 bd c0 1a 1c b9 89 0a 71 bd
       0.015287875 -0.05280622 -0.00014887284 -0.058847938
000020 0d 6e 3e bc ba 9b 8a bd a5 f8 03 bd fa 31 2a bd
       -0.011622918 -0.06767984 -0.032219548 -0.041551568
000030 66 80 f7 3c 67 3a 2e 3c 62 57 aa 3b 0d 62 2d 3d
       0.030212592 0.010634041 0.005198405 0.042329837
000040 66 6a 82 bd 66 49 4e 3d 04 da d6 3c 3b 03 31 3d
       -0.0636795 0.050362967 0.026227005 0.04321597
000050 af 7e 3f 3d df a0 8e 3d 75 8c 43 bd b1 1c a3 bc
       0.046751674 0.069642775 -0.047741372 -0.019911142
000060 f4 43 41 bd b2 6c 5c 3b af b3 85 bb 17 f3 87 bd
       -0.047183946 0.0033634123 -0.004080258 -0.066381626
000070 6a 4a a4 bd ca ab 40 3d 20 88 2d bd 6a 76 8b bd
       -0.08022006 0.04703883 -0.042366147 -0.06809695

conv_layers.4.0.conv.weight f4 [32, 32, 3, 3]
000000 49 15 8d bc ec 06 8b 3b c2 82 9c bb a5 8b fd 3a
       -0.017222064 0.0042427685 -0.0047763297 0.0019343985
000010 25 44 3c bd 79 35 7f bd 5e 83 3a 3c e6 50 d0 3b
       -0.045963425 -0.062306855 0.011383859 0.0063573
000020 8c f2 69 3c ab 93 2d bd ac 14 b2 3b 66 f6 94 bc
       0.014279019 -0.042377155 0.005434593 -0.018183898
000030 15 a3 d4 3a 7b c3 4c 3c d2 3f 4e 3c 7a 56 6a bc
       0.0016222919 0.012497778 0.012588458 -0.014302844
000040 df 8b 4d 3c 98 5e ae 3c dc 6f 96 bc a9 98 19 bb
       0.012545555 0.02128534 -0.018363886 -0.002343694
000050 b8 6a 5d bb 09 7a 8d bd 27 06 95 bd 5c 80 77 bc
       -0.0033785533 -0.06908042 -0.07276564 -0.015106287
000060 6e 88 75 bd 5c 64 71 bc 94 95 95 bd 17 fd 3a 3d
       -0.059944563 -0.0147334 -0.073039204 0.04565152
000070 7d 5c a0 bb af 1a 59 3d 8c d4 aa 3c d2 3f 1a 3d
       -0.004893838 0.053003963 0.020853303 0.03765852
000080 81 ab 91 3d 09 6a cc bc 9a 8e 6f 3c db 93 40 3d
       0.0711279 -0.024952905 0.014621401 0.047016006
000090 da 5c 82 bd 61 65 67 bc 18 a2 5f bd d3 7f 31 bd
       -0.06365366 -0.014123292 -0.054597944 -0.043334793
0000a0 76 ad b5 bc 54 91 a9 bc f8 5d 90 ba 56 3a f4 bc
       -0.02217744 -0.02069918 -0.0011014333 -0.029812973
0000b0 7f bd 10 3b c0 a6 95 bc 7b d3 ac bc 78 97 aa 3c
       0.0022085605 -0.01826799 -0.021096935 0.020824179
0000c0 0f 18 bb 3c ec 10 95 bd 86 22 87 bd 33 c6 a7 bd
       0.02283862 -0.07278618 -0.06598382 -0.081921004
0000d0 b5 c4 88 3b ee 2d d0 ba ac 6e 5b bd e3 a0 2d bd
       0.00417384 -0.0015882829 -0.05357234 -0.04238976
0000e0 a4 47 29 bd 86 78 48 bd 81 b0 6f bc 34 11 88 bd
       -0.041328087 -0.048943065 -0.014629484 -0.06643906
0000f0 e4 61 6e bd 52 91 a6 bd 9e 79 4a bd 2c fa 5d bd
       -0.058198825 -0.081331864 -0.04943239 -0.05419366
000100 73 49 0b bc 64 52 9f bd 17 9b 8b bc a9 4d 8a bd
       -0.008501398 -0.07779387 -0.017041726 -0.06753094
000110 9e 97 c1 bc d4 05 91 bd ec 53 c0 bc 23 07 67 bb
       -0.023631867 -0.0708119 -0.023477517 -0.0035252057
000120 39 62 d3 3b 1e 8d ba 3c 80 aa de bc e2 0e 42 3d
       0.006450918 0.022772368 -0.02718091 0.047377475
000130 46 97 41 3c be bf 68 bc 4c 9a a6 3c 4f d5 4d 3d
       0.011815852 -0.014205871 0.020337246 0.050252255
000140 cc a9 96 3c 62 35 97 bd f2 08 32 bc 3d 9e 91 bd
       0.018391512 -0.07383229 -0.010866391 -0.0711026
000150 e4 9f 8c bd 21 37 7e bd bb 85 8f bd e2 4f 3b bd
       -0.06866434 -0.062064294 -0.07007929 -0.04573048
000160 4d 9a 60 bd 2c 1b 85 ba 5b 66 b2 bd b7 66 34 bb
       -0.054834653 -0.0010155193 -0.08710929 -0.0027527043
000170 be f8 89 bd ec d6 76 bd bb 12 72 bd ac f1 5d bc
       -0.06736897 -0.06026356 -0.059099894 -0.013546389
000180 ee 5b 87 bd d0 6f f8 bb 41 e9 2c bb 51 48 ab bd
       -0.06609331 -0.0075816885 -0.0026384147 -0.08363403
000190 2c 28 08 bd a6 b0 67 bd b3 e7 f7 bc e7 cf 9a bb
       -0.033241436 -0.05656495 -0.03026185 -0.004724491
0001a0 97 65 5b 3b 58 99 dc bc 42 a4 f2 bc 26 5b 81 bd
       0.00334773 -0.026928589 -0.02961934 -0.06316213
0001b0 63 63 2e 3d f8 62 f1 bb 01 21 ee bc 77 a5 7d bc
       0.04257525 -0.0073665343 -0.029068472 -0.015481344
0001c0 c5 17 1a 3d 35 55 3d 3d 78 2b 48 3d 27 a9 ed 3c
       0.037620325 0.046223838 0.04886958 0.029011322
0001d0 a1 27 6e 3d 4c 9e 61 3c d1 0a 1b bd 5e b5 09 bd
       0.05814326 0.013770651 -0.037852112 -0.03362023
0001e0 87 f4 ce bc 84 68 3f 3c 17 aa 28 bd 4f c8 42 bc
       -0.025263084 0.011682633 -0.041177835 -0.011888578
0001f0 20 07 83 bb b9 7a 88 bb 16 ea 35 bc 0a 49 05 bd
       -0.003998652 -0.0041650203 -0.011103174 -0.03254036
000200 cf 60 ee bc 06 02 cc 3c 22 00 58 3c 94 b8 64 3c
       -0.029098896 0.024903309 0.013183625 0.0139600225
000210 cc 25 d8 bc 29 18 33 3c 20 b6 2d 3c ce 10 cf bc
       -0.02638521 0.010931053 0.010602504 -0.025276568
000220 b0 fc 3d 3d 8c 78 c9 bc 15 73 82 bc e7 ef 4a bc
       0.04638356 -0.024593614 -0.015924016 -0.012386299
000230 4e a8 49 3d 10 a9 8b bc 12 96 95 bb a0 f6 39 3d
       0.049232773 -0.017048389 -0.004565009 0.045401216
000240 04 21 27 bd 69 8b 25 bd fa ad 1d bd f6 45 de bc
       -0.04080297 -0.040416155 -0.038495995 -0.02713297
000250 bd d4 ee bc 1f 0e b9 3c 68 5d d3 3c 39 9e 77 bd
       -0.029154176 0.022589741 0.025801376 -0.060453627
000260 ad 2e 91 bb 16 13 58 3c 1f 28 93 bd ef 47 e0 bc
       -0.004430613 0.013188144 -0.07185387 -0.02737805
000270 70 e9 83 3c 05 e5 de 3c 1f 59 8d 3c b3 45 81 bc
       0.016102523 0.027208814 0.01725441 -0.015780305
000280 03 43 01 bd 01 5e 54 3b b1 03 ee 3c 43 34 1f 3d
       -0.031558048 0.0032404664 0.029054495 0.0388682
000290 f7 de bf 3c 55 30 0e 3c f4 94 a9 bc 1e b3 b8 b9
       0.023421748 0.008678515 -0.02070091 -0.00035228668
0002a0 d8 23 22 bd ae b8 e1 3c 9f 65 85 bb 7e 03 b7 bc
       -0.039584965 0.027553882 -0.004070952 -0.022340532
0002b0 f4 bd 5e bc d5 59 0d 3d 2f 83 6a 3d 27 fb 51 3d
       -0.013595093 0.0345095 0.057254013 0.05126491
0002c0 59 36 29 3d fd 55 f7 3c 36 a0 d3 3c 64 20 2e 3b
       0.041311596 0.03019237 0.02583323 0.00265696
0002d0 dc b5 a2 bb d5 0b 9e 3c 94 8e 87 3d b3 02 00 bc
       -0.004965527 0.019292751 0.066189915 -0.007813144
0002e0 64 f1 96 bc e8 a0 0a 3d d1 6b 98 3d 97 c8 cc bc
       -0.01842565 0.03384486 0.07442439 -0.024997992
0002f0 54 97 c1 bb d4 6f 09 3d 16 bd 63 3d a6 e4 96 3c
       -0.0059079323 0.033553913 0.05560025 0.018419575
000300 97 c8 7a 3d 72 c1 a0 bc e8 10 1f bd b4 52 0d 3d
       0.061226454 -0.019623492 -0.038834482 0.0345027
000310 9f 71 56 bc 16 73 24 3c a0 70 1d bd 25 14 37 bd
       -0.013088613 0.010037204 -0.038437486 -0.044696946
000320 7d a0 75 bd e7 9b ae bd 78 dd 6a bd 16 83 df bc
       -0.059967507 -0.0852583 -0.057340115 -0.027284186
000330 81 1f 51 bd f6 18 a0 bd 85 41 77 bc 81 c1 75 bd
       -0.051055435 -0.07817261 -0.015091305 -0.059998993
000340 23 59 b4 bd 46 91 83 bd 47 20 38 bd a6 2e c4 bc
       -0.08806064 -0.06424193 -0.044952657 -0.023948025
000350 c7 37 83 bd d2 52 02 bd 20 a5 b1 bc 21 f9 92 bd
       -0.06407123 -0.031817265 -0.021685183 -0.07176424
000360 03 ec 91 bd 85 20 84 bc 58 25 ce 3a 25 4a 8a bd
       -0.07125094 -0.016128788 0.0015727682 -0.06752423
000370 3e 00 8c bd d9 49 7d bd 42 1d 0b bd 1e 15 ab 3c
       -0.06835984 -0.061838005 -0.03396345 0.020884093
000380 d4 45 c4 bc a2 50 a1 bb 92 38 db bb 58 b6 0a bc
       -0.023959078 -0.0049229423 -0.0066900933 -0.008466326
000390 bc 94 11 3d 60 89 14 bb 76 17 03 3d 5e 5e 7b bc
       0.035542235 -0.002266489 0.032004796 -0.015342323
0003a0 ab 16 8c bc 3a 4a cb 3c 7e 8b c3 3b 9d 04 b1 bc
       -0.017100653 0.024815667 0.0059675565 -0.021608645
0003b0 ec e5 ea bc 6a c5 f7 3a 25 55 e4 3c 2f fc df bc
       -0.028674088 0.0018903438 0.027872631 -0.02734193
0003c0 60 d5 14 bd ef c0 42 3c 5b ab 58 bd 21 18 02 bd
       -0.036336303 0.011886819 -0.052897792 -0.031761292
0003d0 44 fb 43 bd 26 2e 09 bd 1f 20 6c ba ce 73 84 bd
       -0.047847047 -0.033491276 -0.0009007472 -0.064674005
0003e0 a1 7f 32 bd 78 4a 1a bd c0 1c d1 bc 63 5f 78 3b
       -0.043578748 -0.037668675 -0.025526404 0.0037898652
0003f0 a9 d9 c7 bd 07 df ba bd 69 f7 fc bc 8f 13 76 bd
       -0.09758312 -0.0912457 -0.030879693 -0.060077246

conv_layers.4.0.conv.bias f4 [32]
000000 44 22 5b 3d f7 d8 82 3b 1c 58 08 3d 62 cb 0d bd
       0.053499475 0.0039931494 0.033287153 -0.03461779
000010 48 c1 c7 3c 96 bf 06 3d d0 88 d0 39 df f0 4d bd
       0.024384156 0.032897554 0.00039774785 -0.05027854
000020 7d 09 83 bd c9 3e 62 bd 01 91 19 3c 69 0a 39 bd
       -0.06398294 -0.055235658 0.0093729505 -0.045175944
000030 70 b1 b2 bd a9 6c 7c bd d0 06 90 bc 84 44 f4 bc
       -0.0872525 -0.061627064 -0.017581373 -0.029817827
000040 26 55 78 3b cc e1 38 bc 72 f1 95 bc a8 dc cc 3c
       0.003789255 -0.011284303 -0.018303607 0.02500756
000050 8d 4c 19 3c 35 8c 0d bd 05 47 28 bd 9b 09 3d 3d
       0.00935663 -0.03455754 -0.041083355 0.04615174
000060 a0 78 7c 3d 7d 5c f0 3c 58 2d e8 bb 75 da 0c 3d
       0.061638474 0.029340977 -0.0070854835 0.034388024
000070 c3 8e 05 bd 6f 9a 8f 3b a7 36 cd bc 9f f3 fd bc
       -0.03260685 0.0043824236 -0.025050474 -0.030999957

conv_layers.6.0.conv.weight f4 [16, 32, 3, 3]
000000 4d 7b 40 3c ee cb c7 bc 7f a6 29 bc 3d 98 5b bd
       0.011748147 -0.024389233 -0.010354637 -0.053611983
000010 5e 30 95 3c d6 6f fe bc e5 53 db 3c 00 28 f8 bc
       0.01821154 -0.031059187 0.026773402 -0.030292511
000020 c2 32 b1 bc fc 1a cd 3b ff ca 1f bd ea 2b a0 3d
       -0.021630649 0.0062593203 -0.03901195 0.07820876
000030 70 8a 08 3d 87 0f 89 bd 48 c1 e7 bc 06 ea 4c bd
       0.03333515 -0.06692415 -0.028290406 -0.05002787
000040 2c 9b 2b ba c1 47 53 3d bf 8e aa 3a 11 3a b4 bc
       -0.0006546255 0.0515821 0.0013012512 -0.022000344
000050 85 0a a0 3d 9c 7e 34 3b 8f 87 0a bd 56 8f 10 3d
       0.078145064 0.0027541285 -0.033820685 0.035292946
000060 9d 8e 3a 3d 5d 3a 23 bd 29 0f a4 3c 8b 61 e1 3b
       0.045546163 -0.03985058 0.02002676 0.006878083
000070 3a 99 34 3d 88 ca 67 bc ec ef 0d bd 6e 4f f4 3c
       0.04409144 -0.014147408 -0.034652635 0.029823031
000080 18 84 93 3a 58 4a d0 3c 3c 99 af 3c 35 d6 ba bb
       0.0011254577 0.025426075 0.021435373 -0.005701805
000090 81 47 cd bc c2 23 4e bc 4b 7e 50 3d 64 ea 97 bc
       -0.02505851 -0.0125817675 0.050901692 -0.018544383
0000a0 ed e7 a2 3c d9 b9 5f bc 89 9c c1 bc 8a f6 01 bd
       0.019885981 -0.013655149 -0.023634212 -0.03172926
0000b0 dc 21 13 3d 6a dd 11 3d fa 7c 18 bd c5 30 1a 3d
       0.035920963 0.035611548 -0.037228562 0.037644166
0000c0 d1 81 7e 3b 1b 54 a0 bb ae ee 8a 3c 59 aa 83 bc
       0.00388347 -0.0048928387 0.016959514 -0.016072439
0000d0 92 78 d1 3c 65 75 cd 3c dc df bd bc d3 c1 2b bd
       0.025570188 0.025080392 -0.023178034 -0.041932892
0000e0 75 4b 89 bc d2 b5 6f bc d7 33 4f bd ea 34 6a bd
       -0.016759614 -0.014630752 -0.050586548 -0.05717937
0000f0 d2 69 1e bc 51 7f 74 bb 24 0d dc 3c 75 ce 56 3c
       -0.009668784 -0.0037307332 0.026861735 0.013110747
000100 ab b6 e8 3c 40 90 15 bd c4 ba 7c 3d 65 bc a7 ba
       0.028407415 -0.03651452 0.06170155 -0.0012797235
000110 45 55 7f bb a7 3b d5 3c f6 16 da bc f2 6f 21 bd
       -0.0038960737 0.026029421 -0.026622277 -0.0394134
000120 d8 41 7b bc aa 51 35 3c 6c ec 6f bd 9d 30 6f bd
       -0.015335523 0.0110668335 -0.05857508 -0.05839597
000130 db b1 60 bd 9f b9 88 bd 2e da 00 bc 3a 40 e5 bc
       -0.054857116 -0.066760294 -0.007864518 -0.027984727
000140 ae 01 13 bd 0d e2 c2 bc ec 79 2c bd 57 ed 01 3c
       -0.035890274 -0.02378943 -0.04210846 0.007930121
000150 42 13 06 bd c7 01 6d bd 16 b4 0d bd c7 ef 6c bd
       -0.03273321 -0.057863023 -0.03459557 -0.057845857
000160 15 86 bc 3c 42 d5 29 3d 50 00 eb ba bf 79 be 3c
       0.023013154 0.041463144 -0.001792917 0.023251412
000170 39 6d 9c 3d 62 2e 37 3c 80 00 12 bc 7c 05 b4 3c
       0.0763802 0.011180492 -0.008911252 0.021975271
000180 f7 fb 46 bd 39 b9 0e 3d d1 19 a5 bc 62 6c 87 3b
       -0.048580136 0.03484461 -0.020153912 0.0041327933
000190 9e 59 fd bc 27 e0 13 3c 0c 7b 2a 3c b4 d4 e6 bc
       -0.030926522 0.00902561 0.010405313 -0.028177597
0001a0 93 6a 8d bd b4 8c db bb 19 2f 05 bd d6 ff ce bc
       -0.06905093 -0.0067001227 -0.03251562 -0.025268476
0001b0 69 85 57 bd 17 c8 8a bd 4c 64 18 bd f5 5d 2d bd
       -0.052617464 -0.06776445 -0.037205026 -0.042325933
0001c0 69 ce 7f 3c fb a6 e8 bb 4d 32 c6 3c 1a eb bb bc
       0.015613177 -0.0070999837 0.024193907 -0.022939254
0001d0 16 f5 e5 b9 55 67 0e 3c 83 01 fd bc 89 55 dc bc
       -0.00043860887 0.008691628 -0.03088451 -0.026896255
0001e0 2c cc 7a bc 86 38 45 bd 2b 41 fa 3c 98 f4 4b bd
       -0.015307467 -0.048149608 0.030548653 -0.04979381
0001f0 f1 a7 03 bd b0 24 d3 bc e8 66 7a bc 49 a4 e3 bb
       -0.032142583 -0.02577433 -0.015283324 -0.0069470746
000200 b4 8a 15 bd 28 84 29 3c 4f af f5 3c 92 bc a9 bc
       -0.03650923 0.01034645 0.02999082 -0.0207198
000210 91 98 ae bc 31 fd c7 bb 91 f1 79 bc 80 31 cc 3c
       -0.021312984 -0.006103181 -0.015255348 0.024925947
000220 6f 7f ec 3a b3 00 04 3b b7 c4 10 3d 8d e6 ec bb
       0.0018043349 0.0020142018 0.035343852 -0.007229632
000230 10 e0 4d 3d 74 86 b3 3c f7 7d d1 3c 62 f5 43 bd
       0.05026251 0.021914698 0.02557276 -0.047841437
000240 02 6d cb 3c 90 26 1f 3d a3 ab a3 3c 3d 7d 24 3d
       0.024832252 0.038855135 0.019979304 0.0401585
000250 83 f9 cf 3c 5f 11 02 3d 0c d2 36 3d b9 e9 54 3d
       0.025387531 0.031754848 0.04463391 0.051980708
000260 78 07 00 bd 08 79 54 3d 96 e7 41 bd 72 0a 08 bc
       -0.031257123 0.051873237 -0.04734 -0.008303272
000270 c4 e1 62 bc 56 74 4f bd 6d 19 cc bc 93 2a 05 3d
       -0.013847772 -0.050648056 -0.024914468 0.032511305
000280 84 b7 82 3c 3c 3a ac 3a 71 a2 7e bd 87 82 50 3d
       0.015956648 0.0013139914 -0.062166635 0.05090573
000290 47 02 a4 bc 43 79 75 3a 90 e3 84 3c 26 fc ab ba
       -0.020020617 0.00093640777 0.016221792 -0.0013121411
0002a0 42 6c e2 bc fa e9 0b 3c e6 e7 b1 bd 62 d7 95 bc
       -0.027639512 0.008539671 -0.08686809 -0.01829118
0002b0 1c 1e 22 3c 14 01 40 3c 2a 28 01 3d 8a ac d1 bb
       0.009894874 0.011719007 0.031532444 -0.006398742
0002c0 a0 28 cd 3b f5 3a a7 3c 04 b2 83 bc 43 3a 7e bc
       0.0062609464 0.020413855 -0.016076095 -0.01551682
0002d0 20 44 ea 3c 96 42 2e bb fc f4 ad 3b a8 e4 e4 3c
       0.028596938 -0.0026589981 0.0053087454 0.027941063
0002e0 51 8e 1c bd 2f 4a 52 bc 5f 86 24 3c fe e6 1c bd
       -0.03822166 -0.01283507 0.010041802 -0.03830623
0002f0 bc 5b 86 bc 42 fe 77 bd 19 87 a6 3d e8 48 6c bc
       -0.016401164 -0.060545214 0.081312366 -0.014421679
000300 79 27 4d bd 9d 82 b2 3d 6f cb 57 bd 65 c6 27 3c
       -0.050086472 0.08716319 -0.052684244 0.010240172
000310 1c 3a cd bc 63 f0 8e bd cc 9c 43 bd 34 a1 a9 bb
       -0.025052123 -0.06979444 -0.047756955 -0.0051766876
000320 41 f8 87 bd c3 f9 34 3d 91 75 38 3d 23 ac 7f 3b
       -0.066391475 0.044183504 0.045033995 0.0039012514
000330 a2 39 2a bb 84 60 08 3c f3 2c 8b bd 6e 0f 11 3c
       -0.0025974293 0.008323792 -0.06795683 0.008853776
000340 38 ef 83 3c 00 0e 9f 3d f0 a9 0f bd e5 fd 35 bd
       0.01610528 0.07766342 -0.035074174 -0.044431586
000350 67 74 9a 3c 7d 46 93 3c b0 fe 3b bb fa bc 35 3d
       0.018854333 0.017977947 -0.002868574 0.044369675
000360 b0 21 82 3d 3c 77 75 3d 29 87 02 bc 3c 8f 1f 3d
       0.06354082 0.059928164 -0.007966795 0.03895496
000370 64 b6 9d 3c 16 6c 72 3c 8c 13 86 3b 8f 8a 00 3d
       0.01925201 0.0147962775 0.0040916856 0.03138214
000380 7c 7b 7e 3d 4c 40 16 3d f2 47 6c 3d 4d 19 db 3a
       0.062129483 0.036682412 0.0576858 0.0016715914
000390 5c 81 1c bc 4a 2b a0 3d 82 bc 6d bc e5 c2 bf 3c
       -0.009552326 0.07820757 -0.014510276 0.023408363
0003a0 ac 45 bf bc ef 04 c4 b9 76 50 a8 39 6e cf aa 3c
       -0.023348652 -0.0003738771 0.00032103405 0.020850863
0003b0 20 5a 54 bd 70 4f 1e 3d 7e 44 5c 3d c9 e6 2c 3d
       -0.051843762 0.038649976 0.053776257 0.04221228
0003c0 76 66 e3 bc d9 91 ac bb 12 f7 4a bd c2 39 f8 bc
       -0.027758818 -0.00526641 -0.04955203 -0.030300979
0003d0 7e 67 ab 3d e7 d9 4f bd e1 4a 52 bc c5 f0 29 3d
       0.08369349 -0.050744917 -0.012835235 0.04148938
0003e0 94 f3 bd bc 4f bd 89 3d aa ba 58 3c 7a 40 53 bd
       -0.023187436 0.06725561 0.013228098 -0.05157516
0003f0 a2 fe 07 bd d2 cb 95 bc 5b 31 2e bd 54 9e fe bb
       -0.03320182 -0.018285666 -0.042527538 -0.007770339

conv_layers.6.0.conv.bias f4 [16]
000000 d5 3b 57 3c c2 9d 25 3c 4d 13 9f 3d a1 78 3f 3b
       0.013136824 0.010108413 0.07767353 0.0029216188
000010 50 8d 20 bd 8c d1 8d bd d1 79 8d 3d a2 7f 39 3d
       -0.039197266 -0.069247335 0.06908 0.045287736
000020 f1 80 91 3c dc 8c 7b 3d e4 ad 81 3c 3b 0b 9b 3d
       0.01776168 0.06141363 0.015829988 0.075705014
000030 cf 2e c9 3c 22 36 50 bd 8c f0 5a 3d 96 20 d4 3c
       0.024558453 -0.050832875 0.05345206 0.025894444

linear_layers.0.weight f4 [64, 400]
000000 f6 55 33 3c 76 db 25 3d 5b dd 5e 3c b1 e0 1c 3d
       0.010945788 0.040492497 0.01360258 0.03830022
000010 16 e2 ff ba 26 49 20 bc 99 72 b0 bc cd 7a cb bc
       -0.0019522335 -0.009783065 -0.02153902 -0.02483883
000020 f9 01 a5 3c 9b 14 1d bd d8 66 c7 ba d2 69 fd 3c
       0.020142542 -0.03834973 -0.0015213145 0.030934248
000030 1e 81 12 3d 59 45 0a 3d 05 e6 a3 bd 73 f4 81 3c
       0.035767667 0.03375754 -0.08002857 0.015863633
000040 55 ba a9 3b 7c f2 33 3c 0f 9a 38 bc 94 e2 af bc
       0.005179683 0.010983106 -0.011267199 -0.021470346
000050 2d be 12 3d ac 4c 8d bc bb 60 d1 3c c4 89 4c bd
       0.035825897 -0.017248474 0.02555882 -0.04993607
000060 e4 34 99 bc a5 d8 43 3d ce 86 b9 3a 29 bb c6 bc
       -0.018701978 0.04781403 0.0014154555 -0.024259167
000070 c9 c5 65 bc 02 6f 44 3c 5a db aa 3d ca 29 a8 bc
       -0.014024206 0.011989357 0.08342619 -0.02052774
000080 83 38 4f 3c 04 52 2e 3d 6e 72 5b bd f6 85 de 3c
       0.012647751 0.042558685 -0.053575926 0.027163487
000090 b2 f2 3d bc 5a d6 11 3d 7d e7 37 3d 54 c9 85 bb
       -0.011593508 0.035604812 0.0448985 -0.004082838
0000a0 ff 3a f6 3c 36 86 15 3c 9c f3 1e 3d 46 59 13 3d
       0.030057428 0.009126237 0.038806543 0.03597381
0000b0 2c b5 94 bd 52 08 33 bc 6f 82 8f 3c 42 20 e1 3c
       -0.07261118 -0.010927277 0.01751825 0.027481202
0000c0 54 8f 2b 3d 74 f5 a8 3c c0 49 02 bd fc 87 fb bc
       0.041884735 0.020624854 -0.031808615 -0.03070449
0000d0 79 51 a3 bc 64 43 7c 3b aa 5d 91 bc cf e2 2a bb
       -0.01993631 0.0038492316 -0.017744858 -0.002607513
0000e0 fa 7c 3a bd 66 d2 e8 3c fb 85 6b 3d 92 b4 7c 3d
       -0.045529343 0.028420638 0.05750082 0.061695643
0000f0 9e 4f 9d bc 4a a0 b6 bd dd 57 18 3d 93 9b 20 3c
       -0.019203003 -0.089172915 0.037193168 0.009802717
000100 36 a0 96 3d 61 72 42 3d 35 69 20 bd 7d e4 0a 3d
       0.073547766 0.04747236 -0.039162833 0.03390931
000110 49 3b a0 3d 57 56 cc bb 2b 81 3b 3d d1 87 6b bc
       0.07823808 -0.0062358784 0.04577748 -0.014375643
000120 71 5b 45 3d dd ee 39 3d dd 40 b9 3d d6 73 b6 b9
       0.04818291 0.045393813 0.09045575 -0.0003480005
000130 ef a3 ae bb 98 ed 05 3d c8 72 10 3d a3 1a eb bc
       -0.005329601 0.03269729 0.035265714 -0.028699225
000140 8a 3b 2f bd 31 bb d7 3b 18 cf 32 bd ac b6 89 3c
       -0.04278139 0.0065835943 -0.04365453 0.016810738
000150 f2 9a 43 3c 25 e1 45 bd 28 d0 cf 3b c6 da 6a bc
       0.011938797 -0.048310418 0.006341953 -0.014334386
000160 58 87 f9 3a c9 38 e2 bc 78 db 75 bb d8 8f d7 3c
       0.0019037528 -0.027614968 -0.0037514847 0.026313707
000170 64 8e 83 bd ca 2d 6b 3c aa f9 bb 3b f8 bf 13 bd
       -0.06423643 0.014354179 0.0057365494 -0.036071748
000180 b5 b6 da 3c ad 5a a6 bd 20 7b cb bb d6 2a e7 bb
       0.02669845 -0.08122764 -0.006209746 -0.007054667
000190 f8 89 5e 3c f3 a4 64 bc 09 92 94 3d b5 2f 94 3b
       0.013582699 -0.013955343 0.072544165 0.0045222887
0001a0 f9 01 09 3c 32 ca 1e bd 58 a1 0a bd 42 07 dc bc
       0.008362287 -0.038767047 -0.033845276 -0.02685893
0001b0 2a 80 bc bb 5e 2e e6 3b b0 3e 64 bd 59 ff 41 3c
       -0.005752583 0.0070245704 -0.055723846 0.011840665
0001c0 f2 98 71 bc d9 29 bb bb 62 08 3a 3d 6c 30 a7 bc
       -0.014745938 -0.0057117757 0.04541815 -0.020408832
0001d0 f6 43 8f 3b 6c ca 07 3c 22 40 6a 3b 7a 23 4b bd
       0.0043721152 0.008288007 0.0035743793 -0.04959438
0001e0 01 e6 5f bd 41 45 68 3d a9 46 da bc 6e fc e0 bc
       -0.05466271 0.05670667 -0.026645022 -0.027464118
0001f0 dd c7 0d bc f4 ed e6 bb dd 86 22 3c c8 53 b3 bc
       -0.008653608 -0.007047409 0.009919849 -0.021890536
000200 63 c0 a4 bc f8 9b 1b bd 83 55 d6 bc dc b5 61 bc
       -0.020111268 -0.03799054 -0.026163822 -0.013776269
000210 44 f9 08 3d 0a 83 c3 3b c1 00 bc bd c6 b8 d8 3c
       0.033440843 0.005966549 -0.09179831 0.026455294
000220 0d 9f c4 bb 18 16 5a 3d 6b 69 ad bc b0 9a 43 bd
       -0.0060004056 0.053243726 -0.021168431 -0.047754943
000230 8d 4f a6 bb f4 64 c9 3c 0c da 05 bd b5 06 23 bc
       -0.005075401 0.024584271 -0.03267865 -0.00995033
000240 84 35 96 bd 97 2a 05 bc cd 19 13 3c 21 90 29 3d
       -0.07334426 -0.00812783 0.008978319 0.041397218
000250 05 c6 b4 3c a2 e9 3b bc 8f ec 96 bc 47 8d df bc
       0.02206708 -0.011469277 -0.018423347 -0.027289046
000260 42 f7 41 bd 97 01 c1 bc f5 72 99 3c 7d eb 06 bc
       -0.047354944 -0.023560328 0.018731574 -0.008234856
000270 b6 b0 b3 bb 1e 9c 43 ba 70 16 2a bd c5 0a 1c 3d
       -0.005483712 -0.0007461923 -0.041525304 0.038096208
000280 d9 6d 77 bd 55 8a 03 bd a8 11 b9 bc 71 43 b1 bc
       -0.060407493 -0.032114346 -0.022591427 -0.021638604
000290 4d 90 80 3c 66 d8 b2 3c a3 79 ff 3c af e9 64 bd
       0.015693808 0.021831702 0.03118593 -0.05588692
0002a0 67 73 99 bc ab 68 a1 3d 67 52 1b 3d 76 0e 7c 3c
       -0.018731786 0.07881292 0.037920382 0.015384307
0002b0 57 3b 92 3a 1b 45 93 3c b2 49 f8 3b 30 4e 04 bc
       0.0011156601 0.017977288 0.0075771445 -0.008075282
0002c0 ec 30 03 3d 8d 22 66 3c a1 66 bb 3c d3 89 d5 3c
       0.032029077 0.0140463235 0.022876086 0.026066696
0002d0 b0 fe 83 bc ed 20 d5 3b 91 6e ed bc 19 22 1e 3b
       -0.016112655 0.006504169 -0.028983386 0.002412921
0002e0 e9 9e fd 3c ee ad f3 bb de 87 e1 bb c6 2d 21 3c
       0.030959563 -0.0074365055 -0.0068826517 0.009837573
0002f0 43 47 2e bd 16 e9 bf bc 6d 68 26 3c 33 6b c3 3c
       -0.04254843 -0.023426574 0.010156733 0.023854828
000300 ce f0 c7 bc b3 e7 9b bc f1 ec b3 bc c8 97 b3 bc
       -0.024406817 -0.019031381 -0.021963568 -0.02192296
000310 3b 45 c0 3c 39 dc d6 bc 64 88 99 bb 98 ae 28 3c
       0.023470512 -0.026228057 -0.0046854485 0.010295533
000320 4c a5 13 bc 09 d5 45 3d ad 7a 80 3a 4d 5d 4d bc
       -0.009011578 0.04829887 0.0009802185 -0.012534452
000330 50 9c 6a 3d 93 43 81 bd 89 ad 09 bc 7d a5 d2 3b
       0.057277977 -0.06311717 -0.00840319 0.006428419
000340 82 00 91 bc 43 37 e4 3c 16 6c ba bc b2 85 16 3d
       -0.017700437 0.027858382 -0.022756618 0.036748596
000350 ed 1a f5 bc 8c fd c8 bb b3 9a f5 3c 24 85 27 bd
       -0.029920066 -0.006133741 0.029980993 -0.040898457
000360 b4 47 8f 3b 55 b7 af bc 27 f8 de 3c 51 e1 67 3c
       0.0043725614 -0.021449724 0.027217938 0.014152841
000370 17 ce c3 bb a4 ac 99 3c d7 82 ad bc d3 02 12 3b
       -0.0059754956 0.01875908 -0.021180553 0.0022279515
000380 95 ac 88 bc e2 f6 c7 bc 92 83 32 3d bb 88 93 3c
       -0.016683856 -0.024409715 0.043582506 0.018009534
000390 0e 85 ab 3c 3a 29 bd 3c 6a 38 81 bb 48 86 0d 3d
       0.020937469 0.023090947 -0.0039434927 0.03455189
0003a0 8e c3 80 bc 23 10 8b bc 40 b3 dc 3c 8b a8 af bc
       -0.015718248 -0.016975468 0.026940942 -0.021442672
0003b0 f5 e8 89 3c a7 92 8d 3c ad 01 03 bd 4e 84 3a 3d
       0.016834715 0.017281843 -0.03198402 0.04553633
0003c0 a5 54 dd 3c 2e 19 f5 bc 80 46 df 3c 18 72 51 bd
       0.0270179 -0.029919233 0.027255297 -0.0511342
0003d0 79 cc e5 3c dd b2 eb 3b 3a 1a ca bc e7 0a 81 bd
       0.028051602 0.007192953 -0.024670709 -0.063009076
0003e0 ba aa 79 bb 37 ea 46 3c ad 63 55 3d 08 fc d0 bc
       -0.0038096146 0.012140802 0.05209701 -0.025510803
0003f0 32 b8 10 3c 7f f3 e7 bc 86 7a 12 bc 5c 14 70 3d
       0.008832978 -0.02831435 -0.008940345 0.058613166

linear_layers.0.bias f4 [64]
000000 3d cb 25 3c 21 57 7a 3c 28 fd 0c 3d 50 8b 85 3d
       0.010119257 0.015279562 0.034421116 0.065207124
000010 f8 27 21 3c d6 6c 65 3c 40 91 1b bd be 87 df 3b
       0.009836189 0.014002999 -0.037980318 0.0068216017
000020 de 3f c2 ba de 8d c9 3c 92 0f d1 3c a0 28 22 bd
       -0.0014820059 0.02460378 0.02552012 -0.039589524
000030 7b 44 bc 3c 16 be 25 bc aa 0e 1b 3c 05 7f 49 bd
       0.022981873 -0.010116121 0.009463945 -0.0491934
000040 2c 02 e4 3c df 9c 5c 3d a6 27 1d 3c 0d 4f 0d 3c
       0.027833067 0.05386054 0.009591972 0.008624804
000050 43 87 5e 3d d0 9c a0 3a 82 a0 51 3d b5 9c 93 bc
       0.054328214 0.0012253765 0.051178463 -0.01801906
000060 63 8a ff bc 4d 48 62 bc a3 bd 57 3b 1d b3 8a 3d
       -0.031193918 -0.013811183 0.0032919429 0.067724444
000070 95 d8 44 bb ab 7f fa ba 63 ef 69 3d bb ce 0f 3d
       -0.003003632 -0.0019111534 0.057113063 0.035109263
000080 2a 5e 72 3d bc 57 d0 bc 7c 6a 80 3d 1f 00 c6 3b
       0.059171833 -0.02543246 0.0627031 0.006042495
000090 7e 81 17 bb e7 7f 2b 3d 77 b3 0e 3d 1d 20 e7 3c
       -0.0023117955 0.041870024 0.03483912 0.028213555
0000a0 af 01 9e bc a8 b9 30 3d 76 b3 34 3d 84 25 7e 3d
       -0.019287912 0.043145806 0.04411646 0.062047496
0000b0 60 16 a5 bc 8d 92 fd 3c 2e d1 22 3c a9 06 b3 bc
       -0.02015227 0.03095367 0.009937568 -0.021853762
0000c0 4a a8 98 3d 43 7f ff ba ae 25 e2 3c ee 13 5e 3d
       0.074539736 -0.0019492883 0.027605858 0.054218225
0000d0 c8 7e 80 38 b4 46 39 3d db 41 14 bd c5 40 68 3d
       6.1271305e-05 0.045233443 -0.036195617 0.056702394
0000e0 e9 ab 87 3d 46 75 8f 3c 31 05 35 3d 9c a7 1d 3b
       0.06624586 0.017511975 0.044194404 0.0024056202
0000f0 b1 6c f0 3c b0 0a 7e 3c c1 eb 04 3c a2 e8 0b bd
       0.029348703 0.015505478 0.008112849 -0.034157403

linear_layers.3.weight f4 [4, 64]
000000 a8 0b 9e 3d 3f e4 6e bd ae f9 b0 3c 6d b8 8a bd
       0.07717067 -0.05832314 0.021603432 -0.06773458
000010 37 44 f9 3d 84 7f 00 bd a7 11 99 3d a4 54 d6 3d
       0.12171214 -0.03137161 0.0747407 0.10465363
000020 24 99 ba bd b7 e7 6f bd 8f d7 e2 bd bd 62 e6 3d
       -0.091112405 -0.05857059 -0.11076271 0.112493016
000030 02 69 5e 3b e2 91 bb bd 55 ed 92 3c e7 71 a2 3d
       0.0033937101 -0.09158684 0.017935434 0.079318814
000040 86 c7 7a 3c ba a9 cc bd dd a3 b1 bd 64 f5 03 3d
       0.015306359 -0.0999331 -0.086738326 0.032216445
000050 9e 66 ab 3c fa 73 bf 3d 3c f5 f7 bd 99 33 d1 3d
       0.020922955 0.09348293 -0.121073216 0.102149196
000060 9b 07 f3 3d aa e4 a4 bd 0c 38 bb bd 80 b8 87 b9
       0.11866685 -0.08051427 -0.091415495 -0.0002588667
000070 77 24 8c 3d a4 7d 90 bd 7b 99 47 bd e8 8a a1 ba
       0.068428926 -0.07055214 -0.048730355 -0.0012324722
000080 de 16 1b 3d be 6e a7 bd 77 8c 3b bd 45 06 8e bd
       0.037863605 -0.08175419 -0.045788255 -0.069347896
000090 9d 57 b3 bd 14 59 f1 3d 12 2d a4 bd b3 7e 9f 3d
       -0.08756945 0.117845684 -0.08016409 0.07787838
0000a0 dc 19 8e 3d db 7e 84 3d e6 e6 06 be 36 d9 04 3e
       0.06938526 0.06469508 -0.13174018 0.12973484
0000b0 2d 36 bd bc 9e 52 08 bd 00 d9 9f bd 6d 93 12 bc
       -0.023097122 -0.033281915 -0.07805061 -0.008946282
0000c0 33 0d f9 bd 68 68 c6 bd f4 1f ef 3d 22 69 20 bd
       -0.12160721 -0.09687883 0.116760164 -0.039162762
0000d0 68 83 a2 bd 68 e8 e8 bd 86 c1 08 3d 9b d3 06 bd
       -0.0793522 -0.11372453 0.033387683 -0.032916646
0000e0 c6 c1 74 3d e6 08 88 3d 89 c7 d9 3d fe be 25 3b
       0.05975511 0.06642322 0.106337614 0.0025290842
0000f0 8a 87 26 bd dc e6 8f 3d c9 49 63 3d dc 83 96 3d
       -0.040656604 0.07026455 0.05549029 0.07349369
000100 c2 5b 09 be b3 5f 04 bd 4f ef f6 bd ca e5 03 3e
       -0.13413909 -0.03231783 -0.12057363 0.12880626
000110 60 6c cd bd b4 f9 ae bd e4 ba 59 bd cd a9 95 bd
       -0.100304365 -0.08543721 -0.05315675 -0.073077776
000120 0a e7 8a 3d f2 66 f7 3b fc d8 76 3c 52 db 51 3d
       0.067823485 0.007550114 0.015066382 0.05123455
000130 78 34 d7 3d e9 50 94 bb aa 3f cf 3d 1a f9 60 bd
       0.105080545 -0.004526247 0.10119565 -0.05492506
000140 19 02 1e bd cc 4d 55 ba 1e 28 bb bd 79 d8 45 3c
       -0.03857622 -0.0008136898 -0.09138511 0.012075537
000150 bb b3 b7 3c d4 ce 99 3d 10 9c 38 bd 17 3c cc 3d
       0.02242457 0.075101525 -0.045070708 0.09972399
000160 dc 8c b9 bc 4a db be bd e7 31 2b 3d 44 bb c7 bd
       -0.022650175 -0.0931917 0.041795637 -0.09752515
000170 00 a8 4a bd 39 e8 de 3c 05 1b 18 3d 6a f7 93 3d
       -0.049476624 0.027210342 0.037135143 0.07224925
000180 54 c5 9d ba 69 cc 64 bd a1 a9 14 3e d5 6d 3a 3d
       -0.0012036958 -0.055859003 0.14517833 0.0455149
000190 1f 3a e5 3b 89 68 8f ba d0 02 98 bd b3 6c d2 3b
       0.006995454 -0.0010941188 -0.074224114 0.0064216494
0001a0 5c 8f 4c 3d e8 5f 11 bd 7c d5 3e bd eb d2 08 3d
       0.049941406 -0.035491854 -0.046590313 0.033404272
0001b0 5e b7 84 3d dc 82 f0 bd fa c6 be bd 4e 4d 02 3e
       0.06480287 -0.117437094 -0.093152955 0.12724802
0001c0 ed ab 1c 3d f4 16 44 bc 6b 25 10 bd 8c 97 55 3d
       0.0382499 -0.011968363 -0.035191935 0.05214648
0001d0 2d d7 9b 3d 9e 55 9d 3d 86 0c 44 3d 84 58 a0 3d
       0.07609401 0.07682346 0.047863506 0.07829383
0001e0 68 2f 0f be fe 95 dd bd 47 69 ab 3d f4 df 35 be
       -0.13982928 -0.10819624 0.083696894 -0.17761213
0001f0 95 47 d1 bc d9 7e 01 be 8a 83 58 3d ad 24 79 bd
       -0.025546828 -0.12646045 0.05285982 -0.060825992
000200 bf 97 c7 bd 4f 8e 70 bc 10 f3 22 bd 92 de 93 bd
       -0.0974574 -0.0146823665 -0.039782584 -0.07220186
000210 fd 9b 29 3c 3c dd 84 3d 4f 7d 91 bd e3 f1 4a bd
       0.010352132 0.064875096 -0.07103979 -0.049547087
000220 dd 31 e4 bd e4 f3 a7 bd ad de b6 bc c3 37 3c bd
       -0.11142323 -0.08200815 -0.022322977 -0.045951616
000230 8f 25 2d 3d 25 f7 88 bd 3b 21 49 3d c5 de c5 bd
       0.042272147 -0.06687764 0.049103957 -0.096616305
000240 9d a9 af bc 1f 99 a8 bd a0 8b 99 3d 8f a8 fe 3c
       -0.021443183 -0.082323305 0.074973345 0.031086234
000250 d4 12 f0 3d f0 cb 79 3d 5a 90 d5 bd e1 f3 33 bd
       0.11722341 0.060985506 -0.104279235 -0.043933753
000260 a8 d9 87 bc ab 0e fb 3c f2 d1 4b bd 16 d3 72 bd
       -0.016583279 0.030646643 -0.049760766 -0.05928334
000270 de 3d 33 3d eb 45 a3 3d e1 8b 6e bd cb b3 8e bb
       0.043760173 0.0797232 -0.058238868 -0.004354929
000280 cc 9b ae 3d 71 d4 48 bd 9e ad 91 3c 4a af d7 bd
       0.0852581 -0.049030725 0.017782982 -0.105314806
000290 14 f7 4c 3c 66 32 8a 3d 6f 44 de 39 82 33 dd 3d
       0.01251008 0.06747894 0.00042394127 0.1080084
0002a0 32 41 04 3e ad 6c db 3d 2d 18 e4 bd 0d 31 96 3c
       0.12915495 0.10714088 -0.11137424 0.018333936
0002b0 a6 89 bb bd 27 e3 e3 3d 1e 18 e6 bd 48 04 01 3e
       -0.09157114 0.1112731 -0.11235069 0.1259929
0002c0 db 5f 6f 3d f8 d6 4b bd cd 16 ce 3d 11 ef f8 bd
       0.058441024 -0.049765557 0.10062943 -0.12154973
0002d0 4a 1e b3 bd 0b 04 74 bd d6 d8 e2 bd c9 42 13 3e
       -0.087460116 -0.05957417 -0.110765144 0.14380945
0002e0 46 d1 9a 3d a3 f7 8a 3d 17 07 80 3d 5f 18 cb 3d
       0.07559447 0.06785514 0.06251352 0.09916758
0002f0 9a af 4b bd 62 61 94 3d cc c4 c8 3d 16 e6 a9 bd
       -0.049728014 0.07245137 0.09803161 -0.082958385
000300 10 31 17 bd ad 5a 7c bd 0a ad e5 bd a5 04 df 3d
       -0.036912024 -0.061609913 -0.11214645 0.10889558
000310 d2 48 b3 bd be b8 b7 3d dd ff 7b 3b 22 bf aa bd
       -0.08754124 0.08970784 0.0038452067 -0.08337237
000320 fa 87 71 3d 9f e7 c0 bd 3c c2 30 3d 35 c4 86 3d
       0.058967568 -0.09419178 0.043153986 0.06580392
000330 e7 4e e7 3d 18 6a 7d 3d bc 21 82 3d 87 78 e9 3c
       0.11294346 0.061868757 0.063540906 0.028499855
000340 e8 b5 c1 bd 95 61 49 3d 9c c6 eb bd 6c 3c 91 3d
       -0.09458524 0.049165327 -0.11512491 0.07091603
000350 46 cd bb 3d 07 43 95 bc d4 a6 32 3d 64 e9 6e bc
       0.09170012 -0.018220438 0.04361613 -0.014582012
000360 ce 94 0b bd cd 5c 98 bc 35 7c b7 3d 46 77 0d be
       -0.034077458 -0.018598938 0.089592375 -0.1381503
000370 e2 64 23 bc 64 da 0c bd 0a 7f a7 bd d1 d6 c0 bd
       -0.009972783 -0.03438796 -0.08178528 -0.09415973
000380 61 84 d7 bd 71 48 b5 3d 32 ab e1 3d 46 2d 18 bc
       -0.10523296 0.08851708 0.11018981 -0.009288138
000390 d9 b4 e5 bd a4 fd e3 bd de 76 a7 bd 96 8e 4a 3d
       -0.112161346 -0.111323625 -0.08176969 0.049452387
0003a0 3a 21 c4 3d c7 89 c2 bc 46 b4 4f bd 26 98 3c bd
       0.0957665 -0.023747338 -0.05070903 -0.046043538
0003b0 57 82 aa 3d 6a c2 10 be 08 b0 cc bd 25 3e eb 3d
       0.083256416 -0.14136663 -0.09994513 0.114864625
0003c0 c3 46 ee bd fc 4b 9e bc f8 87 da bc 1d 1b 52 bc
       -0.116345905 -0.019323342 -0.026676163 -0.012823847
0003d0 0a a6 12 bd 58 15 bc bd 36 43 0b 3e 53 e0 94 bd
       -0.03580288 -0.091837585 0.13599858 -0.07269349
0003e0 1d f2 c1 bd 39 00 6c 3d 6f 21 89 3d 79 2f e9 bd
       -0.094700076 0.0576174 0.0669583 -0.11386008
0003f0 9c c2 32 3d bc 90 7a bc 2c 57 2d 3d e2 41 05 3e
       0.043642625 -0.015293296 0.04231946 0.13013414

linear_layers.3.bias f4 [4]
000000 54 57 a1 3d 42 15 75 bd 82 4c 19 3c 41 9d a8 3d
       0.07877985 -0.059834726 0.00935662 0.08233119
